intermediary/model_18050.pth (torch, 356400 bytes, 5 tensors)

embed.weight f4 [59, 128]
0	0xbeb0e800	-0.34552002
1	0x3e63b3ad	0.2223651
2	0xbea85145	-0.32874504
3	0xbeade2ad	-0.33962002
4	0x3eb8bc21	0.3608103
5	0x3ec8de7e	0.39232248
6	0xbdbc931f	-0.092077486
7	0xbee44351	-0.44582608
8	0x3edafa64	0.42769158
9	0x3eaa0eb8	0.33214355
10	0xbe7784b9	-0.24171723
11	0xbec6de9e	-0.38841718
12	0x3a84a24d	0.001011917
13	0xbe6fb1b9	-0.2340764
14	0xbeb1095b	-0.3457745
15	0x3ebb1196	0.36536855
16	0xbe3fc0b0	-0.18725848
17	0xbedf4541	-0.43607524
18	0xbeb3b08d	-0.35095635
19	0x3ec82a7c	0.39094913
20	0x3ecee4a5	0.40408817
21	0x3e7f7c4a	0.24949756
22	0x3e64023a	0.22266474
23	0x3de41be9	0.11138136
24	0x3eaa04dd	0.33206835
25	0x3ed4af98	0.41540217
26	0xbeb2ae57	-0.34898636
27	0x3e56572a	0.20931688
28	0x3b8a9e0c	0.0042302664
29	0x3ed1b078	0.40954947
30	0x3ed45717	0.41472694
31	0xbe0d050b	-0.13771455
32	0xbed83a82	-0.42232138
33	0xbec61c9d	-0.38693705
34	0xbe97bfe5	-0.2963859
35	0xbe8633b7	-0.2621133
36	0x3ea7a77f	0.32744977
37	0x3efa2f7e	0.4886436
38	0x3e4365e5	0.19081838
39	0xbd8b4bf8	-0.06801599
40	0xbdbca5a3	-0.0921128
41	0xbea51f66	-0.32250518
42	0x3edff3f0	0.43740797
43	0x3e8b6c09	0.27230862
44	0x3ec7175f	0.38885018
45	0x3d955f10	0.07293522
46	0x3ed8768d	0.42277947
47	0x3ef66af1	0.48128465
48	0xbebc6c1e	-0.36801237
49	0xbe9045e5	-0.28178325
50	0x3efae857	0.49005386
51	0x3ec55587	0.38541815
52	0xbead549a	-0.33853608
53	0xbec75381	-0.38930896
54	0x3ea820fa	0.3283766
55	0x3e958f19	0.29210737
56	0xbec1bd2f	-0.37839648
57	0x3e45dea7	0.19323216
58	0xbe805eba	-0.2507227
59	0x3eb6de56	0.35716504
60	0xbea2ade8	-0.31773305
61	0x3ebca6c3	0.3684598
62	0xbee03a77	-0.43794605
63	0xbec2fd9c	-0.38084114
64	0xbeac83ce	-0.3369431
65	0x3e84a3d5	0.25906244
66	0xbe3d312b	-0.18475787
67	0x3eb2a5ec	0.34892213
68	0x3ebb6db3	0.3660713
69	0xbee76131	-0.4519134
70	0xbe5b906c	-0.21441811
71	0xbecf90ae	-0.4054007
72	0xbed77653	-0.42082462
73	0xbed6ed58	-0.41977954
74	0x3e613ed2	0.2199662
75	0xbe94eee5	-0.29088512
76	0x3ef21d4c	0.47287977
77	0x3ea81d54	0.32834876
78	0x3e6a95f1	0.2290876
79	0x3ed6bb68	0.41939855
80	0x3eab580c	0.33465612
81	0xbeaa84a1	-0.33304313
82	0xbe7bf705	-0.24605949
83	0xbef91b32	-0.4865356
84	0x3ed0de1f	0.40794465
85	0xbea94ab7	-0.33064815
86	0xb988c14b	-0.00026083956
87	0xbec3a388	-0.38210702
88	0xbee075a6	-0.4383976
89	0x3ec69b00	0.3879013
90	0x3ea5b86d	0.32367268
91	0xbebe233a	-0.3713625
92	0x3ec8b9dd	0.39204302
93	0xbef28830	-0.47369528
94	0xbeb8e6fd	-0.3611373
95	0x3eb09acc	0.344931
96	0x3e87191d	0.26386347
97	0x3ee4a9dd	0.44660845
98	0xbe932524	-0.28739274
99	0x3ea387b0	0.3193946
100	0x3e70f3f1	0.23530556
101	0xbee30d68	-0.44346166
102	0xbe9190e2	-0.2843085
103	0x3e566fb8	0.20941055
104	0x3eddb484	0.43301785
105	0xbecde507	-0.40213796
106	0x3ee03db9	0.4379709
107	0x3ee3855e	0.4443769
108	0x3e92563d	0.2858142
109	0xbe98cef1	-0.29845384
110	0xbed9e121	-0.42554572
111	0xbe8111a8	-0.25208783
112	0x3eaebe27	0.3412945
113	0xbe675455	-0.22590764
114	0xbedde24c	-0.43336713
115	0xbed76b53	-0.4207407
116	0x3eb92872	0.3616367
117	0xbed00546	-0.40629023
118	0x3e041855	0.12899907
119	0xbe957276	-0.2918889
120	0x3eddf03b	0.43347344
121	0xbeabdd8d	-0.33567467
122	0x3eb6a186	0.35670108
123	0x3eb296c5	0.34880653
124	0xbed603b8	-0.41799712
125	0x3e882561	0.26591018
126	0x3ede27b4	0.43389666
127	0x3ef58afb	0.47957596
128	0x3e3c1c2f	0.18370126
129	0x3ea8e5ae	0.32987732
130	0xbe05d912	-0.13071087
131	0xbeea4ed6	-0.45763272
132	0xbebe28ef	-0.37140605
133	0xbe4db824	-0.20089775
134	0xbdff3c75	-0.12462703
135	0xbed47b1c	-0.41500175
136	0xbe2fc1a4	-0.17163712
137	0x3ee1caf9	0.44100168
138	0xbec70467	-0.38870546
139	0x3e646262	0.22303155
140	0x3ee14d53	0.44004306
141	0x3f0035d3	0.5008213
142	0xbea36c70	-0.3191867
143	0xbc73cde2	-0.014880629
144	0x3e7578ff	0.23971938
145	0x3d48a51f	0.048985597
146	0x3ec62584	0.38700497
147	0xbec3adc7	-0.3821852
148	0x3ec75279	0.3893011
149	0xbec1952b	-0.3780912
150	0xbed5a487	-0.41727087
151	0xbeaaed13	-0.33383998
152	0xbe59d7d9	-0.21273746
153	0xbdf317bf	-0.118697636
154	0x3e99663f	0.2996082
155	0xbeed509d	-0.46350566
156	0xbeebe9e7	-0.4607689
157	0xbe4fb59d	-0.20284124
158	0xbe6ce801	-0.23135377
159	0x3ec24d17	0.3794944
160	0x3eb916b7	0.36150143
161	0xbee9d865	-0.45672908
162	0x3ef93dde	0.48680013
163	0x3ed2a28b	0.41139635
164	0xbecba05a	-0.39770776
165	0xbeb1338d	-0.34609643
166	0xbede37ca	-0.4340194
167	0x3ec419b6	0.38300866
168	0x3ee92fbd	0.45544234
169	0x3ef47e2f	0.4775252
170	0xbecbb865	-0.3978912
171	0x3ecd2ece	0.40074772
172	0xbe8be4fe	-0.27323145
173	0xbed6141e	-0.41812223
174	0x3f01c52d	0.5069149
175	0x3eb97107	0.36219046
176	0xbdf07df1	-0.117427714
177	0xbee48bac	-0.4463781
178	0x3ed23ae7	0.41060564
179	0x3ec6833f	0.38772008
180	0xbed4ef67	-0.415889
181	0x3e687b5d	0.2270331
182	0xbe8f49dc	-0.27986038
183	0x3e9cea93	0.30647716
184	0xbeb00cfc	-0.34384906
185	0xbdbc96af	-0.09208428
186	0x3ede1a11	0.43379262
187	0x3dd32be3	0.10311105
188	0x3ec2c0a1	0.3803759
189	0xbea33644	-0.3187734
190	0xbed3de78	-0.41380668
191	0xbea1a62b	-0.3157209
192	0xbdc81403	-0.09769442
193	0x3e9d078d	0.30669823
194	0x3edfb371	0.4369159
195	0x3ee550af	0.4478812
196	0xbecc2fa5	-0.398801
197	0xbed6eb93	-0.41976604
198	0x3ee60c5d	0.44931307
199	0x3ec37e8c	0.38182485
200	0x3ec4e147	0.38453123
201	0x3dda6a2f	0.10664784
202	0xbeccaf6a	-0.3997758
203	0xbec32d93	-0.38120708
204	0xbe6185b6	-0.22023663
205	0x3e8e1990	0.27753878
206	0xbea00be9	-0.31259087
207	0x3e0ba0ae	0.13635513
208	0xbf003df7	-0.5009455
209	0xbea01efd	-0.31273642
210	0x3d4f25c5	0.05057313
211	0xbed8d1a3	-0.4234744
212	0xbec44fbf	-0.3834209
213	0xbe896c27	-0.26840326
214	0xbeb1e0e8	-0.34741902
215	0xbec67f6c	-0.3876909
216	0x3eba4136	0.36377877
217	0xbed358c1	-0.4127865
218	0xbedf05fb	-0.4355925
219	0xbe05e704	-0.13076407
220	0x3e700428	0.23439085
221	0xbee58ef0	-0.44835615
222	0x3ebbf4ff	0.36710355
223	0x3e7bc68b	0.24587457
224	0xbdd9f96a	-0.10643275
225	0xbe668fb3	-0.22515754
226	0x3e6cbb29	0.23118271
227	0xbe86e58b	-0.26347002
228	0xbec17851	-0.37787107
229	0x3e831bab	0.25607046
230	0xbe43b79d	-0.19113012
231	0xbec3c5d4	-0.38236868
232	0xbe6eb8b5	-0.23312648
233	0x3ebb3d75	0.36570325
234	0x3eed7f21	0.46386054
235	0x3e92818b	0.28614458
236	0xbed773f6	-0.4208066
237	0x3e94ce52	0.2906366
238	0x3eb09afa	0.34493238
239	0xbef4096b	-0.47663435
240	0xbed3b383	-0.41347894
241	0x3edc6309	0.43044308
242	0x3e5ec7dd	0.2175593
243	0x3ed078bb	0.4071711
244	0xbed086f3	-0.40727958
245	0xbe528216	-0.20557436
246	0x3ead35f1	0.33830217
247	0xbeb6ced3	-0.3570467
248	0xbe9036f6	-0.28166932
249	0x3ed2487b	0.41070923
250	0x3eea2337	0.45729992
251	0xbe6faa93	-0.23404913
252	0xbe82a0cf	-0.25513312
253	0xbeb2b6b2	-0.3490501
254	0x3ed95215	0.42445436
255	0xbec0a97f	-0.37629315

linear1.weight f4 [256, 256]
0	0xbe06e65c	-0.13173813
1	0xbe132b4a	-0.14371982
2	0x3e265af6	0.16245636
3	0x3e05842c	0.13038701
4	0xbe0efb73	-0.13963108
5	0x3d5e3475	0.054249246
6	0x3e2e56ec	0.17025346
7	0x3c076d9a	0.008265877
8	0xbe5b0c1d	-0.2139134
9	0xbd2a22cf	-0.041537102
10	0x3e3376cd	0.17525788
11	0xbe20f106	-0.15716943
12	0x3c6ad76e	0.014333589
13	0x3b9f222c	0.0048563685
14	0xbe1f210a	-0.15539947
15	0x3e351b69	0.17686237
16	0x3d8f2b96	0.06990735
17	0x3e156953	0.14590959
18	0x3e596638	0.212304
19	0x3deb7842	0.11497547
20	0xbda94ac1	-0.08266211
21	0x3dc8738e	0.09787665
22	0x3cebc733	0.028781509
23	0x3e0831f7	0.1330031
24	0xbcd22a51	-0.025654944
25	0xbe413bde	-0.18870494
26	0xbe34c116	-0.17651781
27	0xbdad5509	-0.08463485
28	0x3de99a8a	0.11406429
29	0xbaa379f2	-0.0012472256
30	0xbdd30c6b	-0.10305103
31	0xbbc2fde0	-0.0059506744
32	0xbcea7aa6	-0.028622936
33	0xbce8915c	-0.028389625
34	0x3adf3e77	0.0017032166
35	0x3e4209be	0.18949029
36	0x3daf194a	0.085497454
37	0xbdfa8e1b	-0.12234136
38	0x3e5aee29	0.21379913
39	0xbd634684	-0.05548717
40	0x3b11a9a8	0.0022226367
41	0x3c8e4212	0.01736549
42	0xbe1d879e	-0.15383765
43	0xbc693b62	-0.014235349
44	0xbe167a79	-0.14695157
45	0xbe10bcd4	-0.14134532
46	0xbdf3cfc5	-0.11904863
47	0x3d087c21	0.033321504
48	0xbe32bbf6	-0.17454514
49	0xbdaa0a45	-0.0830274
50	0xbd3a3574	-0.045461133
51	0xbe387967	-0.18015061
52	0x3d57bc39	0.052669737
53	0xbe16f7e0	-0.14742994
54	0xbe2992a7	-0.1655985
55	0xbcce6bcf	-0.025197892
56	0x3d5a90de	0.053360812
57	0x3b8253a5	0.0039772564
58	0x3e044a01	0.12918855
59	0x3d82964f	0.06376325
60	0x3e27a00a	0.16369644
61	0xbd32ea57	-0.043680515
62	0x3e1f9848	0.15585434
63	0x3d9f1e2b	0.07769426
64	0x3e2abbda	0.16673222
65	0xbdeeb90b	-0.11656388
66	0xbe28aaf5	-0.16471465
67	0xbe5af745	-0.21383388
68	0xbd4e5e7e	-0.050383084
69	0xbd546029	-0.051849518
70	0xbc0345c3	-0.008012238
71	0xbdb05d41	-0.08611537
72	0xbdf2ac43	-0.118492626
73	0xbe328968	-0.17435229
74	0x3e1f3a26	0.15549526
75	0x3e49ff23	0.19726233
76	0xbe4dc9ec	-0.20096558
77	0xbd41c7b6	-0.0473096
78	0xbcd002c8	-0.025391951
79	0x3e0da8d8	0.1383394
80	0xbe0444a1	-0.12916805
81	0x3e16ca35	0.14725573
82	0x3e373c72	0.17894152
83	0x3e3dbd21	0.18529178
84	0xbd768823	-0.060188424
85	0x3d828bc3	0.06374314
86	0x3d511528	0.051045567
87	0x3dc4a5d0	0.09601939
88	0x3e06be8d	0.13158627
89	0xbe1c4444	-0.15260416
90	0xbe2aa4cb	-0.16664426
91	0x3e341a40	0.17588139
92	0x3d773be3	0.060359847
93	0x3daf39af	0.08555924
94	0xbd4f0186	-0.050538562
95	0x3cbdb11d	0.023155743
96	0x3c95e0a3	0.018295592
97	0xbd248e55	-0.0401748
98	0xbc6d645e	-0.014489261
99	0x3d6139ac	0.05498664
100	0xbe20e835	-0.1571358
101	0x3d11efd8	0.035629123
102	0x3d49eb03	0.04929639
103	0xbe21ed90	-0.15813279
104	0xbdccf2b2	-0.10007228
105	0x3ca0da2c	0.019635282
106	0xbd4f8f02	-0.050673492
107	0xbd31dd18	-0.043423742
108	0xbe529c13	-0.2056735
109	0xbe6513ee	-0.22370884
110	0x3d0db864	0.034599677
111	0x3e0e1437	0.13874899
112	0xbe5fdf0d	-0.21862431
113	0xbda6c07b	-0.081421815
114	0x3e19f458	0.15034616
115	0xbdba6ff8	-0.091033876
116	0x3e567a41	0.20945074
117	0x3e5d249d	0.21595998
118	0xbc8ac01f	-0.016937314
119	0x3d03679c	0.03208123
120	0x3d9d3162	0.07675435
121	0x3df49d6f	0.119440906
122	0xbe429e47	-0.1900569
123	0xbd2ba997	-0.04190978
124	0xbe0d1e37	-0.13781057
125	0xbd8674ac	-0.06565222
126	0xbd14bfbf	-0.036315676
127	0xbdf14209	-0.11780173
128	0xbbfda511	-0.0077406247
129	0x3bc6c8e8	0.0060664304
130	0xbdd43962	-0.103625074
131	0xbe2e4ec8	-0.1702224
132	0x3e37e47e	0.17958257
133	0xbe33ffc3	-0.17578034
134	0xbe0ad959	-0.13559474
135	0xbcafe710	-0.021472484
136	0x3db32fde	0.08749364
137	0x3e18ecb0	0.14934039
138	0xbe16c881	-0.14724924
139	0xbdaeb68b	-0.08530911
140	0xbe65c1cd	-0.2243721
141	0xbe5d315e	-0.21600863
142	0x3e1ab9e1	0.1510997
143	0x3bf43505	0.0074526095
144	0xbe615543	-0.22005181
145	0xbdc70ca2	-0.097192064
146	0xbd622929	-0.055215035
147	0x3db8904a	0.09011896
148	0xbe438b32	-0.19096068
149	0xbce4e3fb	-0.02794074
150	0x3e21194a	0.15732303
151	0x3d3d676f	0.04624122
152	0xbe372909	-0.17886747
153	0x3dda9fa2	0.10674979
154	0xbc4e7469	-0.0126009965
155	0x3de8cbe5	0.11367015
156	0xbe1bba15	-0.15207703
157	0xbe3f9605	-0.18709572
158	0xbc7372e5	-0.014858936
159	0x3e5dc39c	0.2165665
160	0xbe527d57	-0.20555626
161	0x3e55a5ef	0.2086408
162	0xbdf521dc	-0.11969349
163	0xbbc806b2	-0.006104314
164	0xbd6aab2c	-0.05729215
165	0x3e015af4	0.12632352
166	0xbd4613b1	-0.048358623
167	0x3e586619	0.21132697
168	0xbe5ff525	-0.21870859
169	0xbdbc2c3b	-0.09188124
170	0x3d9f2207	0.07770162
171	0xbe27e432	-0.16395643
172	0x3e0c66c4	0.13711077
173	0xbcc99249	-0.024605887
174	0xbe2748c8	-0.16336358
175	0xbddbc9ca	-0.107318476
176	0x3e203442	0.15644935
177	0xbcd11d95	-0.025526801
178	0xbe3aaab7	-0.18229185
179	0x3e0168cc	0.12637633
180	0xbe11319d	-0.14179082
181	0xbdc23a9e	-0.094838366
182	0x3cc55f44	0.024093278
183	0xbd3c7609	-0.046011005
184	0x3df2f4dd	0.1186311
185	0xbe1a4a45	-0.15067394
186	0xbe506290	-0.20350099
187	0xbda7b87c	-0.081894845
188	0x3c8c7764	0.017146774
189	0xbe0ffd64	-0.14061505
190	0x3d630d0b	0.05543236
191	0x3e3d7b77	0.1850413
192	0x3d1f9eb1	0.0389697
193	0x3d56a688	0.05240491
194	0xbdcaf49d	-0.099099375
195	0xbcaa760e	-0.020808246
196	0xbde3c7aa	-0.11122067
197	0x3dc03c38	0.09386486
198	0x3d101b80	0.035182476
199	0xbdddda8a	-0.10832699
200	0xbe07db20	-0.13267183
201	0x3e17a73e	0.14809892
202	0xbe1a7a17	-0.15085636
203	0x3cb16e59	0.021659063
204	0xbd4fa34e	-0.05069285
205	0xbe4a88b4	-0.1977871
206	0xbe13728c	-0.14399165
207	0xbe46278e	-0.19351026
208	0x3e2ca655	0.16860326
209	0xbd117efa	-0.035521485
210	0xbd3be588	-0.045873195
211	0x3d9eb97e	0.077502236
212	0x3e65d2e1	0.22443725
213	0xbba516ba	-0.0050381096
214	0x3e39f4ec	0.18159837
215	0x3dbf3d5a	0.09337874
216	0xbe07ab6b	-0.13248985
217	0xbd00f498	-0.031483263
218	0x3d65fde8	0.056150347
219	0x3c200730	0.009767339
220	0xbe53921b	-0.20661204
221	0xbc7971c8	-0.0152248815
222	0xbde136b8	-0.10996765
223	0x3d90c81f	0.0706942
224	0x3cf96c3e	0.030447122
225	0xbd375c6e	-0.044765882
226	0x3dc7f961	0.09764362
227	0xbdd1ffd3	-0.10253873
228	0xbe0d0d35	-0.1377457
229	0xbdc7c326	-0.097540185
230	0xba9b6998	-0.0011857031
231	0xbd8e0cdb	-0.06936046
232	0xbd3c7c99	-0.046017263
233	0xbe40c5e9	-0.18825497
234	0x3c84ac01	0.0161953
235	0xbe0b0bc1	-0.13578703
236	0x3d1686dc	0.036749706
237	0x3d69c6c5	0.057074327
238	0xbe2ae8d0	-0.16690373
239	0x3d28cf65	0.04121341
240	0x3d306430	0.043064296
241	0xbda478cc	-0.08030853
242	0x3de198d6	0.11015479
243	0xbdd79487	-0.10526376
244	0x3cfaa7f5	0.030597666
245	0x3c0fe56c	0.008782726
246	0xbe5d981a	-0.21640053
247	0x3d1ddcdf	0.038540717
248	0xbd07ac29	-0.03312317
249	0xbe3c654a	-0.18398014
250	0x3c9323ed	0.017961467
251	0xbe02ed61	-0.12785865
252	0xbbcc9c32	-0.006244206
253	0xbe2ae286	-0.16687974
254	0x3cff5614	0.031168975
255	0x3db550c3	0.08853295

linear1.bias f4 [256]
0	0x3caad7f1	0.020854922
1	0x3cc8b468	0.024500087
2	0x3b714b06	0.00368184
3	0x3ae37b2d	0.0017355435
4	0x3c297973	0.010343897
5	0x3a4fc410	0.0007925639
6	0x3bf5c223	0.0074999495
7	0x3cb61e8f	0.022231368
8	0x3c4fee5c	0.012691107
9	0x3b795f01	0.0038051012
10	0x3c820d25	0.015875408
11	0x3c4a4e92	0.012347834
12	0x3c7f9e3d	0.015601692
13	0x3c190087	0.009338505
14	0x3cc94216	0.024567645
15	0x3c50eb5d	0.0127514275
16	0x3c0f4d52	0.008746462
17	0xba8ff4dd	-0.0010983009
18	0x3ab7ef6c	0.0014033145
19	0xbc1deb93	-0.009638685
20	0x3b9de542	0.0048185894
21	0xbb979240	-0.0046255887
22	0x3ab537dd	0.0013825853
23	0x3b85787b	0.0040732003
24	0x3ce3bbb7	0.02779947
25	0x3d22b089	0.03971914
26	0x3ca6f911	0.020382436
27	0x3cd520c7	0.026016606
28	0x3b175825	0.002309331
29	0x3caeb227	0.021325184
30	0x3d5c56fa	0.053793885
31	0x3b99aab9	0.004689541
32	0x3c836f57	0.016044302
33	0xbaa69e5f	-0.0012711993
34	0x3bc94c8f	0.0061431597
35	0x3b81a581	0.003956497
36	0x3ae2432a	0.0017262448
37	0x3c89d4f2	0.016825173
38	0xbac250e3	-0.0014825132
39	0x3c18c562	0.0093244035
40	0x3b49b5a3	0.003077843
41	0x3bde2008	0.0067787208
42	0x3c4a39ff	0.012342929
43	0x3ca9e624	0.020739622
44	0xbc88b376	-0.016687136
45	0x3b950d46	0.0045487015
46	0x25517d8c	1.8170397e-16
47	0x3c044f37	0.008075527
48	0x3d004540	0.031316042
49	0x3b6ca978	0.0036111753
50	0x3c39c0af	0.011337443
51	0x3a2936dc	0.0006455013
52	0xbc914852	-0.01773468
53	0x3cb6e475	0.022325734
54	0x3b5420cc	0.0032368181
55	0xbbd4a529	-0.006489415
56	0x3bb2ac07	0.005452636
57	0x3c1c1f3d	0.009528932
58	0x3acc8d63	0.0015606101
59	0x3a190515	0.0005837244
60	0x3aacf55d	0.0013195683
61	0x3c868043	0.016418582
62	0x3c8c9a60	0.017163455
63	0x3cf443d6	0.029817503
64	0x3c080964	0.00830302
65	0x3c002d17	0.00782325
66	0x3bab7324	0.0052322317
67	0x3d430737	0.047614302
68	0x3c140898	0.009035252
69	0x3bce4f22	0.0062960545
70	0x3a4854e7	0.0007642046
71	0x3c69da87	0.014273292
72	0x3c049702	0.008092644
73	0x3c2b3d67	0.010451651
74	0x3c2affc8	0.01043696
75	0x3c5f2dbf	0.013621747
76	0x3ba49fa6	0.0050239144
77	0x22c96a27	5.4593552e-18
78	0x3c65f005	0.014034276
79	0x3c1fe277	0.009758583
80	0x3c99afd0	0.018760592
81	0x3c9fc8f4	0.019505002
82	0x3c59ad9c	0.013286021
83	0x3c2bdae8	0.010489203
84	0x3c64a340	0.013954937
85	0x3cf016d6	0.029307764
86	0x3c5d7dcc	0.013518762
87	0x3b4f81f6	0.0031663156
88	0x3c9b3933	0.018948173
89	0x3c6039aa	0.013685623
90	0x3aa85534	0.0012842775
91	0x3be56556	0.0070006056
92	0x3c25f440	0.0101290345
93	0x3cc39e30	0.02387914
94	0x3ca64768	0.020297721
95	0x3c5e6b19	0.013575339
96	0x3cb4e1a7	0.022080256
97	0x3bf011a4	0.0073263217
98	0x3c9793c1	0.018503072
99	0x3b9d46af	0.004799686
100	0x3aef4c9c	0.0018257084
101	0x3b9e978f	0.0048398445
102	0x3c43c35e	0.011948435
103	0x3c847b1e	0.016171988
104	0x3bb79f28	0.0056036897
105	0x3b829d24	0.003986018
106	0x3d17e130	0.03707999
107	0x3c5fcfa4	0.013660345
108	0x3aa1687d	0.0012314465
109	0x3bbfa16f	0.005848102
110	0x3cf70621	0.03015429
111	0x3cf4faf5	0.029904822
112	0x3cf960e1	0.030441703
113	0x3ba9a159	0.005176705
114	0x3d084502	0.033268936
115	0x3c59b22d	0.013287109
116	0x3cf76511	0.03019956
117	0x3c91807b	0.01776146
118	0x3d1ed593	0.0387779
119	0x3d3f5923	0.046715867
120	0x3cae5c67	0.021284295
121	0x3c573766	0.013135767
122	0x3bd5cb15	0.0065244534
123	0x3b6ca21e	0.0036107372
124	0x3c518723	0.012788567
125	0x3ce22bd2	0.027608786
126	0x3bafb402	0.005362035
127	0x26845d46	9.184622e-16
128	0x3cca61b6	0.024704795
129	0x3cde6e44	0.027152188
130	0x3cafa891	0.021442683
131	0x3c030d95	0.007998844
132	0xbb031eb3	-0.0020007312
133	0x3c95893f	0.01825392
134	0xb7c4404c	-2.3394961e-05
135	0x3d141d74	0.0361609
136	0x3c41072d	0.011781496
137	0x3c3e8e37	0.011630586
138	0x3d04d6ab	0.032431286
139	0x3cb0afce	0.021568205
140	0x2628b44e	5.8531067e-16
141	0x3cb9aa76	0.02266429
142	0x3c2795b6	0.010228565
143	0x3c89f582	0.0168407
144	0x3caa219e	0.020767983
145	0x3c067f0d	0.008209002
146	0x3b2f1324	0.002671429
147	0x3c1868e1	0.009302349
148	0x3c9ca25d	0.01912039
149	0x3c855c86	0.01627947
150	0x3be84909	0.0070887846
151	0x3cdb282e	0.026752558
152	0x3ba3df74	0.005001003
153	0xbac26133	-0.0014829993
154	0x3be5c143	0.007011564
155	0x3c90f661	0.017695608
156	0x3b35a4a6	0.0027716546
157	0x3ce845a4	0.02835352
158	0x3d379596	0.04482039
159	0x3c320e40	0.010867655
160	0x3b9ebbc7	0.004844162
161	0x3bad1aad	0.005282721
162	0xba9927d7	-0.0011684847
163	0x3c745cbd	0.014914689
164	0x3bb10799	0.005402517
165	0x3c84f40b	0.01622965
166	0x3cacff76	0.021117907
167	0x3ca61ba3	0.02027685
168	0xbb549356	-0.0032436452
169	0x3c6a29cb	0.014292191
170	0x3cef8bbf	0.02924144
171	0x3c885192	0.016640458
172	0x3cf4dde0	0.029890954
173	0x3ba82d4b	0.0051323525
174	0x3c868167	0.016419126
175	0x3b8e10c0	0.004335493
176	0x3b0940e5	0.0020943221
177	0xbb70abf8	-0.0036723595
178	0x3c275721	0.010213644
179	0x3c43701d	0.011928585
180	0x3bdd0d83	0.0067459955
181	0xbac56c63	-0.0015062209
182	0x3bc393e6	0.0059685586
183	0x3c9486d6	0.018130701
184	0x3c0238ab	0.007948081
185	0x3c8dc418	0.017305419
186	0x3c1d72a9	0.009609857
187	0x3d6ee287	0.058321502
188	0x3d644d93	0.055738043
189	0x3d2938bf	0.041313883
190	0x3c72a88e	0.014810694
191	0xb9e84da8	-0.00044308347
192	0x3b75bd3f	0.0037496833
193	0x3c134e05	0.008990769
194	0x3bd488d6	0.0064860387
195	0x3d3340e6	0.043763064
196	0x3bded9f4	0.0068008844
197	0x3be7322c	0.0070555415
198	0x3bf65cdf	0.0075183953
199	0x3c9a0d59	0.018805193
200	0x3be7dad9	0.007075649
201	0x3c78e2d4	0.015190799
202	0xb9a34ee7	-0.0003114857
203	0x3d2265d8	0.039647907
204	0x3ca6639d	0.020311171
205	0x3ce96d72	0.02849457
206	0xbb407a56	-0.0029369793
207	0x3d2636e0	0.040579677
208	0x3c763b41	0.015028776
209	0x3c07656f	0.00826393
210	0x3c713f46	0.014724558
211	0xbb72f8c5	-0.0037074548
212	0x3d3fb269	0.046801005
213	0x3c5261cb	0.0128406985
214	0xbc0cfed3	-0.008605677
215	0x3c1a6f62	0.00942597
216	0x3b00dd9d	0.0019663342
217	0x3be33af2	0.006934517
218	0x3c94df20	0.0181728
219	0x3be49c13	0.0069766133
220	0x3cda8503	0.026674753
221	0xbaa85319	-0.0012842148
222	0x3d3fb767	0.046805765
223	0x3bc0a8a3	0.005879478
224	0x3bfd3161	0.0077268337
225	0x3c1ca3ba	0.00956052
226	0x3d23925d	0.039934505
227	0x3c758d4e	0.014987303
228	0x3bf7477a	0.0075463625
229	0x3c0eab72	0.008707868
230	0xb9aef553	-0.00033370647
231	0x3c15b731	0.0091379145
232	0x3b865862	0.0040998915
233	0x3c4fde6d	0.012687308
234	0x3c77a716	0.01511552
235	0x3ca95812	0.020671878
236	0x3c9b1c8c	0.01893451
237	0x3c4d507d	0.012531397
238	0x3bc36ae0	0.005963668
239	0x3b96ee26	0.004606026
240	0x3c58bf09	0.01322914
241	0x3c9ef74a	0.019405026
242	0xba80eb0d	-0.0009835676
243	0x3b5e3bf3	0.0033910244
244	0x3c2c3622	0.010510953
245	0x3cb28620	0.021792471
246	0x3cc72718	0.024310634
247	0x3c8705dc	0.016482286
248	0x3d14addb	0.036298614
249	0xb9eb85ab	-0.00044922283
250	0x3b88c9cb	0.004174446
251	0x3ba11025	0.0049152547
252	0x3c8502d0	0.016236693
253	0x3c91638a	0.01774766
254	0x3b9ff5fc	0.0048816185
255	0x3d665683	0.056234848

linear2.weight f4 [59, 256]
0	0x3d67c32c	0.056582615
1	0x3d450746	0.04810264
2	0x3dae5253	0.08511796
3	0x3e0bbe58	0.13646829
4	0x3d286d49	0.041119847
5	0x3d95d446	0.073158786
6	0xbf0a6058	-0.5405326
7	0x3d5bfe85	0.053709526
8	0xbcae953f	-0.0213114
9	0x3d527b45	0.05138709
10	0x3d6c637f	0.057712074
11	0x3db155c7	0.08658939
12	0xbefbe58a	-0.49198562
13	0x3d068191	0.032838408
14	0x3d57bae0	0.052668452
15	0x3d91b266	0.07114105
16	0x3d5c3842	0.05376459
17	0xbd11dbdf	-0.035610076
18	0xbf115383	-0.56768054
19	0x3d822483	0.0635462
20	0x3d9c4557	0.07630413
21	0xbea4c582	-0.32181937
22	0x3d350414	0.044193342
23	0x3d61478c	0.054999873
24	0x3d5dd3e1	0.05415714
25	0xbefc289f	-0.4924974
26	0x3dd8a6ae	0.105786666
27	0xbd8f5610	-0.06998837
28	0xbeea79a9	-0.45795944
29	0xbda4ee0c	-0.08053216
30	0xbef4dd52	-0.47825104
31	0xbe7d8188	-0.24756444
32	0x3d72f2ae	0.05931347
33	0xbdc5ee64	-0.0966461
34	0xbe5f28a9	-0.21792854
35	0x3d1f77e1	0.038932685
36	0x3db405f1	0.08790196
37	0x3dab65f6	0.08369057
38	0x3ca54138	0.0201727
39	0xbe8ee62f	-0.2790999
40	0xbe2da212	-0.16956356
41	0xbef486a3	-0.4775897
42	0xbe97ebb8	-0.29672027
43	0x3d650922	0.055916913
44	0x3d6a7bd7	0.05724701
45	0x3d9e4bd7	0.07729309
46	0xa7523e5b	-2.9177157e-15
47	0x3d72619f	0.05917513
48	0x3e07db00	0.13267136
49	0xbee61130	-0.44934988
50	0x3d6b4379	0.057437394
51	0x3d9bfe79	0.07616896
52	0x3d95000f	0.07275402
53	0xbf14ecb2	-0.5817367
54	0xbe2d9bb8	-0.16953933
55	0xbcda1423	-0.02662093
56	0xbe21d97d	-0.15805621
57	0xbebdad31	-0.37046197
58	0xbef891eb	-0.48548827
59	0xbee83a3f	-0.45356938
60	0xbe6ef6b4	-0.23336297
61	0x3c89fe48	0.016844884
62	0x3d95242d	0.072822906
63	0x3d9c66c3	0.07636788
64	0x3dc1c0dc	0.09460613
65	0x3db130b6	0.08651869
66	0x3d38111e	0.0449382
67	0xbd65365b	-0.05596004
68	0x3c51b25c	0.012798872
69	0x3d2f94ad	0.042866398
70	0xbd0d6dfe	-0.034528725
71	0x3d95d72f	0.07316434
72	0x3d8cf0c6	0.068818614
73	0xbe0465ac	-0.1292941
74	0xbce07e64	-0.027404018
75	0x3d939434	0.07206002
76	0x3d984f65	0.07437018
77	0xa41ccb0a	-3.399909e-17
78	0x3dee0877	0.11622708
79	0x3d9cd5e1	0.07657982
80	0xbe4007df	-0.18753003
81	0x3cb7c161	0.022431077
82	0x3d94ac85	0.07259468
83	0xbeec340c	-0.4613346
84	0x3deee6ab	0.1166509
85	0x3d724888	0.059151202
86	0x3da30f38	0.07961887
87	0xbed9fb8e	-0.42574733
88	0xbcd6db46	-0.026227605
89	0x3dc3ba42	0.0955701
90	0x3c8b9122	0.017036978
91	0xbe92802b	-0.2861341
92	0xbc4077a4	-0.011747275
93	0xbeb0e7ee	-0.34551948
94	0xbe8af042	-0.27136427
95	0xbd6df8e7	-0.0580987
96	0x3d38e20e	0.045137458
97	0xbe9512b0	-0.2911582
98	0x3dfccc62	0.123436704
99	0xbe6874b6	-0.22700772
100	0xbe8f72bf	-0.28017232
101	0x3d39042c	0.045169994
102	0xbeafcda5	-0.34336582
103	0xbc6189bf	-0.013765751
104	0x3d858814	0.065200955
105	0xbee0181d	-0.43768397
106	0x3d674eeb	0.056471746
107	0xbeef617a	-0.46754056
108	0x3cf38a91	0.02972916
109	0x3d4b2272	0.049593396
110	0x3cafc09d	0.02145415
111	0xbe056ed6	-0.13030562
112	0xbd969863	-0.07353284
113	0x3dc7a01b	0.097473346
114	0x3d26ece8	0.040753275
115	0x3c72f302	0.014828445
116	0x3d916676	0.07099621
117	0x3d221e60	0.03957975
118	0x3db7bef9	0.08971972
119	0x3dc788a8	0.09742862
120	0x3d8ffcf4	0.07030669
121	0xbe6d3c09	-0.23167433
122	0x3ca0f51f	0.019648133
123	0xbd343349	-0.04399422
124	0x3d65774a	0.056021966
125	0x3dacadba	0.08431573
126	0xbebeda63	-0.3727599
127	0x26d2c6a7	1.4625522e-15
128	0x3d7f08c8	0.062264234
129	0x3d8cfaa2	0.06883742
130	0xbe857f37	-0.2607362
131	0xbdd9e351	-0.1063906
132	0xbb25de56	-0.0025309524
133	0x3d0729cd	0.03299885
134	0xbe56af84	-0.20965391
135	0xbd2e7b22	-0.042597897
136	0x3da7b38e	0.08188544
137	0xbe4b112b	-0.19830768
138	0xbe109a48	-0.14121354
139	0x3dc98e39	0.0984158
140	0x27ec7dc5	6.563952e-15
141	0xbebde2ad	-0.37087002
142	0xba0a5fcf	-0.0005278559
143	0xbb6b1bd3	-0.0035874739
144	0x3da05e2a	0.0783046
145	0x3dd40071	0.10351647
146	0x3ccb0d81	0.024786713
147	0xbecd8908	-0.4014361
148	0xbe2123f8	-0.15736377
149	0x3da251eb	0.07925781
150	0xbefe88ad	-0.4971365
151	0xbe82c73f	-0.25542638
152	0x3d348647	0.04407337
153	0x3dc0b98d	0.09410391
154	0x3db01d09	0.08599288
155	0xbd14a2b7	-0.03628799
156	0xbf084a1e	-0.53238094
157	0xbe8a0a38	-0.2696092
158	0xbef35891	-0.47528508
159	0x3dc0ba64	0.09410551
160	0x3dd360a1	0.10321165
161	0xbe6f177d	-0.23348804
162	0x3da34f83	0.0797415
163	0xbc2b2b21	-0.010447294
164	0x3d62f347	0.05540779
165	0x3df6d1c7	0.120517306
166	0xbc17b89e	-0.009260325
167	0x3d9041b0	0.07043779
168	0xbec016c3	-0.37517366
169	0x3d478252	0.048708268
170	0xbf0104bc	-0.5039785
171	0x3dbd7605	0.09251026
172	0x3c489c6c	0.012244325
173	0xbe9b81de	-0.30372518
174	0xbce66ff2	-0.028129552
175	0xbe5e02f9	-0.21680821
176	0x3d53f4cd	0.051747132
177	0xbb84dd62	-0.004054711
178	0x3df5ad03	0.1199589
179	0xbd28adb3	-0.041181277
180	0x3d7bcece	0.06147652
181	0x3d158b8c	0.036510035
182	0x3d1b42d4	0.03790553
183	0xbea41091	-0.3204389
184	0x3d4993cc	0.049213216
185	0xbd397320	-0.045275807
186	0x3d9e405d	0.0772712
187	0xbeebbb47	-0.4604132
188	0xbdf94669	-0.12171633
189	0xbd0bcc62	-0.03413046
190	0x3dcb5b15	0.09929482
191	0x3d8d635e	0.069037184
192	0xbaabff79	-0.0013122401
193	0xbdd4b68e	-0.10386382
194	0x3d8ba986	0.068194434
195	0xbd10cf75	-0.035354096
196	0xbdc41704	-0.095747024
197	0xbe9287fc	-0.28619373
198	0xbdc260e8	-0.0949114
199	0xbeae8fb8	-0.34094024
200	0x3d0b746e	0.034046583
201	0xbe0c08e8	-0.13675272
202	0xbefa9755	-0.48943582
203	0xbf17d96a	-0.5931612
204	0xbd653ed7	-0.055968132
205	0x3d5b020d	0.053468753
206	0x3c5df613	0.013547438
207	0x3d8ac36a	0.067755535
208	0x3d457206	0.048204444
209	0x3be38f3c	0.006944565
210	0x3dac4211	0.08411039
211	0x3e3104d4	0.17286998
212	0x3dc78ae0	0.09743285
213	0x3dd0d65c	0.10197136
214	0x3e2c6a3c	0.168374
215	0x3da98ad0	0.082784295
216	0xbe00cd55	-0.12578328
217	0x3d918792	0.07105936
218	0x3d7efbef	0.06225198
219	0xbe9281f2	-0.28614765
220	0x3d181947	0.03713348
221	0xbe56844c	-0.20948905
222	0x3dc78ee0	0.09744048
223	0xbd3e62de	-0.046481006
224	0x3d738cb4	0.059460357
225	0xbe617637	-0.22017752
226	0x3daf78dc	0.08567974
227	0x3dbe4eff	0.09292411
228	0x3dca384c	0.09874019
229	0x3ca5b870	0.020229548
230	0x3d5041a2	0.050843842
231	0x3d545957	0.051843014
232	0xbee2a7e3	-0.44268712
233	0x3d875824	0.06608608
234	0x3d5876a7	0.05284753
235	0x3d82c1e5	0.06384639
236	0x3d83ef9c	0.06442186
237	0x3d2987fc	0.04138945
238	0x3d094ef5	0.033522565
239	0x3d69e723	0.057105195
240	0x3d43b0f2	0.04777617
241	0x3d0ca994	0.03434141
242	0xbd3a1dc5	-0.045438547
243	0x3b4e5d46	0.00314887
244	0xbef1e8a3	-0.472478
245	0xbd90f5db	-0.07078143
246	0x3db8a039	0.09014935
247	0x3dcda325	0.10040883
248	0x3d91dade	0.07121824
249	0xbe9bb8b2	-0.3041435
250	0x3d421e07	0.047391918
251	0xbf0256f5	-0.50913936
252	0xbe22d9ab	-0.15903346
253	0x3d5d334b	0.054003995
254	0xbe079993	-0.13242178
255	0x3d88d444	0.066811115

linear2.bias f4 [59]
0	0xbc80d4dd	-0.015726501
1	0xbc92e578	-0.017931685
2	0xbc7856d4	-0.01515742
3	0xbc6ac68f	-0.014329567
4	0xbc5f1308	-0.013615377
5	0xbc9f00b0	-0.019409508
6	0xbcaa793b	-0.02080976
7	0xbc9f7883	-0.019466644
8	0xbc609469	-0.013707259
9	0xbc58da9e	-0.013235716
10	0xbc8407d8	-0.016117021
11	0xbc880f1e	-0.016608771
12	0xbc709370	-0.014683589
13	0xbc9113ad	-0.017709577
14	0xbc5bd478	-0.013417356
15	0xbc28eb26	-0.01030997
16	0xbcb0be37	-0.021575077
17	0xbc5663c0	-0.013085306
18	0xbca041f3	-0.019562697
19	0xbc8f274c	-0.017474793
20	0xbc52db8d	-0.012869728
21	0xbc21cd82	-0.009875657
22	0xbcbb8168	-0.022888854
23	0xbc951be2	-0.018201772
24	0xbc53dcd8	-0.012931071
25	0xbcac3792	-0.021022592
26	0xbc9d76d5	-0.019221703
27	0xbc48fb80	-0.0122669935
28	0xbc95b6c9	-0.018275635
29	0xbc767beb	-0.015044193
30	0xbc85aa0b	-0.016316434
31	0xbc8d6a11	-0.01726249
32	0xbc24edd2	-0.010066466
33	0xbc931e8d	-0.017958904
34	0xbc9a5e7c	-0.018843882
35	0xbc945d9e	-0.018111046
36	0xbc578688	-0.013154633
37	0xbc88c5de	-0.016695913
38	0xbc8a470f	-0.016879587
39	0xbc48603c	-0.012229975
40	0xbc8384ba	-0.0160545
41	0xbca81ca1	-0.020521464
42	0xbc86b614	-0.016444243
43	0xbc9ee3f6	-0.01939581
44	0xbc6bf898	-0.014402531
45	0xbc9edc90	-0.019392282
46	0xbc93db0a	-0.018048782
47	0xbc93da29	-0.018048363
48	0xbcb22865	-0.021747777
49	0xbc710ad4	-0.014712054
50	0xbc145ae6	-0.009054875
51	0xbc967030	-0.018364042
52	0xbc254070	-0.010086164
53	0xbc8c939a	-0.017160226
54	0xbc844905	-0.0161481
55	0xbc49f3ed	-0.012326223
56	0xbc358e38	-0.011081271
57	0xbc997cc7	-0.018736256
58	0xbc93cc72	-0.018041823
