intermediary/model_18100.pth (torch, 356400 bytes, 5 tensors)

embed.weight f4 [59, 128]
-0.34530413 0.2225019 -0.32675833 -0.3389493 0.3601669 0.39261305 -0.09156777 -0.44562995
0.42746633 0.33238682 -0.24017072 -0.38841748 0.00079556234 -0.23409468 -0.34598702 0.36421552
-0.18777491 -0.43560934 -0.35004896 0.39077362 0.40320945 0.24979843 0.22248274 0.11044037
0.33308223 0.4144088 -0.34852952 0.20783761 0.0035910835 0.4098575 0.4138879 -0.13701066
-0.4209829 -0.38710314 -0.29529676 -0.2612335 0.3277709 0.4871907 0.19058008 -0.067172684
-0.0930664 -0.322506 0.4363839 0.27357706 0.38859406 0.07154382 0.4226221 0.48137173
-0.36730862 -0.28143325 0.48983866 0.3854338 -0.3381808 -0.38927206 0.3270563 0.29220533
-0.37789375 0.19336537 -0.24893685 0.35650197 -0.3170332 0.367991 -0.4377336 -0.38089448
-0.33700466 0.2595491 -0.18472017 0.34775233 0.36506543 -0.45226622 -0.21343225 -0.40485033
-0.4201939 -0.41968903 0.21909858 -0.2895873 0.47258145 0.3288437 0.22827058 0.41912976
0.33389318 -0.33236673 -0.24623527 -0.48603272 0.4066429 -0.3305458 -0.0001567465 -0.3826863
-0.43721265 0.38633546 0.323474 -0.3706975 0.39124358 -0.47365138 -0.36151227 0.34387
0.26356995 0.44689462 -0.28707093 0.3200911 0.23488915 -0.4424548 -0.28416842 0.20871583
0.43229577 -0.4011428 0.43760934 0.44400775 0.28456083 -0.29842535 -0.42542455 -0.25190094
0.34031975 -0.22541384 -0.43340766 -0.4202718 0.36139312 -0.40649673 0.12915412 -0.29085013
0.43393123 -0.33570918 0.35579658 0.34881106 -0.41714188 0.26512992 0.43410063 0.4789124
0.18434486 0.32960057 -0.13176574 -0.4570976 -0.37202612 -0.20177622 -0.124621406 -0.4144438
-0.17279741 0.4407023 -0.38721916 0.22289954 0.43936867 0.50051266 -0.32035452 -0.015633779
0.2395353 0.049000584 0.38640338 -0.3822051 0.38929865 -0.3777808 -0.41655856 -0.33376214
-0.21278484 -0.11954889 0.29953033 -0.463618 -0.46011725 -0.20379297 -0.23176205 0.37925786
0.36163184 -0.45644525 0.48667872 0.4116607 -0.39712033 -0.34630555 -0.43399942 0.38245896
0.45481002 0.47652298 -0.39738053 0.4006373 -0.27377 -0.41850466 0.5056442 0.36157486
-0.11691681 -0.44564933 0.40973094 0.38679144 -0.4154069 0.22689827 -0.28058985 0.3068106
-0.344155 -0.09346598 0.43277016 0.10560071 0.3807392 -0.31900907 -0.4140066 -0.31635082
-0.09756973 0.3076656 0.43641165 0.44722074 -0.39854997 -0.4192085 0.44860438 0.3815315
0.38456085 0.10639394 -0.39927796 -0.3809171 -0.21960862 0.27841356 -0.3135125 0.13685378
-0.50090015 -0.31266 0.050725788 -0.42213586 -0.38290867 -0.26985168 -0.34704316 -0.3865867
0.36406863 -0.41193128 -0.43650556 -0.13200282 0.23466441 -0.44771084 0.36672455 0.24761221
-0.10675129 -0.22567575 0.23172274 -0.26418406 -0.377883 0.25564674 -0.19288516 -0.382648
-0.23364769 0.3656151 0.46289745 0.28617632 -0.4211137 0.29109457 0.34466538 -0.47493985
-0.41257936 0.428979 0.21709237 0.40712705 -0.40746796 -0.20517194 0.33818457 -0.35712218
-0.28252697 0.41027394 0.45599297 -0.23433179 -0.25551054 -0.34973553 0.4243712 -0.3761221
00000000: b4cb b0be 8ad7 633e de4c a7be c38a adbe
00000010: cc67 b83e 9404 c93e e287 bbbd 9c29 e4be
00000020: dedc da3e 9b2e aa3e 50ef 75be a8de c6be
00000030: 498d 503a 84b6 6fbe 3625 b1be 757a ba3e
00000040: 1148 40be 3008 dfbe 9e39 b3be 7b13 c83e
00000050: 7871 ce3e 29cb 7f3e 84d2 633e 902e e23d
00000060: c189 aa3e 642d d43e 7672 b2be 62d3 543e
00000070: 6258 6b3b d8d8 d13e 1de9 d33e 864c 0cbe
00000080: 128b d7be 6232 c6be 2331 97be 66c0 85be
00000090: 96d1 a73e 0f71 f93e 6d27 433e d591 89bd
000000a0: 9999 bebd 821f a5be b66d df3e 4b12 8c3e
000000b0: cdf5 c63e 9185 923d ed61 d83e 5b76 f63e
000000c0: e00f bcbe 0518 90be 22cc fa3e 9457 c53e
000000d0: 0926 adbe ab4e c7be ec73 a73e f09b 953e
000000e0: 4a7b c1be 9201 463e 4de9 7ebe 6d87 b63e
000000f0: 2d52 a2be 5169 bc3e 9e1e e0be 9a04 c3be
00000100: e08b acbe 9fe3 843e 4927 3dbe 980c b23e
00000110: dbe9 ba3e 708f e7be fc8d 5abe 8b48 cfbe
00000120: a823 d7be 7be1 d6be 615b 603e c944 94be
00000130: 32f6 f13e 345e a83e c3bf 693e 2d98 d63e
00000140: 0cf4 aa3e f92b aabe 1925 7cbe 48d9 f8be
00000150: 8033 d03e 4d3d a9be 515c 24b9 75ef c3be
00000160: 56da dfbe c3cd c53e 629e a53e 10cc bdbe
00000170: 1451 c83e 6f82 f2be 2318 b9be bb0f b03e
00000180: a4f2 863e 5fcf e43e f6fa 92be fbe2 a33e
00000190: c886 703e 6f89 e2be 867e 91be 9ab9 553e
000001a0: df55 dd3e 9762 cdbe 550e e03e fc54 e33e
000001b0: f5b1 913e 35cb 98be 3fd1 d9be 29f9 80be
000001c0: 643e ae3e e3d2 66be 9ce7 ddbe de2d d7be
000001d0: 8508 b93e 5720 d0be fa40 043e 4fea 94be
000001e0: 3c2c de3e 13e2 abbe f82a b63e 5d97 b23e
000001f0: 9f93 d5be 1cbf 873e 7042 de3e 0234 f53e
00000200: e6c4 3c3e 68c1 a83e 99ed 06be b208 eabe
00000210: 357a bebe 6d9e 4ebe 8239 ffbd fa31 d4be
00000220: cef1 30be bba3 e13e 9741 c6be c73f 643e
00000230: eef4 e03e 9921 003f 8205 a4be 6912 80bc
00000240: be48 753e d6b4 483d aad6 c53e 63b0 c3be
00000250: 2752 c73e 7c6c c1be 2a47 d5be dfe2 aabe
00000260: 45e4 59be 0cd6 f4bd 0a5c 993e 575f edbe
00000270: 7d94 ebbe 1baf 50be 0853 6dbe 162e c23e
00000280: cf27 b93e 31b3 e9be f42d f93e 31c5 d23e
00000290: 5b53 cbbe f64e b1be 2c35 debe a9d1 c33e
000002a0: dcdc e83e d2fa f33e 7675 cbbe 5520 cd3e
000002b0: 952b 8cbe 3e46 d6be e671 013f 5720 b93e
000002c0: 1572 efbd 262c e4be 41c8 d13e 8709 c63e
000002d0: 37b0 d4be 0558 683e 79a9 8fbe 4716 9d3e
000002e0: 1635 b0be 176b bfbd 0d94 dd3e 2f45 d83d
000002f0: 40f0 c23e 2855 a3be acf8 d3be bcf8 a1be
00000300: a3d2 c7bd 5886 9d3e 5971 df3e 1efa e43e
00000310: be0e ccbe 7fa2 d6be 79af e53e 1958 c33e
00000320: 29e5 c43e 11e5 d93d 296e ccbe 9107 c3be
00000330: 15e1 60be 398c 8e3e b684 a0be 6623 0c3e
00000340: fe3a 00bf f914 a0be d8c5 4f3d 3122 d8be
00000350: 9b0c c4be 002a 8abe a4af b1be b1ee c5be
00000360: 3467 ba3e a8e8 d2be a87d dfbe bf2b 07be
00000370: de4b 703e 5b3a e5be 52c3 bb3e 0e8e 7d3e
00000380: 6ca0 dabd 8b17 67be ba48 6d3e 2243 87be
00000390: e179 c1be 21e4 823e b083 45be 70ea c3be
000003a0: 5741 6fbe e731 bb3e e500 ed3e b485 923e
000003b0: 379c d7be 590a 953e fb77 b03e 512b f3be
000003c0: 9a3d d3be 23a3 db3e 764d 5e3e f572 d03e
000003d0: a49f d0be 9818 52be 8726 ad3e b8d8 b6be
000003e0: 60a7 90be 6d0f d23e e977 e93e acf4 6fbe
000003f0: 47d2 82be 8910 b3be 2f47 d93e 1393 c0be

linear1.weight f4 [256, 256]
-0.13264489 -0.14487308 0.16107334 0.12920584 -0.13997246 0.05410975 0.1686409 0.008071421
-0.2151764 -0.041998792 0.17461403 -0.15535317 0.013875488 0.0045655747 -0.15610956 0.17709246
0.07051598 0.14523013 0.21114619 0.11591819 -0.08197965 0.097610824 0.029295575 0.13375919
-0.026838116 -0.18847646 -0.1767715 -0.0841639 0.11400108 -0.0016498237 -0.10337231 -0.0054961806
-0.02865015 -0.02912596 0.001597351 0.18986453 0.08523826 -0.12233313 0.21319035 -0.055067345
0.0028415516 0.01787595 -0.15316454 -0.015189276 -0.1463141 -0.14061166 -0.1179166 0.032759964
-0.17524248 -0.08209061 -0.0461953 -0.18040514 0.0523333 -0.14571545 -0.16385835 -0.026010476
0.052076396 0.0044923467 0.12789726 0.06330394 0.16442238 -0.043704912 0.15601543 0.078141
0.16778907 -0.11667153 -0.16437358 -0.2121151 -0.049889807 -0.05053547 -0.008609775 -0.086735286
-0.119134635 -0.17412724 0.15548764 0.19587293 -0.2011089 -0.048038166 -0.024912942 0.13799483
-0.12905605 0.14707561 0.17962992 0.18583173 -0.058531087 0.06375201 0.05074423 0.09729767
0.13178481 -0.15149228 -0.16668655 0.1756315 0.06147677 0.08583026 -0.050141726 0.023773689
0.017882986 -0.04006745 -0.014576739 0.054146383 -0.15654276 0.03428125 0.049371466 -0.15852879
-0.09820516 0.02064721 -0.049332067 -0.04364066 -0.20479703 -0.22322768 0.034153555 0.13820711
-0.21742515 -0.08165581 0.15057595 -0.09125752 0.2093357 0.21716233 -0.01775927 0.031268362
0.07673336 0.11916956 -0.18916315 -0.04234718 -0.13840087 -0.06519005 -0.036580425 -0.11715954
-0.007831208 0.0059842826 -0.104324326 -0.17109999 0.17994341 -0.17560096 -0.13643594 -0.021757714
0.08726863 0.14983177 -0.14754663 -0.08495634 -0.22481851 -0.21588658 0.15173356 0.007423375
-0.2205906 -0.09706348 -0.055800226 0.08984832 -0.19097394 -0.027641306 0.15661988 0.04626713
-0.1798311 0.106474765 -0.0127960555 0.11354995 -0.15224582 -0.1869326 -0.015161195 0.21673398
-0.20559265 0.20935498 -0.11915494 -0.005969661 -0.0567543 0.12575608 -0.048282597 0.21156342
-0.21880083 -0.09197325 0.07730456 -0.16407879 0.13864785 -0.024775553 -0.16323197 -0.10745138
0.15680982 -0.025681045 -0.1821906 0.12756701 -0.14256212 -0.09445216 0.024791626 -0.04689729
0.117773294 -0.15056776 -0.20411752 -0.08184492 0.01729113 -0.14112063 0.05528485 0.18552431
0.038627572 0.052861374 -0.099103495 -0.019889139 -0.11063975 0.09405173 0.034809474 -0.107947156
-0.13243242 0.14853941 -0.15119325 0.020518662 -0.050548766 -0.19827464 -0.14437272 -0.19389315
0.16908276 -0.035487387 -0.046044488 0.07718888 0.22491133 -0.0048309965 0.18195087 0.093080096
-0.13208175 -0.031445075 0.056621734 0.010544722 -0.20681651 -0.015595703 -0.110838175 0.07063053
0.029821012 -0.044437513 0.09790314 -0.10349271 -0.13849294 -0.09742026 -0.000671315 -0.069662005
-0.04553962 -0.18820255 0.016960494 -0.1356829 0.036653925 0.057392377 -0.16796117 0.040660135
0.042737737 -0.08026656 0.1106104 -0.10487902 0.029846441 0.009008505 -0.21716116 0.038457334
-0.032898135 -0.18501088 0.018670624 -0.12855496 -0.0066268938 -0.16714619 0.031206042 0.08820166
00000000: 10d4 07be 9c59 14be 69f0 243e 894e 043e
00000010: f154 0fbe 2fa2 5d3d 33b0 2c3e fe3d 043c
00000020: 3457 5cbe ed06 2cbd 05ce 323e e714 1fbe
00000030: 0456 633c d19a 953b 2fdb 1fbe ba57 353e
00000040: af6a 903d 35b7 143e b536 583e 8466 ed3d
00000050: f2e4 a7bd 2fe8 c73d 46fd ef3c 2bf8 083e
00000060: 9cdb dbbc f9ff 40be 9703 35be 1f5e acbd
00000070: 6679 e93d e63e d8ba ddb4 d3bd 4e19 b4bb
00000080: b8b3 eabc 9199 eebc 355e d13a d96b 423e
00000090: 6691 ae3d cb89 fabd 924e 5a3e 4c8e 61bd
000000a0: 5339 3a3b 9670 923c 2ad7 1cbe 71dc 78bc
000000b0: 5dd3 15be 81fc 0fbe 427e f1bd 502f 063d
000000c0: c472 33be 1f1f a8bd 4837 3dbd 20bc 38be
000000d0: 715b 563d 6e36 15be 7cca 27be ec13 d5bc
000000e0: 0f4e 553d 8934 933b 80f7 023e 7fa5 813d
000000f0: 575e 283e ec03 33bd 82c2 1f3e 6308 a03d
00000100: e6d0 2b3e 7cf1 eebd 8c51 28be b334 59be
00000110: 4159 4cbd 48fe 4ebd 0410 0dbc 45a2 b1bd
00000120: dcfc f3bd 694e 32be 2738 1f3e ea92 483e
00000130: 7eef 4dbe abc3 44bd 3a16 ccbc 844e 0d3e
00000140: 4527 04be fd9a 163e e8f0 373e ac4a 3e3e
00000150: 4bbe 6fbd 6a90 823d 2fd9 4f3d 0044 c73d
00000160: 99f2 063e cb20 1bbe e1af 2abe bed8 333e
00000170: 11cf 7b3d c6c7 af3d 6961 4dbd 0ac1 c23c
00000180: 577f 923c c41d 24bd 46d3 6ebc 99c8 5d3d
00000190: bf4c 20be 7f6a 0c3d bc39 4a3d 5f55 22be
000001a0: c91f c9bd 5624 a93c 6c10 4abd 8cc0 32bd
000001b0: 50b6 51be cc95 64be 99e4 0b3d 2a86 0d3e
000001c0: b3a4 5ebe 293b a7bd 9530 1a3e 39e5 babd
000001d0: 195c 563e cd5f 5e3e e37b 91bc 4113 003d
000001e0: 6126 9d3d 2c0f f43d fcb3 41be 3d74 2dbd
000001f0: f5b8 0dbe 5c82 85bd 5bd5 15bd 57f1 efbd
00000200: 784e 00bc cd17 c43b fea7 d5bd d634 2fbe
00000210: 1643 383e bdd0 33be ddb5 0bbe 3c3d b2bc
00000220: e5b9 b23d 806d 193e 7716 17be 97fd adbd
00000230: d336 66be 5f11 5dbe 0b60 1b3e c83f f33b
00000240: 81e2 61be 38c9 c6bd c78e 64bd 6502 b83d
00000250: ac8e 43be 0570 e2bc f660 203e 9a82 3d3d
00000260: a525 38be 710f da3d 8ca6 51bc e08c e83d
00000270: 54e6 1bbe 426b 3fbe a966 78bc 83ef 5d3e
00000280: e186 52be 2761 563e 8107 f4bd 259d c3bb
00000290: 3277 68bd 34c6 003e f9c3 45bd 15a4 583e
000002a0: 530d 60be 795c bcbd da51 9e3d 4504 28be
000002b0: b4f9 0d3e 1af6 cabc 4826 27be 780f dcbd
000002c0: c192 203e 0e61 d2bc 2c90 3abe eda0 023e
000002d0: cefb 11be 2270 c1bd cf17 cb3c 5f17 40bd
000002e0: 2033 f13d 6f2e 1abe 2f04 51be 4f9e a7bd
000002f0: 21a6 8d3c ed81 10be 5e72 623d 16fa 3d3e
00000300: f237 1e3d 2b85 583d c6f6 cabd 8cee a2bc
00000310: 1897 e2bd 329e c03d 6194 0e3d 6613 ddbd
00000320: 5d9c 07be b71a 183e 67d2 1abe c116 a83c
00000330: 390c 4fbd 8208 4bbe 71d6 13be ed8b 46be
00000340: 0824 2d3e 395b 11bd 2599 3cbd 3415 9e3d
00000350: 284f 663e 564d 9ebb 5451 3a3e c7a0 be3d
00000360: 7040 07be 8dcc 00bd 31ec 673d c5c3 2c3c
00000370: b5c7 53be 1f85 7fbc 20ff e2bd bda6 903d
00000380: 324b f43c 1c04 36bd 7181 c83d fcf3 d3bd
00000390: 18d1 0dbe 4684 c7bd 30fb 2fba f4aa 8ebd
000003a0: c187 3abd 2bb8 40be bcf0 8a3c 75f0 0abe
000003b0: 6d22 163d 4514 6b3d 03fe 2bbe 3e8b 263d
000003c0: c40d 2f3d cb62 a4bd b587 e23d d0ca d6bd
000003d0: 8680 f43c 6998 133c 7f5f 5ebe 7085 1d3d
000003e0: 32c0 06bd 7e73 3dbe 23f3 983c e9a3 03be
000003f0: 6a26 d9bb 5f28 2bbe d0a3 ff3c 12a3 b43d

linear1.bias f4 [256]
0.01967889 0.025294708 0.0028103096 0.0020234343 0.009964948 0.0011776336 0.0075062173 0.021728357
0.013715052 0.0039045557 0.014235592 0.012105589 0.01682372 0.010030659 0.026930217 0.012806024
0.008268947 -0.00058109494 0.0020109916 -0.00811628 0.004279165 -0.0052243522 0.0013708252 0.0065361783
0.028409978 0.039093595 0.020260714 0.025567241 0.0028146487 0.021044858 0.053206403 0.0042033726
0.01616837 0.0006064148 0.0069681266 0.0047468026 0.0003542961 0.018719003 -0.0015346899 0.008891031
0.00259529 0.0064580007 0.012243637 0.0217517 -0.019025907 0.0037868966 1.453799e-16 0.00747628
0.0314694 0.004483753 0.010531106 -0.0006225254 -0.019014528 0.021934293 0.002559383 -0.0053482866
0.005461672 0.008770148 0.0025046007 -6.4975786e-05 0.0012888651 0.016072806 0.018064607 0.029804416
0.008055732 0.007266275 0.003114882 0.047900718 0.009592097 0.0071763247 0.002527418 0.013162075
0.008134544 0.0115116965 0.010733915 0.013312905 0.007289767 5.0152866e-18 0.013041969 0.008738821
0.01993551 0.019062957 0.015501373 0.0097120935 0.012535553 0.028910773 0.012816473 0.0042266184
0.018075908 0.013763509 0.0015131917 0.006864985 0.010352663 0.02430433 0.021910472 0.014426796
0.021298733 0.009685371 0.018959368 0.0036137016 0.0020099918 0.0039876103 0.010009683 0.01653558
0.0045206575 0.004101114 0.036956128 0.013535643 0.0013454414 0.0071689445 0.029375883 0.028908646
0.02950917 0.0064039133 0.032404803 0.011471929 0.03043599 0.019904135 0.03905701 0.045659617
0.022031318 0.012683846 0.007223006 0.004639878 0.011227551 0.02683311 0.0062340274 7.3438e-16
0.025815494 0.027681112 0.022317538 0.008014763 -0.0010658354 0.018563211 -0.0004566645 0.0362838
0.013027099 0.01315235 0.032668203 0.021146078 5.13463e-16 0.022799216 0.01040995 0.016908996
0.020102687 0.0063414047 0.0040969397 0.00944096 0.019386243 0.015858117 0.0065651266 0.026121572
0.004481346 -0.0027095827 0.004914254 0.01768664 0.0028840625 0.028382687 0.045231685 0.011004222
0.0046942225 0.0041892226 -0.0006264783 0.0156292 0.0065603117 0.015845709 0.020733906 0.020700468
-0.0037943942 0.014768824 0.02902618 0.01857911 0.030236235 0.0050111483 0.016518554 0.004936609
0.0019873267 -0.0025328707 0.011028917 0.012770285 0.007618418 -0.0029121898 0.005231884 0.018622102
0.008092357 0.01599222 0.009835886 0.05682824 0.056590606 0.04119829 0.014953523 -0.0003041778
0.0017171691 0.010055451 0.006724277 0.042859152 0.007225557 0.006922894 0.007528318 0.019365944
0.0051917126 0.016743211 0.00017973525 0.038671084 0.019499436 0.027436098 -0.0033458413 0.04127129
0.015607749 0.008775888 0.014076947 -0.0030585818 0.045779 0.012708342 -0.007494393 0.007660996
0.0020529975 0.006369774 0.017174482 0.006682303 0.027668916 -8.622021e-05 0.04545772 0.006644248
0.008935152 0.009938535 0.041351944 0.013466628 0.0072081382 0.00896449 -0.0008470329 0.008118992
0.0047643683 0.012647215 0.015449107 0.01947073 0.01938691 0.012955617 0.005168881 0.005606935
0.011930423 0.020204501 -1.1805703e-05 0.0037113815 0.011663653 0.0228406 0.026011309 0.017489592
0.036379576 -0.00023445746 0.0041144905 0.004229758 0.01811917 0.015872989 0.0041848947 0.055848
00000000: a035 a13c d936 cf3c 2c2d 383b 989b 043b
00000010: 0544 233c d45a 9a3a b7f6 f53b abff b13c
00000020: 19b5 603c 93e3 7f3b 673c 693c 8556 463c
00000030: e6d1 893c a257 243c c29c dc3c 5cd0 513c
00000040: 7a7a 073c 9f54 18ba d7ca 033b 25fa 04bc
00000050: 3d38 8c3b 0b31 abbb 43ad b33a 702d d63b
00000060: 0bbc e83c 9b20 203d ccf9 a53c 6472 d13c
00000070: f875 383b 4466 ac3c f5ee 593d 72bc 893b
00000080: 8873 843c cff7 1e3a e254 e43b 118b 9b3b
00000090: d1c0 b939 9858 993c a627 c9ba b0ab 113c
000000a0: be15 2a3b a39d d33b 8999 483c 9f30 b23c
000000b0: 38dc 9bbc 952d 783b 939c 2725 95fb f43b
000000c0: 0fe6 003d 72ec 923b a98a 2c3c f930 23ba
000000d0: 5bc4 9bbc 8caf b33c 52bb 273b ae40 afbb
000000e0: d3f7 b23b abb0 0f3c 3a24 243b 9c43 88b8
000000f0: 23ef a83a 1eab 833c 3afc 933c 6428 f43c
00000100: 30fc 033c ef19 ee3b 0c23 4c3b 8b33 443d
00000110: 2c28 1d3c 6027 eb3b 0aa3 253b bea5 573c
00000120: c046 053c 8e9b 3c3c 4ddd 2f3c 5f1e 5a3c
00000130: ffde ee3b 0b08 b922 fcad 553c 462d 0f3c
00000140: cb4f a33c eb29 9c3c 79f9 7d3c 791f 1f3c
00000150: ec61 4d3c 49d6 ec3c 2ffc 513c 727f 8a3b
00000160: ed13 943c 5780 613c 4a56 c63a abf3 e03b
00000170: 379e 293c e019 c73c 977d b33c 5e5e 6c3c
00000180: ae7a ae3c 64af 1e3c ad50 9b3c dad3 6c3b
00000190: 11ba 033b 80aa 823b a7ff 233c a075 873c
000001a0: 0622 943b a362 863b 4f5f 173d 9ac4 5d3c
000001b0: 8659 b03a 77e9 ea3b b1a5 f03c d3d1 ec3c
000001c0: 37bd f13c ebd7 d13b e6ba 043d c2f4 3b3c
000001d0: e654 f93c ff0d a33c 3efa 1f3d 9405 3b3d
000001e0: 067b b43c e8cf 4f3c f7ae ec3b 1e0a 983b
000001f0: c3f3 373c 1cd1 db3c d046 cc3b aeab 5326
00000200: 047b d33c 80c3 e23c 45d3 b63c 5a50 033c
00000210: 80b3 8bba e011 983c 796c efb9 529e 143d
00000220: 9d6f 553c f47c 573c 18cf 053d 8a3a ad3c
00000230: e2fe 1326 6cc5 ba3c 7f8e 2a3c bc84 8a3c
00000240: 64ae a43c 8fcb cf3b 9f3f 863b 42ae 1a3c
00000250: e6cf 9e3c e2e8 813c 4620 d73b e8fc d53c
00000260: 41d8 923b 4193 31bb c007 a13b 93e3 903c
00000270: 8a02 3d3b cf82 e83c dc44 393d 0d4b 343c
00000280: fed1 993b bf45 893b 3f3a 24ba cf08 803c
00000290: e2f7 d63b dcce 813c 27da a93c 0794 a93c
000002a0: 5fab 78bb f0f8 713c 50c8 ed3c 3833 983c
000002b0: fbb1 f73c 8f34 a43b eb51 873c 47c3 a13b
000002c0: cf3d 023b 85fe 25bb a1b2 343c 753a 513c
000002d0: eca3 f93b 70da 3ebb 3970 ab3b 618d 983c
000002e0: ce95 043c 1e02 833c b226 213c bbc4 683d
000002f0: 8dcb 673d 8abf 283d 9fff 743c 0e7a 9fb9
00000300: a212 e13a 9ebf 243c 5357 dc3b 148d 2f3d
00000310: 5ec4 ec3b 72d9 e23b 1cb0 f63b 54a5 9e3c
00000320: 3e1f aa3b 0f29 893c 5077 3c39 9265 1e3d
00000330: 48bd 9f3c abc1 e03c e745 5bbb 160c 293d
00000340: a5b7 7f3c bec8 0f3c ffa2 663c 7d72 48bb
00000350: c382 3b3d a636 503c 8693 f5bb 1809 fb3b
00000360: 958b 063b 8ab9 d03b 80b1 8c3c 38f7 da3b
00000370: eca9 e23c 1fd1 b4b8 e031 3a3d feb7 d93b
00000380: be64 123c 3dd5 223c a860 293d 22a3 5c3c
00000390: 3f32 ec3b ccdf 123c 6a0b 5eba 8505 053c
000003a0: 6b1e 9c3b 4436 4f3c 401e 7d3c 1581 9f3c
000003b0: 4cd1 9e3c cc43 543c b75f a93b 61ba b73b
000003c0: d277 433c e983 a53c 1c11 46b7 a63a 733b
000003d0: e818 3f3c 361c bb3c ab15 d53c 5546 8f3c
000003e0: c002 153d b2d8 75b9 d9d2 863b c899 8a3b
000003f0: a76e 943c 1208 823c 7121 893b dfc0 643d

linear2.weight f4 [59, 256]
0.056255374 0.047540892 0.08405505 0.13574496 0.04259896 0.07268112 -0.53945684 0.05293618
-0.02101736 0.052976042 0.057351086 0.08557626 -0.4908764 0.03395309 0.05183111 0.0712106
0.052749872 -0.036840253 -0.5689478 0.06409266 0.07670859 -0.32193378 0.045369852 0.05475916
0.054883823 -0.49409014 0.103861235 -0.06874915 -0.45848584 -0.07962112 -0.47889203 -0.24586217
0.05902068 -0.09943948 -0.21970235 0.039364178 0.08863273 0.08350187 0.020190839 -0.27807403
-0.17070872 -0.47767076 -0.29232496 0.05615008 0.056698393 0.07812197 -2.6524627e-15 0.059149187
0.1310138 -0.44604594 0.057664018 0.076597765 0.07220045 -0.5829149 -0.17069426 -0.027471311
-0.15690495 -0.36750337 -0.48510247 -0.45097107 -0.23260523 0.016920196 0.07394227 0.07626466
0.09405802 0.08530579 0.045341734 -0.056293987 0.013553991 0.04364212 -0.035379298 0.07185955
0.06974701 -0.12969048 -0.027277458 0.07191224 0.07291301 -3.022002e-17 0.11617002 0.07749296
-0.18691534 0.022815976 0.07219123 -0.46032697 0.1165706 0.05860155 0.080025405 -0.42485833
-0.0271271 0.095999114 0.018250873 -0.28613135 -0.011215006 -0.34474766 -0.27192587 -0.05696502
0.044372454 -0.29278156 0.12364732 -0.22392984 -0.27754 0.04541781 -0.34147123 -0.013252258
0.06466643 -0.43690497 0.056180906 -0.46455872 0.029653732 0.04982524 0.022640137 -0.12898362
-0.07351241 0.09707252 0.04204526 0.015251835 0.071120694 0.040774986 0.08994984 0.097660676
0.07011135 -0.23173007 0.01928766 -0.04479916 0.056108985 0.08454022 -0.36998123 1.3357535e-15
0.06271882 0.06765432 -0.26244044 -0.10553008 -0.0039370726 0.032152392 -0.21017142 -0.041779496
0.08188458 -0.19828023 -0.13927992 0.09752778 5.9872477e-15 -0.37113917 -0.0005269097 -0.003601366
0.07832512 0.103440575 0.024950987 -0.40258476 -0.15391399 0.08057992 -0.49642038 -0.25599653
0.044988673 0.094221406 0.08548368 -0.035025474 -0.5313035 -0.2693066 -0.47571757 0.0940891
0.1016356 -0.23504649 0.07969406 -0.010943946 0.054566465 0.12099932 -0.008820992 0.069688365
-0.37585527 0.047935378 -0.50292426 0.09176596 0.013184322 -0.30361155 -0.028212773 -0.21685627
0.051837943 -0.004439887 0.11967918 -0.041436356 0.061791703 0.037755493 0.037730515 -0.32042566
0.048473943 -0.043898523 0.07842115 -0.46053198 -0.12023678 -0.033731032 0.09934414 0.07021962
-0.0007909995 -0.1031389 0.06947867 -0.036251128 -0.093423 -0.28620312 -0.093508504 -0.34102103
0.034446627 -0.13824193 -0.49006096 -0.5932774 -0.0563612 0.053650282 0.014386366 0.068938084
0.04784339 0.0066998024 0.08399629 0.17281961 0.097666204 0.101940095 0.16912591 0.082493424
-0.12530544 0.07164805 0.062290374 -0.28617546 0.036726076 -0.20787697 0.0976748 -0.04492455
0.05937116 -0.21773301 0.085535735 0.09368748 0.09874369 0.020923479 0.05015785 0.051081456
-0.44304225 0.06714395 0.05430546 0.063216835 0.06337172 0.042191554 0.033202775 0.057620153
0.048667815 0.03494174 -0.04621859 0.004544807 -0.47250804 -0.069115676 0.09027769 0.100575194
0.06996409 -0.30441836 0.046690714 -0.5105681 -0.16067952 0.053228315 -0.13417494 0.06705938
00000000: 096c 663d 3dba 423d 0e25 ac3d ba00 0b3e
00000010: 3f7c 2e3d d7d9 943d d819 0abf 9cd3 583d
00000020: 992c acbc 68fd 583d f9e8 6a3d 9b42 af3d
00000030: 2754 fbbe 6512 0b3d dc4c 543d ddd6 913d
00000040: 4010 583d cee5 16bd 90a6 11bf 0343 833d
00000050: 6519 9d3d 81d4 a4be bdd5 393d 244b 603d
00000060: dccd 603d 62f9 fcbe 33b5 d43d 5bcc 8cbd
00000070: a8be eabe 6610 a3bd 5631 f5be 4bc3 7bbe
00000080: abbf 713d eda6 cbbd a7f9 60be 553c 213d
00000090: 1485 b53d 0703 ab3d 4267 a53c b85f 8ebe
000000a0: 44ce 2ebe 4391 f4be 9eab 95be a0fd 653d
000000b0: 933c 683d 69fe 9f3d 4d21 3fa7 6b46 723d
000000c0: 7b28 063e 2260 e4be 1b31 6c3d 4adf 9c3d
000000d0: d4dd 933d e939 15bf 7aca 2ebe 840b e1bc
000000e0: b1ab 20be 6729 bcbe 5a5f f8be aee5 e6be
000000f0: 1130 6ebe 399c 8a3c 0b6f 973d a530 9c3d
00000100: 7ea1 c03d cdb4 ae3d 41b8 393d 8694 66bd
00000110: 8f11 5e3c 14c2 323d e2e9 10bd 1a2b 933d
00000120: 85d7 8e3d 95cd 04be fa74 dfbc b946 933d
00000130: 6b53 953d 815d 0ba4 8cea ed3d a1b4 9e3d
00000140: bc66 3fbe 92e8 ba3c ffd8 933d faaf ebbe
00000150: 91bc ee3d 2e08 703d 5ce4 a33d 0887 d9be
00000160: a739 debc 2f9b c43d db82 953c cf7f 92be
00000170: 25bf 37bc c482 b0be de39 8bbe 2754 69bd
00000180: e4bf 353d 77e7 95be ce3a fd3d dd4d 65be
00000190: b919 8ebe 0708 3a3d 51d5 aebe 0020 59bc
000001a0: d56f 843d 02b2 dfbe f31d 663d a4da edbe
000001b0: 62ec f23c 8d15 4c3d cf77 b93c 4814 04be
000001c0: ad8d 96bd f5cd c63d a737 2c3d d5e2 793c
000001d0: baa7 913d ac03 273d 9f37 b83d 5202 c83d
000001e0: 8a96 8f3d a64a 6dbe 2801 9e3c 537f 37bd
000001f0: 89d2 653d 6c23 ad3d 2e6e bdbe 9b80 c026
00000200: ba72 803d 598e 8a3d 985e 86be 2820 d8bd
00000210: 8f02 81bb 3ab2 033d 2d37 57be fa20 2bbd
00000220: 1ab3 a73d f909 4bbe 659f 0ebe a5bc c73d
00000230: 9db6 d727 f405 bebe 5020 0aba e504 6cbb
00000240: ec68 a03d a7d8 d33d 0366 cc3c 971f cebe
00000250: a19b 1dbe 1607 a53d d02a febe fa11 83be
00000260: 0b46 383d 27f7 c03d 1112 af3d df76 0fbd
00000270: 8203 08bf 8ee2 89be 4191 f3be c9b1 c03d
00000280: 5326 d03d 07b0 70be a436 a33d 3d4e 33bc
00000290: 1681 5f3d 7ece f73d ec85 10bc c6b8 8e3d
000002a0: 1a70 c0be e357 443d a5bf 00bf cbef bb3d
000002b0: 0e03 583c f972 9bbe 791e e7bc 920f 5ebe
000002c0: 0654 543d 797c 91bb 5c1a f53d 2bb9 29bd
000002d0: 4c19 7d3d 81a5 1a3d 508b 1a3d d50e a4be
000002e0: 9d8c 463d f0ce 33bd 459b a03d d9ca ebbe
000002f0: b33e f6bd 8d29 0abd f174 cb3d 4ecf 8f3d
00000300: 145b 4fba 7d3a d3bd d54a 8e3d 107c 14bd
00000310: 8f54 bfbd 3789 92be 6381 bfbd 4f9a aebe
00000320: e817 0d3d 4b8f 0dbe 45e9 fabe 07e1 17bf
00000330: 00db 66bd 66c0 5b3d cbb4 6b3c 692f 8d3d
00000340: 6ef7 433d 048a db3b 3f06 ac3d a0f7 303e
00000350: 3805 c83d f8c5 d03d 582f 2d3e 50f2 a83d
00000360: 1250 00be 36bc 923d 3124 7f3d 9785 92be
00000370: 156e 163d b3dd 54be ba09 c83d ce02 38bd
00000380: 2c2f 733d 67f5 5ebe 5c2d af3d 39df bf3d
00000390: 223a ca3d b767 ab3c 5172 4d3d ca3a 513d
000003a0: 6fd6 e2be c482 893d 676f 5e3d d477 813d
000003b0: 08c9 813d 0dd1 2c3d a2ff 073d 1c03 6c3d
000003c0: e757 473d 121f 0f3d b44f 3dbd 9bec 943b
000003d0: 93ec f1be 858c 8dbd 82e3 b83d 5efa cd3d
000003e0: 5549 8f3d b9dc 9bbe c33e 3f3d 97b4 02bf
000003f0: 2c89 24be ef05 5a3d 2865 09be 6e56 893d

linear2.bias f4 [59]
-0.015340459 -0.01758892 -0.014924516 -0.014624988 -0.013667434 -0.019830687 -0.020826608 -0.01954711
-0.013869887 -0.013075101 -0.016190631 -0.01730479 -0.014746004 -0.017900528 -0.013525986 -0.0104104
-0.020492867 -0.01301684 -0.019344958 -0.017918052 -0.0127455825 -0.010519888 -0.022976277 -0.018432748
-0.013293314 -0.021223688 -0.01921619 -0.0120403 -0.018144637 -0.0155487815 -0.01624543 -0.016435176
-0.00973559 -0.018420026 -0.018661099 -0.017732562 -0.013393918 -0.016253116 -0.016699327 -0.012745445
-0.016222367 -0.020797072 -0.016769229 -0.019374495 -0.013978662 -0.018913828 -0.01846935 -0.017642437
-0.02154503 -0.014523913 -0.008678647 -0.018645624 -0.010649774 -0.017771872 -0.016403388 -0.012651417
-0.010915101 -0.018675726 -0.017975627
00000000: 8c56 7bbc a416 90bc f585 74bc a59d 6fbc
00000010: 60ed 5fbc f773 a2bc 909c aabc 4321 a0bc
00000020: 863e 63bc f338 56bc 37a2 84bc c6c2 8dbc
00000030: 3999 71bc 21a4 92bc 199c 5dbc 6290 2abc
00000040: a8e0 a7bc 9644 55bc 5179 9ebc e1c8 92bc
00000050: d9d2 50bc 9c5b 2cbc bf38 bcbc 4600 97bc
00000060: 33cc 59bc 4ddd adbc 456b 9dbc ae44 45bc
00000070: 10a4 94bc 51c0 7ebc 2315 85bc 10a3 86bc
00000080: 0682 1fbc 98e5 96bc 29df 98bc e143 91bc
00000090: 2a72 5bbc 4125 85bc 07cd 88bc 45d2 50bc
000000a0: c5e4 84bc 9f5e aabc 9f5f 89bc 43b7 9ebc
000000b0: c206 65bc 2cf1 9abc 094d 97bc df86 90bc
000000c0: 347f b0bc b5f5 6dbc e230 0ebc b5be 98bc
000000d0: 647c 2ebc 5196 91bc 6660 86bc e447 4fbc
000000e0: 40d5 32bc d6fd 98bc 9f41 93bc
