intermediary/model_16500.pth (torch, 356400 bytes, 5 tensors)

embed.weight f4 [59, 128]
0	0xbeafc126	-0.34327048
1	0x3e668126	0.22510204
2	0xbeb3c94a	-0.3511451
3	0xbead4360	-0.33840466
4	0x3ebc001c	0.36718833
5	0x3eca2cde	0.39487356
6	0xbdc1253b	-0.09430929
7	0xbee2808a	-0.44238693
8	0x3edb38a0	0.4281664
9	0x3ea8e9e5	0.32990947
10	0xbe8bc640	-0.2729969
11	0xbec7bc7b	-0.39010987
12	0x3c281ab8	0.0102602765
13	0xbe65eb4b	-0.22453038
14	0xbead873e	-0.33892244
15	0x3ebb7301	0.3661118
16	0xbe3daa5c	-0.18522018
17	0xbedea3fc	-0.43484485
18	0xbeb42811	-0.35186818
19	0x3ec91137	0.39270946
20	0x3ecd6a32	0.40120083
21	0x3e80733c	0.25087917
22	0x3e512ed1	0.20428015
23	0x3dfb35e2	0.12266137
24	0x3ea952a7	0.3307087
25	0x3ed57b0a	0.41695434
26	0xbeb39c81	-0.3508034
27	0x3e6617dd	0.2247004
28	0x3c679d6c	0.014136653
29	0x3ed12487	0.4084818
30	0x3ed35e31	0.412828
31	0xbe13ce55	-0.14434178
32	0xbed83135	-0.42225042
33	0xbec3ca49	-0.3824027
34	0xbe9946b1	-0.29936746
35	0xbe889855	-0.2667872
36	0x3ea0ffd7	0.3144519
37	0x3ef99f02	0.48754126
38	0x3e44e3a0	0.19227457
39	0xbd9be386	-0.07611756
40	0xbdb5b644	-0.08872655
41	0xbea410c3	-0.32044038
42	0x3ee10722	0.43950754
43	0x3e8c1e34	0.27366793
44	0x3ec91a2d	0.39277783
45	0x3db30240	0.087406635
46	0x3ed5b626	0.4174053
47	0x3ef6c82d	0.48199597
48	0xbebaf9f9	-0.3651884
49	0xbe9150c4	-0.28381932
50	0x3ef9d745	0.4879705
51	0x3ec553bf	0.38540456
52	0xbeabb593	-0.33536968
53	0xbec816dd	-0.39079943
54	0x3eaa352a	0.33243686
55	0x3e8e2e9e	0.2776994
56	0xbebffc11	-0.37497
57	0x3e45a58f	0.19301437
58	0xbe8a7e3b	-0.2704943
59	0x3ebaf101	0.36511996
60	0xbea21711	-0.31658223
61	0x3ebdf19d	0.370984
62	0xbee11b09	-0.4396594
63	0xbec52cf3	-0.38510856
64	0xbeacc646	-0.3374502
65	0x3e7ea151	0.24866225
66	0xbe401691	-0.18758608
67	0x3eacc0f7	0.3374097
68	0x3ebc6085	0.3679239
69	0xbee645e9	-0.44975212
70	0xbe56c200	-0.20972443
71	0xbed1a06d	-0.40942708
72	0xbed66fb5	-0.418821
73	0xbed612b4	-0.41811144
74	0x3e687de0	0.22704268
75	0xbe94e01b	-0.2907723
76	0x3ef1c3a3	0.4721957
77	0x3ea5f104	0.32410443
78	0x3e690777	0.22756754
79	0x3ed542b2	0.41652447
80	0x3eabdceb	0.33566985
81	0xbea6d55a	-0.3258465
82	0xbe741e60	-0.23839712
83	0xbef8b816	-0.48577946
84	0x3ecf8294	0.4052931
85	0xbea5c06e	-0.32373375
86	0x3c3ffae3	0.011717531
87	0xbebb9126	-0.36634177
88	0xbee11881	-0.43964007
89	0x3ec8ab51	0.39193204
90	0x3ea3c508	0.3198626
91	0xbebf3ae2	-0.37349612
92	0x3ec88d89	0.39170483
93	0xbef4dba7	-0.4782383
94	0xbeb6f8c4	-0.35736668
95	0x3eb08bb0	0.34481573
96	0x3e8ac5c9	0.27104023
97	0x3ee4f39e	0.44717115
98	0xbe917091	-0.28406194
99	0x3ea931e2	0.3304587
100	0x3e73b36b	0.23798911
101	0xbee2853e	-0.4424228
102	0xbe8fbc25	-0.2807323
103	0x3e588fd0	0.2114861
104	0x3edd503f	0.43225285
105	0xbecec346	-0.40383357
106	0x3edfa450	0.43680048
107	0x3ee202e7	0.4414284
108	0x3e8fe07a	0.2810095
109	0xbe9aad96	-0.3021056
110	0xbed8855d	-0.42289248
111	0xbe7940de	-0.24341151
112	0x3eaf23dd	0.3420705
113	0xbe618a70	-0.22025466
114	0xbee0582e	-0.43817276
115	0xbed7d07b	-0.42151245
116	0x3eb9150a	0.36148864
117	0xbed18b13	-0.40926418
118	0x3e041ee9	0.12902416
119	0xbe93eb69	-0.2889054
120	0x3ede1d01	0.43381503
121	0xbeabed82	-0.33579642
122	0x3eb4db75	0.35323682
123	0x3eb20fbd	0.34777632
124	0xbed5a987	-0.41730902
125	0x3e88b97f	0.26704022
126	0x3edfca80	0.43709183
127	0x3ef5c5ca	0.48002464
128	0x3e44c0ed	0.1921422
129	0x3ea98b7c	0.3311423
130	0xbde6c8cc	-0.11268768
131	0xbeeb66c0	-0.4597683
132	0xbebb5e93	-0.36595592
133	0xbe49e71c	-0.19717067
134	0xbdfd8323	-0.12378528
135	0xbed4f1de	-0.4159078
136	0xbe308f9b	-0.17242281
137	0x3ee2da0f	0.4430699
138	0xbec6dc11	-0.38839772
139	0x3e62d90f	0.22153114
140	0x3ee1466e	0.43999046
141	0x3f00cb97	0.50310653
142	0xbe9d4be3	-0.3072196
143	0x3d3cf3e7	0.04613104
144	0x3e7668e7	0.24063455
145	0x3d31a50d	0.043370295
146	0x3ec4b206	0.3841707
147	0xbec5ee90	-0.3865857
148	0x3ec7b5d3	0.39005908
149	0xbec0f13e	-0.37684053
150	0xbed5e295	-0.4177443
151	0xbeac27f5	-0.33624235
152	0xbe5a6860	-0.21328878
153	0xbdbd70e2	-0.09250046
154	0x3e9aaf78	0.30211997
155	0xbef0209e	-0.46899885
156	0xbeebf802	-0.46087652
157	0xbe4a00a6	-0.1972681
158	0xbe66eb72	-0.22550753
159	0x3ec1b0c7	0.37830183
160	0x3eb97628	0.3622296
161	0xbeed905f	-0.4639921
162	0x3efb56b8	0.490896
163	0x3ed262d2	0.4109102
164	0xbeca6575	-0.3953053
165	0xbeb1d239	-0.347307
166	0xbedfdc77	-0.4372289
167	0x3ec3aa94	0.38216078
168	0x3eeaf199	0.4588745
169	0x3ef6511c	0.48108757
170	0xbecb4872	-0.3970371
171	0x3ecf7960	0.4052229
172	0xbe83e1a6	-0.25758094
173	0xbed729ef	-0.4202418
174	0x3f022acc	0.5084655
175	0x3ebd1dc4	0.36936772
176	0xbde295c0	-0.11063719
177	0xbee3275d	-0.4436597
178	0x3ed37a71	0.41304353
179	0x3ec7235d	0.38894168
180	0xbed3ddd3	-0.41380176
181	0x3e683717	0.22677265
182	0xbe8f3dec	-0.2797693
183	0x3e9e8574	0.30961192
184	0xbeb34f61	-0.350215
185	0xbd4be760	-0.049781203
186	0x3edd3a83	0.43208703
187	0x3daddf52	0.084898606
188	0x3ec282db	0.3799046
189	0xbea0d529	-0.31412628
190	0xbed52e6d	-0.41636983
191	0xbea54ceb	-0.32285246
192	0xbdeeae7f	-0.11654376
193	0x3e9ce18b	0.30640826
194	0x3ee0ec9b	0.43930516
195	0x3ee8d589	0.45475414
196	0xbec910fc	-0.3927077
197	0xbed727a1	-0.42022422
198	0x3ee5d8e8	0.4489205
199	0x3ec536d1	0.38518384
200	0x3ec3f84f	0.38275382
201	0x3dd61002	0.10452272
202	0xbed2e855	-0.4119288
203	0xbec4dc1f	-0.3844919
204	0xbe58fce4	-0.2119022
205	0x3e8e17bb	0.2775248
206	0xbe9f48f7	-0.31110355
207	0x3e1a1ab6	0.15049252
208	0xbf0086a1	-0.5020543
209	0xbea0eada	-0.31429178
210	0x3d298982	0.041390903
211	0xbed939f6	-0.42427033
212	0xbec3864f	-0.38188407
213	0xbe84a502	-0.2590714
214	0xbeb08f65	-0.344844
215	0xbeccf1cb	-0.40028223
216	0x3eb978fa	0.3622511
217	0xbed2e2f9	-0.4118879
218	0xbedefc15	-0.43551698
219	0xbdc9c986	-0.09852891
220	0x3e6f7f5b	0.23388426
221	0xbee5d891	-0.4489179
222	0x3ebe0646	0.3711416
223	0x3e75a4ee	0.23988697
224	0xbdd13123	-0.1021445
225	0xbe6bfb81	-0.2304516
226	0x3e6862e2	0.22693971
227	0xbe874a94	-0.26424086
228	0xbec035db	-0.37541088
229	0x3e85e586	0.26151675
230	0xbe352881	-0.17691232
231	0xbec2405a	-0.3793972
232	0xbe765d53	-0.24059038
233	0x3ebcc108	0.3686602
234	0x3eed71bf	0.46375844
235	0x3e8f0f3b	0.27941307
236	0xbed79ed5	-0.42113367
237	0x3e998383	0.29983148
238	0x3eb1d522	0.3473292
239	0xbef5f592	-0.48038918
240	0xbed3d61b	-0.41374287
241	0x3ede0796	0.43365163
242	0x3e57c9e2	0.21073106
243	0x3ed15058	0.4088161
244	0xbed2a41a	-0.41140825
245	0xbe4cc904	-0.19998556
246	0x3eb0afef	0.34509227
247	0xbeb72c91	-0.3577619
248	0xbe8ed179	-0.2789419
249	0x3ed08d40	0.40732765
250	0x3eea9c6f	0.45822474
251	0xbe6bee40	-0.23040104
252	0xbe86bae9	-0.26314476
253	0xbeb30671	-0.34965852
254	0x3edbbb07	0.42916128
255	0xbec18062	-0.3779326

linear1.weight f4 [256, 256]
0	0xbe057707	-0.13033687
1	0xbe12a7f0	-0.14321876
2	0x3e1b4a63	0.15165095
3	0x3e05c708	0.13064206
4	0xbe12acdb	-0.14323752
5	0x3d548ce1	0.051892165
6	0x3e2bb6bc	0.16768926
7	0x3b670406	0.00352502
8	0xbe585f1b	-0.2113003
9	0xbd1c9f68	-0.03823796
10	0x3e37ff95	0.1796859
11	0xbe1d32c8	-0.15351403
12	0x3c01a83b	0.007913644
13	0x3c06dca2	0.008231314
14	0xbe1e4c13	-0.15458708
15	0x3e29bb5a	0.16575375
16	0x3d8eb14f	0.06967413
17	0x3e13ce94	0.14434272
18	0x3e54ed66	0.20793685
19	0x3de704f3	0.11280241
20	0xbda0609b	-0.07830926
21	0x3dc358b9	0.09538407
22	0x3d0cf4d8	0.03441319
23	0x3e03d9e0	0.12876081
24	0xbc9f424c	-0.019440793
25	0xbe43b402	-0.19111636
26	0xbe3700c5	-0.17871387
27	0xbda73ad2	-0.08165516
28	0x3de9e0fa	0.11419864
29	0x3bcb34b2	0.00620135
30	0xbdd0e7dd	-0.102004744
31	0xbb2a4bd1	-0.0025985132
32	0xbccec21b	-0.025239041
33	0xbcaae58c	-0.02086141
34	0x3bf6462b	0.007515689
35	0x3e419454	0.18904239
36	0x3dc22b24	0.09480885
37	0xbdf92673	-0.12165537
38	0x3e5848a9	0.21121468
39	0xbd5d1c22	-0.053981908
40	0x398d7c7b	0.0002698636
41	0x3c94a12b	0.018143257
42	0xbe1b2bb2	-0.15153387
43	0xbc89a429	-0.01680191
44	0xbe10f9e5	-0.14157827
45	0xbe0ff384	-0.14057738
46	0xbdeaf30c	-0.11472139
47	0x3ccbac24	0.024862356
48	0xbe33d1ff	-0.17560576
49	0xbdb3c5bb	-0.087779485
50	0xbd215bbe	-0.039394133
51	0xbe372a42	-0.17887214
52	0x3d52a7ce	0.051429562
53	0xbe1110f5	-0.14166625
54	0xbe25b2e4	-0.16181523
55	0xbc497072	-0.012294875
56	0x3d4a441c	0.04938136
57	0x3b52fcbe	0.0032194103
58	0x3e07d801	0.13265993
59	0x3d95688f	0.072953336
60	0x3e2ab530	0.1667068
61	0xbd3edecf	-0.046599206
62	0x3e1a4e8a	0.15069023
63	0x3da52aa2	0.08064772
64	0x3e279e44	0.16368967
65	0xbdf07e97	-0.11742895
66	0xbe25d3c0	-0.16194057
67	0xbe526d2e	-0.20549461
68	0xbd3e2303	-0.04642011
69	0xbd4d1d54	-0.050076798
70	0xbc5938e3	-0.013258192
71	0xbdaf4a9f	-0.08559155
72	0xbdec5b9d	-0.11540911
73	0xbe2e3613	-0.17012815
74	0x3e189360	0.14899969
75	0x3e470f03	0.1943932
76	0xbe47878c	-0.19485301
77	0xbd3e6886	-0.0464864
78	0xbcd88673	-0.026431298
79	0x3e0994bd	0.13435645
80	0xbdfd5832	-0.123703375
81	0x3e148f87	0.14507876
82	0x3e3460b7	0.17615019
83	0x3e3c7aac	0.1840617
84	0xbd60baa4	-0.054865494
85	0x3d791926	0.060815
86	0x3d411032	0.047134586
87	0x3db0d41d	0.086342074
88	0x3e0515df	0.12996624
89	0xbe1c26e6	-0.15249214
90	0xbe283490	-0.16426301
91	0x3e339073	0.17535572
92	0x3d6f073a	0.0583565
93	0x3dc26fdd	0.094939925
94	0xbd68611b	-0.056733232
95	0x3cb140d5	0.02163736
96	0x3cc3a9f0	0.023884743
97	0xbd1dc46a	-0.038517393
98	0xbc21717a	-0.009853715
99	0x3d4c18c9	0.049828324
100	0xbe1db866	-0.15402374
101	0x3d1870b4	0.037216857
102	0x3d3c5518	0.04597959
103	0xbe1ef967	-0.15524827
104	0xbdc810b1	-0.09768809
105	0x3cbff2c2	0.023431186
106	0xbd50bafa	-0.050959565
107	0xbd1b2142	-0.037873514
108	0xbe4e4ef5	-0.20147307
109	0xbe611dc3	-0.2198401
110	0x3d0d998d	0.034570266
111	0x3e0f89b5	0.14017375
112	0xbe5cc02f	-0.21557687
113	0xbdaa8130	-0.08325422
114	0x3e19dd9f	0.15025948
115	0xbdbfafe9	-0.09359724
116	0x3e51ab9b	0.20475619
117	0x3e59be01	0.21263887
118	0xbca6411f	-0.020294724
119	0x3d0dbbc2	0.034602888
120	0x3daaf010	0.083465695
121	0x3df2d317	0.118566684
122	0xbe3d17c9	-0.18466105
123	0xbd30f85f	-0.043205615
124	0xbe0bc7c5	-0.13650425
125	0xbd858d63	-0.06521108
126	0xbd202ede	-0.039107196
127	0xbdf789a6	-0.12086801
128	0xbbe3b074	-0.006948525
129	0x3b905597	0.0044047344
130	0xbdcbc470	-0.09949577
131	0xbe2b8857	-0.16751228
132	0x3e33ed5e	0.17571017
133	0xbe33abdb	-0.17546026
134	0xbe09417e	-0.1340389
135	0xbc96272b	-0.018329224
136	0x3db542ee	0.088506564
137	0x3e1787c3	0.14797883
138	0xbe1be6cf	-0.15224765
139	0xbda91235	-0.08255426
140	0xbe61b253	-0.22040682
141	0xbe5e84dc	-0.2173037
142	0x3e12cc75	0.14335807
143	0x3b2ef92c	0.002669881
144	0xbe5fa6a8	-0.21840918
145	0xbdca6283	-0.09882071
146	0xbd59d4df	-0.053181525
147	0x3db904c1	0.0903411
148	0xbe3f5295	-0.18683846
149	0xbce7bbf3	-0.028287863
150	0x3e21ee1e	0.15813491
151	0x3d3aa614	0.04556854
152	0xbe3562bc	-0.17713445
153	0x3dcc6348	0.09979874
154	0xbc76b53f	-0.015057861
155	0x3de2f83c	0.11082503
156	0xbe1a6268	-0.15076602
157	0xbe3e010e	-0.1855509
158	0xbc81f9b2	-0.015866134
159	0x3e5bd41e	0.21467635
160	0xbe4f4faf	-0.2024524
161	0x3e531a6c	0.20615548
162	0xbdf619ae	-0.12016617
163	0xbbd4a717	-0.006489645
164	0xbd8a71b3	-0.06759968
165	0x3dfe81be	0.1242709
166	0xbd400f8d	-0.04688983
167	0x3e566505	0.20936973
168	0xbe59b21e	-0.21259353
169	0xbdc7878d	-0.09742651
170	0x3d9d33e3	0.07675912
171	0xbe24380e	-0.16037008
172	0x3e01ffb2	0.12695196
173	0xbccab33a	-0.024743665
174	0xbe25bd05	-0.16185386
175	0xbdd5f471	-0.10447014
176	0x3e1de36a	0.15418783
177	0xbcee2e10	-0.029074699
178	0xbe38b29d	-0.18036886
179	0x3e013401	0.12617494
180	0xbe0df68f	-0.13863586
181	0xbdc16969	-0.094439335
182	0x3ce0ed34	0.027456857
183	0xbd29eda8	-0.041486412
184	0x3df495ef	0.1194266
185	0xbe1e0df4	-0.1543501
186	0xbe48d6ba	-0.19613162
187	0xbdb15f8b	-0.086608015
188	0x3c6b9210	0.014378086
189	0xbe0a6b71	-0.13517548
190	0x3d556c3f	0.052105185
191	0x3e387ddc	0.18016762
192	0x3d2ebcc5	0.042660493
193	0x3d568b9f	0.052379247
194	0xbdc53c9a	-0.096306995
195	0xbbf1e18c	-0.0073816236
196	0xbdf65c0e	-0.12029277
197	0x3dbf2024	0.09332302
198	0x3d11c57d	0.03558873
199	0xbddb6f59	-0.10714597
200	0xbe07fbbb	-0.13279621
201	0x3e17e033	0.14831619
202	0xbe0fd8de	-0.14047572
203	0x3ca7c585	0.020479927
204	0xbd66ea11	-0.056375567
205	0xbe4823de	-0.19544932
206	0xbe0e6cac	-0.13908643
207	0xbe4852cc	-0.19562835
208	0x3e2c9a8b	0.16855828
209	0xbd0954a4	-0.033527985
210	0xbd335718	-0.04378423
211	0x3d9b6a4c	0.07588634
212	0x3e6233ae	0.22090027
213	0xbaabb6b0	-0.001310071
214	0x3e393284	0.18085676
215	0x3dbce41c	0.09223196
216	0xbe062dad	-0.13103361
217	0xbd09ba48	-0.033624917
218	0x3d63b4b2	0.055592246
219	0xbb53a7e8	-0.0032296125
220	0xbe516cf0	-0.20451713
221	0xbc998ba7	-0.01874335
222	0xbdd7a723	-0.10529926
223	0x3d95e3f1	0.07318867
224	0x3ce14cb2	0.027502391
225	0xbd287f23	-0.041136872
226	0x3dc9dc89	0.09856517
227	0xbdcf46c6	-0.10120921
228	0xbe0ba722	-0.13637975
229	0xbdc50e54	-0.096218735
230	0xbb29fb58	-0.0025937166
231	0xbd97480d	-0.073867895
232	0xbd1cdd81	-0.03829718
233	0xbe3b85a4	-0.18312699
234	0x3c629eaf	0.013831778
235	0xbe0996ea	-0.13436475
236	0x3d248404	0.040164962
237	0x3d5cb641	0.05388475
238	0xbe29462d	-0.16530676
239	0x3d24a86d	0.040199686
240	0x3d3b2a06	0.045694374
241	0xbd97919c	-0.0740082
242	0x3ddc2f11	0.10751165
243	0xbdd3e5de	-0.10346578
244	0x3cf3a0d2	0.029739771
245	0x3b924429	0.0044636917
246	0xbe58ab17	-0.21159016
247	0x3d16c72a	0.03681103
248	0xbd1f1f8e	-0.038848452
249	0xbe3a1281	-0.18171121
250	0x3c5c1901	0.013433696
251	0xbe0241f8	-0.12720478
252	0x3a95ae1e	0.0011419689
253	0xbe26b48b	-0.16279809
254	0x3ce94c13	0.028478658
255	0x3db7a089	0.089661665

linear1.bias f4 [256]
0	0x3ca047dd	0.019565517
1	0x3cbdd098	0.023170754
2	0x3b0ad6fe	0.0021185274
3	0x3bc61364	0.006044792
4	0x3c325bc9	0.010886141
5	0x3aff5539	0.0019480354
6	0x3bfa1d20	0.0076328665
7	0x3c887120	0.016655505
8	0x3c4bc3b5	0.012436797
9	0x3b8aa345	0.004230889
10	0x3c85d72c	0.016337954
11	0x3c5b7cfb	0.013396497
12	0x3c934408	0.017976776
13	0x3c06fd4b	0.008239101
14	0x3cc6780f	0.02422717
15	0x3c91afd9	0.017784046
16	0x3bdd5a6e	0.006755165
17	0xbb1c0ed3	-0.0023812547
18	0x3b5981c7	0.0033188926
19	0xbc7f777d	-0.015592453
20	0x3bca80e7	0.006179917
21	0xbc0ffd66	-0.008788442
22	0xba7de903	-0.00096859055
23	0x3c49c1d4	0.012314279
24	0x3cdf2ba7	0.027242495
25	0x3d151277	0.036394563
26	0x3cb6e237	0.022324665
27	0x3d2ad95d	0.0417112
28	0x39a113c1	0.0003072303
29	0x3cab3f84	0.02090431
30	0x3d652cbb	0.05595086
31	0x3b4dab8e	0.0031382772
32	0x3c7dc4fb	0.015488858
33	0xbb12e05d	-0.0022411563
34	0x3bd5f9b9	0.0065300134
35	0x3b91c71c	0.0044487845
36	0x3b863e4c	0.004096782
37	0x3c9a0c97	0.018804831
38	0xbaaf7722	-0.0013386945
39	0xba80b4e9	-0.000981954
40	0x3b42238e	0.0029623243
41	0x3b86682d	0.004101774
42	0x3c738115	0.0148623185
43	0x3cb66088	0.022262827
44	0xbc894255	-0.016755262
45	0x3b9c7aa1	0.0047753607
46	0x279c5de9	4.3400516e-15
47	0x3c0fb760	0.008771747
48	0x3cfcdb93	0.03086642
49	0x3c6d8c34	0.014498759
50	0x3c0a6a76	0.008448234
51	0xb8a889fc	-8.036566e-05
52	0xbc4ba944	-0.012430493
53	0x3ca5aa47	0.020222796
54	0x3b69e176	0.0035687364
55	0xbc889943	-0.016674643
56	0x3b8e04fe	0.004334091
57	0x3c1506ab	0.009095828
58	0x3967e8b3	0.00022116564
59	0xb9d7b8fc	-0.0004114582
60	0x3ab8ae00	0.0014089942
61	0x3c8bca35	0.017064193
62	0x3c9d8ef1	0.019233199
63	0x3ce32f7e	0.027732607
64	0x3bd280a6	0.0064240275
65	0x3c066cc5	0.008204644
66	0x3b806e50	0.0039194003
67	0x3d4937df	0.04912555
68	0x3c10894f	0.008821799
69	0x3c0a9c57	0.008460126
70	0x3ab31909	0.0013664077
71	0x3c66c7cb	0.01408572
72	0x3c25ef2d	0.010127825
73	0x3c3bcec0	0.011462867
74	0x3c4dc861	0.012559981
75	0x3c400c99	0.0117217535
76	0x3c003102	0.007824184
77	0x252e623d	1.5125379e-16
78	0x3c668bf4	0.014071453
79	0x3c29a0ac	0.010353249
80	0x3c650d6f	0.013980254
81	0x3c830918	0.015995547
82	0x3c829e71	0.015944691
83	0x3c6457c1	0.013936938
84	0x3ca28aba	0.01984154
85	0x3ccf482e	0.025302973
86	0x3c51272b	0.012765686
87	0x3bad585c	0.0052900743
88	0x3cbec5ab	0.023287615
89	0x3c515d6b	0.01277862
90	0x3aa54091	0.0012607743
91	0x3bd09bbe	0.006366222
92	0x3c283f82	0.010269048
93	0x3cd68b6c	0.026189528
94	0x3cb6fb20	0.022336543
95	0x3c6762fb	0.01412272
96	0x3cb52e6d	0.022116864
97	0x3c1a89d2	0.009432273
98	0x3ca58f2f	0.020209877
99	0x3afa3d51	0.001909176
100	0x3ba3f641	0.005003721
101	0x3b989d16	0.004657398
102	0x3c1c83e5	0.0095529305
103	0x3c760774	0.015016425
104	0x3ba8e594	0.005154321
105	0x3bc7159e	0.006075575
106	0x3d17c0c4	0.03704907
107	0x3c08da92	0.0083528925
108	0x3a856ef2	0.0010180159
109	0x3bd8ed5d	0.006620093
110	0x3cdbc190	0.026825696
111	0x3cd933d3	0.02651397
112	0x3d06b239	0.03288481
113	0x3b22d5e9	0.0024846739
114	0x3cf3c46f	0.029756753
115	0x3c4fbfcd	0.012680006
116	0x3ced38f4	0.028957821
117	0x3c945643	0.018107539
118	0x3d1f9a05	0.038965244
119	0x3d3bcf60	0.045852065
120	0x3ccc3b8c	0.024930738
121	0x3c5493fc	0.012974735
122	0x3abe9bf2	0.0014542325
123	0x3b3d9787	0.0028929429
124	0x3c3dbd40	0.011580765
125	0x3cdbac14	0.026815452
126	0x3b8d9e45	0.0043218457
127	0x28674dc0	1.2839935e-14
128	0x3cdafa8e	0.026730802
129	0x3cf7dac1	0.030255677
130	0x3cb21348	0.02173771
131	0x3bdf1d54	0.006808916
132	0xb9c4775d	-0.00037472966
133	0x3c9ac479	0.018892514
134	0x394d9c07	0.00019608448
135	0x3d1f417a	0.038880803
136	0x3c446271	0.011986361
137	0x3bed781e	0.007246985
138	0x3d089ecc	0.033354566
139	0x3cc0b43a	0.023523439
140	0x2845aaea	1.0972758e-14
141	0x3cbdfd60	0.023192108
142	0x3c31216a	0.010811189
143	0x3c6ba2e1	0.014382095
144	0x3cb378f6	0.021908265
145	0x3bd7422a	0.0065691667
146	0x3b8a35c8	0.004217837
147	0x3c15882b	0.009126703
148	0x3c9f2232	0.019425485
149	0x3c82d59e	0.015971001
150	0x3bd06381	0.006359518
151	0x3cdd5b1c	0.027020983
152	0x3ba96952	0.005170026
153	0xbae58244	-0.0017510136
154	0x3ba99b87	0.005176011
155	0x3c8d0bb8	0.017217502
156	0x3ad5e844	0.0016319831
157	0x3cd7a835	0.026325325
158	0x3d384e6c	0.044996664
159	0x3c2733b8	0.010205202
160	0x3bc2e86d	0.0059481175
161	0x3ba72dd6	0.0051018996
162	0xbb2a55e8	-0.0025991146
163	0x3c7b18fa	0.015325779
164	0x3bd54a17	0.0065090763
165	0x3c8d1d03	0.017225748
166	0x3cb1326b	0.021630486
167	0x3cb92b3a	0.02260362
168	0xbb4618cb	-0.003022718
169	0x3c45cc9f	0.012072711
170	0x3cf36845	0.029712806
171	0x3c920785	0.017825851
172	0x3cfd6e4a	0.030936379
173	0x3baf463e	0.0053489497
174	0x3c91b2c5	0.01778544
175	0x3b5e0fa0	0.0033883825
176	0x3c1b543e	0.009480534
177	0xbb278138	-0.0025559198
178	0x3be0cb64	0.0068601836
179	0x3c4f03e1	0.012635202
180	0x3be09146	0.0068532554
181	0xbb163d63	-0.0022924773
182	0x3b981dff	0.0046422477
183	0x3c67a137	0.014137558
184	0x3b9deaa5	0.0048192316
185	0x3c927334	0.017877199
186	0x3c1fe0d5	0.009758194
187	0x3d76cf06	0.060256027
188	0x3d5ed182	0.05439902
189	0x3d2bb04c	0.041916177
190	0x3c75e840	0.015008986
191	0xbaf8b81e	-0.001897577
192	0xbaf0c92a	-0.0018370498
193	0x3c1456d6	0.009053906
194	0x3c2e46a1	0.010636956
195	0x3d1db620	0.038503766
196	0x3be4f328	0.0069869943
197	0x3bcb8fc4	0.0062122066
198	0x3be5390e	0.006995327
199	0x3c969891	0.018383296
200	0xbaef232e	-0.0018244737
201	0x3c865fdf	0.016403137
202	0xbb995d60	-0.0046803206
203	0x3d4b0277	0.049562898
204	0x3ca08745	0.019595752
205	0x3cd10184	0.025513418
206	0xbb915207	-0.0044348272
207	0x3cd76cbf	0.026296971
208	0x3c89e633	0.0168334
209	0x3c03b3ff	0.00803852
210	0x3c74648c	0.01491655
211	0xbb9771a9	-0.0046217036
212	0x3d3d5d0f	0.046231326
213	0x3c45587d	0.012045023
214	0xbbee1ddd	-0.0072667436
215	0x3bf8aab0	0.007588707
216	0x3c11384c	0.00886352
217	0x3bf26715	0.0073975422
218	0x3c854c59	0.016271757
219	0x3bc94924	0.0061427522
220	0x3cdcae08	0.026938453
221	0xba03000e	-0.00049972616
222	0x3d3ca0e3	0.04605187
223	0x3bb69c97	0.005572866
224	0x3c31a60a	0.010842809
225	0x3c6509b1	0.013979361
226	0x3d18710c	0.037217185
227	0x3c705d2a	0.01467065
228	0x3c19c5ba	0.009385521
229	0x3c484c94	0.012225289
230	0xbab2af3f	-0.001363255
231	0x3bbdb5dd	0.005789502
232	0x3b6da5e9	0.003626222
233	0x3c7222cb	0.014778803
234	0x3c888ae2	0.016667787
235	0x3c9b3cfe	0.018949982
236	0x3cb788a5	0.022404024
237	0x3c584745	0.013200586
238	0x3c07a958	0.008280121
239	0x3b980e5e	0.0046403846
240	0x3c56e7da	0.013116801
241	0x3ca570e7	0.020195438
242	0x3bf0ef29	0.007352729
243	0x3b747615	0.0037301828
244	0x3c0aef9e	0.008479981
245	0x3cb69ef8	0.0222926
246	0x3ccc7e7d	0.024962658
247	0x3c9feadb	0.019521168
248	0x3d133868	0.035942465
249	0xbb110306	-0.0022127046
250	0x3b8bf543	0.004271181
251	0x3b8f33aa	0.0043701725
252	0xbb6f6585	-0.0036529016
253	0x3c7b2154	0.01532777
254	0x3b97869f	0.0046242024
255	0x3d7012ce	0.058611684

linear2.weight f4 [59, 256]
0	0x3d5b86d2	0.05359537
1	0x3d5a5166	0.053300284
2	0x3db2171a	0.086958125
3	0x3e06f322	0.13178685
4	0x3d31f906	0.043450378
5	0x3d970f5f	0.07375979
6	0xbf0a30d5	-0.5398076
7	0x3d63deab	0.055632275
8	0xbcb7d02a	-0.022438128
9	0x3d4cf3c0	0.050037146
10	0x3d6d7200	0.057970047
11	0x3daf8b64	0.085715085
12	0xbefbe9a4	-0.4920169
13	0x3d107115	0.035264093
14	0x3d56e13b	0.05246089
15	0x3d901bc6	0.07036547
16	0x3d5662ce	0.05234032
17	0xbd179910	-0.037011206
18	0xbf114f2a	-0.5676142
19	0x3d711e93	0.05886705
20	0x3da0e910	0.07856953
21	0xbea2eb63	-0.3182021
22	0x3d34470f	0.04401308
23	0x3d6af20f	0.05735975
24	0x3d620ad4	0.055186108
25	0xbefd5869	-0.49481514
26	0x3dd3bce2	0.10338761
27	0xbda6cff7	-0.08145135
28	0xbee6918b	-0.45032915
29	0xbda3429d	-0.0797169
30	0xbef269ca	-0.47346336
31	0xbe7a8f4a	-0.24468723
32	0x3d707f49	0.05871514
33	0xbdbc4c7e	-0.09194277
34	0xbe67d8c9	-0.2264129
35	0x3d1fdd77	0.039029565
36	0x3db2ead8	0.08736199
37	0x3dab04d4	0.0835053
38	0x3cc9c9e7	0.024632407
39	0xbe9f510f	-0.3111653
40	0xbe316649	-0.17324175
41	0xbef5f07c	-0.48035038
42	0xbe96b74e	-0.29436725
43	0x3d6aad84	0.057294384
44	0x3d6a3e6b	0.057188433
45	0x3da1bc29	0.07897217
46	0xa98fcc16	-6.385879e-14
47	0x3d6f166f	0.058371004
48	0x3e07d96b	0.13266532
49	0xbee1cb0b	-0.44100222
50	0x3d6fcd3c	0.058545336
51	0x3d9ba7e9	0.07600386
52	0x3d9c4e3d	0.0763211
53	0xbf14efc5	-0.5817836
54	0xbe315f62	-0.17321542
55	0xbc82c5a5	-0.015963385
56	0xbe1e019a	-0.15430298
57	0xbebc811c	-0.36817253
58	0xbef75f11	-0.48314717
59	0xbee836fa	-0.45354444
60	0xbe713373	-0.23554783
61	0x3cb739b8	0.02236639
62	0x3d950cf6	0.07277863
63	0x3d9cdd1f	0.07659363
64	0x3dc9b59d	0.09849093
65	0x3db40dbe	0.087916836
66	0x3d3a7994	0.045526102
67	0xbd6a9bd1	-0.057277504
68	0x3c69a212	0.014259832
69	0x3d36f6bd	0.0446689
70	0xbd1e606d	-0.038666178
71	0x3d945226	0.07242231
72	0x3d92363a	0.07139249
73	0xbe029d98	-0.1275543
74	0xbcf8f780	-0.030391455
75	0x3d953ff8	0.07287592
76	0x3d95e201	0.073184974
77	0xa68f35f0	-9.937238e-16
78	0x3df1fbfb	0.118156396
79	0x3d9efdba	0.07763238
80	0xbe3bfb4e	-0.18357584
81	0x3cc760d7	0.024338169
82	0x3d9302d3	0.07178273
83	0xbef12534	-0.47098696
84	0x3df13ea2	0.117795244
85	0x3d6fc2c8	0.058535367
86	0x3d9f8443	0.07788899
87	0xbeda5a1b	-0.4264687
88	0xbce5ff94	-0.02807597
89	0x3dc51006	0.09622197
90	0x3ca0ac3c	0.019613378
91	0xbe929ada	-0.28633767
92	0xbc4f779f	-0.012662797
93	0xbeaf2903	-0.34210977
94	0xbe8b5d83	-0.2721978
95	0xbd834e95	-0.06411473
96	0x3d443f6c	0.047912046
97	0xbe989afd	-0.29805747
98	0x3e02a4ef	0.1275823
99	0xbe66dfbb	-0.22546284
100	0xbe8964d7	-0.26834747
101	0x3d3888d9	0.045052383
102	0xbeb08c0e	-0.34481853
103	0xbc790ba4	-0.015200529
104	0x3d87d562	0.066324964
105	0xbede7c67	-0.43454286
106	0x3d6e2596	0.058141313
107	0xbeefffe3	-0.46874914
108	0x3d01bf89	0.031676803
109	0x3d49b43a	0.049244143
110	0x3cc2bcd7	0.023771686
111	0xbe0dc3cb	-0.1384422
112	0xbd968862	-0.07350232
113	0x3dcce635	0.10004846
114	0x3d2facd5	0.042889435
115	0x3c8b5bfa	0.017011631
116	0x3d932413	0.07184615
117	0x3d2c4b05	0.04206373
118	0x3dbd946d	0.092568256
119	0x3dca8643	0.0988889
120	0x3d95c705	0.073133506
121	0xbe6fa278	-0.2340182
122	0x3c9c2958	0.019062683
123	0xbd32f1fa	-0.043687798
124	0x3d68b07e	0.05680894
125	0x3daee1c4	0.08539155
126	0xbebe29aa	-0.37141162
127	0x28d90b1f	2.4096663e-14
128	0x3d7f9397	0.062396612
129	0x3d8c7629	0.06858475
130	0xbe871348	-0.26381898
131	0xbdd3e19f	-0.10345768
132	0xbba75773	-0.0051068603
133	0x3d17ebba	0.03709004
134	0xbe57df5e	-0.21081302
135	0xbd22cbda	-0.03974519
136	0x3da7a06c	0.08184895
137	0xbe4b1291	-0.19831301
138	0xbe0cf65c	-0.13765854
139	0x3dccdab7	0.10002654
140	0x2a0135ec	1.147621e-13
141	0xbebecd56	-0.37266034
142	0xbb07f802	-0.002074719
143	0xbb2fadfe	-0.0026806588
144	0x3da9e5c2	0.08295776
145	0x3dd925eb	0.106029354
146	0x3cc6e40c	0.024278663
147	0xbecb4253	-0.3969904
148	0xbe2164c1	-0.15761091
149	0x3da4a658	0.0803954
150	0xbefecd06	-0.49765795
151	0xbe839848	-0.2570212
152	0x3d39d7b3	0.045371722
153	0x3dc230fa	0.09481998
154	0x3dae0d97	0.08498686
155	0xbd0e64af	-0.034763988
156	0xbf08f56b	-0.5349948
157	0xbe87756e	-0.2645678
158	0xbef436b2	-0.4769798
159	0x3dc1c0ef	0.09460627
160	0x3dd4843e	0.10376786
161	0xbe6c7456	-0.23091254
162	0x3da2008b	0.0791026
163	0xbc47562c	-0.012166541
164	0x3d5af1bf	0.053453203
165	0x3dffca10	0.12489712
166	0xbc2f63da	-0.010704959
167	0x3d8f1944	0.06987241
168	0xbebc0d28	-0.36728787
169	0x3d4f42f4	0.05060096
170	0xbf004adf	-0.50114244
171	0x3dc1756c	0.094462246
172	0x3c52d36a	0.012867788
173	0xbe9bfebd	-0.30467787
174	0xbced4019	-0.028961228
175	0xbe602614	-0.21889526
176	0x3d69ec47	0.057110097
177	0xbb95c20c	-0.0045702513
178	0x3df96638	0.121777
179	0xbd331469	-0.043720637
180	0x3d7f7bc1	0.06237388
181	0x3d13fa96	0.03612765
182	0x3d1c1805	0.038108844
183	0xbea82678	-0.3284185
184	0x3d4e9896	0.050438486
185	0xbd37c69a	-0.044867136
186	0x3da0da3c	0.07854125
187	0xbeeb7ffb	-0.4599608
188	0xbdf338e6	-0.11876087
189	0xbd1c7ee4	-0.03820695
190	0x3dcbace9	0.09945089
191	0x3d8dfb62	0.06932713
192	0xbb1f92bb	-0.0024348933
193	0xbdd00559	-0.1015727
194	0x3d8ba2d6	0.06818168
195	0xbd196fc3	-0.0374601
196	0xbdc2f5d3	-0.095195435
197	0xbe928fb1	-0.28625253
198	0xbdbe69e5	-0.092975415
199	0xbeb10353	-0.3457285
200	0x3d295cfc	0.041348442
201	0xbe131fe3	-0.14367633
202	0xbef9faab	-0.48824057
203	0xbf16bdd2	-0.5888339
204	0xbd74fe9e	-0.059813134
205	0x3d53dc36	0.05172368
206	0x3c8b7519	0.01702361
207	0x3d879150	0.06619513
208	0x3d46fb1b	0.048579317
209	0x3c007fee	0.007843001
210	0x3dacf094	0.08444324
211	0x3e32f807	0.17477427
212	0x3dca80f5	0.09887878
213	0x3dd21ae4	0.10259035
214	0x3e2e78fc	0.1703834
215	0x3db2ad9a	0.08724518
216	0xbdba786a	-0.091049984
217	0x3d92881f	0.07154869
218	0x3d7d4127	0.061829712
219	0xbe9292dd	-0.28627673
220	0x3d176ff1	0.03697199
221	0xbe5ade5c	-0.21373886
222	0x3dca81f4	0.09888068
223	0xbd372fd5	-0.04472335
224	0x3d6f976a	0.05849401
225	0xbe54ae64	-0.2076965
226	0x3daeeba8	0.085410416
227	0x3dc3eccc	0.0956665
228	0x3dc99fe2	0.09844948
229	0x3cbd4138	0.023102388
230	0x3d57cf4d	0.05268793
231	0x3d52f426	0.05150237
232	0xbee35492	-0.4440046
233	0x3d87f0e1	0.06637741
234	0x3d5dfecf	0.054198083
235	0x3d81544a	0.06314905
236	0x3d83c0d1	0.06433261
237	0x3d34f827	0.04418197
238	0x3d0c121a	0.03419695
239	0x3d6e6d47	0.058209684
240	0x3d45b3c4	0.04826714
241	0x3d12bcc8	0.035824567
242	0xbd44d3aa	-0.04805342
243	0x3b9f62ca	0.0048640715
244	0xbef17de0	-0.47166348
245	0xbd9656af	-0.07340752
246	0x3db8fb35	0.09032289
247	0x3dcdff80	0.100584984
248	0x3d913ddb	0.07091876
249	0xbe9d1df0	-0.30686903
250	0x3d50bf28	0.05096355
251	0xbf00128d	-0.50028306
252	0xbe0d95b6	-0.13826641
253	0x3d63a911	0.055581156
254	0xbe055e02	-0.13024142
255	0x3d88bb28	0.06676322

linear2.bias f4 [59]
0	0xbc81714e	-0.015801098
1	0xbc9e8f42	-0.01935542
2	0xbc6cb269	-0.014446833
3	0xbc6ab6e2	-0.014325829
4	0xbc554edd	-0.013019291
5	0xbca47d20	-0.020079195
6	0xbca1765a	-0.019709755
7	0xbca5f4cc	-0.02025833
8	0xbc6c7388	-0.014431842
9	0xbc5674da	-0.013089383
10	0xbc8742f6	-0.016511422
11	0xbc924be5	-0.017858455
12	0xbc875e9d	-0.016524607
13	0xbc9b8572	-0.01898453
14	0xbc5e466d	-0.0135665955
15	0xbc1d4a40	-0.009600222
16	0xbca19c33	-0.019727802
17	0xbc540ecf	-0.012942984
18	0xbca1259d	-0.019671256
19	0xbc920f4c	-0.01782956
20	0xbc57db08	-0.01317478
21	0xbc310e0e	-0.010806574
22	0xbcb4fd56	-0.022093456
23	0xbc92de41	-0.017928245
24	0xbc566ff1	-0.013088212
25	0xbca1d02e	-0.019752588
26	0xbc924cd3	-0.017858898
27	0xbc3edebe	-0.011649786
28	0xbc8fb0f4	-0.017540433
29	0xbc803bc6	-0.015653502
30	0xbc934800	-0.017978668
31	0xbc823463	-0.01589412
32	0xbc1aa28a	-0.009438166
33	0xbc8ef7ed	-0.017452205
34	0xbc93b08f	-0.018028526
35	0xbc90e00f	-0.017684964
36	0xbc6a3392	-0.014294522
37	0xbc866ca2	-0.016409222
38	0xbc8dc0d8	-0.01730387
39	0xbc3d7c43	-0.011565271
40	0xbc88952c	-0.016672693
41	0xbc9d6b53	-0.019216215
42	0xbc823279	-0.015893208
43	0xbc97536f	-0.018472401
44	0xbc5969b1	-0.013269828
45	0xbc90cbe1	-0.017675342
46	0xbc9377e1	-0.018001499
47	0xbc8ee925	-0.017445156
48	0xbcbb6083	-0.022873169
49	0xbc6ee580	-0.014581084
50	0xbc1e7694	-0.009671826
51	0xbca896b2	-0.02057967
52	0xbc3b1b30	-0.011420056
53	0xbc88ceef	-0.016700236
54	0xbc80f2dc	-0.015740804
55	0xbc6e8e6a	-0.014560321
56	0xbc39cbf0	-0.011340126
57	0xbc928263	-0.017884439
58	0xbc8c4d52	-0.017126713
