intermediary/model_19500.pth (torch, 356400 bytes, 5 tensors)

embed.weight f4 [59, 128]
00000000: 5b19 b1be fd71 5f3e e2b9 9cbe b917 b0be
00000010: 0f0b b53e c687 c63e 3eac b5bd 9b0b e6be
00000020: dd82 da3e fa18 ad3e cf6e 55be c4d8 c7be
00000030: a2c2 9bbb 367e 73be e1d8 b2be a85b b93e
00000040: 2456 3cbe 41c7 dfbe e3b6 b4be e44e c73e
00000050: 5d3b cf3e 6a9c 833e 7b75 713e 073d c83d
00000060: 83d8 ad3e c048 d43e d8a5 b0be e88d 463e
00000070: 28e2 c8bb 8284 d03e 7a5f d53e ab28 11be
00000080: c38c d7be 65fc c6be e7b6 95be 2155 84be
00000090: 47f0 a93e 1593 f93e ef9a 3e3e 1da8 8ebd
000000a0: 14e9 bfbd 584a a8be 49ce de3e 47b5 8d3e
000000b0: 05d1 c53e ef0d 803d 4932 da3e df81 f63e
000000c0: 6232 bdbe faa0 8cbe 199d fa3e 48f6 c43e
000000d0: 4d51 aebe 503d c8be c8b0 a83e d109 983e
000000e0: 39f3 c2be aa4c 483e 6deb 70be c4b4 b33e
000000f0: 871b a5be a830 bc3e e271 e0be 611d c3be
00000100: 4003 abbe 1ade 893e fd51 3fbe 2f53 b23e
00000110: 065c b93e fad9 e7be d34f 60be 450a cdbe
00000120: b3f5 d7be 985a d7be 9bdf 5c3e 463a 95be
00000130: 7453 f23e 4952 ad3e 2535 6d3e e97c d73e
00000140: 516c a93e 1ca6 acbe c39a 7ebe 3248 f8be
00000150: 5514 d03e e120 acbe 15d6 8abc 54ea c5be
00000160: 5421 dfbe 3fcf c43e 8057 a73e dfda bdbe
00000170: 0fb0 c83e cd85 f1be 9bb6 b7be f267 af3e
00000180: 2219 823e de84 e43e daa0 94be 12bc a23e
00000190: 341f 723e 3c32 e2be 2f20 95be 1283 583e
000001a0: 62ee dd3e fbbf cdbe 2329 e03e e9df e43e
000001b0: 6cae 943e c9c1 96be 5982 d9be 0f13 87be
000001c0: 67da ae3e 3e86 66be 213c dcbe 90a1 d7be
000001d0: a39b b83e 67cd cfbe 355c 093e 90ec 97be
000001e0: e25f dd3e 8648 acbe bcf2 b83e 84ac b33e
000001f0: c85e d6be 9c9f 883e 282c de3e bf57 f53e
00000200: 825a 353e bfba aa3e b402 14be c924 e8be
00000210: d69f bcbe 6329 54be f6a8 ebbd 5013 d5be
00000220: 48b9 25be d449 e23e 8d1f c8be e413 653e
00000230: 9a58 e23e 81d2 ff3e c72d a9be 010c b5bd
00000240: 9e40 763e 85e1 673d eed0 c83e 2987 c4be
00000250: 5d32 c83e 9b1e c0be 28f3 d6be 6df5 a9be
00000260: c29f 53be 59fa 0dbe 737f 9e3e 8ed3 ebbe
00000270: 0e61 ecbe d46b 56be a32b 6ebe f5fc c13e
00000280: e07f b93e c996 e6be 39d6 f83e 4d61 d23e
00000290: 7f50 cebe 12e0 b0be c899 debe 580e c43e
000002a0: 3cb6 e83e f662 f23e 28a1 cabe 01ee cc3e
000002b0: 9e58 93be 4faa d5be 2868 013f 7c50 b63e
000002c0: 0bb6 ebbd d6b2 e5be 8322 d33e c1bb c73e
000002d0: 1bf8 d3be 99e1 673e 3ed2 90be 4742 9a3e
000002e0: d072 aebe 655a f7bd 70f2 df3e acf8 033e
000002f0: d5e0 c23e 88b3 a3be 7741 d4be e5e3 9dbe
00000300: d0ea abbd 927a 9d3e 1764 df3e 460a e13e
00000310: 0a96 cfbe bc77 d8be e5e9 e73e 069a c33e
00000320: 2569 c63e 15ae d63d e06a c9be 1a65 c3be
00000330: d04e 63be 6c0d 8d3e fa81 9fbe 7697 083e
00000340: 3b5c 00bf 184a 9ebe 4032 6a3d da23 dabe
00000350: 2913 c5be 57f8 8cbe 02ff b3be 23a5 c2be
00000360: 16c3 ba3e d719 d3be a344 e0be e9b9 15be
00000370: 5f29 6d3e 6a7d e6be 2404 bb3e 453e 813e
00000380: 4cde e5bd 5dcd 66be 6d8d 6d3e dbc5 85be
00000390: 7e5a c0be 27fc 803e 5167 4dbe 60dd c4be
000003a0: 993e 68be b897 b73e 7670 ed3e 6f63 963e
000003b0: f367 d8be 0b5b 943e ab04 b03e c998 f1be
000003c0: 4f3b d3be 9790 db3e c889 5d3e 8052 d13e
000003d0: 0b8e d1be 19ff 4dbe 82ae aa3e 154d b6be
000003e0: 9b18 96be b104 d33e a473 e93e 3c57 73be
000003f0: 6ac2 7bbe 9f8e b1be bc27 d83e 648b bdbe
-0.34589657 0.21820827 -0.30610567 -0.343931 0.3536 0.38775462 -0.08870743 -0.4493073
0.42677966 0.33808118 -0.20843051 -0.39032567 -0.0047534266 -0.23778614 -0.3493109 0.3620274
-0.18392235 -0.43706706 -0.35295781 0.38927376 0.40474978 0.25705272 0.23579971 0.09777265
0.33954248 0.41461754 -0.3450153 0.1939007 -0.0061304756 0.40726095 0.41674405 -0.1417567
-0.4209958 -0.38864437 -0.29241106 -0.25846198 0.3319113 0.48745027 0.1861379 -0.06965659
-0.09370628 -0.3286922 0.43516758 0.27677366 0.38636032 0.062526576 0.4261649 0.4814596
-0.36952502 -0.27466565 0.4894798 0.38469148 -0.34046403 -0.39109278 0.32947373 0.2969499
-0.3807619 0.19560495 -0.23527308 0.3509885 -0.32247564 0.36755872 -0.43836886 -0.38108352
-0.33400917 0.26927263 -0.1868362 0.3482909 0.3620302 -0.4528349 -0.2190545 -0.40046898
-0.4217964 -0.42061305 0.21569674 -0.29146022 0.47329295 0.3385184 0.23164804 0.42087486
0.3309045 -0.3372048 -0.24863724 -0.4849258 0.40640512 -0.33618835 -0.016947785 -0.3865534
-0.43580115 0.38439366 0.32683945 -0.37081048 0.39196822 -0.47172394 -0.35881504 0.3425899
0.254098 0.4463262 -0.2902897 0.3178411 0.23644716 -0.4417895 -0.29126117 0.2114375
0.43345934 -0.40185532 0.43781385 0.4470208 0.29039323 -0.2944472 -0.4248226 -0.26381728
0.34151003 -0.22512147 -0.43014625 -0.4211545 0.3605624 -0.40586397 0.1341408 -0.2967267
0.43237215 -0.3364908 0.36122692 0.35092556 -0.41869187 0.26684272 0.43393064 0.47918507
0.17710307 0.333456 -0.14454156 -0.45340565 -0.36840695 -0.20718913 -0.11506836 -0.41616297
-0.1618396 0.4419695 -0.3908657 0.22370869 0.44208223 0.4996529 -0.33042738 -0.0884018
0.24048087 0.056611557 0.392219 -0.3838437 0.39100924 -0.3752335 -0.41982388 -0.33195058
-0.20666412 -0.13865031 0.3095661 -0.4605984 -0.46167797 -0.2093957 -0.23258834 0.37888303
0.36230373 -0.45036915 0.4860094 0.4108986 -0.4029579 -0.34545952 -0.434767 0.38292193
0.45451534 0.47341126 -0.39576077 0.40025333 -0.28778547 -0.41731498 0.50549555 0.3560828
-0.11509331 -0.44863003 0.41237268 0.39010432 -0.41400227 0.22644652 -0.28285402 0.3012869
-0.3407197 -0.12077788 0.43739653 0.1288783 0.38062158 -0.3197291 -0.41456196 -0.30837932
-0.08394396 0.30757576 0.4363105 0.4395315 -0.40544158 -0.4227885 0.45295635 0.38203448
0.38752094 0.10482422 -0.39339352 -0.38163072 -0.22198033 0.27549303 -0.31153852 0.13339028
-0.5014073 -0.30915904 0.05717683 -0.42605478 -0.3849118 -0.27533218 -0.35155493 -0.38016614
0.36476964 -0.41230652 -0.43802366 -0.146217 0.23160313 -0.45017558 0.36526597 0.2524282
-0.112240404 -0.22539277 0.23198481 -0.26127514 -0.3756904 0.25192377 -0.20058943 -0.38450146
-0.22680129 0.3585794 0.46374863 0.29372737 -0.42266807 0.2897571 0.3437856 -0.47186878
-0.41256186 0.4288375 0.2163459 0.40883255 -0.40928683 -0.20116843 0.33336264 -0.35605684
-0.29315647 0.41214517 0.4559604 -0.23763746 -0.24585882 -0.34679124 0.42217815 -0.3702041

linear1.weight f4 [256, 256]
00000000: e11a 09be 03cb 14be 97f0 2e3e 72ad ff3d
00000010: b197 0abe 5bf4 703d 1a90 2b3e ceb8 463c
00000020: 29b7 5bbe 3ebe 3bbd 7935 2e3e 3bcb 1dbe
00000030: d6ae 7a3c 4576 37ba 9a99 1dbe ee85 413e
00000040: ee01 923d 3d38 143e 1a6e 593e 99af e83d
00000050: c122 a4bd edb9 c93d 1db6 dd3c 61d9 0c3e
00000060: f656 1abd 9252 3ebe a934 35be 8155 aebd
00000070: 1285 e63d 5aa6 62bb 7899 d7bd d868 b3bb
00000080: 8b91 febc f9b9 fdbc 038b 7bbb 8807 423e
00000090: 6fa8 a13d 5547 fabd 1a4c 5b3e 2146 55bd
000000a0: 8369 6339 0e62 8a3c 5f16 1dbe aff1 75bc
000000b0: 9d90 18be 8efd 11be 57f8 fcbd 33fc 1f3d
000000c0: 2715 30be 15b3 9fbd 59a7 47bd 60b1 34be
000000d0: 06ca 4e3d 24a7 15be 8653 26be cc51 22bd
000000e0: a167 5b3d 18ad 633b 5fcc f93d 1658 633d
000000f0: 23a3 273e c4c2 37bd 74d7 223e fe1d 953d
00000100: 11ec 2a3e 2722 e9bd 2f47 29be 2bdd 55be
00000110: 9fd6 4bbd 28a6 49bd b166 efbb 9154 abbd
00000120: 6746 00be 55bf 2fbe 87ea 1d3e 5aa7 463e
00000130: ba0a 51be d110 3fbd 480e ddbc 54c9 0b3e
00000140: 2799 02be ac6c 153e c6e4 353e 6cff 3b3e
00000150: 9a42 7abd 8866 863d 8316 653d d2a0 d13d
00000160: e938 043e a431 18be 9a16 27be 1b95 333e
00000170: 8cab 823d aa5e a73d 72bd 46bd dfc8 e93c
00000180: b4c3 403c 4a8a 27bd 8c5a 8abc 16b8 573d
00000190: 4a82 22be c44a 033d c7ce 583d 3f3a 25be
000001a0: bcb2 c5bd 4416 9d3c ce8a 4ebd b0fc 43bd
000001b0: 7407 53be 93b3 64be 6bba 033d 1957 0f3e
000001c0: e706 5ebe 98d3 a8bd 8a80 1a3e 3441 bcbd
000001d0: dedd 563e 0e97 5c3e f3db 63bc ddd7 cb3c
000001e0: 60b3 8c3d fdd7 ec3d 2a4c 44be 5d61 33bd
000001f0: 94ab 0dbe 1b85 8bbd 48e0 0bbd b6fa ebbd
00000200: 414e 09bc b150 003c 6094 e6bd fc5c 31be
00000210: 2afe 373e cf29 31be 75c3 0ebe 18c2 bdbc
00000220: 0860 b13d 1295 193e ee53 10be f5a4 b1bd
00000230: 9769 68be 674a 5cbe d61b 223e 6c26 3b3c
00000240: 8591 62be e368 cdbd 3284 74bd 00f8 b63d
00000250: 8701 40be c241 debc 2e9d 1a3e 65f7 3a3d
00000260: 9148 34be 20ab e83d fa82 f6bb c1aa e83d
00000270: d301 1dbe 144b 3cbe 2460 5fbc e77b 5f3e
00000280: 47cb 53be 17da 563e deba f0bd 09d7 a5bb
00000290: e53c 40bd f287 013e 2565 53bd 8a29 5a3e
000002a0: c494 62be 2de6 b9bd 4130 a03d 6bff 24be
000002b0: 1af6 153e 6ea4 c0bc 87bc 25be 21b5 d7bd
000002c0: e53f 233e 297b b3bc 4f19 36be 1e87 003e
000002d0: 8002 13be 2351 c1bd 8e63 c13c 87f4 30bd
000002e0: 5db3 ea3d 208e 18be 8dd8 56be 838f a5bd
000002f0: efc2 8b3c 550d 10be 07b6 533d 31ee 3c3e
00000300: eb53 133d 9a73 653d a92b cbbd 2a16 e9bc
00000310: 9c3c cbbd eb96 be3d f05c 0b3d d841 dbbd
00000320: 92fb 03be 04eb 183e 3f0b 21be 3da7 9a3c
00000330: a6ff 33bd f179 48be 9cac 13be 3957 45be
00000340: 5c9f 303e 39ff 17bd 5295 3dbd e21e 9a3d
00000350: f48e 653e 7bee 49bc c624 373e baf7 b83d
00000360: a3de 03be 2e9f d4bc f496 673d 97cc 833c
00000370: 45c1 54be 43d1 68bc b849 e4bd 5aca 893d
00000380: ceed 043d 6baf 34bd 567d c23d d480 d5bd
00000390: fb22 0abe 5113 c8bd c889 72bb f954 85bd
000003a0: e052 4ebd f977 41be 4575 943c 252d 08be
000003b0: 3bcb 113d 55c2 823d 61cf 2bbe 16a8 233d
000003c0: de7a 2a3d 6339 a0bd dd0c e13d 5192 d7bd
000003d0: 05d1 003d b0f4 bb3b 4225 5ebe 0585 1f3d
000003e0: 3f84 dbbc 14a5 3cbe 06fb c63c bdee 00be
000003f0: 128e 35bc 732b 29be ce0e 073d 1405 ac3d
-0.1338916 -0.14530568 0.17083965 0.12484254 -0.13534428 0.058826786 0.16754189 0.012129022
-0.21456589 -0.045835726 0.17012586 -0.15409558 0.015300473 -0.00069985195 -0.15390626 0.18898746
0.07129274 0.14474578 0.21233407 0.113616176 -0.08014441 0.09849916 0.027064377 0.13754798
-0.03768059 -0.18586186 -0.1769587 -0.08512402 0.1125585 -0.0034584017 -0.10527319 -0.005475145
-0.03107526 -0.030972468 -0.0038382418 0.18948185 0.07893454 -0.12220637 0.21415749 -0.052068833
0.00021687713 0.01689246 -0.15340565 -0.015011235 -0.14898916 -0.1425688 -0.123520546 0.039058875
-0.17195569 -0.07797829 -0.04874358 -0.17645788 0.050485633 -0.1461454 -0.16242799 -0.03962879
0.053565625 0.0034740623 0.12197184 0.055503927 0.16370825 -0.044863477 0.15902501 0.07281111
0.16691615 -0.11383467 -0.1653106 -0.2088515 -0.049765225 -0.049230725 -0.007305943 -0.08365739
-0.12526856 -0.17162831 0.15421496 0.19399777 -0.20414248 -0.046646897 -0.026984349 0.1365102
-0.12753735 0.14592236 0.17763051 0.18359154 -0.061098672 0.06562525 0.055929672 0.10235752
0.12912335 -0.14862686 -0.16317216 0.17537348 0.06380376 0.081723526 -0.048520513 0.028538166
0.011765409 -0.040903367 -0.01688888 0.052665792 -0.15870014 0.032053724 0.052931573 -0.161355
-0.096532315 0.019175656 -0.050425343 -0.047848403 -0.20608312 -0.22334127 0.032160204 0.13998069
-0.2168232 -0.08243483 0.15088096 -0.09192124 0.20983073 0.21541998 -0.01390742 0.024883205
0.068701506 0.11564634 -0.1916968 -0.043794025 -0.13834983 -0.06812497 -0.03414944 -0.11522429
-0.008380474 0.007831738 -0.11258769 -0.17320627 0.1796805 -0.17301105 -0.13941748 -0.02316384
0.08660895 0.14998272 -0.14094517 -0.08674041 -0.2269653 -0.21512757 0.15830931 0.011422735
-0.22125824 -0.10029771 -0.059696384 0.08934021 -0.18750583 -0.027130965 0.15099022 0.04564609
-0.17605807 0.113607645 -0.007522938 0.11360694 -0.15332727 -0.18388015 -0.013633762 0.21824609
-0.20683013 0.20981632 -0.11754392 -0.0050610346 -0.046933074 0.12649515 -0.05161013 0.21304908
-0.22127062 -0.09077106 0.07821704 -0.16113059 0.14644662 -0.023515906 -0.16185199 -0.105325945
0.15942343 -0.021909313 -0.17783092 0.12551543 -0.14356422 -0.09439304 0.023607042 -0.04320195
0.11459992 -0.14897966 -0.20981045 -0.08084013 0.017060725 -0.14067586 0.051687267 0.18450238
0.035968702 0.05601845 -0.09920437 -0.028452951 -0.0992367 0.09306129 0.03402418 -0.10705918
-0.12888935 0.14933401 -0.15726946 0.018878574 -0.043944977 -0.19577767 -0.14421314 -0.19271554
0.17248291 -0.037108634 -0.04628498 0.07525422 0.22417814 -0.012324925 0.17885122 0.09031625
-0.12877898 -0.025954809 0.056540444 0.016088767 -0.20776851 -0.014210048 -0.11146873 0.067280486
0.03245335 -0.044112604 0.09496562 -0.10424963 -0.13489906 -0.09769309 -0.0037008394 -0.06510348
-0.050372005 -0.18893422 0.018122325 -0.13298471 0.035594206 0.06384722 -0.16778328 0.03995522
0.04162108 -0.07823446 0.109887816 -0.105259545 0.031449337 0.005735956 -0.216939 0.038945217
-0.026796458 -0.18422347 0.02428962 -0.12591071 -0.0110812355 -0.16520481 0.032973103 0.08399406

linear1.bias f4 [256]
00000000: 9549 be3c 1e3d f33c acf9 983a 0abd 273b
00000010: 92f6 283c 20e9 2839 655f b03b 92f2 7fb8
00000020: d2ec 593c e301 c33b eb54 9e3c 3a60 3f3c
00000030: 7d99 8d3c 1483 213c 8e71 d83c 1548 533c
00000040: ff66 c13b 867c 3abb 4ca1 343b f636 21bc
00000050: 8b29 3e3b d122 cdbb b589 cc3a 0bec 2bbb
00000060: 6b53 eb3c bc0d 203d 69c3 ae3c b123 513c
00000070: de9a 463b 2d29 a93c a50f 7d3d 28c4 3d3b
00000080: 3067 8a3c d628 073c 0cdc dd3b ffae a23b
00000090: d803 e23b d283 7b3c b6ef f839 3e49 583c
000000a0: 4acf 453b 3d0d bd3b 17df 4f3c 6a90 953c
000000b0: 8dc4 44bc 3c3b 963b 75fa 2f23 71e4 fc3b
000000c0: 21ce 023d a854 ab3b 8fb3 203c 5af0 153b
000000d0: 96e0 6ebc 7b78 cf3c 23a7 433b deaa b2bb
000000e0: c5e1 e03b ce6f 173c 9e1b 4a3b 9e0c c339
000000f0: 294a e43a 4569 cd3b 409f b73c 7317 de3c
00000100: 7c5b 043c e640 cf3b a458 083b cb73 453d
00000110: f318 2b3c e6d6 b43b 0f02 1a3a c260 753c
00000120: ba4c 153c 56f3 4d3c 97d5 643c 2afc 2f3c
00000130: a4c2 d13b e84d 8f20 ca5f 813c 4539 1a3c
00000140: 37e6 cc3c b932 933c 01ec 3c3c 0940 133c
00000150: 1cba e23a 362a fa3c 8cfc 583c 258d ac3b
00000160: afec 883c 0177 613c 6ab7 463a 4ca5 b93b
00000170: 1bf4 333c 66ae d43c 7d4a 8d3c 0cb2 2f3c
00000180: d182 ad3c ba4f 2d3c 3322 983c 8c75 863b
00000190: dbbe 343a 2ae3 8e3b f883 3c3c c6ee 803c
000001a0: ae87 853b 14df 5c3b 146f 173d 5008 7a3c
000001b0: 3d87 ce3a ed41 d73b 4b0e e63c c6fb f53c
000001c0: 931c f73c 58c7 a93b 4026 083d 19c0 6d3c
000001d0: dd98 df3c a3e0 953c 8028 203d 5551 423d
000001e0: 2144 9a3c 37dd 623c 7ad3 033c bc5d 2a3b
000001f0: de7d 3a3c 99ba eb3c c185 c83b 9598 a624
00000200: 9e7f ce3c 820f e33c 73e2 cc3c 2566 e53b
00000210: ecb1 34bb 9169 1e3c 0a82 9b3a 2be9 193d
00000220: 2632 4f3c bddb 493c 8389 fc3c 1b0e aa3c
00000230: 1cbd 6424 ffa2 bd3c 8fec 053c 4f19 7a3c
00000240: eaf3 a23c 8040 ca3b 16d7 593b 26da 083c
00000250: 723f a03c 614f 863c 4662 b63b 4c4c d23c
00000260: 3f88 943b 355c d5ba 9f2e ad3b 0745 ac3c
00000270: f1b7 1f3b 73bc d43c f41b 3c3d 259d 523c
00000280: 8cec b13b 7523 553b 4c79 52ba 416a 533c
00000290: 610f bc3b 358e 8a3c ae3e a33c 9667 b83c
000002a0: 829a 5fbb b9c8 5a3c 9f80 023d f82f 923c
000002b0: 3a5b fd3c e6cd 043c 88d5 863c be02 9f3b
000002c0: e83a 083a e654 4dba 30de 4f3c c0f5 823c
000002d0: 2d5a e93b 1423 1dbb 913d bb3b 4b0d b33c
000002e0: 82f7 9f3b 6006 883c 5d02 2e3c 602b 723d
000002f0: 5bf6 693d d58a 293d e327 643c fa29 0cbb
00000300: d1d9 57bb 09f0 2e3c 437c 163c 8bec 573d
00000310: fb8c ea3b 8f23 b53b 7ae8 043c 656f 8f3c
00000320: c515 ea3b 5249 833c 9ece 913a ced3 233d
00000330: 12a8 923c 5fbb d33c 30c0 97bb e7e3 b03c
00000340: cb02 993c d419 f53b b9a9 4e3c 23a4 74bb
00000350: 57d0 423d fad7 3d3c a4dc dfbb 815f 083c
00000360: 762b 593b 3d0f b33b cb1c 813c dda5 bb3b
00000370: 0a6c 8c3c d0f3 be3a b663 423d 7bf7 693b
00000380: ad89 103c d4b0 333c 64cb 353d 1c3a 6f3c
00000390: 9695 233c 2d02 f63b b2c7 503a 1a71 bb3c
000003a0: 081a b13b 9843 3b3c 1e2f 843c 162e a53c
000003b0: e8db 9a3c b261 683c 38b3 433b 50ed 9d3b
000003c0: 93d9 483c 7a55 a43c 8b8e 80ba 003b 2c3b
000003d0: e633 293c 9842 b13c e3e8 cf3c 5a7f ac3c
000003e0: 305e 153d e800 4cba 9146 c03b a1ad 883b
000003f0: eeeb c13c 0d78 963c a045 8c3b 00f8 623d
0.023228446 0.029692229 0.0011671088 0.0025594854 0.010312693 0.00016108574 0.0053824657 -6.102265e-05
0.013301091 0.0059511526 0.019327601 0.011680657 0.017285103 0.009857912 0.026421335 0.012895604
0.0059021707 -0.002845557 0.002756196 -0.009839764 0.002901646 -0.006260254 0.0015605005 -0.0026233222
0.0287263 0.039075598 0.021333413 0.012764857 0.003030471 0.020649517 0.061782498 0.002895603
0.016894907 0.008249482 0.0067706164 0.004964709 0.006897431 0.015351253 0.00047480845 0.013201056
0.0030183368 0.0057694004 0.012687466 0.018257339 -0.012009752 0.004584698 9.539805e-18 0.007717662
0.03193486 0.0052285977 0.009808435 0.0022878856 -0.014579913 0.025326004 0.002985426 -0.005452498
0.0068628513 0.009242965 0.0030839215 0.000372027 0.0017417121 0.0062686526 0.022414804 0.02711079
0.008078452 0.006324875 0.0020804787 0.048206132 0.01044296 0.005518782 0.00058749405 0.014976682
0.009112531 0.012570223 0.013966939 0.010741273 0.006401377 2.4276696e-19 0.015792746 0.009413068
0.025012119 0.017968522 0.011530877 0.008987435 0.0017297897 0.030537706 0.013243806 0.005265849
0.016714422 0.013761283 0.00075804314 0.005665457 0.010983492 0.025962066 0.017247433 0.010723602
0.021180542 0.01057809 0.018570995 0.004103368 0.0006894895 0.004360576 0.011506073 0.015738856
0.004075012 0.00337023 0.036971167 0.015260771 0.0015756857 0.0065691383 0.028082987 0.030027281
0.030164992 0.0051812343 0.033239603 0.014511132 0.02729457 0.018295592 0.039101124 0.047440846
0.018831315 0.013846687 0.008046025 0.0025995811 0.011382548 0.0287755 0.0061194603 7.224951e-17
0.025207337 0.027717356 0.025010323 0.007000702 -0.002757187 0.009668724 0.0011864316 0.037575882
0.012646234 0.012320456 0.03082729 0.02075868 4.95998e-17 0.023149012 0.008174076 0.015264823
0.019891698 0.00617224 0.0033239773 0.008352792 0.019561503 0.016395273 0.0055659143 0.025671147
0.0045328434 -0.001627809 0.0052850987 0.021029009 0.0024371112 0.025968766 0.045925096 0.012854849
0.00542981 0.0032522355 -0.0008028939 0.012903751 0.005739138 0.016913513 0.019927349 0.022510331
-0.0034119193 0.01335352 0.031860944 0.017845139 0.03092729 0.008105731 0.016459242 0.004852622
0.0005196766 -0.000783278 0.012687251 0.015986323 0.0071213455 -0.0023977207 0.0057141264 0.021856925
0.0048818 0.016604602 0.010620681 0.059123397 0.05711971 0.041392166 0.013925525 -0.0021387325
-0.0032936225 0.010677346 0.0091849 0.05271582 0.0071579195 0.0055279206 0.008112067 0.017509172
0.0071437084 0.016026173 0.0011124199 0.039996915 0.017902408 0.025846181 -0.004631065 0.021593047
0.01867809 0.0074798856 0.012613707 -0.0037329278 0.04756197 0.011587137 -0.0068317223 0.008323551
0.0033137477 0.005464463 0.0157608 0.0057265596 0.01714136 0.0014568511 0.047458373 0.0035700488
0.008821887 0.010967452 0.04438342 0.014601257 0.009984395 0.0075075836 0.0007964327 0.02288108
0.0054047145 0.01142969 0.016135748 0.020163577 0.018903688 0.014183449 0.0029861461 0.0048195496
0.012258905 0.02006029 -0.0009808106 0.0026280284 0.010327315 0.0216382 0.025379604 0.02105682
0.036466777 -0.00077821175 0.005867787 0.004171089 0.02367207 0.018367792 0.004280761 0.055412292

linear2.weight f4 [59, 256]
00000000: 5fd6 5b3d fd0c 423d 54b2 ac3d f759 0d3e
00000010: 9e4f 2e3d 42ec 963d 7b38 0abf 28cf 593d
00000020: bfef b7bc bbda 543d f316 6c3d 4191 ae3d
00000030: f1f3 fbbe e95f 103d e923 6f3d 7d0d 8f3d
00000040: 2d2f 623d 6178 12bd 2353 12bf c4bf 873d
00000050: eba3 9d3d 5523 a1be a17c 373d 2270 5d3d
00000060: 4348 643d a462 fabe a857 d93d 681b 41bd
00000070: df91 e7be 312a a2bd a3c2 f8be 4d47 77be
00000080: 3b9b 703d 141e 00be ee91 61be 2946 233d
00000090: b818 b33d cff8 ae3d 3791 b83c 2472 8abe
000000a0: 9961 2fbe c812 f1be dd1a 97be b0af 6d3d
000000b0: 1e96 663d 2705 9c3d 8fa5 3fa5 c1d3 6c3d
000000c0: 2e45 053e df13 e5be a6c3 6f3d 0d80 963d
000000d0: 875d 903d be65 14bf 8d62 2fbe af1b 0cbd
000000e0: 69da 1dbe 65f7 bdbe d083 f8be 1237 e8be
000000f0: c597 70be 3a8b 603c cef8 933d 5b94 9a3d
00000100: 8ef3 c63d c2c3 ae3d cf72 383d 99b1 5bbd
00000110: 2844 5c3c a345 323d 508e 12bd 8792 963d
00000120: ea69 8d3d 1e38 fdbd ba91 dcbc c7d6 963d
00000130: 6345 973d c934 e0a1 a9b8 e93d c5ba 9c3d
00000140: 482d 49be 3744 d73c b401 973d 22c4 ebbe
00000150: 6914 ef3d 7222 683d 423b a63d e8e6 d7be
00000160: 8f3c d8bc ba0b c93d f090 9a3c 8a98 92be
00000170: 9068 67bc 0efc afbe 85e1 8bbe 0c89 70bd
00000180: a6ea 383d c055 99be 21bc ff3d 27c7 64be
00000190: c5d1 90be ff82 3d3d 7dd1 b0be 309f 62bc
000001a0: da87 863d 271d e2be dee7 693d 6322 ebbe
000001b0: a615 f73c 93a4 453d 4779 c83c 50a6 00be
000001c0: bf79 96bd 5bee cc3d 5c6a 263d d50b 713c
000001d0: acc4 923d c76c 283d 0054 bd3d 9f3d ca3d
000001e0: 193d 8c3d b918 67be 808f a33c 0581 3dbd
000001f0: 2221 6a3d f4f8 ad3d 6e73 bcbe 105c 0f25
00000200: 7846 7a3d b1bd 8b3d e392 85be 9346 dabd
00000210: 310d acbb 7c0c 133d 4e1b 57be 96fe 1fbd
00000220: 1b1b a33d f167 50be 255d 12be a66f cd3d
00000230: 83f3 0a26 0532 b9be b046 b4ba 5c76 43bb
00000240: 83af a63d ce2b dc3d 9842 b93c 8c97 ccbe
00000250: 45ae 1ebe 1c4a a53d 6ee4 fdbe ec2c 82be
00000260: 0048 313d e712 c43d 0647 af3d 73ca 0bbd
00000270: 9759 08bf 95ee 87be 01d3 f2be f584 bf3d
00000280: 1ef2 d73d 3556 6dbe 0014 a83d 8e06 20bc
00000290: b5a5 643d 2d9e f53d 1f66 0bbc 56cd 8e3d
000002a0: 60e3 bdbe 5459 423d 58d9 febe d332 c13d
000002b0: 5bc5 713c c6e6 99be dacd ecbc 7155 5dbe
000002c0: 604d 583d f1f0 45bb 39ac fa3d ef1c 31bd
000002d0: aafd 823d 1969 153d 30bd 1e3d 7e18 9ebe
000002e0: 247e 4e3d ca1e 37bd 96eb 9c3d 9bd6 f3be
000002f0: 5d88 00be a2a5 16bd 7a26 d13d f45c 8d3d
00000300: e362 abba 2bd1 d4bd a4cd 893d 37f1 0ebd
00000310: 3042 c8bd 21a2 92be c5a8 c7bd 8d31 b0be
00000320: 8bbf 093d 2b35 12be 2ab0 fabe 3c85 17bf
00000330: 946c 2cbd 2a19 5e3d cb7d 083c 5610 8f3d
00000340: a4d3 433d db29 1b3c 92e9 a73d d11a 323e
00000350: 783b ca3d ac0e d33d cce8 2e3e 7e14 ac3d
00000360: a31c 04be b20b 963d d8f4 7e3d 8b9e 92be
00000370: abb1 303d 7b49 53be c43c ca3d 7417 32bd
00000380: 45ee 6d3d 4d12 5dbe 382a b83d 9602 bd3d
00000390: c367 c93d 08b6 b53c 100c 4f3d 742e 2b3d
000003a0: 44f5 e1be 8171 8a3d 549c 573d e790 7f3d
000003b0: 238a 7e3d eb30 273d 61bc 043d f47d 713d
000003c0: 5336 3c3d 87b8 113d c63c 3ebd e19f 8b3b
000003d0: a5e8 f6be e611 94bd 043b ba3d 7c95 cf3d
000003e0: d3de 903d f254 9abe 2b26 2b3d cebc 00bf
000003f0: ff8c 4fbe 3244 563d c931 06be 7434 863d
0.053671237 0.047375668 0.08432451 0.1380385 0.042556398 0.07369281 -0.5399243 0.053176075
-0.022453187 0.05196641 0.057639074 0.08523799 -0.4920955 0.035247717 0.058383856 0.069849946
0.05522077 -0.035759334 -0.57158107 0.06628373 0.076972805 -0.3147227 0.04479659 0.054062016
0.055732977 -0.48903382 0.10612422 -0.047145277 -0.45228478 -0.079182036 -0.48585996 -0.24148293
0.05874179 -0.12511474 -0.22028324 0.03986183 0.08744949 0.0854355 0.022530181 -0.27040207
-0.17127074 -0.4708464 -0.29512683 0.058028877 0.056295507 0.0761817 -1.6622703e-16 0.05781913
0.13014671 -0.44741723 0.058536194 0.073486425 0.07049089 -0.57967746 -0.17127438 -0.03420609
-0.15415348 -0.3710281 -0.48538065 -0.45354515 -0.23495395 0.013705069 0.0722519 0.07547828
0.09714423 0.085334316 0.045031365 -0.053636167 0.013443984 0.043523442 -0.03578025 0.073521666
0.06904967 -0.12364219 -0.026924957 0.07365184 0.07386281 -1.5192803e-18 0.11412174 0.07652811
-0.1964618 0.026277645 0.07373372 -0.46048075 0.11673815 0.056673475 0.08116771 -0.42168355
-0.026396064 0.0981669 0.01886794 -0.28632003 -0.014124051 -0.3437199 -0.27320495 -0.058724448
0.045145653 -0.29948235 0.124870546 -0.22341596 -0.2828504 0.046267506 -0.34534827 -0.013831899
0.065688804 -0.44162866 0.05710589 -0.45924672 0.03016169 0.048252653 0.024471892 -0.12563443
-0.0734744 0.100064 0.040628776 0.014712294 0.071664184 0.041119363 0.09244537 0.098750345
0.06847591 -0.22568025 0.019965887 -0.04626562 0.057160504 0.0849475 -0.36806816 1.2434465e-16
0.06110236 0.0682329 -0.26088628 -0.10657992 -0.005250596 0.035900578 -0.2100651 -0.03906115
0.07964154 -0.2035215 -0.14293344 0.10031061 4.820839e-16 -0.36170974 -0.0013753977 -0.0029825186
0.08138945 0.107505426 0.022614762 -0.3995937 -0.15496166 0.08070776 -0.4958834 -0.25424898
0.043281555 0.09573918 0.085584685 -0.034128617 -0.53261703 -0.2654921 -0.47426608 0.093515314
0.10544227 -0.23177417 0.0820694 -0.009767188 0.055822093 0.1199306 -0.008508234 0.069727585
-0.37087536 0.04744847 -0.49775195 0.09433522 0.014756526 -0.3005888 -0.028906751 -0.21614625
0.052808166 -0.0030203427 0.1223988 -0.043240484 0.06396039 0.036477182 0.038754642 -0.3087806
0.050413266 -0.044707097 0.07662122 -0.47624668 -0.12552018 -0.036779054 0.10212417 0.06902495
-0.0013075735 -0.10391458 0.06728676 -0.03489801 -0.09778249 -0.2863932 -0.09748987 -0.34412804
0.033629935 -0.14278094 -0.48962528 -0.59187675 -0.042095736 0.054223217 0.008330773 0.06985538
0.047809258 0.009470428 0.08198847 0.17393042 0.09874624 0.10305533 0.17080992 0.08402346
-0.12901549 0.073264495 0.06224522 -0.28636584 0.043138187 -0.206335 0.098748714 -0.043479398
0.05808856 -0.21589012 0.089924276 0.09229009 0.09834244 0.022181526 0.050548613 0.041792348
-0.44132435 0.067599304 0.05263932 0.06239405 0.062143456 0.040818136 0.032406215 0.05895801
0.045950245 0.03557637 -0.046444677 0.0042610024 -0.4822437 -0.07229976 0.090932876 0.10135934
0.0707375 -0.30142933 0.041784447 -0.50288093 -0.2026863 0.05231113 -0.13104929 0.065529734

linear2.bias f4 [59]
00000000: 84ea 7fbc d931 98bc 631e 7dbc da51 6bbc
00000010: 09a1 71bc e119 a5bc 0c0d a7bc 6897 9fbc
00000020: e141 6fbc be77 44bc 22c1 82bc 0516 86bc
00000030: 5333 85bc 78bb 89bc 2520 66bc 0b0b 2fbc
00000040: dd22 a7bc d033 4bbc 1c7f a4bc 5ec7 8cbc
00000050: 6d50 68bc 57c1 24bc 16e7 adbc 4c24 87bc
00000060: ae2d 56bc 833a a4bc 39ea 9bbc 0377 46bc
00000070: 1288 9abc a2ba 7abc 33d0 8dbc 30e1 77bc
00000080: 8e18 10bc f5fc 96bc 073c 8cbc c8c4 8dbc
00000090: 5fd9 6dbc 33bc 8cbc 1046 89bc 185b 39bc
000000a0: 054d 8abc ad4c 9ebc 56d1 84bc c3df a0bc
000000b0: c86b 6abc af92 98bc 5934 8fbc 9ba5 90bc
000000c0: a509 b5bc 246b 6bbc 740b 25bc 8e3b a1bc
000000d0: b3ba 15bc 77ba 82bc de6e 7fbc 477d 5abc
000000e0: 9260 52bc 9a17 95bc 1ec8 92bc
-0.015619878 -0.018578457 -0.015449139 -0.014362777 -0.014747866 -0.020153942 -0.020391963 -0.019481376
-0.014603109 -0.011991439 -0.015961234 -0.016367922 -0.016259825 -0.016813025 -0.01404575 -0.010683785
-0.020402366 -0.01240249 -0.020080142 -0.01718491 -0.014179331 -0.010055861 -0.021228354 -0.0164968
-0.013072414 -0.020047432 -0.019032585 -0.012113336 -0.018863712 -0.015303286 -0.017311191 -0.0151293725
-0.008794917 -0.018431166 -0.017118467 -0.017305747 -0.014517157 -0.017179584 -0.016757041 -0.011313222
-0.016882429 -0.019323671 -0.0162131 -0.019637948 -0.014307924 -0.018624632 -0.017481016 -0.017657092
-0.022099325 -0.014368806 -0.010073531 -0.019681718 -0.009138751 -0.015958054 -0.015590398 -0.0133355325
-0.012840407 -0.01819973 -0.017917689
