intermediary/model_12500.pth (torch, 356400 bytes, 5 tensors)

embed.weight f4 [59, 128]
00000000: 05b5 adbe 9688 6a3e 4453 c5be fcf4 abbe
00000010: 2c17 c73e 690e cc3e b27a 0ebe e7b2 e0be
00000020: 46c8 dd3e b594 a63e e46f afbe cecb c4be
00000030: 01f6 d73c 3376 63be 4cb9 aebe 6691 bd3e
00000040: 6462 63be aff2 dbbe 07c7 aebe bd9e c93e
00000050: 43c1 cd3e 437b 7f3e fac4 133e d248 243e
00000060: ee03 a13e b5f6 d63e 7278 b6be 40f5 853e
00000070: d426 cb3c 43d3 cd3e 2906 d33e 6086 1abe
00000080: 56a2 d6be bb71 cabe 646b 9ebe bafc 89be
00000090: c113 8c3e 7214 f93e f57e 653e 9964 dcbd
000000a0: 053d c5bd e3a6 9bbe b685 e13e 0045 803e
000000b0: 8c26 d73e a4d9 d83d 2c3c d63e f577 f73e
000000c0: 9906 bebe 73dc 93be 6066 f63e 2326 c93e
000000d0: 5934 adbe 9046 c4be 9d02 af3e c694 573e
000000e0: ad1f c4be 2bc7 3a3e 190f a3be a9cb c63e
000000f0: bc16 93be ec5d bf3e 5526 dfbe a036 cbbe
00000100: 3921 aebe cf96 543e a3a2 44be 5ca9 193e
00000110: e39c bf3e 523d e4be 518b 35be af86 d3be
00000120: ea03 cebe 9c97 d6be 4f5e 843e aac6 95be
00000130: 8f6f ed3e 6999 a03e 06eb 6f3e ef6e d43e
00000140: 75c8 b33e 8d84 9bbe daa9 40be 2049 f8be
00000150: 49b2 d03e 43ba a5be 99a6 063d 0754 a8be
00000160: 8528 e3be f3bf cb3e 6174 a83e 1031 afbe
00000170: 9afb cf3e 8eb2 fbbe 0f6e b2be 0e8f b33e
00000180: 2b1c 8f3e cbb0 e13e 044a 93be 279b af3e
00000190: 1338 773e 821f e3be 8052 91be ba90 483e
000001a0: 7397 db3e 654e cfbe dfac e03e 7071 dd3e
000001b0: 1495 8d3e 7f22 a2be 7e44 d5be f795 7ebe
000001c0: 385f a93e e351 4fbe cffb e0be 54fa d6be
000001d0: 56db b73e 5222 d8be c77b b53d c2fd 92be
000001e0: a68e dc3e 1ec3 aebe f54b be3e 289b a93e
000001f0: 8e4f d8be e02b 8f3e 0de5 e03e 60a4 f03e
00000200: b230 553e fbfb aa3e cdfa dbbd e590 e9be
00000210: a8a2 b2be e41f 3dbe 273f 0cbe 7b87 d1be
00000220: 45e8 26be 8124 e13e af2d c9be 92c5 583e
00000230: 03be e33e b4f0 003f c6c4 80be 7b9d f83d
00000240: b42a 753e 010d c33c 98f1 b93e 3746 c6be
00000250: 6df8 c43e 5dac bebe c9dd d8be c56e b2be
00000260: 7ba9 57be 7a7d 72bc cc78 9b3e 62c3 f5be
00000270: afdc e8be 5a05 3cbe 6052 67be ad54 be3e
00000280: 2ad9 ba3e e9e2 f3be 7f1e fe3e 2edd cf3e
00000290: 7c38 c8be d327 b1be 08a9 dbbe 6428 c03e
000002a0: 5f60 f43e 4af3 fd3e 7e9f c8be ae98 d63e
000002b0: 0718 65be 8d41 d7be 92b2 013f 89db c43e
000002c0: 15bf 49bd e620 dcbe ae0e d73e de93 c83e
000002d0: f635 d3be be48 653e 2e7f 8dbe f9a3 9c3e
000002e0: 921d cebe 262d da3d c9be db3e 5e61 c43d
000002f0: dfb9 c03e cf1e 95be f8b2 d3be 4ad8 acbe
00000300: 01c5 16be 367a 9d3e 58cc e03e f8fc e23e
00000310: 3de2 bfbe 0783 d7be 8cff de3e 0234 c53e
00000320: b09b be3e d4d0 b33d 0d9a dbbe d2df c2be
00000330: e24c 4ebe 6f15 903e 3fae 9bbe 2efc 663e
00000340: fe15 00bf 2d24 a3be a6a3 a63c 7a34 d9be
00000350: 1375 c1be c25c 84be 0d28 b2be 5c1b d6be
00000360: fd93 b23e 2866 d2be 4391 ddbe d8c2 633d
00000370: 589c 713e 4bef e0be 037b c23e 5ce1 8b3e
00000380: b970 d8bd 0bde 6ebe f779 613e 7af6 7fbe
00000390: f195 bbbe dfbe 773e 9094 e9bd 604a b9be
000003a0: bc6b 6cbe c465 c03e 8110 ee3e 493a 863e
000003b0: e146 d7be d311 a33e bf2a b13e ad0a f9be
000003c0: c552 d3be bd6a e03e 0cce 523e 6dbb d53e
000003d0: d1a8 d2be 96de eebd 34da be3e 99e2 b6be
000003e0: bdc2 85be e093 ce3e b224 e83e 9186 62be
000003f0: 4c77 90be 489b b3be b7c2 e13e aec5 c6be
-0.3392717 0.22903666 -0.3854009 -0.33585346 0.38884866 0.39854744 -0.13913992 -0.43886492
0.4331686 0.3253533 -0.34265053 -0.3843674 0.026362421 -0.22213058 -0.34125745 0.37024993
-0.22205502 -0.4295859 -0.3413622 0.3937892 0.4018651 0.24949364 0.1443061 0.16043404
0.3144831 0.41985098 -0.35638767 0.26163673 0.024798788 0.40200242 0.41215637 -0.15090322
-0.41920727 -0.39539894 -0.30941308 -0.26950628 0.2735882 0.4864841 0.22411712 -0.10761375
-0.09630779 -0.30400762 0.44047326 0.25052643 0.42021596 0.10588387 0.41842782 0.48333707
-0.3711441 -0.28879127 0.4812498 0.39286909 -0.33829 -0.38335085 0.3418168 0.21052846
-0.38305417 0.18240039 -0.31847456 0.38827255 -0.28728282 0.37376344 -0.43583933 -0.39690113
-0.34009722 0.20760654 -0.19202666 0.15006012 0.37424383 -0.44578034 -0.17728926 -0.41313693
-0.4023736 -0.41912544 0.25853202 -0.2925313 0.46374175 0.31367043 0.23429498 0.41490886
0.35113874 -0.30374566 -0.18814793 -0.4849329 0.4076102 -0.3236867 0.032873724 -0.32876608
-0.4436685 0.39794883 0.3290129 -0.3421712 0.40621644 -0.49159664 -0.34849593 0.3507008
0.27951178 0.44080195 -0.28767407 0.3429806 0.24142484 -0.44359976 -0.28383255 0.19586459
0.42888984 -0.40489498 0.4388189 0.43250608 0.276528 -0.31666943 -0.41653818 -0.24861895
0.3308046 -0.20246081 -0.43942115 -0.4198786 0.35909528 -0.42213684 0.08861499 -0.28709227
0.43077582 -0.34133238 0.37167326 0.33126187 -0.42248195 0.2796316 0.43924752 0.47000408
0.20819357 0.3339537 -0.10741196 -0.45618358 -0.34889722 -0.18469197 -0.13695966 -0.40923676
-0.16299541 0.43973163 -0.39292666 0.21169117 0.44480905 0.50367284 -0.25150126 0.12139412
0.23942071 0.023809912 0.36317134 -0.38725445 0.38470784 -0.37240878 -0.4235671 -0.34850135
-0.21060745 -0.014800424 0.30365598 -0.48000628 -0.45480868 -0.18361416 -0.22590017 0.37173977
0.36493808 -0.47634056 0.49632642 0.40598434 -0.39105594 -0.34600696 -0.42902398 0.37530816
0.47729775 0.49599677 -0.39184183 0.4191336 -0.22372447 -0.420422 0.506631 0.38448742
-0.049254496 -0.4299385 0.42003387 0.39175314 -0.41252106 0.2239103 -0.27636093 0.3059385
-0.40256935 0.10653143 0.42918995 0.09588884 0.37641808 -0.29125068 -0.4134748 -0.33758765
-0.14723589 0.30757302 0.43905902 0.44333625 -0.37477294 -0.42092153 0.43554342 0.3851624
0.37228155 0.08780065 -0.4289097 -0.38061386 -0.20146516 0.28141353 -0.30406377 0.22557136
-0.5003356 -0.31863537 0.020341706 -0.4242285 -0.37784633 -0.2585202 -0.3479618 -0.4181775
0.3487853 -0.41093564 -0.43274888 0.05560574 0.23594797 -0.43932566 0.37984475 0.27320373
-0.10568375 -0.2332689 0.22019182 -0.24996367 -0.36637834 0.24193905 -0.11405289 -0.36189556
-0.23087972 0.3757764 0.46496966 0.26216343 -0.42046264 0.31849536 0.34602925 -0.48640957
-0.41274086 0.43831435 0.20586413 0.41744557 -0.41144422 -0.11663549 0.3727585 -0.35719755
-0.26125136 0.40347195 0.45340496 -0.22121646 -0.28216016 -0.35079408 0.44093868 -0.38822693

linear1.weight f4 [256, 256]
00000000: 4d00 08be ed56 10be e246 153e bc81 083e
00000010: 6a22 1bbe 32d0 213d a411 313e d398 41bc
00000020: c0bb 5abe 8caf 0abd e59a 413e 6c22 20be
00000030: 7520 7bbc 84eb 323c a1ac 24be 8835 133e
00000040: a0ef 913d e98e 153e 9bd7 573e acbf db3d
00000050: 1768 83bd 1e28 c53d 3e63 2e3d ca65 f43d
00000060: 5715 c0bb 3102 4bbe a462 43be 8d4a 9ebd
00000070: 821e dd3d eade 7c3c 8623 cdbd e705 133c
00000080: 0c27 e2bc 9e41 1d3c 4f5a ec3c 1d19 443e
00000090: 0306 d33d 70bf f2bd 4007 543e 2604 36bd
000000a0: 76ac 77bc d8f2 913c 4ecb 1ebe a4cc aabc
000000b0: e805 09be e1ff 0fbe 90fb efbd ab7e 053b
000000c0: 735e 3abe 9ee4 cbbd 4b26 c8bc 62eb 32be
000000d0: 1142 693d 0204 0dbe 044e 26be 6eb4 763c
000000e0: 1f87 623d de34 16bb ee47 1a3e 5b35 c03d
000000f0: 3728 3b3e e7de 56bd 9581 183e c734 d73d
00000100: 3ca7 253e 0746 ffbd c6de 2abe 873c 12be
00000110: b0fe 34bd 81ba 51bd aaa1 bfbc 7d06 abbd
00000120: bf07 ddbd dae8 24be d322 fa3d 0bb3 4a3e
00000130: 4e3b 43be 3ec3 7bbd 73f4 15bd 266c fc3d
00000140: 4e29 cbbd 1770 113e 8aa5 2d3e e417 383e
00000150: c50e 38bd c245 893d 96ce 3a3d 97f2 8a3d
00000160: 7674 093e 6932 21be e891 2abe 4fe5 1e3e
00000170: 3d86 153d 4b4d 003e 8db9 9abd cf3a a93c
00000180: bcd7 1b3d e865 1fbd cad1 7b3b b92f 283d
00000190: eb2b 1fbe f198 0c3d 202d 103d 01ee 18be
000001a0: 5684 ddbd 5cba 933c 6ebd 4fbd 896b febc
000001b0: d159 49be 3b18 5abe 637c e33c e0bd 203e
000001c0: f98e 5bbe f9f7 c3bd 73db 223e 5973 c7bd
000001d0: 9956 523e 9d0c 5e3e 1ba2 1bbd 232b 3a3d
000001e0: aa6e cd3d f50b ee3d 5b3c 3ebe 6aef 2cbd
000001f0: 0174 0dbe f239 8bbd e87f 3abd 74c7 fabd
00000200: bf4c 30bc 39e9 f2b9 2eb1 c5bd 587b 32be
00000210: 5b79 293e 6622 3bbe 8aa2 07be 8813 5fbc
00000220: e773 bd3d 51a0 173e bb5c 22be d2b7 9dbd
00000230: dd00 59be 2d8b 62be 798f ec3d 5856 bd3a
00000240: 9184 68be d0bd d6bd aca6 5fbd 9823 ae3d
00000250: 4836 43be d0fa 13bd 88ef 1d3e b820 703d
00000260: 285a 35be 0ad7 ae3d e78c 70bc 8b28 e53d
00000270: 0356 22be 5e77 42be bfed 9cbc 5b37 583e
00000280: 4a91 4cbe 98d1 493e 71f5 03be 1c57 40bc
00000290: 8e80 b0bd 4efb e83d dd66 39bd c760 4c3e
000002a0: 23c6 4abe 8018 f4bd 482b 913d 3ea5 2cbe
000002b0: ca68 bd3d 77f3 cbbc 8229 22be eac2 cdbd
000002c0: 71c3 0d3e 51ca 26bd 9b00 35be b255 013e
000002d0: f5de 0bbe caca cdbd ba68 143d 245a e0bc
000002e0: 054c 0b3e a4ee 33be d684 38be 1e06 d7bd
000002f0: c6af 8d3b 0461 02be 116c 393d 9dcd 2d3e
00000300: a509 373d 666d 473d 00f8 b0bd 9fcf b93c
00000310: 2629 0dbe f656 d13d 731b 4c3d 40a8 d6bd
00000320: ae39 13be cc7d 1f3e e781 eabd 37db b73b
00000330: 0ada 87bd de61 43be f482 06be 6865 55be
00000340: eac3 2b3e cd6d 0fbd abe1 47bd 488d 9c3d
00000350: a5ad 5a3e 30a0 693c d917 403e cf14 a33d
00000360: d4dc 09be 1187 19bd 8edb 833d 0847 0fbd
00000370: 4ac0 47be 38f9 eebc 3b1e c4bd fa95 993d
00000380: 4586 643c ef82 08bd 567f ce3d e09b d4bd
00000390: 29fe 15be 861c b6bd 551a 09bc 929c b0bd
000003a0: 3564 a3bc 5e08 37be 8c2d 8d3b a84f 02be
000003b0: 7e93 6f3d 06e6 3f3d 7763 22be 71cd ff3c
000003c0: fda2 683d 82fb 5cbd 13f2 cf3d 5f39 ddbd
000003d0: 81c5 c73c a784 e0bc 99a9 47be d0eb 0d3d
000003e0: f624 6cbd 7812 3ebe 79b1 06bc 1047 09be
000003f0: c00b 8a3c 9d22 29be 2251 833c 151e c23d
-0.13281365 -0.1409566 0.14577821 0.1333074 -0.15149847 0.03950519 0.17291886 -0.011816221
-0.21360683 -0.03385882 0.18906744 -0.15638131 -0.015327563 0.010920409 -0.16081478 0.1437589
0.07125783 0.14605297 0.2107834 0.10729918 -0.06416338 0.09626792 0.042575113 0.11933477
-0.005861919 -0.19825055 -0.19080597 -0.07729063 0.107968345 0.015434006 -0.10016541 0.008973575
-0.02760651 0.009598164 0.028851656 0.19150205 0.10303881 -0.1185292 0.2070589 -0.04443755
-0.0151168015 0.017815992 -0.15507242 -0.020849533 -0.1338116 -0.14062454 -0.117179036 0.002036969
-0.18200092 -0.09955715 -0.024432322 -0.17472604 0.05694777 -0.1377106 -0.16240698 0.015057666
0.055304643 -0.0022919695 0.15066501 0.09385177 0.1827706 -0.05245867 0.14893182 0.10508113
0.16177076 -0.124645285 -0.16686544 -0.14280902 -0.0441882 -0.051203255 -0.023392517 -0.08350847
-0.10792493 -0.16104451 0.122136734 0.19794862 -0.19065592 -0.061465494 -0.036610078 0.12325315
-0.099199876 0.14202915 0.1695768 0.17977864 -0.04493596 0.06702758 0.045607172 0.067845516
0.13423333 -0.15741886 -0.16657221 0.15517162 0.036504973 0.12529485 -0.07554922 0.020657925
0.038047537 -0.038915545 0.0038424605 0.041061137 -0.15544097 0.034325544 0.035199285 -0.14934541
-0.10816257 0.018033199 -0.050717764 -0.031057136 -0.19663168 -0.21298306 0.027769273 0.15697432
-0.21441258 -0.095687814 0.15904026 -0.09738798 0.20540847 0.21684499 -0.037996393 0.045451295
0.10030873 0.116233744 -0.18577711 -0.04222051 -0.13813783 -0.067981616 -0.045532137 -0.12245074
-0.010760485 -0.000463316 -0.09652935 -0.17429864 0.165502 -0.1827484 -0.13245597 -0.013615496
0.09250622 0.1480725 -0.15855686 -0.077010766 -0.21191736 -0.22123404 0.11550803 0.0014445288
-0.2270682 -0.104854226 -0.05460231 0.08502883 -0.19063675 -0.036127865 0.15423405 0.058624953
-0.17710173 0.08537109 -0.014682031 0.111893736 -0.15853123 -0.18990847 -0.019156335 0.21114866
-0.19977298 0.1970886 -0.12886597 -0.0117395185 -0.0861827 0.113760576 -0.045264114 0.19958793
-0.19802146 -0.119187355 0.07088333 -0.1685991 0.092485026 -0.024896367 -0.15836146 -0.100469425
0.13844086 -0.040720288 -0.17676012 0.12630346 -0.1365927 -0.100484446 0.036232688 -0.027386732
0.13603218 -0.17571503 -0.18019423 -0.10499214 0.0043239323 -0.12732321 0.045269076 0.16972966
0.044686932 0.048688315 -0.08641052 0.02268201 -0.13785228 0.102216646 0.049830865 -0.1048131
-0.14377472 0.15575331 -0.11450558 0.0056108492 -0.066333845 -0.19080302 -0.13135892 -0.20839465
0.16773954 -0.035016824 -0.048799198 0.07644135 0.21355303 0.014259383 0.18759097 0.07962953
-0.13463145 -0.037482325 0.06438361 -0.03497985 -0.19506946 -0.029171571 -0.095760785 0.07499309
0.013948028 -0.033327993 0.10082881 -0.10381293 -0.14647736 -0.08892159 -0.008368094 -0.086236134
-0.019945243 -0.17874286 0.004308408 -0.12725699 0.05849027 0.046850227 -0.15858255 0.031225892
0.056796063 -0.053950794 0.10153594 -0.10801958 0.02438617 -0.027407004 -0.1949829 0.034648716
-0.057652436 -0.18561733 -0.008221024 -0.13406014 0.016851306 -0.1651711 0.016029898 0.09478394

linear1.bias f4 [256]
00000000: 34a2 9a3c e19b 973c 5928 193a d43d 33bb
00000010: 91d6 963c 2dc6 97b9 b58f 7f3c a239 723c
00000020: b87d 8d3c 8463 1d3c ce74 8d3c 9e3e 763c
00000030: caba 843c 7565 303c e237 e43c acfb 0d3d
00000040: d280 523b c589 9dba 0d8f 25bc a008 d83b
00000050: 37ae c6bb 513f 23bc 4d02 a43b 955d 7a3c
00000060: e339 dc3c 00e9 233d 60d8 c83c 20c9 0e3d
00000070: 86d8 b3b9 e5ad 403d d2a6 733d a1bb 5b3b
00000080: 1bf2 6f3c 9250 2fbb 37f0 d43b be27 be3b
00000090: 626a 2c3c 2901 be3c aa80 0cbb b456 ab3c
000000a0: 9051 633b ccd5 153c 15c4 b13c 6cc3 a73c
000000b0: 8ed7 85bc 1360 9f3b 1af3 882d 82a7 443c
000000c0: 19ad e93c 5f41 5c3c dc2f 663c 935a 4e3b
000000d0: c030 5bbb 7170 a83c 2279 623b f04c ae3c
000000e0: 599f 7d3b 94c5 e03b 20c4 80bb e13d 72ba
000000f0: 3e91 c13a 962c 913c d969 973c 7510 d23c
00000100: 2010 793b 238c ce3b 216e 8f3b b5c8 373d
00000110: 55ea 24bc 8131 5d3c 63b1 6d3a 80ae 213c
00000120: 9f88 183c 6931 f33b 14c6 933c 91c6 093c
00000130: 286b b23b 48b3 492b 1f6a 4b3c 9914 473c
00000140: df8a 4c3c dad5 ef3b d31f c13b 960e 173c
00000150: 625b dd39 ccf3 d43c d2d9 ea3c fdd5 4a3b
00000160: daf5 903c 2c6a 553c 59fe c83b d5b5 bd3b
00000170: a812 293c 8369 cb3c feff e73c 6a14 703c
00000180: f313 d73c e0a4 173c 4cd4 ea3c d717 c63b
00000190: 9d7c 2b3b a852 c1bb 5f0d 2a3c e053 853c
000001a0: 90de 823b c45c ca3b 9139 1c3d 1442 933a
000001b0: 4711 193b 694c 183c 7cf0 f03c 8511 a93c
000001c0: 1a0b 163d 9813 feb8 03fe 3a3c e2c1 293c
000001d0: 8331 e73c 5649 8f3c b9a8 133d 6b9e 433d
000001e0: 4c82 9c3c f5c3 7f3c eacf c5ba ec23 253a
000001f0: a4dc 2f3c 70cd dc3c fe06 3c3b da35 5c2d
00000200: 055e c83c 7140 b43c 733c 9c3c 20be f73b
00000210: 4ec9 663b c280 2cbc 3589 d33a f1d6 653c
00000220: c0a5 803c ee18 af3b 2819 ba3c 7dc4 a73c
00000230: ac4a 7e2d fb5c a83c 771f 113c 4850 793c
00000240: 2661 b73c 6aab ad3b ba25 0a3a 8c30 1c3c
00000250: c84c 9a3c fb92 853c a4bf e73b 2d0a ad3c
00000260: b2c6 763b 4538 d5b8 1fb8 4f3b afd3 f43b
00000270: 4910 8a3b 67e0 e83c 3e00 e13b 0140 b53b
00000280: 022e 833b f5fb d4bb b65f 3a3a bd3f 6f3c
00000290: a365 fc3b 4dd4 cb3c fe7c cc3c 9dcc d23c
000002a0: 94df 9fba b9cb 013c 363a 023d 92a0 613c
000002b0: d614 df3c 3103 b53b 434f a03c 6acc 493b
000002c0: 809d 8a3c 7a59 4fbb 7711 d63c 31a7 543c
000002d0: 5c5b bd3b 202b 4b38 687b 773b 7ec3 453b
000002e0: 0ad7 923b 115b a83c c4e0 303c 5e03 803d
000002f0: c857 473d cc18 243d c4b0 553c 250d 8bbb
00000300: f7c7 5d3c 7285 293c 1b1b 1c3c 8df3 1b3d
00000310: afac e73b 9e30 c83b cce6 243c cbef a23c
00000320: e6ba b73b 7972 e93c 8d58 b5bb 0e95 b83c
00000330: a273 e73c 6e1d bb3c f8a5 56bb 355a d13c
00000340: 3b03 9a3c 6629 d73b cbdc 6c3c 5768 f0bb
00000350: dda1 433d efec a23b 67d9 fcbb 42c2 303c
00000360: 71b5 823a 6123 993b 0893 933c 360c c83b
00000370: 9c48 823c cdde b039 863a 433d cab2 8e3c
00000380: d7a8 fe3b d22f 833b a2aa e23c 5d09 7e3c
00000390: 4654 d03b 9df0 033c 95f7 2aba e7da 5a3c
000003a0: 7253 4cba 4a78 7b3c 1384 523c 1716 ac3c
000003b0: 6774 803c ecfe 6b3c 08db 2f3c 8dad 503b
000003c0: e2d6 763c 4f93 c93c cea7 3b3c a8f6 813b
000003d0: 77ad 2e3c 3261 bc3c 659a c93c 2d92 9c3c
000003e0: 8b23 6e3d e940 cbba 8aee 033b 9fa2 003c
000003f0: 0896 c13c 24ee 843c dbc6 c9b8 d28c 7e3d
0.018876173 0.018506946 0.0005842499 -0.0027350085 0.01841286 -0.00028948617 0.015598227 0.014784249
0.017271861 0.009606246 0.01726761 0.015029578 0.01620235 0.010766377 0.027858678 0.03466384
0.003212024 -0.0012019208 -0.010104907 0.006592825 -0.0060632485 -0.009963826 0.005005157 0.015281101
0.026883071 0.040017128 0.024517238 0.034859776 -0.00034302863 0.04704084 0.059485264 0.0033528584
0.014645125 -0.0026750905 0.0064983624 0.0058030775 0.0105234105 0.023193913 -0.0021438994 0.020915367
0.0034686066 0.009145211 0.021699945 0.020478927 -0.016338136 0.004863748 1.5569369e-11 0.012002828
0.028524922 0.01344332 0.0140494965 0.0031487092 -0.0033445805 0.020561429 0.0034557064 0.021276921
0.0038699715 0.0068594906 -0.00392963 -0.0009240788 0.0014768017 0.017721456 0.01848309 0.025642613
0.0038003996 0.0063033267 0.004377142 0.044869144 -0.010065635 0.013500572 0.0009067265 0.009868264
0.009309917 0.0074216616 0.018038787 0.008409158 0.005444903 7.165835e-13 0.012415438 0.012150907
0.012484281 0.0073191943 0.0058936863 0.009219786 0.0004222049 0.025995158 0.028668318 0.00309503
0.017695356 0.013025802 0.006133836 0.0057894983 0.010319389 0.024830585 0.028320309 0.014653305
0.02625463 0.009255618 0.028665684 0.0060453224 0.0026166805 -0.005899746 0.0103791645 0.016275346
0.0039938167 0.0061756093 0.038140837 0.0011234903 0.0023356245 0.009295561 0.029411547 0.020638237
0.03663168 -0.000121153134 0.0114131 0.010361167 0.028221851 0.017491024 0.03604958 0.0477585
0.0191051 0.015610685 -0.001509187 0.0006299603 0.010733757 0.026953429 0.002869069 1.251751e-11
0.024458895 0.022003384 0.019071793 0.0075605065 0.0035215202 -0.010528745 0.0016138913 0.014028297
0.015704036 0.005343548 0.022717074 0.020479435 1.4454809e-11 0.020552149 0.008857599 0.015216894
0.022385191 0.005299975 0.0005269904 0.009533059 0.01883544 0.016305437 0.007072406 0.021123016
0.0037655053 -0.000101671125 0.0031695438 0.0074715237 0.004213367 0.028427316 0.006866484 0.0055313115
0.0040032873 -0.006499762 0.0007109599 0.014602599 0.0077025457 0.024881506 0.024961945 0.025732333
-0.0012197369 0.007922106 0.031793796 0.013771193 0.027231615 0.005524062 0.019569045 0.0030792006
0.016920805 -0.0031639026 0.026131375 0.012979315 0.005778713 4.8439135e-05 0.0037762765 0.0030176337
0.004481201 0.020551236 0.010795776 0.06250642 0.0486677 0.04006271 0.0130426325 -0.0042435103
0.013536445 0.010346757 0.009527947 0.038074065 0.007070146 0.0061093112 0.010064792 0.019889733
0.005606997 0.028496968 -0.0055342377 0.022532012 0.02825338 0.022841182 -0.0032752734 0.02555571
0.018800369 0.0065662144 0.014456938 -0.007336657 0.047761787 0.0049720923 -0.007716346 0.010788502
0.0009972287 0.004673407 0.018014446 0.0061049713 0.015903763 0.00033735335 0.047663234 0.017419238
0.007771592 0.0040035034 0.027669255 0.015505162 0.0063577024 0.008052972 -0.0006521878 0.013357854
-0.0007794417 0.015348503 0.012848872 0.021006627 0.015680505 0.01440404 0.010733373 0.0031841726
0.0150658805 0.024606375 0.011453582 0.0039661713 0.010661474 0.022995565 0.024609754 0.01911267
0.058139365 -0.0015507016 0.0020131194 0.007851272 0.02363111 0.016226836 -9.6214666e-05 0.062146015

linear2.weight f4 [59, 256]
00000000: c0fa 3c3d 1828 583d 46e0 a73d 7194 053e
00000010: f750 163d bdce 893d 5e7c 06bf 9336 363d
00000020: e894 d0bc 93af 5d3d a562 783d 9275 b23d
00000030: c7cf febe f522 083d b45f 593d c6d6 903d
00000040: 16ac 573d d65f 08bd 08dd 0dbf 5ed7 673d
00000050: 7e8e a03d 1e1f 9fbe 578a 3d3d 3b87 563d
00000060: 3ecd 5a3d 7bd7 fcbe fb38 d33d b8d8 b4bd
00000070: 3ce4 e7be 7535 86bd 6219 e7be c8aa 75be
00000080: 3a7b 753d c995 6fbd 9b5e 62be 73d3 1d3d
00000090: b9d2 b23d 84f8 a43d 892d b03c eb95 a6be
000000a0: 7be3 2ebe 285d f5be 64f7 99be a009 773d
000000b0: 45fa 6d3d d016 a43d af8b 39af 4019 723d
000000c0: 724c 053e 7d7d dcbe 5b27 7f3d e960 9a3d
000000d0: 0d51 9b3d 8d6a 14bf f1f1 2ebe 3d72 a63b
000000e0: 250d 1cbe f042 c0be 4099 f7be b593 ecbe
000000f0: 716a 6fbe 2669 133d 6617 933d ae7c 9c3d
00000100: e8b6 c33d d559 a83d 2bc7 393d 19e8 63bd
00000110: 0a5c 163c 7596 373d a4c4 2bbd 1dbe 963d
00000120: 6d98 8b3d 38b3 07be 73a0 b6bc 9056 9a3d
00000130: 2fcb 963d 8bd4 c9ac 5aee f13d d60a 963d
00000140: e3ad 38be ba43 bc3c 8dd4 8d3d ae5c 04bf
00000150: 3f64 fd3d 069b 6d3d dfab a53d 6d62 dabe
00000160: bc5f b9bc 2209 cb3d 0d63 e03c 825d 90be
00000170: 48e6 74bc 9dac b2be e9f9 87be 6e02 8fbd
00000180: a739 343d a11c 99be 2194 013e 6902 71be
00000190: c5fa 89be 9356 3a3d 324c b1be a244 1dbd
000001a0: ef62 833d 0106 dcbe 3a17 883d 8117 f2be
000001b0: ef0a 003d 35fa 503d 6c8a aa3c e9e9 0bbe
000001c0: c414 a1bd 0e88 cc3d 8fbc 013d 9960 1a3c
000001d0: d3bb 933d 664d 223d efe5 bb3d d7f2 cb3d
000001e0: 7aa2 9d3d 0a64 6bbe 1206 7c3c b52b 2ebd
000001f0: 3e65 6e3d 295d b33d 4fba bcbe 66e6 9a2e
00000200: 0d91 7e3d b7d2 943d 9ae5 8cbe 218d d8bd
00000210: 7cbe 9abc e09b 1f3c 2dfd 58be c142 4fbd
00000220: 59eb a93d f0d1 43be 707b f7bd f14a cb3d
00000230: 817c 352f 938d c1be a312 88bd c5be 20bb
00000240: 3798 a43d 00db dd3d c25e c93c 053c cdbe
00000250: 8b8b 28be 9834 a63d 2827 ffbe 9ad3 81be
00000260: 9ce6 373d d80e c73d 49ac b53d 65e9 1abd
00000270: c071 07bf f30e 8bbe 881d 01bf b9df b73d
00000280: b258 d73d cfbf a7bd e559 9c3d 7621 7ebc
00000290: 406a 673d 6d42 ff3d 4174 64bc 43ed 893d
000002a0: c041 bebe 0d39 463d dc35 ffbe 589e bd3d
000002b0: b519 323c be43 a0be 4eeb c8bc 39b7 5ebe
000002c0: e553 7a3d 75f7 8a3b 2d7a 023e 3a98 2ebd
000002d0: 75de 833d 0aab 163d 2e9e 0f3d b790 b8be
000002e0: b9a4 4a3d 2654 4dbd 2dac a13d 9b40 e9be
000002f0: ed5d e9bd 9186 2cbd 2f12 d73d 9615 943d
00000300: 7dff 85bd d55a dfbd e370 8a3d 81e4 1cbd
00000310: dfa2 a8bd 9e63 90be fed6 c8bd c23a acbe
00000320: 2a3b 1a3d b5e8 0abe 2a12 f8be e49a 07bf
00000330: 15dc 32bd 1682 483d 9b52 363d 3b3d 943d
00000340: 6172 363d 34ee 0d3b e37e ac3d 1088 313e
00000350: 43ef cb3d 0ef0 d13d b898 2e3e 7190 b03d
00000360: a52c 0fbd beea 963d f3a7 853d 455b 90be
00000370: b08c 443d e717 5cbe eef5 cb3d 3c45 8ebd
00000380: 0ea7 773d 4389 44be e55e a83d e2bd bc3d
00000390: cec5 cb3d 450d e73c 42b9 473d 6fc9 6a3d
000003a0: 98de 03bf ed29 8e3d 2ad7 4d3d b015 853d
000003b0: 44f3 853d df0e 1d3d 54e2 073d fc08 613d
000003c0: 213d 453d 29da 1e3d eda3 32bd 5bcb a23b
000003d0: d295 f8be 05cd 92bd e8bc bb3d 43ee d13d
000003e0: 85fb 933d a828 9abe a199 673d 6373 02bf
000003f0: e9ee ecbd 8a8a 5e3d 77ef 01be f03f 8c3d
0.04613757 0.05277261 0.08197074 0.13044907 0.036698308 0.06728885 -0.5253352 0.04448564
-0.025461629 0.05412252 0.06064095 0.08713831 -0.49767897 0.033236463 0.053069785 0.07072215
0.05265435 -0.03329452 -0.5541539 0.056601875 0.07839678 -0.31078428 0.04627451 0.05237506
0.05341839 -0.4938315 0.103136025 -0.08830398 -0.45291317 -0.06553165 -0.45136553 -0.23990929
0.05993197 -0.058492456 -0.22106402 0.03853173 0.087315984 0.08055213 0.021506088 -0.32536253
-0.17078964 -0.47922635 -0.30071557 0.060311913 0.058100004 0.08012164 -1.6875278e-10 0.05910611
0.13017443 -0.4306449 0.06229339 0.075380154 0.075838186 -0.57975084 -0.17084481 0.0050795362
-0.15239389 -0.3755107 -0.48359108 -0.46206442 -0.23380448 0.03598895 0.07182197 0.07640968
0.09556371 0.08220259 0.045355957 -0.055641267 0.009177217 0.04482122 -0.041935578 0.0736048
0.06816182 -0.1325196 -0.022293305 0.07536042 0.07362973 -5.7363606e-12 0.1181304 0.073262855
-0.18035083 0.022981513 0.069253065 -0.5170392 0.12372636 0.05800917 0.080894224 -0.42653218
-0.022628658 0.09913851 0.027390981 -0.2819634 -0.014947481 -0.34897318 -0.26557854 -0.06982885
0.044000294 -0.29904655 0.12654163 -0.23536076 -0.26949134 0.04549272 -0.34628445 -0.03839553
0.064153545 -0.4297333 0.06645055 -0.47283557 0.031260427 0.051019866 0.020817958 -0.13663448
-0.07865289 0.09986888 0.031673964 0.009422445 0.07213559 0.039624594 0.09174716 0.099584274
0.076970056 -0.2298738 0.015382307 -0.04252215 0.05820202 0.08758003 -0.36860892 7.044036e-11
0.06215005 0.07266753 -0.27518922 -0.10573793 -0.018889658 0.009741753 -0.21190329 -0.05060077
0.08296842 -0.19123054 -0.12084091 0.09926403 1.6506087e-10 -0.37803325 -0.0664418 -0.002452777
0.08036845 0.108327866 0.024581317 -0.40084854 -0.16459481 0.081155 -0.4983456 -0.25356752
0.04489766 0.09719628 0.088707514 -0.03782024 -0.52907944 -0.27159843 -0.50435686 0.089782186
0.10514964 -0.081908815 0.076343335 -0.015510907 0.056497812 0.124638416 -0.013943733 0.06734707
-0.37159538 0.04839425 -0.4984578 0.09258717 0.010870387 -0.31301683 -0.024526265 -0.21749581
0.061115164 0.004240925 0.12741919 -0.042625643 0.06438915 0.03678421 0.03506296 -0.3604791
0.049473498 -0.05012908 0.07894168 -0.45557103 -0.11394868 -0.04212052 0.10501515 0.0723068
-0.06542871 -0.10905997 0.06759813 -0.038303856 -0.0823419 -0.28201002 -0.098066315 -0.3363858
0.03765408 -0.13565333 -0.48451358 -0.5297072 -0.043666918 0.048952185 0.044512372 0.07238241
0.044542674 0.0021656873 0.08422639 0.1733706 0.09957745 0.10250865 0.17050445 0.086213
-0.034954686 0.07368992 0.065261744 -0.28194633 0.047985733 -0.21493493 0.09959017 -0.06946799
0.06046205 -0.19192986 0.08221225 0.09215905 0.099498376 0.02820457 0.04876066 0.05732101
-0.51511526 0.069415905 0.050254025 0.06498277 0.0654054 0.03834426 0.033174828 0.05494021
0.048154 0.038782272 -0.043613363 0.0049680895 -0.48551804 -0.071680106 0.091668904 0.10250523
0.07225708 -0.30109143 0.056542996 -0.50957316 -0.11569006 0.05433134 -0.12689005 0.068481326

linear2.bias f4 [59]
00000000: dfb2 89bc ad2b 95bc 328c 73bc eb09 4fbc
00000010: 385a 3fbc 9c5c a5bc a467 abbc 53ed 98bc
00000020: 2b07 6fbc 44eb 41bc 4330 85bc 16cf a2bc
00000030: caa4 89bc f4f4 9fbc ea82 64bc 1947 25bc
00000040: 0dcb 9abc 6c1b 54bc a30d a6bc 4cd6 89bc
00000050: 063b 45bc 89ac 07bc 5c20 aabc cb20 83bc
00000060: a847 5cbc 599f 95bc ca68 8cbc bedb 27bc
00000070: 208c 8bbc 6d09 8abc b553 91bc 1399 7fbc
00000080: 327e 26bc 3016 9bbc b3d9 99bc 97cb 9dbc
00000090: 17c9 55bc f930 7ebc 1bcb 80bc 9fe3 21bc
000000a0: ae44 7dbc 9a87 98bc 6006 7ebc e3fc 98bc
000000b0: 2e19 47bc 8e68 86bc 2a7d 95bc 7c68 8fbc
000000c0: 01ee b1bc dcb7 87bc 8e12 16bc 9e99 a4bc
000000d0: 6732 34bc 5c91 9dbc 7cad 8cbc 8329 54bc
000000e0: d95f 2ebc 5aa4 80bc bbc8 8ebc
-0.016808925 -0.018209303 -0.014864968 -0.012636642 -0.011679225 -0.020185761 -0.020923443 -0.018667853
-0.014589111 -0.011835877 -0.016258365 -0.019874137 -0.01680221 -0.019525982 -0.013947228 -0.010087752
-0.01889565 -0.012945991 -0.020270174 -0.016825818 -0.012037998 -0.008280882 -0.020767383 -0.016006848
-0.013444819 -0.01826446 -0.017139811 -0.010245262 -0.01703459 -0.016850198 -0.01774011 -0.015600461
-0.010161923 -0.018931478 -0.018780565 -0.019262118 -0.013048432 -0.015514606 -0.015721848 -0.009880929
-0.015458269 -0.018619347 -0.01550445 -0.018675273 -0.012151999 -0.016407277 -0.01824816 -0.017505877
-0.021719934 -0.016567163 -0.009159697 -0.020092782 -0.010998345 -0.019234352 -0.017172568 -0.01294935
-0.010642969 -0.015703369 -0.0174297
