intermediary/model_18500.pth (torch, 356400 bytes, 5 tensors)

embed.weight f4 [59, 128]
0	0xbeb17d06	-0.34665698
1	0x3e614d87	0.2200223
2	0xbea54647	-0.3228018
3	0xbeaeee90	-0.34166384
4	0x3eb76aef	0.3582377
5	0x3ec84668	0.39116216
6	0xbdb9ef0f	-0.090788
7	0xbee4df28	-0.44701505
8	0x3edaa4f2	0.42703968
9	0x3eaa9348	0.33315492
10	0xbe6bf718	-0.23043478
11	0xbec780fc	-0.38965595
12	0xbad2eccd	-0.0016092301
13	0xbe716118	-0.23572195
14	0xbeb200de	-0.34766287
15	0x3ebacdd6	0.36485165
16	0xbe3ffed4	-0.18749553
17	0xbee04d7d	-0.4380912
18	0xbeb34e2b	-0.35020575
19	0x3ec821c8	0.39088273
20	0x3ecdd618	0.40202403
21	0x3e80e0d5	0.25171533
22	0x3e687014	0.22699004
23	0x3ddd54d0	0.10807192
24	0x3eaadf3d	0.33373442
25	0x3ed55c09	0.4167178
26	0xbeb1aff6	-0.3470456
27	0x3e4fbc7e	0.20286748
28	0x3b1cf258	0.002394816
29	0x3ed16bb6	0.4090249
30	0x3ed4912d	0.4151701
31	0xbe0e51b4	-0.13898355
32	0xbed81a52	-0.4220758
33	0xbec686a0	-0.38774586
34	0xbe96e3a2	-0.29470545
35	0xbe84f75d	-0.25969973
36	0x3ea8345d	0.3285245
37	0x3ef97c5f	0.487277
38	0x3e413962	0.18869546
39	0xbd8b72e4	-0.06809023
40	0xbdbdc7d1	-0.092666276
41	0xbea6c43c	-0.3257159
42	0x3edf60e4	0.4362861
43	0x3e8bd921	0.27314094
44	0x3ec7ca62	0.39021593
45	0x3d8ebc4f	0.06969511
46	0x3ed8ded6	0.4235751
47	0x3ef67ee9	0.481437
48	0xbebc5647	-0.36784574
49	0xbe8fd802	-0.28094488
50	0x3efa6e3f	0.48912236
51	0x3ec54fde	0.38537496
52	0xbeadca50	-0.33943415
53	0xbec7f4c8	-0.3905394
54	0x3ea7e4f9	0.3279188
55	0x3e9708b9	0.29498842
56	0xbec232c7	-0.37929365
57	0x3e4921f5	0.1964186
58	0xbe7aa480	-0.24476814
59	0x3eb61ae0	0.3556738
60	0xbea35a0f	-0.31904647
61	0x3ebbd43e	0.36685365
62	0xbee029c2	-0.4378186
63	0xbec2f740	-0.38079262
64	0xbeabc12d	-0.3354582
65	0x3e862cb1	0.26205972
66	0xbe3c3711	-0.18380381
67	0x3eb20595	0.34769884
68	0x3eba2dd6	0.36363095
69	0xbee76a50	-0.45198298
70	0xbe5cc01f	-0.21557663
71	0xbecefa6c	-0.40425432
72	0xbed7c084	-0.42139065
73	0xbed6bcba	-0.41940862
74	0x3e5f3bc8	0.21800148
75	0xbe942c40	-0.2894001
76	0x3ef227eb	0.4729608
77	0x3eaa1ac2	0.3322354
78	0x3e6bd6ce	0.2303116
79	0x3ed68ef2	0.41905934
80	0x3eabf9c4	0.33588994
81	0xbeaace0f	-0.33360335
82	0xbe7bcea6	-0.24590549
83	0xbef87c6e	-0.48532432
84	0x3ed04439	0.4067705
85	0xbea9f383	-0.33193597
86	0xbba3e92b	-0.005002161
87	0xbec49362	-0.38393694
88	0xbee06986	-0.43830508
89	0x3ec532e7	0.38515398
90	0x3ea76b5c	0.32699096
91	0xbebf0bb8	-0.37313628
92	0x3ec7f92c	0.3905729
93	0xbef2521b	-0.47328267
94	0xbeb840ea	-0.35987025
95	0x3eb08078	0.34473014
96	0x3e863902	0.26215369
97	0x3ee572ca	0.4481414
98	0xbe944c24	-0.2896434
99	0x3ea2f0dc	0.31824386
100	0x3e716b07	0.23575984
101	0xbee25b9c	-0.44210517
102	0xbe9261f0	-0.28590345
103	0x3e55ee9f	0.20891808
104	0x3eddd490	0.43326235
105	0xbece103e	-0.40246767
106	0x3ee019a8	0.43769574
107	0x3ee3cecc	0.4449371
108	0x3e933e04	0.28758252
109	0xbe981c1b	-0.29708943
110	0xbed9c5c0	-0.42533684
111	0xbe82c22d	-0.2553877
112	0x3eae913d	0.34095183
113	0xbe6759e9	-0.22592892
114	0xbedd3227	-0.43202326
115	0xbed7a2c4	-0.42116368
116	0x3eb8b6b5	0.36076894
117	0xbecf8619	-0.40531996
118	0x3e065b6a	0.13120809
119	0xbe965df8	-0.29368567
120	0x3ede7478	0.43448234
121	0xbeacc152	-0.33741242
122	0x3eb72d10	0.35776567
123	0x3eb2a6ed	0.3489298
124	0xbed5c621	-0.41752723
125	0x3e881df2	0.26585346
126	0x3edeaa7a	0.43489438
127	0x3ef5ac6e	0.47983116
128	0x3e384dec	0.17998475
129	0x3ea9875e	0.3311109
130	0xbe0805e4	-0.13283497
131	0xbee96e6d	-0.4559206
132	0xbebda7c9	-0.37042072
133	0xbe4e37e7	-0.20138513
134	0xbdf47772	-0.11936845
135	0xbed4c9fc	-0.41560352
136	0xbe2d3694	-0.16915351
137	0x3ee2bf3b	0.44286522
138	0xbec77985	-0.389599
139	0x3e648dec	0.22319764
140	0x3ee1eabf	0.4412441
141	0x3f009501	0.5022736
142	0xbea48558	-0.32132983
143	0xbd04b8b8	-0.032402724
144	0x3e768852	0.2407544
145	0x3d510627	0.051031258
146	0x3ec67137	0.3875825
147	0xbec3e169	-0.38257912
148	0x3ec708de	0.38873953
149	0xbec1ce37	-0.37852642
150	0xbed64a18	-0.41853404
151	0xbeaa9710	-0.33318377
152	0xbe57f2fd	-0.21088786
153	0xbdff2f29	-0.12460167
154	0x3e9a95a0	0.3019228
155	0xbeee1e14	-0.46507323
156	0xbeecd8ee	-0.46259254
157	0xbe500b45	-0.20316799
158	0xbe6d0581	-0.23146631
159	0x3ec1ed2e	0.37876266
160	0x3eb950eb	0.36194548
161	0xbee83408	-0.45352197
162	0x3efac8ae	0.4898123
163	0x3ed2b2e0	0.41152096
164	0xbecb9be4	-0.39767373
165	0xbeb1bdaa	-0.34715015
166	0xbedebeb4	-0.4350487
167	0x3ec3d26e	0.38246483
168	0x3ee928a3	0.45538816
169	0x3ef458d0	0.4772401
170	0xbecb487c	-0.3970374
171	0x3ecd7e65	0.40135494
172	0xbe8deedf	-0.27721307
173	0xbed65948	-0.4186499
174	0x3f01773d	0.5057257
175	0x3eb7825b	0.3584164
176	0xbdeb5005	-0.11489872
177	0xbee4cf1f	-0.4468927
178	0x3ed1d2fc	0.4098128
179	0x3ec77082	0.38953024
180	0xbed397fa	-0.41326886
181	0x3e684e90	0.22686219
182	0xbe8f7f4b	-0.28026804
183	0x3e9bffc7	0.3046858
184	0xbeaf5ccc	-0.34250486
185	0xbdd300c7	-0.10302883
186	0x3edead68	0.43491673
187	0x3de09948	0.10966736
188	0x3ec368c3	0.38165864
189	0xbea3aa9e	-0.31966108
190	0xbed42c35	-0.41439977
191	0xbea03604	-0.3129121
192	0xbdc28f81	-0.095000274
193	0x3e9d4af8	0.3072126
194	0x3ee042fe	0.4380111
195	0x3ee45647	0.44597074
196	0xbecd7f60	-0.40136242
197	0xbed61147	-0.41810057
198	0x3ee6cf3e	0.45079988
199	0x3ec40b3d	0.38289824
200	0x3ec5a37e	0.38601297
201	0x3dddbc9f	0.10826992
202	0xbecbb0c0	-0.39783287
203	0xbec36b07	-0.38167593
204	0xbe616239	-0.22010125
205	0x3e8d9f2d	0.27660504
206	0xbea019c4	-0.31269658
207	0x3e07c8fa	0.1326026
208	0xbf00ab9c	-0.50261855
209	0xbe9fac48	-0.31186128
210	0x3d55770b	0.05211548
211	0xbed924e1	-0.4241095
212	0xbec44b43	-0.3833867
213	0xbe8ae87c	-0.27130497
214	0xbeb21330	-0.34780264
215	0xbec524b5	-0.38504568
216	0x3eba56c0	0.3639431
217	0xbed369bf	-0.41291615
218	0xbedfe108	-0.43726373
219	0xbe0a7983	-0.13522916
220	0x3e6f6698	0.2337898
221	0xbee55910	-0.44794512
222	0x3ebb79bf	0.36616322
223	0x3e7ef3b1	0.24897648
224	0xbdd9832f	-0.106207244
225	0xbe66e686	-0.22548875
226	0x3e6bb3a7	0.2301775
227	0xbe86831d	-0.26271906
228	0xbec18987	-0.37800238
229	0x3e818acf	0.25301215
230	0xbe480f6c	-0.19537133
231	0xbec437d4	-0.38323843
232	0xbe6bb220	-0.23017168
233	0x3eba73a1	0.36416343
234	0x3eecbd47	0.46238157
235	0x3e933b5b	0.28756222
236	0xbed87712	-0.42278343
237	0x3e943fa3	0.289548
238	0x3eb02070	0.34399748
239	0xbef3559a	-0.47526246
240	0xbed38bb5	-0.41317526
241	0x3edc4bf8	0.4302671
242	0x3e5e25bf	0.21694086
243	0x3ed0e71d	0.40801325
244	0xbed1c2d7	-0.40968964
245	0xbe520c8c	-0.20512599
246	0x3eacba51	0.33735898
247	0xbeb6af70	-0.35680723
248	0xbe922b3a	-0.28548604
249	0x3ed1f201	0.41004947
250	0x3eea33a8	0.45742536
251	0xbe70080a	-0.23440567
252	0xbe80a4a0	-0.251256
253	0xbeb2b944	-0.3490697
254	0x3ed94a66	0.42439574
255	0xbebf46c4	-0.37358677

linear1.weight f4 [256, 256]
0	0xbe081e3d	-0.13292785
1	0xbe13c9c8	-0.14432442
2	0x3e297d0e	0.16551611
3	0x3e03a6bc	0.12856573
4	0xbe0f08b7	-0.13968168
5	0x3d61868b	0.05505995
6	0x3e2e962d	0.17049475
7	0x3c21fda5	0.009887134
8	0xbe5c82b6	-0.21534237
9	0xbd2f1483	-0.04274417
10	0x3e3171a6	0.1732851
11	0xbe1f6931	-0.15567471
12	0x3c6c74da	0.014432156
13	0x3b33640e	0.002737287
14	0xbe1e6dd2	-0.1547158
15	0x3e3c060a	0.18361679
16	0x3d9172a4	0.07101944
17	0x3e149c0f	0.14512657
18	0x3e57b5d7	0.2106546
19	0x3de83a00	0.113391876
20	0xbda75e3e	-0.08172272
21	0x3dcb43c0	0.09925032
22	0x3cedcdbe	0.02902877
23	0x3e0a207f	0.13488959
24	0xbcf5ace1	-0.029989662
25	0xbe409ef9	-0.18810643
26	0xbe373f12	-0.17895153
27	0xbdae6a7b	-0.08516403
28	0x3de7b85e	0.11314462
29	0xbb395221	-0.0028277712
30	0xbdd65aae	-0.104665145
31	0xbbc30aba	-0.0059522064
32	0xbcf037ff	-0.029323576
33	0xbcedb33f	-0.029016135
34	0x39040f89	0.00012594288
35	0x3e407de0	0.18798018
36	0x3daaef48	0.083464205
37	0xbdfcb1ee	-0.12338625
38	0x3e5be428	0.21473753
39	0xbd5fa7f5	-0.054603536
40	0x3a879b24	0.0010345918
41	0x3c8bdc29	0.017072754
42	0xbe1e815c	-0.15479034
43	0xbc77a89b	-0.015115882
44	0xbe16b032	-0.1471565
45	0xbe118ead	-0.14214583
46	0xbdf40c3f	-0.11916398
47	0x3d110cf1	0.035412733
48	0xbe32fd62	-0.1747947
49	0xbda7f6d3	-0.08201375
50	0xbd4093fd	-0.047016133
51	0xbe37deb2	-0.17956045
52	0x3d52d8f4	0.051476434
53	0xbe15f198	-0.14642942
54	0xbe27600e	-0.16345236
55	0xbcfaf025	-0.030632088
56	0x3d5a803a	0.053344943
57	0x3b349a5d	0.0027557828
58	0x3e00ed54	0.12590533
59	0x3d7bb62e	0.061453037
60	0x3e281aa9	0.1641642
61	0xbd3577bb	-0.044303637
62	0x3e227b95	0.15867455
63	0x3d9d4ce0	0.07680678
64	0x3e2b900c	0.16754168
65	0xbdf06198	-0.117373645
66	0xbe290009	-0.1650392
67	0xbe5a22a2	-0.21302274
68	0xbd4ae701	-0.04953671
69	0xbd526986	-0.051370166
70	0xbbfdd0d1	-0.00774584
71	0xbdac3e7b	-0.08410355
72	0xbdfb3a2d	-0.122669555
73	0xbe32dbac	-0.1746661
74	0x3e1f5f0d	0.15563603
75	0x3e4944f9	0.19655217
76	0xbe4fa88f	-0.20279144
77	0xbd425e1f	-0.047453042
78	0xbcd69148	-0.026192322
79	0x3e0e1e0c	0.1387865
80	0xbe02cc57	-0.12773262
81	0x3e175db2	0.14781836
82	0x3e375a4c	0.1790554
83	0x3e3f9021	0.18707325
84	0xbd720caa	-0.05909411
85	0x3d850ed1	0.06496967
86	0x3d57f0cf	0.052719887
87	0x3dc896fc	0.09794423
88	0x3e0557f0	0.13021827
89	0xbe19d1f0	-0.15021491
90	0xbe287c51	-0.16453673
91	0x3e339f13	0.17541151
92	0x3d7e00d1	0.062012497
93	0x3daee3e8	0.085395634
94	0xbd4b64be	-0.049656622
95	0x3cc93a60	0.024563968
96	0x3c8182e6	0.015809488
97	0xbd28a791	-0.04117543
98	0xbc70b31b	-0.01469114
99	0x3d5b68a6	0.053566597
100	0xbe2125d6	-0.1573709
101	0x3d09d677	0.033651795
102	0x3d50a03c	0.05093406
103	0xbe21cc54	-0.15800601
104	0xbdc99985	-0.09843735
105	0x3ca9fc59	0.020750212
106	0xbd4c55a3	-0.049886357
107	0xbd3795a6	-0.04482045
108	0xbe53136e	-0.2061288
109	0xbe63de2e	-0.22252724
110	0x3d0ec191	0.034852568
111	0x3e0da948	0.13834107
112	0xbe5f8101	-0.21826555
113	0xbda6afb3	-0.08138981
114	0x3e1ae355	0.15125783
115	0xbdbe4086	-0.092896506
116	0x3e57b640	0.21065617
117	0x3e5d8d94	0.21636039
118	0xbc83183d	-0.016002769
119	0x3cf77d8a	0.030211229
120	0x3d95f21a	0.07321568
121	0x3df057bf	0.11735486
122	0xbe41e679	-0.18935575
123	0xbd3201c1	-0.043458704
124	0xbe0e599e	-0.13901374
125	0xbd897c55	-0.067131676
126	0xbd1181b5	-0.03552409
127	0xbdf23a30	-0.11827505
128	0xbc116c3a	-0.008875901
129	0x3beff4c1	0.007322878
130	0xbddb415d	-0.107058264
131	0xbe30e1d4	-0.17273647
132	0x3e38dbbd	0.18052574
133	0xbe324eaf	-0.17412828
134	0xbe0da18c	-0.13831156
135	0xbcbe05c4	-0.023196109
136	0x3db497a4	0.08817986
137	0x3e183842	0.1486521
138	0xbe16f054	-0.14740115
139	0xbdafa905	-0.0857716
140	0xbe6862af	-0.22693895
141	0xbe5c0df9	-0.21489705
142	0x3e1e545f	0.15461873
143	0x3c0de3ed	0.008660299
144	0xbe616d44	-0.22014338
145	0xbdca8946	-0.09889464
146	0xbd6db37a	-0.05803249
147	0x3dbac642	0.09119846
148	0xbe426643	-0.18984322
149	0xbcda9bf3	-0.02668569
150	0x3e1f106b	0.15533607
151	0x3d3b02bf	0.045656916
152	0xbe364cab	-0.17802684
153	0x3ddf5704	0.10905269
154	0xbc357c44	-0.0110769905
155	0x3de9feb0	0.11425531
156	0xbe1d79c9	-0.15378489
157	0xbe3e1c0b	-0.18565385
158	0xbc71dec2	-0.014762582
159	0x3e5f69dd	0.21817727
160	0xbe52770f	-0.2055323
161	0x3e57e039	0.21081628
162	0xbdf4fa3f	-0.11961793
163	0xbbe5c5d9	-0.0070121107
164	0xbd5eba79	-0.054377053
165	0x3e02a7ba	0.12759295
166	0xbd48bcc3	-0.049008142
167	0x3e5a50fb	0.21319954
168	0xbe60eac2	-0.21964553
169	0xbdbb974b	-0.09159716
170	0x3da20fca	0.07913168
171	0xbe274880	-0.1633625
172	0x3e0ff8cb	0.1405975
173	0xbcca22fc	-0.024674885
174	0xbe27c414	-0.16383392
175	0xbdd7b18f	-0.105319135
176	0x3e21e218	0.15808904
177	0xbcc4427d	-0.023957485
178	0xbe37fed2	-0.179683
179	0x3e011aab	0.1260783
180	0xbe125f3a	-0.14294139
181	0xbdc1d310	-0.09464085
182	0x3ccc5eea	0.024947602
183	0xbd3fb590	-0.04680401
184	0x3df189f4	0.117938906
185	0xbe194c5c	-0.14970535
186	0xbe5466e5	-0.20742376
187	0xbda8a578	-0.08234686
188	0x3c8a914c	0.016914986
189	0xbe0f6617	-0.14003788
190	0x3d5eb1d0	0.054368794
191	0x3e3e10c6	0.18561086
192	0x3d1d2737	0.038367476
193	0x3d5e8b73	0.054332208
194	0xbdcadb82	-0.09905149
195	0xbcba82c0	-0.022767425
196	0xbddc520a	-0.10757835
197	0x3dbf0840	0.093277454
198	0x3d0f95a8	0.035054833
199	0xbdde8e65	-0.10867003
200	0xbe0627d4	-0.1310113
201	0x3e199fc7	0.15002356
202	0xbe1e7128	-0.15472853
203	0x3ca1702a	0.019706804
204	0xbd437a93	-0.047724318
205	0xbe4a9527	-0.1978346
206	0xbe13032d	-0.1435668
207	0xbe47e832	-0.19522169
208	0x3e2cfcbe	0.16893288
209	0xbd11b204	-0.03557016
210	0xbd3b0e52	-0.045667954
211	0x3d9acf68	0.07559091
212	0x3e666d05	0.22502525
213	0xbbe51eb0	-0.0069921836
214	0x3e38a22a	0.1803061
215	0x3dbc7ea3	0.092038415
216	0xbe07204e	-0.13195917
217	0xbcf3ce4d	-0.029761458
218	0x3d66695d	0.056252826
219	0x3c53a2b7	0.012917212
220	0xbe55beab	-0.20873515
221	0xbc77c274	-0.015122045
222	0xbde41fd6	-0.11138885
223	0x3d8e745f	0.0695579
224	0x3d0068a1	0.031349782
225	0xbd371ce7	-0.044705298
226	0x3dc6d3bb	0.09708353
227	0xbdd1da04	-0.10246661
228	0xbe0c9a21	-0.1373067
229	0xbdc9bc1d	-0.09850333
230	0xbaeb69b2	-0.0017960577
231	0xbd8a34ea	-0.06748374
232	0xbd478d5f	-0.048718806
233	0xbe400334	-0.18751222
234	0x3c8857b7	0.016643388
235	0xbe0ae5d6	-0.13564238
236	0x3d130fd5	0.03590377
237	0x3d70e0e3	0.05880822
238	0xbe2ba29c	-0.1676125
239	0x3d26611e	0.040619962
240	0x3d33e22e	0.043916874
241	0xbda496aa	-0.080365494
242	0x3de03413	0.10947432
243	0xbdd7d97c	-0.10539529
244	0x3cf74a74	0.03018687
245	0x3c039168	0.008030273
246	0xbe603106	-0.21893701
247	0x3d1e7fa0	0.03869593
248	0xbd007cc3	-0.031368982
249	0xbe3cd84a	-0.18441883
250	0x3ca86622	0.020556513
251	0xbe020162	-0.1269584
252	0xbc0c6ddd	-0.008571115
253	0xbe2949f7	-0.16532122
254	0x3d03a772	0.03214211
255	0x3db27c9a	0.08715172

linear1.bias f4 [256]
0	0x3caa8c8c	0.020818971
1	0x3cd9ddde	0.026595052
2	0x3b346a50	0.0027529188
3	0x3acee029	0.0015783358
4	0x3c331518	0.010930322
5	0x3ab0afc0	0.0013480112
6	0x3bcd4443	0.006264241
7	0x3cbd32c0	0.023095489
8	0x3c542b67	0.012949801
9	0x3b7c76f6	0.0038523055
10	0x3c94986c	0.018139087
11	0x3c62b0c2	0.013836088
12	0x3c8c2fa8	0.017112568
13	0x3c057959	0.008146607
14	0x3d021c6b	0.031765383
15	0x3c5963ba	0.013268406
16	0x3bfc1cf6	0.007693882
17	0xb9cde02a	-0.00039267662
18	0x3b43c7c4	0.0029873708
19	0xbc0e40e5	-0.008682464
20	0x3b09e92b	0.002104352
21	0xbb5d2010	-0.0033741035
22	0x3b0d664a	0.0021575862
23	0xbb49cb52	-0.0030791354
24	0x3ce7f45f	0.028314767
25	0x3d24f1b5	0.040269572
26	0x3cadcb87	0.021215213
27	0x3ca07952	0.0195891
28	0x3b4fd4d6	0.0031712553
29	0x3ca904f4	0.020632245
30	0x3d609a51	0.054834668
31	0x3ba36b71	0.0049871732
32	0x3c843105	0.016136656
33	0x3bb89a6d	0.0056336434
34	0x3ba9fdb1	0.005187713
35	0x3b8faffc	0.0043849926
36	0x3a901b8c	0.0010994538
37	0x3c9a19b3	0.018811082
38	0xba4f1de4	-0.00079008774
39	0x3c2d379b	0.010572339
40	0x3b2f7872	0.0026774672
41	0x3be1a595	0.006886194
42	0x3c578eb3	0.013156581
43	0x3cadab56	0.021199863
44	0xbc75f987	-0.015013105
45	0x3b9d0df3	0.0047929226
46	0x249c4ca1	6.778403e-17
47	0x3becbddf	0.007224783
48	0x3d00970f	0.03139406
49	0x3b6d9ddf	0.0036257429
50	0x3c34e492	0.0110408235
51	0x3ab2e85f	0.0013649574
52	0xbc8c7dda	-0.017149854
53	0x3cbfb20a	0.023400325
54	0x3b285021	0.0025682526
55	0xbbe69a56	-0.0070374412
56	0x3bf58c62	0.0074935416
57	0x3c229d4b	0.009925197
58	0x3b764565	0.0037577983
59	0xba4ec5e8	-0.00078877667
60	0x3aa19a28	0.0012329267
61	0x3c5e70ce	0.013576699
62	0x3ca8d0a1	0.020607295
63	0x3cfbe69f	0.030749617
64	0x3bd973ee	0.0066361343
65	0x3c02aaf8	0.007975332
66	0x3ba2f4b2	0.0049730176
67	0x3d42d834	0.04756947
68	0x3c1ed253	0.0096937
69	0x3bafe9f5	0.005368466
70	0x3a2bb8de	0.00065506797
71	0x3c6acf07	0.014331586
72	0x3bff001e	0.0077819964
73	0x3c3f0c7c	0.011660691
74	0x3c403b7d	0.011732933
75	0x3c62e50e	0.013848556
76	0x3bdf7b23	0.006820099
77	0x22298936	2.297641e-18
78	0x3c6b754d	0.014371228
79	0x3c1d498b	0.009600054
80	0x3cb28539	0.021792041
81	0x3c9e59f0	0.019329995
82	0x3c76bfa6	0.015060341
83	0x3c206615	0.009789963
84	0x3c1fb5a4	0.009747896
85	0x3ced274d	0.028949404
86	0x3c4f2b80	0.012644649
87	0x3bb2e70c	0.005459672
88	0x3c8e4b66	0.017369937
89	0x3c447053	0.011989671
90	0x3a9b4c4b	0.0011848299
91	0x3bc23d04	0.005927684
92	0x3c3347bf	0.010942399
93	0x3ccb4d63	0.024817174
94	0x3ca5bbf7	0.02023123
95	0x3c41d906	0.011831528
96	0x3cb54684	0.022128351
97	0x3c39a782	0.011331441
98	0x3ca5a8c0	0.020222068
99	0x3bd8121a	0.0065939547
100	0x3abd1260	0.0014425032
101	0x3b8b3af6	0.004248972
102	0x3c3ba67d	0.011453268
103	0x3c6d8598	0.014497183
104	0x3b8a979b	0.0042294986
105	0x3b8d965b	0.0043209023
106	0x3d1772ac	0.036974594
107	0x3c627a93	0.013823169
108	0x3b249863	0.0025115244
109	0x3bc1b6c1	0.0059116785
110	0x3cf378f4	0.02972076
111	0x3d020339	0.031741355
112	0x3cfbd592	0.030741487
113	0x3b59cc7a	0.003323345
114	0x3d0700da	0.032959796
115	0x3c4df967	0.012571669
116	0x3cedc260	0.02902335
117	0x3c9dc030	0.019256681
118	0x3d224b0e	0.03962236
119	0x3d3c6f31	0.046004478
120	0x3cb72a28	0.022358969
121	0x3c57c650	0.01316984
122	0x3bff9d32	0.0078007216
123	0x3b029abf	0.0019928662
124	0x3c5d3a21	0.013502629
125	0x3ce366a5	0.027758906
126	0x3bc82bcb	0.006108736
127	0x25ff52d2	4.429157e-16
128	0x3cd4d2ba	0.025979389
129	0x3cf0e3c1	0.029405477
130	0x3cbd851f	0.023134766
131	0x3bd84134	0.0065995697
132	0xbb13b5f4	-0.0022538872
133	0x3c9df53a	0.019281972
134	0xb9fbcef0	-0.0004802863
135	0x3d147ae0	0.036249995
136	0x3c53e7e8	0.012933709
137	0x3c73db37	0.014883808
138	0x3cef2c62	0.029195968
139	0x3cc2a683	0.02376104
140	0x25a333bd	2.8311052e-16
141	0x3cbc8522	0.023012701
142	0x3c1c3ebc	0.009536441
143	0x3c7ff6bf	0.015622794
144	0x3c9e6005	0.019332895
145	0x3bff8b68	0.007798601
146	0x3b7a268a	0.0038169944
147	0x3c12905c	0.008945551
148	0x3c93e6ec	0.018054448
149	0x3c83e18c	0.01609876
150	0x3bce81a5	0.006302076
151	0x3cce14cd	0.025156403
152	0x3ba9be5d	0.005180164
153	0xbb006854	-0.0019593434
154	0x3b75353f	0.003741577
155	0x3c9d45da	0.019198347
156	0x3b1e1390	0.0024120547
157	0x3ce9571e	0.028483924
158	0x3d3855a3	0.045003545
159	0x3c158ebc	0.009128269
160	0x3bdbd6af	0.006708942
161	0x3b996dd7	0.0046822834
162	0x3981d04d	0.00024759994
163	0x3c67ff36	0.014159968
164	0x3bc66318	0.0060542934
165	0x3c8666a6	0.016406368
166	0x3ca509b2	0.020146225
167	0x3cbeea38	0.023305044
168	0xbb7a008e	-0.0038147303
169	0x3c65a6a2	0.014016779
170	0x3cf74da5	0.030188391
171	0x3ca6ec53	0.02037636
172	0x3cff3a0a	0.031155605
173	0x3b8857d5	0.004160861
174	0x3c89e19e	0.016831215
175	0x3b86c100	0.004112363
176	0x3a819752	0.0009887016
177	0xbb079321	-0.002068706
178	0x3c4d8b60	0.012545437
179	0x3c5adcf2	0.0133583415
180	0x3bf6facb	0.007537221
181	0xba47f3e3	-0.00076275895
182	0x3bc9eccc	0.0061622616
183	0x3ca7e34f	0.020494131
184	0x3be00090	0.0068360046
185	0x3c98d54a	0.018656392
186	0x3c0586f6	0.008149853
187	0x3d45325e	0.048143737
188	0x3d670a15	0.0564061
189	0x3d2c9442	0.042133577
190	0x3c523e79	0.012832277
191	0x3888d60b	6.524854e-05
192	0xbb5ffff9	-0.0034179671
193	0x3c0798a0	0.008276135
194	0x3c0694cf	0.00821419
195	0x3d399310	0.045306265
196	0x3bff99d9	0.0078003225
197	0x3bc3ae55	0.0059717097
198	0x3bc6f13c	0.006071238
199	0x3c9b2f06	0.018943321
200	0x3bd07450	0.006361522
201	0x3c6c9289	0.014439234
202	0xb9f0a031	-0.0004589572
203	0x3d224637	0.039617743
204	0x3c986e54	0.018607296
205	0x3cdb5c19	0.026777314
206	0xba4fabc8	-0.0007922021
207	0x3d221d76	0.039578877
208	0x3c980816	0.018558543
209	0x3bf2542f	0.0073952894
210	0x3c6248d9	0.013811314
211	0xbb45f6f8	-0.003020702
212	0x3d3d09b5	0.046151835
213	0x3c361878	0.011114232
214	0xbbefb57e	-0.0073153367
215	0x3be429d3	0.0069629936
216	0x3b26df49	0.0025462678
217	0x3be29a6b	0.0069153807
218	0x3c87d762	0.016582195
219	0x3bc0cbeb	0.005883684
220	0x3cc593fd	0.024118418
221	0x39a6e7ed	0.00031834785
222	0x3d3ceea1	0.04612601
223	0x3ba0f3c4	0.0049118716
224	0x3bec6e89	0.0072153253
225	0x3c228a9e	0.009920744
226	0x3d2ae115	0.04171856
227	0x3c5eadd4	0.013591249
228	0x3c08cb53	0.0083492575
229	0x3c1891eb	0.009312133
230	0x399baad2	0.00029691175
231	0x3c254dd5	0.010089357
232	0x3b8ec3f6	0.0043568565
233	0x3c3e37f7	0.011610023
234	0x3c7c24e3	0.015389654
235	0x3ca9d75b	0.020732572
236	0x3c9c6881	0.0190928
237	0x3c4b5c4c	0.012412142
238	0x3b748b82	0.0037314598
239	0x3b5a371c	0.0033297008
240	0x3c53a808	0.01291848
241	0x3ca6c9c9	0.02035989
242	0xb916d575	-0.00014384634
243	0x3afb270e	0.001916142
244	0x3c2badfb	0.010478492
245	0x3cbe86f9	0.02325772
246	0x3cd0e70b	0.025500795
247	0x3c9cd399	0.019143866
248	0x3d191fd3	0.037383866
249	0xba46c94d	-0.0007583097
250	0x3b9b7643	0.0047443225
251	0x3ba972a2	0.005171136
252	0x3c8d2a23	0.017232006
253	0x3c8bf9c3	0.01708687
254	0x3bb905f8	0.0056464635
255	0x3d6277ad	0.055289913

linear2.weight f4 [59, 256]
0	0x3d6446be	0.055731528
1	0x3d434ade	0.04767882
2	0x3daf17ef	0.08549487
3	0x3e0d659c	0.13808292
4	0x3d2ed7e0	0.042686343
5	0x3d9791ab	0.07400831
6	0xbf0a5d0e	-0.5404824
7	0x3d55d1db	0.052202087
8	0xbcbe4312	-0.023225341
9	0x3d50267d	0.050817955
10	0x3d6eb306	0.0582762
11	0x3db2051d	0.086923815
12	0xbefb15c8	-0.49040055
13	0x3d0c31e3	0.034227263
14	0x3d55fdf6	0.05224415
15	0x3d925a03	0.071460746
16	0x3d5e863a	0.054327227
17	0xbd15b160	-0.03654611
18	0xbf114b8a	-0.5675589
19	0x3d86905f	0.06570505
20	0x3da00aef	0.078145854
21	0xbea784ec	-0.327186
22	0x3d35abc9	0.04435328
23	0x3d656e50	0.056013405
24	0x3d656447	0.056003835
25	0xbefd65f0	-0.49491835
26	0x3dd6aa8e	0.104817495
27	0xbd77f8df	-0.060540076
28	0xbee4f089	-0.44714764
29	0xbda53543	-0.080667995
30	0xbef5cb79	-0.480068
31	0xbe7c0792	-0.24612263
32	0x3d6d0a83	0.057871353
33	0xbdec51d0	-0.11539042
34	0xbe64a4bd	-0.22328468
35	0x3d1e9d60	0.038724303
36	0x3db59e6d	0.08868108
37	0x3dab57a0	0.083663225
38	0x3cb4b4d0	0.022058874
39	0xbe8e055f	-0.27738473
40	0xbe3074b2	-0.17232016
41	0xbef33ee6	-0.47508925
42	0xbe961e4d	-0.29319993
43	0x3d65c967	0.056100275
44	0x3d6c370c	0.057669684
45	0x3d9ccfd6	0.07656829
46	0xa6a8f81f	-1.1724595e-15
47	0x3d709c73	0.05874295
48	0x3e071cf1	0.13194634
49	0xbee7428d	-0.45167962
50	0x3d714b95	0.05890997
51	0x3d983f28	0.07433921
52	0x3d93a02d	0.072082855
53	0xbf147199	-0.57985836
54	0xbe307fa0	-0.17236185
55	0xbd059702	-0.032614715
56	0xbe1fbc30	-0.15599132
57	0xbebe7b0a	-0.37203246
58	0xbef8adeb	-0.4857019
59	0xbee7dbdc	-0.45284927
60	0xbe6f4ac5	-0.23368366
61	0x3c6d4487	0.01448167
62	0x3d973d9a	0.073847964
63	0x3d9c80ef	0.0764178
64	0x3dc47ca2	0.09594084
65	0x3daf060c	0.08546075
66	0x3d3d7024	0.046249524
67	0xbd671040	-0.05641198
68	0x3c5b4f08	0.013385542
69	0x3d320adc	0.043467388
70	0xbd118c6e	-0.035534315
71	0x3d95245d	0.07282326
72	0x3d8ea46c	0.06964955
73	0xbe033e76	-0.12816796
74	0xbce07d81	-0.027403595
75	0x3d9654e5	0.07340411
76	0x3d951514	0.07279411
77	0xa3780952	-1.3446081e-17
78	0x3dedaf42	0.116056934
79	0x3d9d5e78	0.07684034
80	0xbe4527da	-0.19253483
81	0x3ccbd7f0	0.02488324
82	0x3d94630a	0.07245453
83	0xbeecf677	-0.46281788
84	0x3df15f1b	0.11785718
85	0x3d6af2d3	0.05736048
86	0x3da61545	0.081095256
87	0xbed83af4	-0.42232478
88	0xbce6fdaf	-0.028197138
89	0x3dc94576	0.09827702
90	0x3c8d06d7	0.017215176
91	0xbe916e67	-0.28404543
92	0xbc5b95da	-0.013402427
93	0xbeaf4f42	-0.34240156
94	0xbe8a854d	-0.27054825
95	0xbd736c2d	-0.059429336
96	0x3d33af01	0.04386807
97	0xbe986645	-0.29765525
98	0x3e009fa5	0.125609
99	0xbe63f14c	-0.22260016
100	0xbe8fdc0a	-0.28097564
101	0x3d3970be	0.045273535
102	0xbeb07a2b	-0.34468207
103	0xbc59eb10	-0.013300672
104	0x3d853a1e	0.065052256
105	0xbee0e42d	-0.43924084
106	0x3d6b7add	0.05749022
107	0xbeee289c	-0.46515357
108	0x3cf4a479	0.029863583
109	0x3d4732b1	0.048632327
110	0x3cbb844f	0.022890238
111	0xbe010f3d	-0.12603469
112	0xbd93d51b	-0.07218381
113	0x3dcc3b76	0.09972279
114	0x3d2e7d2e	0.04259985
115	0x3c7c25b1	0.015389846
116	0x3d937921	0.07200838
117	0x3d28f299	0.041246984
118	0x3dbc6670	0.09199226
119	0x3dc4eded	0.09615693
120	0x3d906f05	0.07052425
121	0xbe6a6b02	-0.22892383
122	0x3ca5bf0a	0.020232696
123	0xbd3b7803	-0.04576875
124	0x3d6ac0ca	0.057312764
125	0x3daadf48	0.08343369
126	0xbebd2307	-0.36940786
127	0x2652cbb6	7.3134466e-16
128	0x3d7c413e	0.061585657
129	0x3d8ba8fa	0.06819339
130	0xbe865814	-0.26239073
131	0xbddcaa47	-0.10774665
132	0xbbc9a416	-0.006153594
133	0x3d035b4b	0.032069486
134	0xbe5806b7	-0.21096312
135	0xbd26fbe2	-0.040767558
136	0x3da585de	0.08082174
137	0xbe4cebc0	-0.20011806
138	0xbe1085dd	-0.14113565
139	0x3dcaddf6	0.09905617
140	0x27503bf2	2.8898295e-15
141	0xbebc5f39	-0.367914
142	0xbb34fdc7	-0.0027617083
143	0xbb4fac3c	-0.0031688353
144	0x3da84be7	0.08217602
145	0x3dd9a139	0.10626454
146	0x3cb98038	0.022644147
147	0xbecff4ae	-0.40616363
148	0xbe1d78ba	-0.15378085
149	0x3da51ef7	0.08062547
150	0xbeff6553	-0.49881992
151	0xbe81cbf3	-0.25350913
152	0x3d308397	0.043094244
153	0x3dc191ee	0.09451662
154	0x3db05d1b	0.086115085
155	0xbd0a47e7	-0.033759978
156	0xbf085154	-0.53249097
157	0xbe87e243	-0.26539811
158	0xbef47ed9	-0.47753027
159	0x3dc24d65	0.09487418
160	0x3dd4d22b	0.10391649
161	0xbe715d33	-0.23570709
162	0x3da3e197	0.08002012
163	0xbc2beff2	-0.010494219
164	0x3d655de6	0.05599775
165	0x3df9b571	0.1219281
166	0xbc11d421	-0.008900673
167	0x3d8d7b33	0.06908264
168	0xbec05d9e	-0.37571424
169	0x3d3e3baf	0.046443637
170	0xbf0160fd	-0.5053862
171	0x3dbe16a4	0.09281662
172	0x3c542374	0.012947906
173	0xbe9c766a	-0.30559093
174	0xbcde80ea	-0.02716108
175	0xbe5c64d7	-0.21522842
176	0x3d588314	0.05285938
177	0xbb0ea45d	-0.0021765449
178	0x3df89dfc	0.12139508
179	0xbd32072e	-0.04346388
180	0x3d7ee7a3	0.062232625
181	0x3d12e9d7	0.03586754
182	0x3d1dd8c5	0.038536806
183	0xbea19834	-0.31561434
184	0x3d4c96f1	0.049948636
185	0xbd3a4140	-0.045472383
186	0x3da01f99	0.07818527
187	0xbeef48f0	-0.46735334
188	0xbe0025c5	-0.12514408
189	0xbd1cd0e9	-0.03828517
190	0x3dd26bc3	0.1027446
191	0x3d8ee97a	0.06978126
192	0xbaf60aa7	-0.0018771485
193	0xbdd592a1	-0.10428358
194	0x3d8e26b5	0.069409765
195	0xbd1997ef	-0.03749841
196	0xbdc50823	-0.096206926
197	0xbe916e87	-0.28404638
198	0xbdcf693a	-0.10127492
199	0xbeb0f034	-0.3455826
200	0x3d0df33d	0.0346558
201	0xbe138c3c	-0.14408964
202	0xbef9f9a2	-0.48823267
203	0xbf17a2ec	-0.59232974
204	0xbd49628e	-0.049166255
205	0x3d5b6f1e	0.053572766
206	0x3c5abd09	0.013350734
207	0x3d8b9b79	0.068167634
208	0x3d46caf9	0.048533414
209	0x3c0a8de9	0.008456686
210	0x3daa81e9	0.0832556
211	0x3e326a7a	0.1742343
212	0x3dc4f60b	0.096172415
213	0x3dd56893	0.104203366
214	0x3e2f3d33	0.1711319
215	0x3dabeb27	0.08394461
216	0xbe02b786	-0.12765321
217	0x3d9400fc	0.0722675
218	0x3d78c08a	0.060730495
219	0xbe917212	-0.2840734
220	0x3d1d386a	0.03838388
221	0xbe55ed34	-0.20891267
222	0x3dc4e7f5	0.09614555
223	0xbd38290b	-0.044961017
224	0x3d6fa449	0.058506284
225	0xbe61b1d7	-0.22040497
226	0x3db29098	0.08718985
227	0x3dbe154e	0.09281407
228	0x3dc98ab0	0.09840906
229	0x3cb0bd37	0.0215746
230	0x3d50bc3b	0.05096076
231	0x3d4b29da	0.04960046
232	0xbee0b9a0	-0.4389162
233	0x3d872412	0.06598677
234	0x3d585caf	0.052822765
235	0x3d7d5098	0.06184444
236	0x3d7f9b31	0.06240386
237	0x3d2ed50d	0.04268365
238	0x3d00928a	0.03138975
239	0x3d6f7807	0.058464076
240	0x3d3afdd5	0.04565223
241	0x3d122e94	0.03568895
242	0xbd3f0963	-0.04663981
243	0x3b84a839	0.004048374
244	0xbef27923	-0.47358045
245	0xbd92b02f	-0.071625106
246	0x3dbc04d1	0.09180606
247	0x3dd09750	0.101851106
248	0x3d90890d	0.0705739
249	0xbe9a4c7a	-0.30136472
250	0x3d382695	0.04495867
251	0xbf004ca4	-0.50116944
252	0xbe2b7ba5	-0.16746385
253	0x3d563edb	0.052306037
254	0xbe09a41f	-0.13441513
255	0x3d884eae	0.06655632

linear2.bias f4 [59]
0	0xbc844a8e	-0.016148832
1	0xbc9c1cf1	-0.01905677
2	0xbc795dba	-0.0152201
3	0xbc6acb9c	-0.014330771
4	0xbc5c0f7f	-0.013431429
5	0xbca19daa	-0.0197285
6	0xbca74b0e	-0.020421531
7	0xbca13514	-0.01967863
8	0xbc75861f	-0.01498559
9	0xbc535ba1	-0.012900264
10	0xbc87dcf0	-0.016584843
11	0xbc926c50	-0.017873913
12	0xbc8057c8	-0.015666857
13	0xbc8cd9d2	-0.017193709
14	0xbc6b11bc	-0.01434749
15	0xbc260ca8	-0.010134853
16	0xbca0e79f	-0.019641696
17	0xbc54552b	-0.012959759
18	0xbc9edd0b	-0.01939251
19	0xbc8a6433	-0.016893482
20	0xbc51df92	-0.012809651
21	0xbc359523	-0.01108292
22	0xbcb961e5	-0.022629688
23	0xbc94c0e7	-0.01815839
24	0xbc603f7d	-0.013687012
25	0xbcacc2ce	-0.021088984
26	0xbc9f031e	-0.019410666
27	0xbc49608e	-0.012291087
28	0xbc968fb6	-0.018379074
29	0xbc75123e	-0.014957963
30	0xbc915b43	-0.017743712
31	0xbc87e8e2	-0.01659054
32	0xbc1c00b0	-0.009521648
33	0xbc9266b9	-0.017871248
34	0xbc8f9029	-0.017524796
35	0xbc9a5d23	-0.01884324
36	0xbc760dfb	-0.015017982
37	0xbc95df6a	-0.018295009
38	0xbc8d5595	-0.017252723
39	0xbc3e2de7	-0.011607624
40	0xbc81b912	-0.015835319
41	0xbc9dd8f6	-0.019268494
42	0xbc7def27	-0.015498913
43	0xbca0f624	-0.019648619
44	0xbc641fed	-0.013923627
45	0xbc9ab980	-0.018887281
46	0xbc9ca4b5	-0.019121507
47	0xbc87afca	-0.016563315
48	0xbcb68b5d	-0.02228325
49	0xbc80803b	-0.015686145
50	0xbc1ffcb3	-0.009764838
51	0xbc995b27	-0.018720223
52	0xbc2a11f1	-0.010380254
53	0xbc895bc0	-0.016767383
54	0xbc72c77f	-0.014818071
55	0xbc67f59b	-0.014157678
56	0xbc3b15b8	-0.011418752
57	0xbc921e1b	-0.017836621
58	0xbc8c8189	-0.01715161
