intermediary/model_15650.pth (torch, 356400 bytes, 5 tensors)

embed.weight f4 [59, 128]
0	0xbeafb1db	-0.3431538
1	0x3e681ea2	0.22667935
2	0xbeb8a848	-0.36065888
3	0xbeac7b10	-0.3368764
4	0x3ebdcf22	0.37072092
5	0x3eca1bbd	0.39474288
6	0xbdd67863	-0.10472181
7	0xbee2f61f	-0.443284
8	0x3edb1b82	0.42794424
9	0x3ea83a21	0.3285685
10	0xbe950c25	-0.29110828
11	0xbec7b96d	-0.39008656
12	0x3c11c88c	0.008897912
13	0xbe618a17	-0.22025333
14	0xbead0958	-0.3379619
15	0x3ebc64bb	0.367956
16	0xbe41bd05	-0.18919761
17	0xbede8ec8	-0.43468308
18	0xbeb2bb4c	-0.3490852
19	0x3ec98af7	0.39363834
20	0x3ecc078f	0.39849517
21	0x3e81d8ea	0.25360805
22	0x3e45e505	0.19325645
23	0x3e084c76	0.13310418
24	0x3ea6aba6	0.32552832
25	0x3ed6036d	0.4179949
26	0xbeb5203d	-0.35376158
27	0x3e6f7221	0.2338338
28	0x3c90b4b9	0.0176643
29	0x3ed03484	0.40665066
30	0x3ed4413c	0.4145602
31	0xbe1717b2	-0.14755133
32	0xbed8b221	-0.42323402
33	0xbec34f9e	-0.3814668
34	0xbe9a9c5b	-0.30197415
35	0xbe8917b4	-0.26775897
36	0x3e9c4316	0.30519933
37	0x3efa19c5	0.48847786
38	0x3e4802d5	0.1953233
39	0xbda49fdd	-0.08038304
40	0xbdb1b67e	-0.08677386
41	0xbea35a5d	-0.3190488
42	0x3ee1cd48	0.4410193
43	0x3e8b92f5	0.27260557
44	0x3ecb58b1	0.39716104
45	0x3dc2e9e9	0.09517271
46	0x3ed4e2f8	0.41579413
47	0x3ef7f7be	0.484312
48	0xbeba275d	-0.36358157
49	0xbe9267bc	-0.28594768
50	0x3efa6b2c	0.4890989
51	0x3ec71699	0.38884428
52	0xbeab5af0	-0.33467817
53	0xbec7f0da	-0.39050943
54	0x3ea90cf1	0.33017686
55	0x3e888988	0.26667428
56	0xbec05c7d	-0.37570563
57	0x3e47c757	0.19509636
58	0xbe8fe5e9	-0.28105095
59	0x3ebea638	0.3723619
60	0xbe9fc315	-0.31203523
61	0x3ebeb43f	0.37246892
62	0xbee10219	-0.43946913
63	0xbec636e7	-0.38713762
64	0xbead5ab4	-0.33858263
65	0x3e75eddd	0.24016519
66	0xbe403d0d	-0.18773289
67	0x3ea3765e	0.31926244
68	0x3ebcbb1f	0.36861512
69	0xbee7139d	-0.4513215
70	0xbe54e8f8	-0.20791996
71	0xbed2ed3a	-0.41196615
72	0xbed7184c	-0.42010725
73	0xbed70fce	-0.42004246
74	0x3e6f80bf	0.23388956
75	0xbe95f4e5	-0.29288402
76	0x3ef1588a	0.47137862
77	0x3ea4b9fb	0.32173142
78	0x3e681613	0.2266467
79	0x3ed5ca49	0.41755894
80	0x3ead411b	0.33838734
81	0xbea4c5f0	-0.32182264
82	0xbe6fea00	-0.23429108
83	0xbef9b7f6	-0.48773164
84	0x3ed07008	0.40710473
85	0xbea4b56b	-0.3216966
86	0x3c7cad92	0.015422242
87	0xbeb724b4	-0.3577019
88	0xbee20ef4	-0.44152033
89	0x3ecaad89	0.39585522
90	0x3ea41d09	0.32053402
91	0xbebf43ae	-0.37356323
92	0x3ec78a99	0.3897293
93	0xbef6fbb1	-0.482389
94	0xbeb6d06a	-0.35705882
95	0x3eb1cfd3	0.3472887
96	0x3e8befb8	0.27331328
97	0x3ee44086	0.44580477
98	0xbe936906	-0.28791064
99	0x3eaac510	0.33353472
100	0x3e724099	0.23657455
101	0xbee30c87	-0.44345495
102	0xbe8f19ac	-0.27949274
103	0x3e57b5f6	0.21065506
104	0x3edc30b3	0.43005905
105	0xbecf08d5	-0.40436426
106	0x3ee04406	0.43801898
107	0x3ee16b84	0.4402734
108	0x3e9000d7	0.2812564
109	0xbe9b6f17	-0.30358192
110	0xbed86979	-0.4226797
111	0xbe78417d	-0.24243732
112	0x3eaef209	0.34169033
113	0xbe5c1283	-0.21491437
114	0xbee11797	-0.4396331
115	0xbed8e4cc	-0.42362058
116	0x3eb9c4ac	0.3628286
117	0xbed24994	-0.4107176
118	0x3e01819e	0.12647101
119	0xbe92a2d4	-0.28639853
120	0x3ede5b6b	0.4342912
121	0xbeac59e0	-0.3366232
122	0x3eb5e3eb	0.3552545
123	0x3eb18865	0.34674373
124	0xbed64da1	-0.418561
125	0x3e8919dd	0.26777545
126	0x3ee0a84b	0.43878397
127	0x3ef6210d	0.4807209
128	0x3e484930	0.19559169
129	0x3ea84570	0.32865477
130	0xbddfcb96	-0.10927503
131	0xbeeb149c	-0.4591416
132	0xbeba4742	-0.3638249
133	0xbe492363	-0.19642405
134	0xbdffb91c	-0.12486479
135	0xbed53e30	-0.41649008
136	0xbe2f9ec2	-0.17150405
137	0x3ee35663	0.44401845
138	0xbec6737d	-0.38759986
139	0x3e615b5d	0.22007509
140	0x3ee16d94	0.44028914
141	0x3f00accf	0.50263685
142	0xbe98c88c	-0.29840505
143	0x3d97d78e	0.07414161
144	0x3e7723dc	0.24134773
145	0x3d1ebf98	0.038756937
146	0x3ec359c6	0.3815443
147	0xbec77243	-0.38954362
148	0x3ec786fc	0.38970172
149	0xbebfc8ac	-0.37457788
150	0xbed5d8bd	-0.4176692
151	0xbeac31f8	-0.33631873
152	0xbe5bd038	-0.21466148
153	0xbd952785	-0.072829284
154	0x3e9ba389	0.30398205
155	0xbef15ab3	-0.4713951
156	0xbeeb4c85	-0.45956817
157	0xbe492b83	-0.19645505
158	0xbe64fb27	-0.22361432
159	0x3ec20e7d	0.3790168
160	0x3eb9c453	0.36282596
161	0xbeef9f83	-0.46801385
162	0x3efcc31c	0.49367607
163	0x3ed29c64	0.41134942
164	0xbec945c2	-0.39311033
165	0xbeb1654b	-0.34647593
166	0xbedfbb5b	-0.43697628
167	0x3ec3a99d	0.38215342
168	0x3eec70b7	0.46179745
169	0x3ef766b3	0.4832054
170	0xbec99f52	-0.39379364
171	0x3ed08515	0.40726534
172	0xbe80d30a	-0.2516101
173	0xbed7932d	-0.42104474
174	0x3f025ae4	0.5091994
175	0x3ec04613	0.37553462
176	0xbdd60a88	-0.104512274
177	0xbee18d95	-0.4405333
178	0x3ed532a7	0.41640207
179	0x3ec846a3	0.39116392
180	0xbed30ae4	-0.41219246
181	0x3e679ae3	0.22617678
182	0xbe8f10dc	-0.2794255
183	0x3e9effca	0.31054527
184	0xbeb5e5dc	-0.3552693
185	0xbc8a4236	-0.016877275
186	0x3edc5363	0.4303237
187	0x3daa3c59	0.08312292
188	0x3ec301b5	0.3808724
189	0xbe9e7549	-0.30948856
190	0xbed5e928	-0.41779447
191	0xbea723fc	-0.3264464
192	0xbdfa36ae	-0.122174606
193	0x3e9b92b7	0.30385372
194	0x3ee06746	0.4382879
195	0x3ee9213c	0.45533168
196	0xbec74c93	-0.3892561
197	0xbed89078	-0.4229772
198	0x3ee555b1	0.4479194
199	0x3ec67059	0.3875759
200	0x3ec358f4	0.38153803
201	0x3dcac6b4	0.09901181
202	0xbed5b75c	-0.41741455
203	0xbec50d47	-0.38486692
204	0xbe555a3b	-0.20835201
205	0x3e8e72c3	0.2782193
206	0xbe9d48b4	-0.3071953
207	0x3e2aa65e	0.16665027
208	0xbf007c74	-0.501899
209	0xbea09783	-0.31365594
210	0x3d167dc2	0.036741026
211	0xbeda2950	-0.42609644
212	0xbec24502	-0.37943274
213	0xbe8234c1	-0.25430873
214	0xbeb06bad	-0.3445715
215	0xbecf2fed	-0.40466252
216	0x3eb925d6	0.3616168
217	0xbed25a8d	-0.4108471
218	0xbedfa3e8	-0.43679738
219	0xbd9bbdf3	-0.07604589
220	0x3e703281	0.23456766
221	0xbee67703	-0.45012674
222	0x3ebfbdd0	0.37449503
223	0x3e771e61	0.24132682
224	0xbdd05180	-0.10171795
225	0xbe6e6767	-0.23281632
226	0x3e658a81	0.22416116
227	0xbe857162	-0.26063067
228	0xbebe9845	-0.37225547
229	0x3e85fd38	0.26169753
230	0xbe2be081	-0.1678486
231	0xbec19cb5	-0.3781487
232	0xbe79e23d	-0.2440271
233	0x3ebdbe36	0.37059182
234	0x3eed8e85	0.46397796
235	0x3e8ea7f7	0.27862522
236	0xbed77d62	-0.42087847
237	0x3e9b5371	0.30337098
238	0x3eb2d9e0	0.3493185
239	0xbef6a603	-0.48173532
240	0xbed2312f	-0.4105315
241	0x3edf45f4	0.43608057
242	0x3e550b17	0.20805012
243	0x3ed204df	0.4101934
244	0xbed3662c	-0.41288888
245	0xbe42a0c1	-0.19006635
246	0x3eb3466f	0.35014674
247	0xbeb6f667	-0.35734865
248	0xbe8d7991	-0.2763181
249	0x3ed03104	0.40662396
250	0x3eeabe9e	0.45848554
251	0xbe6a3fb6	-0.22875866
252	0xbe8923f9	-0.26785257
253	0xbeb20002	-0.3476563
254	0x3edcb7e3	0.43109044
255	0xbec14486	-0.37747592

linear1.weight f4 [256, 256]
0	0xbe04f09b	-0.12982409
1	0xbe10f7f3	-0.14157085
2	0x3e19b25b	0.15009443
3	0x3e06e4ec	0.13173264
4	0xbe138402	-0.14405826
5	0x3d4ce751	0.050025288
6	0x3e2bd69f	0.1678109
7	0x39accebb	0.00032960423
8	0xbe56e3ec	-0.20985383
9	0xbd14b6f6	-0.036307298
10	0x3e3c6696	0.18398508
11	0xbe204851	-0.15652587
12	0x3b664e2d	0.0035141811
13	0x3c24fba6	0.010069763
14	0xbe2031f6	-0.15644059
15	0x3e21f41e	0.1581578
16	0x3d8ca999	0.06868286
17	0x3e12c674	0.14333516
18	0x3e54c291	0.20777346
19	0x3de1bc56	0.1102225
20	0xbd9dee3c	-0.07711455
21	0x3dc464f0	0.09589565
22	0x3d149749	0.03627709
23	0x3e004ac0	0.12528515
24	0xbc79a2ba	-0.015236551
25	0xbe439cf1	-0.19102837
26	0xbe3571f3	-0.1771925
27	0xbda3fa58	-0.08006734
28	0x3de41571	0.11136902
29	0x3c204b6b	0.009783606
30	0xbdcb0d1b	-0.09914609
31	0xba3eb660	-0.0007275101
32	0xbccde907	-0.02513553
33	0xbc7b6c18	-0.015345596
34	0x3c3674a1	0.011136205
35	0x3e42de78	0.19030178
36	0x3dc939bc	0.09825465
37	0xbdf62739	-0.120192
38	0x3e5663c9	0.20936503
39	0xbd5c0f0d	-0.05372529
40	0xbb306c8d	-0.002692017
41	0x3c93acfb	0.01802682
42	0xbe1a7c8a	-0.1508657
43	0xbc8908e5	-0.016727874
44	0xbe0e25ea	-0.1388165
45	0xbe0ef5fb	-0.13961022
46	0xbde9bd43	-0.11413052
47	0x3cae4a80	0.021275759
48	0xbe350442	-0.17677405
49	0xbdbace51	-0.09121383
50	0xbd140f5d	-0.036147464
51	0xbe363f94	-0.1779769
52	0x3d53e81e	0.051735036
53	0xbe12c5bd	-0.14333244
54	0xbe26741d	-0.16255231
55	0xbba484c5	-0.00502071
56	0x3d4de994	0.050271586
57	0x3b0967c7	0.0020966397
58	0x3e09e290	0.13465333
59	0x3d9e3523	0.07724979
60	0x3e2c2ad6	0.16813216
61	0xbd40b855	-0.047050793
62	0x3e18a707	0.14907466
63	0x3dae3776	0.08506672
64	0x3e25e6a9	0.16201271
65	0xbdf0b858	-0.11753911
66	0xbe263f8a	-0.16235176
67	0xbe4a0c28	-0.197312
68	0xbd4121f0	-0.047151506
69	0xbd593c10	-0.053035796
70	0xbc5941a6	-0.013260281
71	0xbdadc54e	-0.084848985
72	0xbde5b3eb	-0.11215957
73	0xbe2b0cb5	-0.16704066
74	0x3e11a2f8	0.14222324
75	0x3e47815a	0.19482937
76	0xbe437242	-0.19086555
77	0xbd47914c	-0.04872255
78	0xbcea774b	-0.028621336
79	0x3e0713e9	0.13191189
80	0xbdf80185	-0.12109665
81	0x3e147f8e	0.14501783
82	0x3e33b846	0.17550763
83	0x3e3aefaf	0.18255495
84	0xbd599101	-0.053116802
85	0x3d7b44d5	0.06134494
86	0x3d38b2e8	0.045092493
87	0x3da262e7	0.079290204
88	0x3e04fb0e	0.12986395
89	0xbe1ce4e1	-0.15321685
90	0xbe274f00	-0.1633873
91	0x3e31aca1	0.17351009
92	0x3d5f98e3	0.054589164
93	0x3dcda6af	0.10041558
94	0xbd75f10d	-0.060044337
95	0x3caa753e	0.020807859
96	0x3ce4cbe7	0.02792926
97	0xbd19ec75	-0.03757902
98	0xbc009f57	-0.00785049
99	0x3d44c2ed	0.04803746
100	0xbe1c5fde	-0.15270945
101	0x3d1d930f	0.038470324
102	0x3d392bc0	0.04520774
103	0xbe1f465d	-0.15554185
104	0xbdcb0bcc	-0.099143595
105	0x3cba9c05	0.022779474
106	0xbd55411a	-0.05206404
107	0xbd1098c2	-0.03530193
108	0xbe4d2a09	-0.20035566
109	0xbe60c066	-0.21948394
110	0x3d08f5f0	0.03343767
111	0x3e11163b	0.14168637
112	0xbe5dfd0c	-0.21678561
113	0xbdac45ba	-0.08411737
114	0x3e18ef33	0.14934997
115	0xbdbf4aaf	-0.09340417
116	0x3e4f73fc	0.20259088
117	0x3e59ee0b	0.21282212
118	0xbcb43c6a	-0.022001464
119	0x3d1502d1	0.03637964
120	0x3db162d6	0.086614296
121	0x3df16ace	0.117879495
122	0xbe3bf82e	-0.18356392
123	0xbd2f9f8d	-0.04287677
124	0xbe0b68f5	-0.13614257
125	0xbd87653f	-0.06611108
126	0xbd260fd6	-0.040542446
127	0xbdf7e5b0	-0.12104356
128	0xbc12638e	-0.0089348685
129	0x3b9b67fa	0.0047426196
130	0xbdc65bb2	-0.09685458
131	0xbe2b80ea	-0.16748396
132	0x3e310d51	0.17290236
133	0xbe3262e4	-0.17420536
134	0xbe06fddb	-0.13182776
135	0xbc77836e	-0.015107019
136	0x3db84f95	0.08999554
137	0x3e16cbb6	0.14726147
138	0xbe1e3e54	-0.15453464
139	0xbda62c42	-0.0811391
140	0xbe5ed33f	-0.21760271
141	0xbe5dfb5d	-0.21677919
142	0x3e0d3b4e	0.13792154
143	0x3a424a58	0.0007411591
144	0xbe5dc2c5	-0.2165633
145	0xbdc98eb4	-0.098416716
146	0xbd59fd08	-0.053219825
147	0x3db88e51	0.0901152
148	0xbe3eff49	-0.18652071
149	0xbcef21a2	-0.029190842
150	0x3e1fdb7b	0.15611069
151	0x3d43cdf5	0.047803838
152	0xbe362a71	-0.17789628
153	0x3dc38242	0.09546329
154	0xbc907770	-0.017635077
155	0x3de050e3	0.10952928
156	0xbe1a6559	-0.15077724
157	0xbe3b82fe	-0.18311688
158	0xbc8bc36d	-0.01706096
159	0x3e58023a	0.210946
160	0xbe4c0e9b	-0.19927447
161	0x3e51cffa	0.20489493
162	0xbdf54839	-0.11976666
163	0xbbc6574f	-0.0060528885
164	0xbd9264b0	-0.07148111
165	0x3df69935	0.12040941
166	0xbd3c3d54	-0.045956925
167	0x3e5332e5	0.20624883
168	0xbe57da07	-0.21079265
169	0xbdcc3932	-0.09971847
170	0x3d9a6781	0.07539273
171	0xbe2326ac	-0.15932721
172	0x3df4ee1d	0.11959479
173	0xbcc928c3	-0.02455557
174	0xbe264029	-0.16235413
175	0xbdd6fda4	-0.10497597
176	0x3e19c393	0.15016012
177	0xbcfa3347	-0.030542029
178	0xbe3915ce	-0.18074724
179	0x3e00a24d	0.12561913
180	0xbe0d25e8	-0.13783991
181	0xbdc231a5	-0.09482125
182	0x3cf0ab4b	0.029378554
183	0xbd1c7edd	-0.038206924
184	0x3df6f195	0.12057797
185	0xbe218449	-0.15773119
186	0xbe448077	-0.1918963
187	0xbdb9fe2c	-0.090816826
188	0x3c4b9b40	0.012427151
189	0xbe091671	-0.13387467
190	0x3d4fde7e	0.050749294
191	0x3e350043	0.17675881
192	0x3d2fe046	0.042938493
193	0x3d58a7f1	0.052894536
194	0xbdc4ef21	-0.09615923
195	0x3ae09d25	0.0017136676
196	0xbdff2902	-0.124589935
197	0x3dc242d2	0.09485401
198	0x3d147a2e	0.036249332
199	0xbdd7a904	-0.10530284
200	0xbe07834e	-0.13233683
201	0x3e1a76af	0.15084337
202	0xbe094f6a	-0.134092
203	0x3c9c5c8f	0.019087104
204	0xbd76addd	-0.060224403
205	0xbe461c53	-0.19346742
206	0xbe0d1e94	-0.13781196
207	0xbe4b8bac	-0.198775
208	0x3e2aee73	0.16692524
209	0xbd039ee8	-0.032133967
210	0xbd2e7c60	-0.042599082
211	0x3d9cb8b0	0.07652414
212	0x3e5dc5a1	0.2165742
213	0x3b0a249f	0.0021078957
214	0x3e38d782	0.1805096
215	0x3db71ce0	0.08941054
216	0xbe046203	-0.12928014
217	0xbd157a19	-0.036493395
218	0x3d68dc9f	0.056851026
219	0xbc12b0e7	-0.00895331
220	0xbe4ebde5	-0.20189627
221	0xbcab9e12	-0.020949397
222	0xbdd3deb4	-0.103452116
223	0x3d96c520	0.07361817
224	0x3cc35d45	0.023848185
225	0xbd227dec	-0.03967087
226	0x3dc8b268	0.09799653
227	0xbdcd4e97	-0.100247554
228	0xbe0eb1b4	-0.13934976
229	0xbdc19cfd	-0.09453771
230	0xbb134032	-0.0022468683
231	0xbd9be003	-0.07611086
232	0xbd0bcc52	-0.034130402
233	0xbe3a8453	-0.1821454
234	0x3c22ae4c	0.009929251
235	0xbe08d9ec	-0.1336438
236	0x3d30e977	0.0431914
237	0x3d58335f	0.052783366
238	0xbe26eef9	-0.16302098
239	0x3d20b992	0.039239474
240	0x3d439b93	0.04775579
241	0xbd931bf5	-0.07183067
242	0x3ddc4887	0.10756021
243	0xbdd0870c	-0.10182008
244	0x3cedc17b	0.029022923
245	0xba29610a	-0.00064612983
246	0xbe555dd0	-0.20836568
247	0x3d137445	0.035999555
248	0xbd29421a	-0.041322805
249	0xbe39f9c5	-0.18161686
250	0x3c21dff6	0.009880057
251	0xbe0296a1	-0.12752773
252	0x3b9f0d57	0.004853885
253	0xbe25e174	-0.16199285
254	0x3ccc988e	0.024975087
255	0x3db71500	0.08939552

linear1.bias f4 [256]
0	0x3c9bbd86	0.01901127
1	0x3cb158a2	0.021648709
2	0x3b901ae3	0.0043977364
3	0x3c1d9510	0.009618059
4	0x3c337c73	0.010954964
5	0x3a9a789c	0.0011785212
6	0x3c110a70	0.008852586
7	0xbb034a7c	-0.002003341
8	0x3c2eacad	0.010661286
9	0x3ba94708	0.0051659383
10	0x3c6d331d	0.014477518
11	0x3c6045a6	0.0136884805
12	0x3c8ffb1f	0.017575799
13	0x3c17a29a	0.009255076
14	0x3c261468	0.010136701
15	0x3cb32e3a	0.021872628
16	0x3c148910	0.009065881
17	0x39dabadd	0.00041719424
18	0x3aec7f10	0.0018043239
19	0xbbc2399b	-0.0059272773
20	0x3b61a9c8	0.0034433473
21	0xbc04d1ad	-0.008106631
22	0x3a79e1e6	0.00095322577
23	0x3c962a5b	0.018330744
24	0x3ce805f5	0.028323153
25	0x3d24ab95	0.040202696
26	0x3caa97e9	0.02082439
27	0x3d29c4ac	0.041447327
28	0x3a73761b	0.00092873134
29	0x3ceaf681	0.028681995
30	0x3d71a94a	0.058999337
31	0x3b96dd8e	0.004604048
32	0x3c5cf541	0.013486207
33	0x3a23bffd	0.0006246565
34	0x3b955397	0.004557084
35	0x3bc74a3b	0.006081847
36	0x3b73e02d	0.0037212477
37	0x3ca9cef8	0.020728573
38	0xbaf5da6a	-0.0018757109
39	0x3c62eb1e	0.013850002
40	0x3b447e95	0.0029982675
41	0x3bc1950f	0.0059076617
42	0x3c585234	0.0132031925
43	0x3cbacc84	0.022802599
44	0xbc8da108	-0.0172887
45	0x3bb42684	0.0054977555
46	0x28e47eca	2.5368071e-14
47	0x3c215a97	0.009848258
48	0x3cebdaee	0.028790917
49	0x3caa16f3	0.020762896
50	0x3c04ca9e	0.008104948
51	0x379c42f3	1.8627825e-05
52	0xbc5db979	-0.01353299
53	0x3cbb8c44	0.022894032
54	0x3b3d582c	0.0028891666
55	0xbb8600f1	-0.0040894677
56	0x3b9b1047	0.004732165
57	0x3c194309	0.009354361
58	0x398d63e0	0.00026968028
59	0x3af89fa6	0.0018968477
60	0x3a720ecf	0.0009233774
61	0x3c883912	0.016628776
62	0x3c9ecd54	0.019385017
63	0x3cdd3f55	0.027007738
64	0x3be66568	0.0070311315
65	0x3be9951d	0.0071283714
66	0x3b8c3c1e	0.0042796275
67	0x3d45c6de	0.048285358
68	0x3bd0bbd9	0.0063700494
69	0x3c0373c2	0.008023204
70	0x3a9f8935	0.0012171628
71	0x3c5c2849	0.013437339
72	0x3c0fe5d3	0.008782822
73	0x3c49fd02	0.012328388
74	0x3c39bb6e	0.011336191
75	0x3c39a677	0.011331192
76	0x3bbdd85f	0.0057936157
77	0x26579778	7.479839e-16
78	0x3c671d6d	0.014106137
79	0x3c278721	0.010225088
80	0x3c64775b	0.013944472
81	0x3c8a5ee5	0.016890952
82	0x3c7fc72d	0.015611452
83	0x3c50b1de	0.012737719
84	0x3cba30aa	0.022728283
85	0x3cd6f6aa	0.026240665
86	0x3c7049aa	0.014666
87	0x3b4e5418	0.003148323
88	0x3ca8b185	0.02059246
89	0x3c5d2e5b	0.013499822
90	0x3a18efbe	0.0005834064
91	0x3bd5bcb4	0.0065227393
92	0x3c44b4d6	0.012006005
93	0x3cc8d5c4	0.024515994
94	0x3ca731f6	0.020409565
95	0x3c81e9b2	0.015858505
96	0x3caa53da	0.020791937
97	0x3c253092	0.010082381
98	0x3cb69b9a	0.022290993
99	0x3b54792d	0.003242086
100	0x3bb9b909	0.00566781
101	0x3b111af4	0.002214131
102	0x3c32709c	0.010891106
103	0x3c5ff043	0.013668123
104	0x3b68dd85	0.0035532427
105	0x3bfdcc5d	0.0077453093
106	0x3d1e5d92	0.038663454
107	0x3c407dde	0.011748759
108	0x3a508121	0.0007953812
109	0x3ba5e8e8	0.005063165
110	0x3cd776a9	0.026301699
111	0x3cd14274	0.025544383
112	0x3d060576	0.03272005
113	0x3b7487a9	0.0037312305
114	0x3ce85021	0.028358521
115	0x3c643497	0.013928554
116	0x3cee9e22	0.029128138
117	0x3c902ac1	0.017598512
118	0x3d17f758	0.03710112
119	0x3d3bc90d	0.045846034
120	0x3cca2765	0.024676988
121	0x3c64b23a	0.013958508
122	0x3b6cda27	0.003614077
123	0x3b01b186	0.001978965
124	0x3c315b76	0.010825029
125	0x3ccd58b6	0.025066715
126	0x3b77c8a1	0.0037808793
127	0x29833eab	5.82844e-14
128	0x3cc8032e	0.024415579
129	0x3cd75456	0.026285332
130	0x3ca80d4b	0.020514151
131	0x3be09e4d	0.0068548084
132	0xb985650f	-0.0002544303
133	0x3c593209	0.013256558
134	0x38a9afa0	8.091261e-05
135	0x3d1718b5	0.036888797
136	0x3c553ffd	0.013015744
137	0x3bf3e130	0.007442616
138	0x3ccaac01	0.024740221
139	0x3cb9a27e	0.02266049
140	0x29651961	5.0870227e-14
141	0x3ccc60f6	0.024948578
142	0x3c30ae07	0.010783679
143	0x3c880bce	0.016607191
144	0x3cb63d3a	0.022245992
145	0x3bffb1a5	0.0078031593
146	0x3ba1e332	0.004940414
147	0x3c18327f	0.009289383
148	0x3ca03f45	0.01956142
149	0x3c79d383	0.015248182
150	0x3bb5306a	0.005529453
151	0x3cce03bc	0.025148265
152	0x3b6795f3	0.003533718
153	0xbae60714	-0.0017549717
154	0x3b813047	0.0039425227
155	0x3c657ccb	0.014006804
156	0x3b210c01	0.0024573805
157	0x3ce1b0a4	0.02755005
158	0x3d363f92	0.04449422
159	0x3c2987d9	0.01034733
160	0x3ba3359c	0.004980756
161	0x3bd447e2	0.0064782957
162	0xbb1a67ad	-0.002356033
163	0x3c818060	0.015808284
164	0x3bb450ac	0.005502781
165	0x3ca018c7	0.019543065
166	0x3c9a67e4	0.018848367
167	0x3cc4c397	0.024019046
168	0xbb8e2764	-0.004338192
169	0x3c635bb0	0.0138768405
170	0x3ce6aeb2	0.028159473
171	0x3c821036	0.01587687
172	0x3cf481bb	0.029847017
173	0x3bb36797	0.0054749954
174	0x3c896d5c	0.01677578
175	0x3b5575a0	0.003257133
176	0x3c2bf9ed	0.010496599
177	0xbb163e38	-0.002292527
178	0x3baf3e2c	0.0053479876
179	0x3c6cb2ee	0.014446957
180	0x3bca0bcd	0.0061659575
181	0xbaae4621	-0.0013296047
182	0x3b9fc098	0.004875254
183	0x3c52c752	0.0128649045
184	0x3c0d57e0	0.008626908
185	0x3c960717	0.018313928
186	0x3c420129	0.011841097
187	0x3d7db190	0.061936915
188	0x3d56d8fc	0.052453026
189	0x3d20b680	0.039236546
190	0x3c7977f9	0.015226358
191	0x3901379a	0.00012323112
192	0xbc301555	-0.010747273
193	0x3c1f8baf	0.009737893
194	0x3c5f7199	0.013637924
195	0x3d1cc04e	0.038269334
196	0x3bd12683	0.006382765
197	0x3bdaaa2f	0.0066731195
198	0x3be9f710	0.007140048
199	0x3ca7f2a8	0.02050145
200	0xbb590da8	-0.0033119712
201	0x3c937f9d	0.018005187
202	0xbba3e246	-0.005001339
203	0x3d46f6d8	0.048575252
204	0x3cc105fb	0.023562422
205	0x3cd04573	0.025423741
206	0xbb81fde8	-0.0039670356
207	0x3cd048da	0.025425363
208	0x3c941c5a	0.018079925
209	0x3c080234	0.0083013065
210	0x3c4f8cb3	0.012667823
211	0xbbe36038	-0.0069389604
212	0x3d3b3b19	0.045710657
213	0x3c23a469	0.009987929
214	0xbc0ca12a	-0.008583346
215	0x3bf939f1	0.007605784
216	0x3b870f04	0.004121663
217	0x3bf45bee	0.007457248
218	0x3c8d17ae	0.017223205
219	0x3bda3e70	0.006660275
220	0x3ce60738	0.028079614
221	0xb945e1a6	-0.00018871445
222	0x3d3ae9d2	0.045633145
223	0x3b62711c	0.0034552282
224	0x3c2a82a6	0.010407126
225	0x3bbdf363	0.005796836
226	0x3d0fd040	0.035110712
227	0x3c5db1e1	0.013531179
228	0x3c11bc72	0.0088950265
229	0x3c6ea4e3	0.014565679
230	0xbb07016c	-0.0020600213
231	0x3be02912	0.0068408335
232	0x3bfb38fa	0.0076667042
233	0x3c60c535	0.013718893
234	0x3c808d2d	0.015692318
235	0x3c99c915	0.018772641
236	0x3cbc5d65	0.022993753
237	0x3c3d46b9	0.011552506
238	0x3c1975ae	0.009366436
239	0x3bcdf930	0.006285809
240	0x3c594a72	0.013262378
241	0x3c9c4573	0.019076085
242	0x3c1ab2d7	0.009442053
243	0x3b96815b	0.004593057
244	0x3c2f8ab6	0.010714224
245	0x3ca80b3e	0.020513173
246	0x3cd404e7	0.025881244
247	0x3c9fa3a7	0.019487215
248	0x3d18279d	0.037147153
249	0xbb27ee72	-0.0025624302
250	0x3b90fa69	0.0044243825
251	0x3bcb9d3c	0.006213812
252	0x3bd3d8c4	0.0064650495
253	0x3c8693a3	0.01642782
254	0x3b6c46f4	0.0036053034
255	0x3d75c273	0.059999894

linear2.weight f4 [59, 256]
0	0x3d631f6d	0.05544989
1	0x3d4efd93	0.050534796
2	0x3da9f520	0.08298707
3	0x3e0a75c3	0.13521485
4	0x3d2fd352	0.04292614
5	0x3d909c61	0.07061077
6	0xbf08c05e	-0.5341853
7	0x3d53b4bb	0.05168603
8	0xbcb0283b	-0.021503558
9	0x3d57bffc	0.052673325
10	0x3d6ac106	0.057312988
11	0x3db2f382	0.08737852
12	0xbefdcf9d	-0.4957246
13	0x3d0f883a	0.035042025
14	0x3d503e30	0.050840557
15	0x3d9188c5	0.07106165
16	0x3d51a7ac	0.051185295
17	0xbd15ded8	-0.036589473
18	0xbf10449e	-0.563547
19	0x3d7a1ea1	0.061064366
20	0x3da5be44	0.08092931
21	0xbea315b2	-0.3185249
22	0x3d438e5e	0.047743194
23	0x3d579de5	0.052640814
24	0x3d60b8e2	0.054863818
25	0xbefce9ca	-0.49397117
26	0x3dda0831	0.10646094
27	0xbdae480f	-0.08509838
28	0xbee8434a	-0.45363837
29	0xbd9e8bc4	-0.07741502
30	0xbeef0a6f	-0.46687648
31	0xbe764da9	-0.24053062
32	0x3d71cdab	0.05903403
33	0xbdbcb3a1	-0.09213949
34	0xbe69359d	-0.22774358
35	0x3d20c519	0.039250467
36	0x3db490e5	0.08816699
37	0x3dabb6ea	0.083844975
38	0x3cb9ee41	0.022696616
39	0xbe9bd5dd	-0.30436602
40	0xbe2fa8f8	-0.171543
41	0xbef553b0	-0.4791541
42	0xbe9a653a	-0.30155355
43	0x3d76bfb1	0.060241405
44	0x3d6d2eb4	0.057905868
45	0x3da394df	0.07987379
46	0xaac1be21	-3.4415615e-13
47	0x3d72bc3c	0.059261546
48	0x3e0d4497	0.13795696
49	0xbedf8ef9	-0.43663767
50	0x3d6e3092	0.05815179
51	0x3d9b7881	0.07591344
52	0x3da79133	0.081819914
53	0xbf136e00	-0.5758972
54	0xbe2fb75a	-0.17159787
55	0xbc258344	-0.010102097
56	0xbe17ee64	-0.14837033
57	0xbebcebbc	-0.368986
58	0xbef70660	-0.4824705
59	0xbeea75ab	-0.457929
60	0xbe6eec67	-0.23332368
61	0x3cd6fe86	0.026244413
62	0x3d92cc82	0.07167913
63	0x3d9d40ac	0.07678351
64	0x3dc297a8	0.095015824
65	0x3dab152a	0.08353646
66	0x3d3292a4	0.04359688
67	0xbd6c70b2	-0.057724662
68	0x3c3851eb	0.0112499995
69	0x3d3078d7	0.04308399
70	0xbd0c0b43	-0.034190428
71	0x3d931c9a	0.0718319
72	0x3d8fad99	0.07015533
73	0xbe038f0b	-0.12847535
74	0xbcecfcb9	-0.028929101
75	0x3d8ef778	0.06980795
76	0x3d967964	0.07347372
77	0xa7dd7a3b	-6.1472345e-15
78	0x3def40d1	0.116822846
79	0x3da07002	0.07833864
80	0xbe3f62b6	-0.18689999
81	0x3cc06b60	0.0234887
82	0x3d949a3a	0.07255979
83	0xbefabe12	-0.48973137
84	0x3df834ad	0.12119422
85	0x3d7096a7	0.058737423
86	0x3d9faffe	0.0779724
87	0xbed8d7f9	-0.42352274
88	0xbcdf36ae	-0.027247753
89	0x3dc4c5a4	0.096080095
90	0x3cace2eb	0.021104297
91	0xbe8fc0da	-0.28076822
92	0xbc42ca7c	-0.011889096
93	0xbeb1e4af	-0.34744784
94	0xbe887ac1	-0.26656154
95	0xbd8eeae6	-0.06978397
96	0x3d34e915	0.044167597
97	0xbe98a617	-0.29814216
98	0x3dfe2f20	0.12411332
99	0xbe6abfa9	-0.22924675
100	0xbe88674e	-0.26641315
101	0x3d38bd4c	0.045102403
102	0xbeb37dc4	-0.3505689
103	0xbc92df68	-0.017928794
104	0x3d82ba70	0.063832164
105	0xbedce038	-0.43139815
106	0x3d65b9b9	0.056085322
107	0xbef0f8b9	-0.4706476
108	0x3cf21cc0	0.029554725
109	0x3d4c897c	0.049935803
110	0x3cc24e11	0.023718866
111	0xbe1a4408	-0.15065014
112	0xbd8c3514	-0.06846061
113	0x3dc73ea5	0.09728745
114	0x3d27317d	0.04081868
115	0x3c5cb404	0.013470653
116	0x3d932c01	0.071861275
117	0x3d2944fd	0.041325558
118	0x3db8c614	0.090221554
119	0x3dc72336	0.09723513
120	0x3d965075	0.07339565
121	0xbe6dc17e	-0.23218343
122	0x3c8daeb3	0.017295217
123	0xbd1d73c4	-0.03844048
124	0x3d653b27	0.055964615
125	0x3db34940	0.08754206
126	0xbeb997e3	-0.36248693
127	0x2a0f3c6c	1.2721914e-13
128	0x3d81cfe4	0.0633848
129	0x3d8ca34e	0.068670854
130	0xbe86f981	-0.2636223
131	0xbdd80653	-0.10548081
132	0xbb10496b	-0.0022016417
133	0x3d0a1315	0.033709604
134	0xbe56990c	-0.2095682
135	0xbd3891fc	-0.045061097
136	0x3daa31d0	0.08310282
137	0xbe48e6b7	-0.1961926
138	0xbe075fc8	-0.13220131
139	0x3dcb48d3	0.099259995
140	0x2b144c94	5.2686436e-13
141	0xbeced373	-0.40395698
142	0xba95016a	-0.0011368219
143	0xbb34c26d	-0.0027581707
144	0x3da2e167	0.07953148
145	0x3dd933d4	0.106055886
146	0x3cc9e68c	0.024646066
147	0xbecc3bbb	-0.3988932
148	0xbe238d37	-0.15971838
149	0x3da6d5be	0.08146237
150	0xbefec497	-0.4975936
151	0xbe8179b7	-0.25288174
152	0x3d39a650	0.045324624
153	0x3dc2d038	0.09512371
154	0x3dafae10	0.08578122
155	0xbd1a24f3	-0.037632894
156	0xbf0773a6	-0.5291084
157	0xbe8704fe	-0.26370996
158	0xbef2797e	-0.47358316
159	0x3dbe6061	0.092957266
160	0x3dd7afa9	0.105315514
161	0xbe6fb0eb	-0.23407333
162	0x3da48d78	0.080347955
163	0xbc3a639c	-0.011376288
164	0x3d62ff32	0.055419154
165	0x3df9e524	0.12201908
166	0xbc5ec379	-0.013596409
167	0x3d8faac5	0.070149936
168	0xbebd7d1d	-0.37009516
169	0x3d486b4e	0.04893046
170	0xbefff29c	-0.49989784
171	0x3dbe0e12	0.092800274
172	0x3c549527	0.012975014
173	0xbe9d3641	-0.30705455
174	0xbced3276	-0.028954726
175	0xbe5fb99c	-0.21848148
176	0x3d625165	0.055253405
177	0xbbf1645f	-0.0073667015
178	0x3dfd525d	0.12369225
179	0xbd3bd861	-0.045860652
180	0x3d80560e	0.06266414
181	0x3d187f09	0.037230525
182	0x3d1025d6	0.035192333
183	0xbeacaa3c	-0.3372363
184	0x3d483565	0.048879046
185	0xbd3b3322	-0.04570306
186	0x3da2c79f	0.07948231
187	0xbee9de47	-0.45677397
188	0xbdf58f1f	-0.11990189
189	0xbd22e60a	-0.039770164
190	0x3dcb9483	0.09940436
191	0x3d90f09f	0.07077145
192	0xbb3f8b36	-0.0029227263
193	0xbdd09482	-0.101845756
194	0x3d89ace9	0.06722433
195	0xbd20dd63	-0.03927363
196	0xbdc1b1b0	-0.09457719
197	0xbe8fca8c	-0.28084219
198	0xbdc31c0a	-0.095268324
199	0xbeb0d14b	-0.34534678
200	0x3d23f7ba	0.040031172
201	0xbe0d3e4b	-0.13793294
202	0xbef94596	-0.48685902
203	0xbf153a59	-0.58292156
204	0xbd727f9e	-0.059203736
205	0x3d5c9d31	0.053860847
206	0x3c9409ea	0.018071134
207	0x3d8d2921	0.0689261
208	0x3d474a10	0.048654616
209	0x3bda7b2f	0.0066675167
210	0x3dae7daf	0.08520066
211	0x3e34b3d3	0.17646722
212	0x3dc7225f	0.09723353
213	0x3dd566c3	0.10419991
214	0x3e316171	0.17322327
215	0x3dab4700	0.083631516
216	0xbd9fc65b	-0.07801505
217	0x3d917240	0.071018696
218	0x3d80d722	0.06291033
219	0xbe8fc3a6	-0.28078955
220	0x3d1c59b2	0.038171478
221	0xbe5ebeb0	-0.21752429
222	0x3dc7380a	0.097274855
223	0xbd425f9d	-0.047454465
224	0x3d7648e1	0.060128096
225	0xbe4c9651	-0.19979216
226	0x3dada70c	0.08479127
227	0x3dbeb72f	0.09312283
228	0x3dcc686d	0.09980855
229	0x3cb6940a	0.022287387
230	0x3d4a6d7d	0.049420822
231	0x3d4f91ee	0.05067628
232	0xbee1e677	-0.44121143
233	0x3d8ccb01	0.068746574
234	0x3d5bc8f0	0.053658426
235	0x3d828d35	0.06374589
236	0x3d851414	0.0649797
237	0x3d27c857	0.040962543
238	0x3d0e6022	0.03475965
239	0x3d6ddb53	0.058070492
240	0x3d40229b	0.046908002
241	0x3d143995	0.036187727
242	0xbd4a875c	-0.049445495
243	0x3b82b981	0.003989399
244	0xbeef516e	-0.46741813
245	0xbd93d830	-0.07218969
246	0x3db94524	0.09046391
247	0x3dcfcf59	0.1014697
248	0x3d919257	0.0710799
249	0xbe99f67f	-0.30070874
250	0x3d5b2ed4	0.053511456
251	0xbf01395e	-0.5047816
252	0xbe07b2b4	-0.13251764
253	0x3d5bf376	0.05369898
254	0xbe05906b	-0.13043372
255	0x3d8b473b	0.068006955

linear2.bias f4 [59]
0	0xbc87d584	-0.016581304
1	0xbc9eedb6	-0.019400459
2	0xbc649901	-0.013952495
3	0xbc681e13	-0.0141673265
4	0xbc5fa7e8	-0.013650872
5	0xbca0cbd3	-0.019628441
6	0xbca86ffa	-0.020561207
7	0xbca6ff4a	-0.020385403
8	0xbc6db483	-0.014508369
9	0xbc30e525	-0.01079682
10	0xbc771027	-0.015079535
11	0xbc95bdc5	-0.018278966
12	0xbc885aad	-0.0166448
13	0xbc995825	-0.018718788
14	0xbc625a23	-0.013815436
15	0xbc2a7401	-0.010403634
16	0xbca7636f	-0.020433156
17	0xbc4e55b9	-0.01259368
18	0xbca0e121	-0.0196386
19	0xbc8731cf	-0.016503243
20	0xbc576c15	-0.013148327
21	0xbc0977a7	-0.008390344
22	0xbcb70e72	-0.022345755
23	0xbc8d830f	-0.017274408
24	0xbc5138f6	-0.012769928
25	0xbca910b7	-0.020637853
26	0xbc90205d	-0.017593557
27	0xbc4552aa	-0.012043634
28	0xbc91e81c	-0.017810874
29	0xbc708409	-0.014679917
30	0xbc911e86	-0.01771475
31	0xbc881984	-0.01661373
32	0xbc29fdbd	-0.010375437
33	0xbc9bb485	-0.019006977
34	0xbc9c8d2e	-0.019110288
35	0xbc9a0b34	-0.01880417
36	0xbc67eb19	-0.014155173
37	0xbc8ea243	-0.017411357
38	0xbc71b638	-0.014752917
39	0xbc3a2dbd	-0.011363444
40	0xbc800755	-0.015628496
41	0xbca38046	-0.019958626
42	0xbc82e2f8	-0.015977368
43	0xbc9c43a2	-0.019075219
44	0xbc5319d8	-0.01288458
45	0xbc92995c	-0.017895393
46	0xbc92ec5c	-0.01793497
47	0xbc8de0af	-0.017319052
48	0xbcb84226	-0.02249248
49	0xbc7ab3c5	-0.015301649
50	0xbc24f1b0	-0.010067388
51	0xbca65f59	-0.020309137
52	0xbc3d7bf5	-0.011565198
53	0xbc8fbcdf	-0.017546115
54	0xbc88b6ef	-0.016688792
55	0xbc4fbbbc	-0.012679037
56	0xbc4a6763	-0.012353751
57	0xbc8d0949	-0.017216342
58	0xbc8a847e	-0.01690888
