intermediary/model_16850.pth (torch, 356400 bytes, 5 tensors)

embed.weight f4 [59, 128]
0	0xbeafa0fc	-0.3430251
1	0x3e63dd48	0.22252381
2	0xbeb1fc33	-0.34762725
3	0xbeaddb88	-0.33956552
4	0x3ebb037f	0.36526105
5	0x3ec9e628	0.39433408
6	0xbdc3ded1	-0.09563983
7	0xbee3febc	-0.44530284
8	0x3edb1c67	0.42795107
9	0x3ea8da7d	0.32979193
10	0xbe87b4a5	-0.26505008
11	0xbec7f91c	-0.39057243
12	0x3beb0742	0.007172496
13	0xbe68a151	-0.22717787
14	0xbeadad9c	-0.33921516
15	0x3ebb57b9	0.36590365
16	0xbe3cc93f	-0.18436144
17	0xbedeb969	-0.43500832
18	0xbeb3e3fd	-0.3513488
19	0x3ec815ed	0.39079228
20	0x3ecde2ee	0.40212196
21	0x3e80eb91	0.25179723
22	0x3e55ed56	0.20891318
23	0x3df6b1ff	0.12045669
24	0x3ea8e264	0.32985222
25	0x3ed5022f	0.41603228
26	0xbeb288c6	-0.34869975
27	0x3e632371	0.22181489
28	0x3c207feb	0.009796123
29	0x3ed15e21	0.40892127
30	0x3ed3af7a	0.41344815
31	0xbe12b99d	-0.14328618
32	0xbed7e660	-0.4216795
33	0xbec427b0	-0.3831153
34	0xbe991035	-0.29895177
35	0xbe876338	-0.26442885
36	0x3ea28a82	0.31746298
37	0x3efa7731	0.4891906
38	0x3e438ab6	0.19095883
39	0xbd9a2f03	-0.07528498
40	0xbdba6ed4	-0.0910317
41	0xbea4f587	-0.32218572
42	0x3ee0f929	0.43940094
43	0x3e8b92d3	0.27260455
44	0x3ec90619	0.39262465
45	0x3db1a9a7	0.08674937
46	0x3ed71bea	0.42013484
47	0x3ef7b455	0.4837977
48	0xbeba175a	-0.3634594
49	0xbe918fa6	-0.28429908
50	0x3efb3201	0.49061587
51	0x3ec584ad	0.38577786
52	0xbeac709a	-0.33679658
53	0xbec8561c	-0.39128196
54	0x3ea9d513	0.33170375
55	0x3e911c7d	0.28342047
56	0xbec08191	-0.3759885
57	0x3e47df1e	0.19518706
58	0xbe87aa56	-0.26497144
59	0x3eba9b33	0.36446533
60	0xbea1aa6a	-0.31575328
61	0x3ebdca80	0.37068558
62	0xbee187fc	-0.4404906
63	0xbec4a333	-0.3840576
64	0xbeacb62e	-0.33732742
65	0x3e80ec53	0.251803
66	0xbe414c24	-0.18876702
67	0x3eaec39f	0.34133622
68	0x3ebc367b	0.36760315
69	0xbee7d3e2	-0.4527884
70	0xbe58df54	-0.21178943
71	0xbed0a516	-0.4075095
72	0xbed6d41f	-0.4195871
73	0xbed7312d	-0.42029706
74	0x3e654b16	0.22391924
75	0xbe941a24	-0.28926194
76	0x3ef1f84c	0.47259748
77	0x3ea5ea0a	0.3240512
78	0x3e68821e	0.22705886
79	0x3ed69920	0.419137
80	0x3eab698e	0.3347897
81	0xbea7da8d	-0.3278393
82	0xbe75a8ad	-0.23990126
83	0xbef9d1fc	-0.48793018
84	0x3ed03ae8	0.40669942
85	0xbea7235b	-0.32644162
86	0x3c22906e	0.00992213
87	0xbebe451e	-0.37162107
88	0xbee06a4a	-0.43831092
89	0x3ec8cdde	0.39219564
90	0x3ea42a00	0.32063293
91	0xbebf48c3	-0.373602
92	0x3ec7cf29	0.39025238
93	0xbef50fcc	-0.47863615
94	0xbeb73909	-0.35785702
95	0x3eb033fc	0.3441466
96	0x3e8afb7b	0.2714499
97	0x3ee4cde4	0.44688332
98	0xbe917e1e	-0.28416532
99	0x3ea74c1d	0.32675257
100	0x3e72904a	0.23687854
101	0xbee2ffad	-0.4433569
102	0xbe90b320	-0.28261662
103	0x3e574d40	0.21025562
104	0x3eddc31d	0.43312922
105	0xbece6146	-0.4030859
106	0x3ee0b6fb	0.43889603
107	0x3ee2ec67	0.44320986
108	0x3e9032b4	0.28163683
109	0xbe9a22f2	-0.30104786
110	0xbed89be8	-0.42306447
111	0xbe7c595e	-0.24643466
112	0x3eaf232f	0.3420653
113	0xbe653b87	-0.22385989
114	0xbedfbb07	-0.43697378
115	0xbed787f2	-0.42095906
116	0x3eb9bbf7	0.36276218
117	0xbed13001	-0.40856937
118	0x3e006939	0.1254014
119	0xbe93a3aa	-0.28835803
120	0x3eddee6c	0.43345964
121	0xbeac8e5c	-0.33702362
122	0x3eb5d43d	0.35513487
123	0x3eb24796	0.3482024
124	0xbed607ad	-0.4180273
125	0x3e882272	0.2658878
126	0x3edfffbb	0.43749794
127	0x3ef5ec2b	0.48031744
128	0x3e407c85	0.187975
129	0x3ea877ef	0.32904002
130	0xbde89a5c	-0.11357567
131	0xbeeb0baa	-0.45907336
132	0xbebbc0f4	-0.3667065
133	0xbe4c0512	-0.19923809
134	0xbdf83222	-0.12118937
135	0xbed3b500	-0.4134903
136	0xbe2f608f	-0.17126678
137	0x3ee1e603	0.44120798
138	0xbec6f307	-0.3885729
139	0x3e611694	0.21981269
140	0x3ee15e3a	0.44017202
141	0x3f0038a4	0.50086427
142	0xbe9ea859	-0.30987814
143	0x3d0ee982	0.03489066
144	0x3e75682e	0.23965523
145	0x3d2e5252	0.042558976
146	0x3ec4a3b0	0.38406134
147	0xbec4a82e	-0.3840956
148	0x3ec7f174	0.39051402
149	0xbec0db75	-0.37667432
150	0xbed5c1fa	-0.41749555
151	0xbeab3c12	-0.33444268
152	0xbe5b0dbc	-0.21391958
153	0xbdc46595	-0.09589688
154	0x3e9a5593	0.30143413
155	0xbeeef5d6	-0.46671933
156	0xbeeb7140	-0.4598484
157	0xbe4d12a8	-0.20026648
158	0xbe67caad	-0.22635908
159	0x3ec1a116	0.3781821
160	0x3eb93811	0.36175588
161	0xbeebf642	-0.46086317
162	0x3efa7fc8	0.48925614
163	0x3ed24046	0.41064662
164	0xbeca8b54	-0.39559424
165	0xbeb26020	-0.34838963
166	0xbedf4aec	-0.43611848
167	0x3ec3a6f2	0.38213307
168	0x3eea312d	0.45740643
169	0x3ef57658	0.47941852
170	0xbecc0bee	-0.39852852
171	0x3ece35cb	0.40275416
172	0xbe876849	-0.2644675
173	0xbed62026	-0.41821402
174	0x3f01a25e	0.5063838
175	0x3ebcb014	0.36853087
176	0xbde6543a	-0.11246534
177	0xbee33ef8	-0.4438398
178	0x3ed3ce63	0.41368398
179	0x3ec74427	0.38919184
180	0xbed42c50	-0.41440058
181	0x3e661f15	0.22472794
182	0xbe8eed1c	-0.27915275
183	0x3e9e4e69	0.30919197
184	0xbeb1cdc6	-0.34727305
185	0xbd68ddfb	-0.056852322
186	0x3edd61cc	0.43238676
187	0x3db435fa	0.08799358
188	0x3ec287b3	0.37994155
189	0xbea1d077	-0.3160436
190	0xbed4723f	-0.41493413
191	0xbea45873	-0.3209873
192	0xbdde2cf5	-0.108484186
193	0x3e9c6b36	0.30550545
194	0x3edfdabb	0.43721566
195	0x3ee87415	0.45401064
196	0xbec9a87c	-0.39386356
197	0xbed78ef7	-0.4210126
198	0x3ee53c6f	0.4477267
199	0x3ec3f32c	0.38271463
200	0x3ec48635	0.38383642
201	0x3dd92eef	0.10604655
202	0xbed15bcf	-0.40890357
203	0xbec4c13a	-0.3842867
204	0xbe5d6728	-0.21621382
205	0x3e8dde71	0.27708772
206	0xbe9ee016	-0.3103034
207	0x3e14a94b	0.14517705
208	0xbf0019c7	-0.50039333
209	0xbea0d93e	-0.31415743
210	0x3d3f0fb8	0.04664585
211	0xbed9b804	-0.42523205
212	0xbec42091	-0.38306096
213	0xbe855514	-0.26041472
214	0xbeb1047b	-0.3457373
215	0xbecb60cb	-0.39722285
216	0x3eb94f09	0.36193112
217	0xbed3475a	-0.41265374
218	0xbeddfaa6	-0.43355292
219	0xbde11e36	-0.109920904
220	0x3e6f2375	0.2335337
221	0xbee5f93e	-0.4491672
222	0x3ebd9945	0.37030998
223	0x3e782399	0.2423233
224	0xbdcb1db4	-0.09917775
225	0xbe6c590f	-0.23080848
226	0x3e68b719	0.22726096
227	0xbe87fdad	-0.26560727
228	0xbec0b6d5	-0.3763949
229	0x3e8552cb	0.2603973
230	0xbe397331	-0.18110348
231	0xbec277bd	-0.37981978
232	0xbe748abd	-0.2388105
233	0x3ebc178e	0.3673672
234	0x3eed1fbb	0.4631327
235	0x3e904522	0.28177744
236	0xbed713e1	-0.42007354
237	0x3e97ae5c	0.29625213
238	0x3eb1ecae	0.34750885
239	0xbef53dd6	-0.4789874
240	0xbed43dfa	-0.41453534
241	0x3eddb058	0.43298602
242	0x3e5b2b44	0.21403223
243	0x3ed18a60	0.40925884
244	0xbed18f98	-0.40929866
245	0xbe4c4126	-0.19946727
246	0x3eb02361	0.34401992
247	0xbeb6cba0	-0.3570223
248	0xbe8f7f0e	-0.28026623
249	0x3ed14c45	0.40878502
250	0x3eea5d18	0.4577415
251	0xbe6dcdaa	-0.23222986
252	0xbe85d5c3	-0.2613965
253	0xbeb22fa3	-0.3480197
254	0x3eda2e5b	0.4261349
255	0xbec214e3	-0.3790656

linear1.weight f4 [256, 256]
0	0xbe05eb37	-0.13078009
1	0xbe11a4e9	-0.14223064
2	0x3e1e60d0	0.15466619
3	0x3e0504eb	0.12990157
4	0xbe11aa23	-0.14225058
5	0x3d5578cb	0.05211715
6	0x3e2c9aea	0.1685597
7	0x3b969558	0.00459544
8	0xbe59acbf	-0.21257304
9	0xbd1f3020	-0.038864255
10	0x3e36cc55	0.17851384
11	0xbe1e9fa4	-0.15490586
12	0x3c1fc701	0.009752036
13	0x3be1c143	0.0068894937
14	0xbe1ec1b3	-0.15503578
15	0x3e2c502e	0.16827461
16	0x3d8f9474	0.07010737
17	0x3e15435b	0.14576475
18	0x3e561c24	0.20909172
19	0x3de79a84	0.113087684
20	0xbda37cb4	-0.079827696
21	0x3dc724e3	0.097238325
22	0x3d03d71f	0.032187577
23	0x3e050b1f	0.12992524
24	0xbcad02e5	-0.021119544
25	0xbe444588	-0.19167149
26	0xbe358dc3	-0.17729859
27	0xbda89028	-0.082306206
28	0x3de9e2b6	0.11420195
29	0x3b933012	0.0044918144
30	0xbdce1b7f	-0.10063838
31	0xbb920e61	-0.0044572805
32	0xbcd0561e	-0.025431689
33	0xbcb52ef9	-0.022117125
34	0x3bbe1399	0.005800676
35	0x3e41aa3b	0.18912594
36	0x3dbe352f	0.09287488
37	0xbdf6e054	-0.12054506
38	0x3e5977d0	0.21237111
39	0xbd61da7b	-0.05514
40	0x39aac5c6	0.0003257228
41	0x3c8da746	0.017291676
42	0xbe1bbc36	-0.15208516
43	0xbc83d9cc	-0.016095065
44	0xbe122fe2	-0.14276078
45	0xbe1084a6	-0.14113101
46	0xbdece58c	-0.1156722
47	0x3cd7d4e5	0.026346633
48	0xbe322d8d	-0.17400189
49	0xbdb2dd8a	-0.087336615
50	0xbd27bca2	-0.04095138
51	0xbe388b3a	-0.1802186
52	0x3d4f7e23	0.050657403
53	0xbe12ef59	-0.14349116
54	0xbe2702fe	-0.16309735
55	0xbc7145d5	-0.014726122
56	0x3d500cc3	0.05079342
57	0x3b34dda7	0.0027597935
58	0x3e075f19	0.1321987
59	0x3d923f80	0.07141018
60	0x3e285bcb	0.16441266
61	0xbd3b7239	-0.045763228
62	0x3e1be961	0.15225746
63	0x3da5bb9b	0.080924235
64	0x3e27631e	0.16346404
65	0xbdee37b6	-0.1163172
66	0xbe27e7b0	-0.16396976
67	0xbe549b83	-0.20762448
68	0xbd45df83	-0.04830886
69	0xbd511644	-0.051046625
70	0xbc4d784f	-0.012540891
71	0xbdaf9aed	-0.085744716
72	0xbdea6a7e	-0.11446093
73	0xbe2fa70b	-0.17153566
74	0x3e1b363e	0.1515741
75	0x3e46c583	0.19411282
76	0xbe49301e	-0.19647262
77	0xbd421161	-0.047379855
78	0xbcdc6a48	-0.026906148
79	0x3e0aad80	0.13542747
80	0xbdff1668	-0.124554455
81	0x3e155273	0.14582233
82	0x3e343325	0.17597635
83	0x3e3d39fa	0.18479148
84	0xbd695acd	-0.05697136
85	0x3d7e0fb2	0.062026687
86	0x3d409576	0.047017537
87	0x3db20a1e	0.08693336
88	0x3e061e53	0.13097505
89	0xbe1cd558	-0.15315759
90	0xbe291444	-0.16511637
91	0x3e358206	0.17725381
92	0x3d6ca98f	0.05777889
93	0x3dbe2228	0.092838585
94	0xbd624753	-0.0552438
95	0x3cb33746	0.021876942
96	0x3cb701ad	0.022339666
97	0xbd1eecb2	-0.03879995
98	0xbc421d4d	-0.011847806
99	0x3d508bd3	0.050914597
100	0xbe1fffb2	-0.15624884
101	0x3d17189f	0.036888715
102	0x3d41eba8	0.04734388
103	0xbe1fbdd8	-0.15599763
104	0xbdca80b0	-0.098878264
105	0x3cb1408d	0.021637226
106	0xbd4df016	-0.050277792
107	0xbd1f37aa	-0.038871445
108	0xbe4fe6b8	-0.20302856
109	0xbe624ee4	-0.22100407
110	0x3d0fd400	0.03511429
111	0x3e0e3007	0.13885508
112	0xbe5e81d8	-0.21729219
113	0xbda9e1cb	-0.0829502
114	0x3e1a3ed6	0.15063033
115	0xbdbb25cf	-0.09138071
116	0x3e5344b4	0.20631677
117	0x3e5c22f0	0.21497703
118	0xbca60f85	-0.020271072
119	0x3d0bee29	0.034162674
120	0x3da7d62e	0.081951484
121	0x3df566b7	0.11982482
122	0xbe3dc808	-0.18533337
123	0xbd2ed4c9	-0.042683396
124	0xbe0bddc9	-0.13658823
125	0xbd87680c	-0.06611642
126	0xbd1f9c02	-0.03896714
127	0xbdf55d5b	-0.11980697
128	0xbbed98fb	-0.0072509027
129	0x3ba70a11	0.0050976356
130	0xbdcdeab2	-0.1005453
131	0xbe2d8f01	-0.16949083
132	0x3e346f19	0.17620505
133	0xbe32e4aa	-0.17470041
134	0xbe0aaa48	-0.1354152
135	0xbc9cdaa5	-0.019147227
136	0x3db4fbb9	0.08837075
137	0x3e18559b	0.14876406
138	0xbe1c694f	-0.15274547
139	0xbda9542c	-0.08268008
140	0xbe63040e	-0.22169515
141	0xbe5ec384	-0.21754271
142	0x3e1556cb	0.1458389
143	0x3b82a700	0.003987193
144	0xbe5f9f5f	-0.21838139
145	0xbdc8d74f	-0.09806692
146	0xbd5d0315	-0.053958017
147	0x3db545ce	0.08851205
148	0xbe3f3012	-0.18670681
149	0xbce7e4e9	-0.028307395
150	0x3e215568	0.15755236
151	0x3d3cf813	0.04613502
152	0xbe361ca3	-0.17784362
153	0x3dd06edc	0.10177395
154	0xbc6ab5cf	-0.014325573
155	0x3de3c6d2	0.11121906
156	0xbe1cb9c3	-0.15305237
157	0xbe3d07ed	-0.18460055
158	0xbc699c9b	-0.014258529
159	0x3e5bd07b	0.21466248
160	0xbe4f1a78	-0.20224941
161	0x3e5407bc	0.20706075
162	0xbdf44910	-0.11927998
163	0xbbdc9b47	-0.0067323777
164	0xbd85fcc3	-0.06542351
165	0x3e0043ab	0.12525813
166	0xbd4222aa	-0.04739634
167	0x3e56f5c8	0.20992196
168	0xbe5bbc6e	-0.21458599
169	0xbdc7d767	-0.097578816
170	0x3d9e4ed3	0.07729878
171	0xbe2435fa	-0.16036215
172	0x3e03f00f	0.12884544
173	0xbcc4c713	-0.024020707
174	0xbe2696ef	-0.16268514
175	0xbdd67f0d	-0.10473452
176	0x3e1ca1bd	0.15296073
177	0xbce954f8	-0.0284829
178	0xbe393a03	-0.18088536
179	0x3e02e23f	0.12781619
180	0xbe0f4302	-0.13990405
181	0xbdc07103	-0.09396555
182	0x3cdcbb85	0.026944885
183	0xbd2c0c42	-0.042003877
184	0x3df34bcd	0.11879692
185	0xbe1d991f	-0.15390442
186	0xbe4b16da	-0.19832936
187	0xbdb083ce	-0.0861889
188	0x3c6fd427	0.014637983
189	0xbe0baba1	-0.1363969
190	0x3d563e76	0.05230566
191	0x3e38d520	0.1805005
192	0x3d262e71	0.040571634
193	0x3d596ce5	0.053082366
194	0xbdc77c7c	-0.097405404
195	0xbc19efa8	-0.009395517
196	0xbdf2a613	-0.118480824
197	0x3dbdfacd	0.09276352
198	0x3d0eb82f	0.03484362
199	0xbddc0586	-0.10743241
200	0xbe0770d9	-0.13226642
201	0x3e194172	0.14966372
202	0xbe13bfb7	-0.14428602
203	0x3ca0296b	0.019551
204	0xbd636362	-0.0555147
205	0xbe47cea9	-0.19512428
206	0xbe0f6264	-0.14002377
207	0xbe490c90	-0.19633698
208	0x3e2cb887	0.16867267
209	0xbd0d8cb7	-0.034558024
210	0xbd36dddd	-0.04464518
211	0x3d9acc9d	0.07558558
212	0x3e62c8f5	0.22146972
213	0xbb1887ee	-0.002327438
214	0x3e38a1cc	0.1803047
215	0x3dbb0ceb	0.09133323
216	0xbe069eaa	-0.13146463
217	0xbd03a733	-0.032141875
218	0x3d646316	0.05575856
219	0xb9af0646	-0.00033383275
220	0xbe4fec77	-0.20305048
221	0xbc94d0b9	-0.018165933
222	0xbdd83f0e	-0.10558902
223	0x3d95d352	0.07315697
224	0x3cebb410	0.028772384
225	0xbd2e3f52	-0.042540856
226	0x3dc9c12d	0.098512985
227	0xbdd057fd	-0.101730324
228	0xbe0b1e76	-0.13585839
229	0xbdc6fe35	-0.09716455
230	0xbb2589c3	-0.0025259114
231	0xbd932445	-0.07184652
232	0xbd218655	-0.03943475
233	0xbe3c1ea5	-0.18371065
234	0x3c777964	0.015104625
235	0xbe09e5fb	-0.13466637
236	0x3d25af66	0.040450476
237	0x3d6205da	0.05518136
238	0xbe28c931	-0.16482998
239	0x3d26fba2	0.04076732
240	0x3d3b3397	0.045703497
241	0xbd9aa607	-0.075511985
242	0x3dded92e	0.108812675
243	0xbdd387d9	-0.10328645
244	0x3cf03b91	0.029325278
245	0x3ba6d99e	0.00509186
246	0xbe59d0b8	-0.21271026
247	0x3d15f65c	0.0366119
248	0xbd1c73ef	-0.0381965
249	0xbe3a4678	-0.18190944
250	0x3c8091b6	0.01569448
251	0xbe01cc58	-0.12675607
252	0xba8da423	-0.0010806363
253	0xbe270a5c	-0.16312546
254	0x3cefcb13	0.029271638
255	0x3db74a65	0.089497365

linear1.bias f4 [256]
0	0x3c9e2a14	0.019307174
1	0x3cc30d67	0.023810102
2	0x3b3ee525	0.002912828
3	0x3b47b690	0.0030473806
4	0x3c40bb9f	0.011763482
5	0x3a4489a9	0.00074973196
6	0x3c045b45	0.008078401
7	0x3caf2f2a	0.021384794
8	0x3c2fb6b4	0.010724712
9	0x3b25266b	0.00251999
10	0x3c803d1d	0.015654141
11	0x3c64b158	0.013958298
12	0x3c8ed290	0.017434388
13	0x3c1b4253	0.009476262
14	0x3cb2c021	0.02182013
15	0x3c88ff6c	0.016723357
16	0x3c1ca9b6	0.009561947
17	0xba45f99b	-0.0007552148
18	0x3b253976	0.0025211251
19	0xbc5a756e	-0.0133336615
20	0x3ba51c39	0.005038765
21	0xbc1c23c1	-0.009530009
22	0x3ae4717b	0.0017428839
23	0x3baa5b88	0.0051988997
24	0x3ceb78c9	0.028744118
25	0x3d240a4f	0.040048894
26	0x3c9f94e7	0.019480182
27	0x3d18cf0d	0.037306834
28	0x3a81c1fb	0.000989973
29	0x3ca2fc15	0.019895593
30	0x3d5ed8c2	0.054405935
31	0x3b7701e2	0.0037690331
32	0x3c6aea7d	0.014338133
33	0xbb1220a8	-0.0022297297
34	0x3ba2d3fb	0.0049691177
35	0x3b8dd6ca	0.0043285834
36	0x3b1ac163	0.0023613803
37	0x3c98912b	0.018623909
38	0xba61d873	-0.00086153223
39	0xbb0a40bb	-0.0021095711
40	0x3b7a8dc6	0.0038231476
41	0x3bcfb809	0.0063390774
42	0x3c533869	0.012891867
43	0x3cc6d111	0.024269613
44	0xbc8592a4	-0.016305275
45	0x3babe98e	0.0052463477
46	0x270362d5	1.823348e-15
47	0x3c0d1696	0.008611342
48	0x3d02ea8c	0.031961963
49	0x3c491ca1	0.012274892
50	0x3c00cb4f	0.007860973
51	0xb96e77c9	-0.00022742072
52	0xbc5ed3ab	-0.01360027
53	0x3ca78f20	0.02045399
54	0x3b71f1ec	0.0036917878
55	0xbc70ae60	-0.014690012
56	0x3bb4c1bc	0.005516259
57	0x3c1d5acc	0.009604167
58	0x3aea2f93	0.0017866961
59	0x399bdd81	0.00029728937
60	0x3a9fe8eb	0.0012200152
61	0x3c97261c	0.01845079
62	0x3ca26e78	0.019828066
63	0x3cf172b2	0.029473636
64	0x3bfd7000	0.0077342987
65	0x3c006ffd	0.0078392
66	0x3b6802c9	0.003540205
67	0x3d408f6e	0.047011785
68	0x3c12798d	0.008940113
69	0x3be53ff6	0.00699615
70	0x3aacc8df	0.0013182423
71	0x3c4072ce	0.011746122
72	0x3c21bff2	0.0098724235
73	0x3c38ad93	0.011271852
74	0x3c592e68	0.013255693
75	0x3c476a04	0.012171272
76	0x3be2ff2f	0.006927393
77	0x24903e7c	6.25559e-17
78	0x3c82eb91	0.015981467
79	0x3c1124c0	0.00885886
80	0x3c80232b	0.01564177
81	0x3c880da9	0.016608076
82	0x3c78dd96	0.015189549
83	0x3c339c1e	0.010962514
84	0x3c8c2027	0.017105175
85	0x3cd5ccae	0.026098575
86	0x3c5d0796	0.013490578
87	0x3b68ec90	0.0035541393
88	0x3cbf6cb1	0.023367258
89	0x3c694a07	0.014238841
90	0x393b23a6	0.0001784699
91	0x3bcdde85	0.00628263
92	0x3c2d126c	0.010563474
93	0x3cd336af	0.025782911
94	0x3cafcac8	0.021458998
95	0x3c79d539	0.01524859
96	0x3c9f2562	0.019427005
97	0x3c363ef1	0.011123405
98	0x3c992240	0.01869309
99	0x3b60fa22	0.0034328778
100	0x3b3e5990	0.0029045083
101	0x3b722c9a	0.0036952854
102	0x3c418ca1	0.011813314
103	0x3c5a3de7	0.013320423
104	0x3b66b4d4	0.0035202997
105	0x3baf2200	0.0053446293
106	0x3d1c4a7a	0.038156964
107	0x3c4b456e	0.01240669
108	0x3a8ee4bd	0.001090191
109	0x3ba4307b	0.005010662
110	0x3cd91304	0.026498325
111	0x3cea9ddf	0.028639732
112	0x3d0244ef	0.03180402
113	0x3b41c563	0.0029567115
114	0x3d012372	0.031527944
115	0x3c5de26f	0.0135427555
116	0x3cf73f29	0.030181484
117	0x3c8e2c4e	0.01735511
118	0x3d22a590	0.039708674
119	0x3d42edcc	0.047590062
120	0x3cbf048e	0.023317602
121	0x3c4e85c4	0.012605134
122	0x3b89f47f	0.0042100544
123	0x3b1de8a6	0.0024094968
124	0x3c4ea24e	0.012611939
125	0x3cd7b3d0	0.026330858
126	0x3bd7c617	0.0065848934
127	0x280132a3	7.171919e-15
128	0x3cc2789b	0.02373915
129	0x3cde19c1	0.02711189
130	0x3cc14352	0.023591671
131	0x3bb8ac7a	0.005635795
132	0xba96f06b	-0.0011515742
133	0x3c9d2366	0.019181918
134	0x3a3af00a	0.00071311055
135	0x3d15b409	0.036548648
136	0x3c4a1410	0.012333885
137	0x3c139a29	0.009008923
138	0x3d0f4eb6	0.034987174
139	0x3cab437e	0.020906206
140	0x27c389e4	5.4272874e-15
141	0x3cb48970	0.022038192
142	0x3c2192c0	0.009861648
143	0x3c799b17	0.01523473
144	0x3ca8ecd6	0.020620745
145	0x3bed954b	0.007250463
146	0x3b502f20	0.003176637
147	0x3c07acac	0.008280914
148	0x3c9c3adc	0.019071035
149	0x3c813e3b	0.015776744
150	0x3bfdbf42	0.007743747
151	0x3cca8618	0.024722144
152	0x3b877ac9	0.00413451
153	0xbb2a689d	-0.0026002296
154	0x3bc10d66	0.00589149
155	0x3c8d46be	0.017245647
156	0x3ad635a8	0.0016342895
157	0x3cd257d6	0.025676649
158	0x3d3acbae	0.0456044
159	0x3c20bdd4	0.009810884
160	0x3baa6797	0.005200337
161	0x3b9b3933	0.0047370433
162	0xbb229f38	-0.002481414
163	0x3c75d536	0.015004447
164	0x3bc1cd9c	0.005914403
165	0x3c8e33ef	0.017358748
166	0x3ca5356d	0.020167077
167	0x3cb62d17	0.022238297
168	0xbb95c3e3	-0.0045704707
169	0x3c641d2d	0.013922972
170	0x3cf981b2	0.030457351
171	0x3c7cac75	0.015421976
172	0x3d0032a1	0.031298283
173	0x3ba509af	0.0050365548
174	0x3c88ab93	0.016683375
175	0x3b342985	0.0027490568
176	0x3c26d8e3	0.010183546
177	0xbb6a4192	-0.003574465
178	0x3c1afce0	0.009459704
179	0x3c55da12	0.01305248
180	0x3bd42c94	0.0064750407
181	0xbaa905f0	-0.0012895446
182	0x3bc8ef2d	0.0061320276
183	0x3c70ee91	0.014705316
184	0x3bb9fc61	0.005675838
185	0x3c922262	0.01783866
186	0x3c130bd1	0.008974985
187	0x3d79da3c	0.06099914
188	0x3d648db5	0.055799205
189	0x3d2b6609	0.041845355
190	0x3c8233d1	0.015893849
191	0xbb03f369	-0.0020134097
192	0xbacdb526	-0.0015694245
193	0x3c29be94	0.010360379
194	0x3c30804b	0.010772775
195	0x3d30534e	0.043048196
196	0x3c085b07	0.008322484
197	0x3bd1bc1c	0.006400598
198	0x3c06cf3e	0.008228121
199	0x3c95c3a5	0.018281767
200	0x3bb5c829	0.0055475426
201	0x3c825ad2	0.015912447
202	0xba37e656	-0.0007015219
203	0x3d417b55	0.04723676
204	0x3ca1010d	0.019653821
205	0x3ce912f8	0.028451428
206	0xbb9d14c9	-0.0047937375
207	0x3cd944e1	0.026522102
208	0x3c8d9291	0.017281802
209	0x3c031cc5	0.008002465
210	0x3c4df5ab	0.012570779
211	0xbb95d547	-0.004572544
212	0x3d43e33b	0.047824126
213	0x3c418eff	0.011813878
214	0xbc022974	-0.0079444535
215	0x3c0447a1	0.008073718
216	0x3c064f8e	0.008197678
217	0x3bcf5e1c	0.0063283574
218	0x3c88d609	0.016703622
219	0x3bd40c02	0.006471158
220	0x3ce4cd0d	0.027929807
221	0xb8843e19	-6.305817e-05
222	0x3d433a29	0.047662888
223	0x3b8d64d9	0.0043150005
224	0x3c1bc293	0.009506839
225	0x3c40a722	0.011758598
226	0x3d24f44c	0.040272042
227	0x3c725e61	0.0147930095
228	0x3c067c05	0.0082082795
229	0x3c3fb495	0.011700769
230	0xba584a07	-0.0008250777
231	0x3bcf4f5e	0.0063266
232	0x3b995fc9	0.004680608
233	0x3c82a0f1	0.015945883
234	0x3c7d644d	0.015465808
235	0x3ca7cfaa	0.020484764
236	0x3cab3b31	0.020902248
237	0x3c442a2e	0.011972947
238	0x3bf9aad7	0.0076192426
239	0x3b999155	0.0046865144
240	0x3c550e7b	0.013003941
241	0x3c9cd4c5	0.019144425
242	0x3bb6d92d	0.0055800886
243	0x3b7981a9	0.0038071668
244	0x3c255393	0.010090726
245	0x3caa8001	0.02081299
246	0x3cd5f347	0.02611698
247	0x3c95225e	0.018204864
248	0x3d0a7bd6	0.033809505
249	0xba8ecb82	-0.001089439
250	0x3b6b8f9c	0.0035943752
251	0x3baa876b	0.0052041314
252	0xbb4635d8	-0.0030244496
253	0x3c6956de	0.014241902
254	0x3b46c69d	0.0030330785
255	0x3d6c9c07	0.057765987

linear2.weight f4 [59, 256]
0	0x3d602fb6	0.054733
1	0x3d464495	0.04840525
2	0x3dade7ea	0.084915
3	0x3e0a9d0e	0.13536474
4	0x3d272a95	0.040812094
5	0x3d9529d3	0.07283368
6	0xbf09a830	-0.5377226
7	0x3d57925f	0.052629825
8	0xbcab6977	-0.020924313
9	0x3d54ce9d	0.051954854
10	0x3d652da3	0.055951726
11	0x3dae03db	0.08496829
12	0xbefd52f4	-0.4947735
13	0x3d09bd71	0.03362793
14	0x3d5028ec	0.050820276
15	0x3d8f97ff	0.07011413
16	0x3d5960bc	0.05307077
17	0xbd19a0f7	-0.037507024
18	0xbf11cac3	-0.56950015
19	0x3d71ec6c	0.05906336
20	0x3da0c1b6	0.078494474
21	0xbea1cabb	-0.31599984
22	0x3d39f300	0.04539776
23	0x3d5edd3d	0.054410208
24	0x3d607e1a	0.05480776
25	0xbefde0fb	-0.4958571
26	0x3dd98394	0.106208
27	0xbda4afe4	-0.08041361
28	0xbee3456d	-0.44388905
29	0xbda55050	-0.08071959
30	0xbef21854	-0.47284186
31	0xbe737d9d	-0.23778386
32	0x3d6a2292	0.057161875
33	0xbdb5952f	-0.08866345
34	0xbe64e35e	-0.22352359
35	0x3d1ef501	0.038807873
36	0x3db37aeb	0.08763679
37	0x3da96aee	0.08272348
38	0x3cb57feb	0.022155723
39	0xbe9bdb33	-0.30440673
40	0xbe2f7a7c	-0.17136568
41	0xbef6496e	-0.48102897
42	0xbe956126	-0.2917568
43	0x3d6772eb	0.05650608
44	0x3d6702fb	0.056399327
45	0x3d9eba92	0.07750429
46	0xa90f1937	-3.177425e-14
47	0x3d6e8931	0.058236305
48	0x3e09ae14	0.13445312
49	0xbee47803	-0.44622812
50	0x3d6f6bc8	0.058452398
51	0x3d99d736	0.07511751
52	0x3d9bdc6d	0.07610402
53	0xbf1521bc	-0.582546
54	0xbe2f78fb	-0.17135994
55	0xbc80253a	-0.015642751
56	0xbe1c8b50	-0.15287519
57	0xbebb62b6	-0.36598748
58	0xbef4ebd3	-0.4783617
59	0xbee98df7	-0.45616123
60	0xbe709289	-0.23493399
61	0x3cae0813	0.021244084
62	0x3d94edad	0.072718956
63	0x3d9f6f92	0.07784952
64	0x3dbf186e	0.093308315
65	0x3db08603	0.08619311
66	0x3d3d6afd	0.04624461
67	0xbd65e180	-0.056123257
68	0x3c589fcc	0.013221692
69	0x3d2d6cd1	0.042340104
70	0xbd12b0f0	-0.035813272
71	0x3d90587b	0.07048126
72	0x3d8f0ec0	0.06985235
73	0xbe02a370	-0.12757659
74	0xbce2d131	-0.02768764
75	0x3d92ea1f	0.07173561
76	0x3d92d609	0.0716973
77	0xa604d31a	-4.6082796e-16
78	0x3dee3615	0.11631409
79	0x3d9b8b1d	0.07594893
80	0xbe3f4107	-0.1867715
81	0x3cc6fd40	0.02429068
82	0x3d938c81	0.07204533
83	0xbeee554b	-0.46549448
84	0x3df082ec	0.11743721
85	0x3d748c6c	0.05970423
86	0x3da19969	0.07890589
87	0xbedab58e	-0.4271664
88	0xbcde7a1d	-0.027157838
89	0x3dc3ab86	0.095542
90	0x3c9485d0	0.018130213
91	0xbe920b54	-0.28524268
92	0xbc39e313	-0.011345643
93	0xbeb0526b	-0.3443788
94	0xbe8a0a4f	-0.2696099
95	0xbd855fbe	-0.06512402
96	0x3d381db0	0.044950187
97	0xbe9628be	-0.2932796
98	0x3df8229a	0.12115975
99	0xbe652a2f	-0.22379373
100	0xbe88a6e6	-0.26689833
101	0x3d324054	0.04351838
102	0xbeb2ad37	-0.34897777
103	0xbc76d4d7	-0.015065393
104	0x3d83167e	0.064007744
105	0xbedeef22	-0.4354182
106	0x3d65eaa7	0.056131985
107	0xbef14695	-0.47124162
108	0x3cfcc719	0.030856656
109	0x3d4d87b7	0.050178256
110	0x3cb8cb46	0.022557866
111	0xbe0a4c58	-0.13505685
112	0xbd91ad87	-0.07113176
113	0x3dc5b5fc	0.096538514
114	0x3d2c81ac	0.042115852
115	0x3c82a093	0.015945708
116	0x3d946249	0.07245309
117	0x3d222fdd	0.039596427
118	0x3db83a64	0.08995512
119	0x3dc4d78b	0.09611424
120	0x3d939183	0.072054885
121	0xbe6e2374	-0.23255712
122	0x3ca3d3c1	0.019998433
123	0xbd2df14c	-0.042466447
124	0x3d5f8fb7	0.054580417
125	0x3dacc755	0.08436457
126	0xbebc16ab	-0.36736044
127	0x286f49de	1.32831825e-14
128	0x3d7d552f	0.061848816
129	0x3d89cc47	0.06728416
130	0xbe84b868	-0.2592194
131	0xbdd5ef0a	-0.10445984
132	0xbb6d3842	-0.0036196862
133	0x3d0a3b19	0.033747766
134	0xbe574662	-0.21022943
135	0xbd22a5c7	-0.03970888
136	0x3da8563a	0.082195714
137	0xbe46d97a	-0.19418898
138	0xbe0ed648	-0.1394893
139	0x3dcd0dba	0.10012384
140	0x29861268	5.9539884e-14
141	0xbebe28fe	-0.3714065
142	0xbb054f0b	-0.0020341303
143	0xbaf50c56	-0.0018695693
144	0x3da4aabd	0.08040378
145	0x3dd4a5ad	0.10383163
146	0x3cc56e8e	0.024100568
147	0xbecf6428	-0.405061
148	0xbe1db27a	-0.15400115
149	0x3da2812f	0.07934796
150	0xbf0000ae	-0.5000104
151	0xbe82688a	-0.25470382
152	0x3d3396c7	0.043844964
153	0x3dbedfc9	0.093200274
154	0x3dadf4a3	0.084939264
155	0xbd0c483d	-0.03424858
156	0xbf09015d	-0.53517705
157	0xbe84c32e	-0.2593016
158	0xbef3b2cf	-0.47597358
159	0x3dbe7bb7	0.093009405
160	0x3dd9b290	0.10629761
161	0xbe731cfd	-0.23741527
162	0x3da1c0dc	0.07898113
163	0xbbdf4fc0	-0.006814927
164	0x3d65f908	0.056145698
165	0x3df6d797	0.12052839
166	0xbc2c8cf5	-0.010531654
167	0x3d8dfe64	0.06933287
168	0xbebd231f	-0.36940858
169	0x3d433e76	0.04766699
170	0xbeffe226	-0.49977225
171	0x3dbffad1	0.09374011
172	0x3c510bac	0.01275913
173	0xbe9bdae4	-0.30440438
174	0xbcdb61ca	-0.026780028
175	0xbe5eb260	-0.21747732
176	0x3d634cb0	0.055493057
177	0xbbb72647	-0.00558928
178	0x3df235ab	0.118266426
179	0xbd3d30f1	-0.046189252
180	0x3d7b6002	0.061370857
181	0x3d1178f6	0.035515748
182	0x3d1956cf	0.037436303
183	0xbea83eda	-0.32860452
184	0x3d459c8e	0.048245005
185	0xbd3838de	-0.044976108
186	0x3d9fe69e	0.078076586
187	0xbeebed25	-0.46079364
188	0xbdf4c50f	-0.119516484
189	0xbd192569	-0.037389193
190	0x3dcaee8a	0.09908779
191	0x3d8b8fa5	0.068145074
192	0xbb374eb9	-0.0027970506
193	0xbdccf2ad	-0.10007224
194	0x3d8c0b67	0.06838112
195	0xbd161dfb	-0.036649685
196	0xbdbf4fd6	-0.09341399
197	0xbe9202b5	-0.2851769
198	0xbdc0d268	-0.09415132
199	0xbeb2aecc	-0.34898984
200	0x3d172d58	0.036908478
201	0xbe0cc545	-0.13747127
202	0xbefa8128	-0.48926663
203	0xbf178d19	-0.5919967
204	0xbd6a16d1	-0.057150666
205	0x3d578679	0.052618477
206	0x3c8e449e	0.017366704
207	0x3d87afb8	0.066253126
208	0x3d437d82	0.047727115
209	0x3c1a3917	0.009413025
210	0x3dae339a	0.08505936
211	0x3e31d6bb	0.1736707
212	0x3dc4d3eb	0.09610733
213	0x3dd216df	0.102582686
214	0x3e2e1a4d	0.1700222
215	0x3da78bee	0.08180986
216	0xbdc6bb0e	-0.097036466
217	0x3d902d84	0.070399314
218	0x3d7d09bd	0.061776865
219	0xbe92008b	-0.2851604
220	0x3d16dac4	0.036829725
221	0xbe5aa91c	-0.21353573
222	0x3dc4cae7	0.09609013
223	0xbd357085	-0.04429676
224	0x3d70f6a9	0.058828983
225	0xbe5d47e3	-0.21609454
226	0x3da94554	0.082651764
227	0x3dbe8037	0.09301799
228	0x3dc8932f	0.09793698
229	0x3cb6ba8d	0.022305751
230	0x3d5148dd	0.05109488
231	0x3d52aa93	0.051432204
232	0xbee36687	-0.4441416
233	0x3d8847a8	0.06654292
234	0x3d5547a8	0.05207029
235	0x3d7deb63	0.06199206
236	0x3d8275e3	0.06370141
237	0x3d2e3a87	0.042536285
238	0x3d06ca8f	0.03290802
239	0x3d69da06	0.05709269
240	0x3d3f0887	0.04663899
241	0x3d11fd63	0.03564204
242	0xbd408161	-0.046998385
243	0x3bb379a4	0.005477147
244	0xbef1c653	-0.47221622
245	0xbd95244c	-0.07282314
246	0x3db64a76	0.08900921
247	0x3dcc6547	0.099802546
248	0x3d8e2710	0.06941044
249	0xbe9bf6d3	-0.3046175
250	0x3d4ac7c1	0.049506906
251	0xbf01eb05	-0.50749236
252	0xbe0e3ab5	-0.13889582
253	0x3d586fae	0.05284088
254	0xbe057e02	-0.1303635
255	0x3d8aa6e1	0.06770111

linear2.bias f4 [59]
0	0xbc7c643a	-0.015404755
1	0xbc9f5118	-0.019447848
2	0xbc781562	-0.015141817
3	0xbc616cb7	-0.01375883
4	0xbc4aff3f	-0.012389957
5	0xbca258c8	-0.019817725
6	0xbca8155c	-0.020517997
7	0xbc9e1497	-0.019296927
8	0xbc54ba04	-0.012983803
9	0xbc59d044	-0.013294283
10	0xbc8ae337	-0.016954048
11	0xbc8c5000	-0.01712799
12	0xbc7f0559	-0.01556524
13	0xbc914ded	-0.017737353
14	0xbc650c73	-0.013980019
15	0xbc262f9a	-0.010143185
16	0xbca82a45	-0.020527968
17	0xbc4ef5b5	-0.012631823
18	0xbca15462	-0.019693557
19	0xbc8bb5bf	-0.017054437
20	0xbc5247ba	-0.012834484
21	0xbc23f7f4	-0.010007847
22	0xbcb9a897	-0.022663398
23	0xbc8d040c	-0.017213844
24	0xbc5771f4	-0.013149727
25	0xbc9ec71b	-0.01938205
26	0xbc975ce2	-0.018476907
27	0xbc3fccda	-0.011706555
28	0xbc91fabf	-0.01781976
29	0xbc793d5e	-0.015212385
30	0xbc8e8e33	-0.01740179
31	0xbc8d0fe5	-0.017219493
32	0xbc27a143	-0.010231319
33	0xbc91aa07	-0.01778127
34	0xbc9853e2	-0.018594686
35	0xbc91bbc9	-0.017789738
36	0xbc536163	-0.012901637
37	0xbc86687a	-0.01640724
38	0xbc8b1739	-0.016978847
39	0xbc2c0eb6	-0.010501554
40	0xbc8c9289	-0.017159717
41	0xbca5e02a	-0.020248491
42	0xbc815e5d	-0.015792066
43	0xbc9ac7a1	-0.018894019
44	0xbc5a8d20	-0.013339311
45	0xbc95d4b5	-0.018289903
46	0xbc93b40d	-0.01803019
47	0xbc957989	-0.018246429
48	0xbcb88d05	-0.02252818
49	0xbc726805	-0.014795308
50	0xbc17b947	-0.009260482
51	0xbca21950	-0.01978746
52	0xbc30cdd4	-0.010791261
53	0xbc8c7cf5	-0.017149428
54	0xbc8a54ae	-0.016886082
55	0xbc5fc84f	-0.013658597
56	0xbc44b010	-0.012004867
57	0xbc92cc78	-0.017919764
58	0xbc966e94	-0.018363275
