intermediary/model_13400.pth (torch, 356400 bytes, 5 tensors)

embed.weight f4 [59, 128]
00000000: 60f1 acbe 0a3f 673e bafc c1be 3c3c abbe
00000010: af19 c33e 5bcf ca3e 6d8b 01be 8ee7 e0be
00000020: 34a1 dc3e 3042 a63e 1bde a6be a70d c6be
00000030: 4397 d23c be74 64be 1dd2 adbe d436 bd3e
00000040: a8be 54be 1b8e dcbe 1302 afbe ff32 c93e
00000050: 25ff cd3e 03f1 7f3e 9277 203e 1fab 183e
00000060: b492 a33e 2135 d63e a582 b6be 4d8f 803e
00000070: fd2c c93c af2c ce3e 3fe2 d33e b46a 17be
00000080: 4b33 d6be cf7a c8be 9582 9bbe 491e 8abe
00000090: 34f8 903e 4c67 f83e 6ad3 5d3e ee1f bebd
000000a0: f467 c8bd bfb6 9dbe c62b e13e 6f42 853e
000000b0: 5810 d23e 86c7 d83d 4754 d63e 6c2a f73e
000000c0: 0450 bdbe 2c7d 95be 3892 f73e 904c c63e
000000d0: e313 acbe feed c5be e0b1 ab3e 8938 6a3e
000000e0: b273 c3be 1fe6 3f3e 5ddc 9bbe f128 c43e
000000f0: 1a01 97be 413b bf3e 6684 dfbe 314d c9be
00000100: e37c adbe 73de 5c3e 6ba1 45be 75b2 503e
00000110: 4952 be3e a80c e5be b050 44be a7af d2be
00000120: c599 d0be abaf d6be 7431 833e 4eef 95be
00000130: ba58 ee3e 248a a03e 1882 6f3e 31e2 d43e
00000140: 3dbb b13e cc59 9dbe f148 51be f438 f8be
00000150: 15bf cd3e 27b9 a5be 30fc 013d e72f acbe
00000160: 5438 e2be 0d24 cb3e b01f a63e b83f b7be
00000170: b788 cd3e d257 fabe 667c b3be d276 b23e
00000180: 352d 8f3e d7ff e13e 39c6 93be 6b63 af3e
00000190: 1575 733e 692e e1be b5aa 91be 479b 503e
000001a0: 4162 db3e d244 cfbe e47f e03e 6560 de3e
000001b0: 3fb2 8d3e a3a2 a0be 687f d4be 869f 77be
000001c0: 554b ab3e fcf7 51be 147a e1be c944 d7be
000001d0: 7e3e b73e d000 d7be 5d42 d83d 7538 93be
000001e0: f1a0 dc3e 770b adbe 1ba8 ba3e ee1b ae3e
000001f0: fbc4 d6be ba0b 8e3e b30d e23e 91ed f13e
00000200: 4cd0 4f3e 11f0 a73e ab39 e3bd 18fb eabe
00000210: ed43 b5be 4a1e 41be 3caf 08be edb5 d3be
00000220: 5d76 28be d91c e23e 6ac2 c6be 233c 5f3e
00000230: 7ab9 e23e 3134 013f 6b81 87be 0bf7 e93d
00000240: c412 733e 411d d83c 4694 be3e 07b1 c8be
00000250: a23d c73e 63bd bdbe 8de6 d8be 49bc aebe
00000260: 4b67 5bbe 7bdc f0bc b1dc 9c3e 44df f4be
00000270: fb19 eabe 7d93 40be c81c 64be c934 bf3e
00000280: 3504 bb3e fd6b f3be 7080 fe3e 49c5 d03e
00000290: 1c60 c8be 6501 b1be 203a debe a9ab c03e
000002a0: e944 f23e 9051 fc3e 410d c8be 57ba d43e
000002b0: 6014 6bbe e7bd d7be 9478 023f 9b02 c33e
000002c0: 1f04 90bd 601b dfbe 707d d63e 4555 c83e
000002d0: 8843 d3be 808a 693e 5e52 8fbe 3056 9d3e
000002e0: ee46 c5be 8741 9d3d 87de db3e 3161 bd3d
000002f0: 4bee c03e 818f 98be d9b1 d3be b314 aabe
00000300: d09a 13be cc8b 9c3e c9ab e03e bdd4 e53e
00000310: 9acd c1be bb65 d8be 9f38 e13e cc26 c73e
00000320: ed49 c03e 5d86 b63d 7cc2 dabe b4dc c5be
00000330: 7116 4bbe a1a0 8e3e 733a 9cbe b185 503e
00000340: e06e 00bf ac24 a2be b044 c23c 498a d9be
00000350: 47ec c0be 577b 81be 6384 b0be 3be4 d5be
00000360: 5b20 b63e 7541 d2be 7f61 ddbe 2889 483c
00000370: 2459 713e 66f5 e2be 55dd c23e 38b1 843e
00000380: b06e d5bd 9cfa 6fbe 6a37 613e c3ea 82be
00000390: edce bbbe 4755 803e a574 0dbe a727 bcbe
000003a0: c629 73be 9b15 c03e 306f ee3e ef73 8a3e
000003b0: 742c d7be 9f67 a13e 9ad1 b23e 934a f9be
000003c0: 547e d2be 0fde df3e 8693 4f3e 780f d53e
000003d0: c453 d3be c021 15be 4f95 b93e cfc7 b7be
000003e0: a2e4 88be e679 cf3e 9517 ea3e 9166 68be
000003f0: 04de 8bbe 8a57 b3be 7e94 e03e a28f c4be
-0.33777905 0.22582641 -0.37888128 -0.33444393 0.38105533 0.39611325 -0.12650843 -0.43926662
0.43091738 0.32472372 -0.32591328 -0.3868229 0.025706893 -0.22310159 -0.33949366 0.36955893
-0.20775855 -0.43077168 -0.3418127 0.3929672 0.40233722 0.24994282 0.15670612 0.14909028
0.31947863 0.4183741 -0.3564655 0.2510933 0.024557585 0.40268466 0.4138355 -0.14786798
-0.41836008 -0.39156196 -0.30373064 -0.2697623 0.28314364 0.4851631 0.2166268 -0.09283434
-0.097854525 -0.30803487 0.4397871 0.26027247 0.41028094 0.10584931 0.41861174 0.48274553
-0.3697511 -0.2919706 0.48353744 0.38730288 -0.33608922 -0.38658136 0.33534145 0.22873129
-0.38174206 0.18740128 -0.3044156 0.38312486 -0.29493028 0.37349895 -0.436557 -0.39316705
-0.33884344 0.21569233 -0.19299857 0.20380576 0.37172154 -0.44736218 -0.19171405 -0.41149637
-0.40742317 -0.419309 0.25623667 -0.29284137 0.46552068 0.31355393 0.2338947 0.4157882
0.34713164 -0.30732572 -0.20437981 -0.48480952 0.40184847 -0.32367823 0.031734645 -0.33630297
-0.441836 0.39675942 0.3244605 -0.357908 0.40143368 -0.48895127 -0.35055846 0.34856278
0.27964178 0.44140503 -0.2886217 0.34255537 0.23775132 -0.4398072 -0.28450552 0.20371734
0.428484 -0.40482193 0.43847573 0.43432918 0.27675053 -0.31374082 -0.41503453 -0.24181947
0.3345591 -0.20504755 -0.4403845 -0.42044666 0.35789865 -0.41992807 0.10559533 -0.2875401
0.4309154 -0.3379781 0.3645638 0.34005684 -0.4194716 0.27743322 0.44151077 0.4725156
0.20294303 0.32800344 -0.11094984 -0.45894694 -0.35403386 -0.1885921 -0.13348097 -0.41349736
-0.16451402 0.44162634 -0.388202 0.21800284 0.44282132 0.5047026 -0.26465926 0.11424073
0.23737627 0.026381137 0.372225 -0.3919756 0.3891421 -0.37058553 -0.42363396 -0.34128025
-0.21426122 -0.029402008 0.30637124 -0.47826588 -0.45722947 -0.18806262 -0.22276604 0.3734496
0.36526647 -0.47543326 0.49707365 0.40775517 -0.39135826 -0.34571376 -0.4340372 0.37630966
0.473182 0.49280977 -0.39072612 0.41548416 -0.22956991 -0.42137071 0.5096524 0.38087925
-0.07032036 -0.43575573 0.41892576 0.39127555 -0.4126246 0.2280674 -0.2799253 0.30729818
-0.38530678 0.07678514 0.42943212 0.092470534 0.37681803 -0.29796985 -0.41346624 -0.33218917
-0.14414525 0.30575407 0.43881062 0.4488887 -0.37852174 -0.42265114 0.4398851 0.38896787
0.375564 0.089123465 -0.42726505 -0.38644946 -0.1983278 0.27856925 -0.30513343 0.20363499
-0.5016918 -0.31668603 0.023714393 -0.42488316 -0.37680265 -0.25289413 -0.34476003 -0.4177569
0.3557156 -0.41065565 -0.43238446 0.012239732 0.2356916 -0.4432785 0.38059488 0.25916457
-0.104215026 -0.23435444 0.21993795 -0.25569734 -0.3668131 0.2506506 -0.13814028 -0.36749002
-0.23746404 0.37516484 0.46569204 0.27041575 -0.42026103 0.3152437 0.34925538 -0.48689708
-0.41112006 0.43724105 0.2027112 0.41613364 -0.41274846 -0.14563656 0.36246726 -0.3589463
-0.26736933 0.4052269 0.45721117 -0.22695376 -0.27317822 -0.35027725 0.4386329 -0.38390833

linear1.weight f4 [256, 256]
00000000: d3f2 05be c185 0ebe e6dd 183e 7cda 083e
00000010: bbd9 19be 9e66 2b3d 9367 353e 1f67 2cbc
00000020: 194e 59be 6eb0 11bd a415 433e 0981 20be
00000030: 02aa adbb 9467 823c c884 24be 5db6 173e
00000040: 31de 923d b5b6 163e a839 583e e777 dc3d
00000050: ae3b 92bd 488f c83d 6430 193d 35ca f23d
00000060: 56d4 aabb 8510 49be 7872 3bbe 649d 9ebd
00000070: 1c00 dd3d c287 543c 217e ccbd a46b c83b
00000080: 8cb7 d7bc c278 b138 2fac af3c 32e1 433e
00000090: c3dc ce3d 135d f5bd 21ca 523e fd56 44bd
000000a0: e47d 09bc 5407 aa3c fcf2 1abe b77a 81bc
000000b0: 0354 0cbe 99d9 0ebe 2168 e6bd 5102 d43b
000000c0: 0fc3 39be aeba c4bd 0cef ebbc 3e6a 37be
000000d0: d72c 633d 342d 0fbe 6b82 29be 245f 6e3c
000000e0: 2c84 533d 3fac 203b 3682 163e 6fb2 bb3d
000000f0: e5d1 373e 225b 41bd 5bb3 163e 9a64 c53d
00000100: 0e5e 223e 88f6 fcbd 4607 28be 85e2 1ebe
00000110: 1583 42bd 1cd3 50bd 40f1 88bc 9393 adbd
00000120: 337f debd ecca 2abe 9548 003e 58dd 4a3e
00000130: e595 42be af87 60bd 894c 03bd e142 063e
00000140: 19eb e5bd ee96 133e 2ec5 2f3e 2cb0 3a3e
00000150: 78c4 4fbd e4a0 873d d3ce 2e3d 5b43 8a3d
00000160: bbe6 093e 576d 20be cd3a 2bbe 813a 253e
00000170: 3100 283d e300 f83d be0a 8cbd 79af b43c
00000180: 9f50 1f3d 40b1 20bd 82dc 24ba a4e5 363d
00000190: 12ea 1abe fd85 213d cc1f 263d 9353 19be
000001a0: e2f8 dfbd c99a b13c 42c0 4cbd 4cda f3bc
000001b0: 99c6 49be 560d 5abe 41cc 043d 59ce 193e
000001c0: 56c0 5bbe 3263 b7bd 2ae6 1e3e 52d3 c3bd
000001d0: 77ff 533e deec 5d3e 2bd2 e4bc 8183 323d
000001e0: 41c6 c13d 0da7 f43d 8a51 3bbe 2841 18bd
000001f0: 5891 0bbe 999c 85bd 6dc5 2fbd c39f fcbd
00000200: 3180 26bc f081 9e3a ca83 b7bd ff78 2cbe
00000210: da89 2b3e baed 35be ae5b 02be 3166 61bc
00000220: d5f4 bb3d 529f 183e 15b3 21be 8e30 a6bd
00000230: 33d7 5cbe 31b0 5fbe 0b65 fa3d 784a cb3a
00000240: 351d 64be 1415 cabd c814 5cbd 976c b83d
00000250: 6ca2 41be 41db 05bd 82de 1d3e 9acd 603d
00000260: e5f9 3abe f076 ad3d d54c 98bc 9c71 e73d
00000270: 7cf1 21be 4855 3dbe 89f5 9fbc 2f79 583e
00000280: af2f 4dbe a409 4e3e 15d8 00be f133 18bc
00000290: 949a a9bd 07cf ed3d 1cec 3bbd b747 513e
000002a0: cdd7 4ebe 4afb dfbd 6265 8e3d 713b 29be
000002b0: d903 cc3d eb97 babc d722 26be 3aaa d1bd
000002c0: 5a99 133e 4274 1fbd e4b0 39be 65da 023e
000002d0: 204e 0bbe 0272 cebd e899 023d 25f7 02bd
000002e0: 34c8 043e 0622 2ebe 083a 3dbe f204 d1bd
000002f0: d560 023c dd3b 08be dcde 493d 0be1 303e
00000300: c121 4b3d 89b8 503d 0838 b7bd b9c9 a23c
00000310: db6b 10be 5010 cb3d c7d1 3f3d b930 d8bd
00000320: 6935 0ebe 054f 1d3e 17d5 fabd 2bdd 663c
00000330: 46b0 8ebd 5786 45be 47c6 0abe f332 52be
00000340: 225a 2a3e 78ff 02bd 5103 34bd c150 a23d
00000350: 800c 5d3e f4a4 f43b 56dd 3d3e f509 ae3d
00000360: 941a 06be 8096 32bd ebf2 743d e343 dabc
00000370: 8591 4cbe ea8b d4bc 3c83 c7bd b94b 9b3d
00000380: 416a 963c fb94 16bd 662b d03d ce73 d6bd
00000390: 8608 17be 58bc bdbd 6f74 01bc 2c8f acbd
000003a0: 09af dfbc 35df 37be 265e ab3b 8779 05be
000003b0: 380f 553d 6468 383d 3b74 22be 6470 003d
000003c0: f2c8 573d 290e 76bd e569 dc3d e007 d5bd
000003d0: 3a39 e33c 11b3 89bc 6f07 4cbe ef70 093d
000003e0: 7373 4dbd fae9 3cbe f247 fdba 107d 0abe
000003f0: 796e 383c 36f7 28be 6773 9f3c f2a6 bb3d
-0.13080911 -0.1391821 0.14928398 0.13364595 -0.15024464 0.04184591 0.17715292 -0.010522633
-0.21221198 -0.035568647 0.19051224 -0.15674223 -0.0052998075 0.01591853 -0.16066277 0.1481566
0.07171286 0.14718135 0.21115744 0.10765057 -0.07140289 0.09792954 0.037399665 0.11854974
-0.0052133007 -0.19635208 -0.18305385 -0.07744864 0.107910365 0.01297182 -0.09984995 0.0061163474
-0.02633264 8.4625106e-05 0.021444408 0.19128874 0.10100701 -0.11980643 0.20584919 -0.04793452
-0.008391831 0.020755447 -0.15131754 -0.015805585 -0.13703923 -0.13950194 -0.1125033 0.0064700027
-0.18140815 -0.09605919 -0.02880051 -0.17911622 0.055462684 -0.13982087 -0.16553657 0.0145490505
0.05163972 0.002451673 0.14698109 0.09164893 0.17951162 -0.04720605 0.14716856 0.09638329
0.15856192 -0.123517096 -0.16409025 -0.15516098 -0.04748829 -0.05098258 -0.0167166 -0.08475413
-0.10864105 -0.16678971 0.12527688 0.19810998 -0.19002493 -0.054816898 -0.03205541 0.1311145
-0.11226482 0.14413044 0.17165062 0.18231267 -0.050724477 0.06622484 0.04267771 0.06751128
0.13466923 -0.1566671 -0.1672165 0.16135599 0.041015808 0.12109544 -0.068379864 0.022056328
0.038895246 -0.03923154 -0.0006288962 0.044652596 -0.15128353 0.03943442 0.040557668 -0.14973287
-0.109361425 0.021680253 -0.04998804 -0.029767178 -0.19704665 -0.2129415 0.032421354 0.15020122
-0.21460089 -0.08954467 0.15517488 -0.095617905 0.20702921 0.21672389 -0.027932247 0.043582443
0.09461642 0.11945925 -0.18292823 -0.037171513 -0.13629663 -0.06524009 -0.04291289 -0.1233516
-0.010162399 0.0012093168 -0.08960684 -0.16843031 0.16751805 -0.17766467 -0.12730286 -0.0137572745
0.091775574 0.14904526 -0.1579097 -0.0811473 -0.21566467 -0.21844555 0.12226304 0.0015509864
-0.22276767 -0.098673016 -0.053730756 0.09005087 -0.18909615 -0.0326798 0.15416911 0.054883577
-0.1825939 0.08469951 -0.018591324 0.11300966 -0.15814775 -0.18489563 -0.01952626 0.21139978
-0.20037721 0.20120865 -0.12582429 -0.009289728 -0.082814366 0.11611753 -0.04587947 0.20437513
-0.20199509 -0.109366015 0.06952931 -0.16526581 0.099616714 -0.022777518 -0.16224228 -0.10237546
0.14413968 -0.03892923 -0.18133885 0.12778623 -0.13604021 -0.10080339 0.031885058 -0.031973977
0.12966996 -0.17005166 -0.18479168 -0.10206021 0.007957657 -0.13304086 0.0492848 0.17273347
0.049592737 0.050957236 -0.08946234 0.01987158 -0.14103644 0.09915221 0.04683092 -0.10556168
-0.13887562 0.15362175 -0.12247675 0.0140908165 -0.06967215 -0.19289528 -0.135522 -0.20527248
0.16635945 -0.031981915 -0.043948475 0.07925559 0.215868 0.007465953 0.18541464 0.08497993
-0.13096076 -0.04360056 0.059801977 -0.026643699 -0.19977386 -0.025945622 -0.09741828 0.07582802
0.018361213 -0.036763173 0.101645276 -0.10471307 -0.14749345 -0.09264439 -0.007901295 -0.08425745
-0.027305143 -0.1795624 0.005229729 -0.1303464 0.052016467 0.04502143 -0.15864651 0.031357184
0.05268187 -0.060072098 0.10762385 -0.10401893 0.027737249 -0.016809018 -0.1992471 0.033554967
-0.05015893 -0.1844863 -0.001932381 -0.1352427 0.0112568075 -0.16500553 0.019464208 0.09162702

linear1.bias f4 [256]
00000000: 1998 8c3c 2add 9f3c 5b03 bab9 3cba ea3b
00000010: 51f3 2a3c b7ed 5d3b bca0 3c3c 7394 b33b
00000020: a685 683c 46ee a53b ebb1 a13c 952e 703c
00000030: 9968 943c 3ccb 153c 5953 c23c 3792 fb3c
00000040: 22b9 003c b240 f8b9 fcdd 35bc a905 523c
00000050: ba27 6f3a 6965 1ebc ab42 1e3b ce99 913c
00000060: 531b e03c ce0e 1c3d 010f c83c a541 0c3d
00000070: e77a 023b d51a 363d 660f 7e3d 719f d63b
00000080: f6e0 5f3c 64d4 acbb fa00 c03b 7bec 563b
00000090: 8404 fc3b b327 a13c b6a8 c9ba b984 b03c
000000a0: 81b5 aa3a 8833 0b3c 1563 883c 4e6f af3c
000000b0: a7d7 98bc 44cb e03b 16da 2a2c 64e7 2b3c
000000c0: 60de f53c 59c5 9f3c 58d9 413c 0142 52ba
000000d0: 3e2b 63bc aa2e ae3c a208 b13a 0169 a73c
000000e0: f76a a53b aae1 1d3c ea09 3fbb 88d7 8b3b
000000f0: 98a1 eb3a fbd2 8f3c 02a2 923c b9f0 d43c
00000100: cabd d03b 8acc fc3b 60fc b33b fcea 3d3d
00000110: 7151 013c 5987 3a3c 758a 623b 7706 523c
00000120: 6c08 1c3c b587 333c e7a8 813c 13f3 033c
00000130: a6cc e83b f626 be29 35cc 5d3c d561 1c3c
00000140: c6ff 3c3c 983d 3a3c 36eb 603c ba86 6d3c
00000150: 4912 4a3c 7a79 b83c cac8 773c 7994 9c3b
00000160: 1442 973c e14d 713c 32d9 323a f0af c63b
00000170: 7e42 383c 3249 bb3c 68f1 d63c 90bf 7b3c
00000180: 865c c03c a165 063c 5f29 e93c 03ff a93b
00000190: f771 793b cd38 3cbb d427 103c c335 583c
000001a0: 8c12 733b f5e8 123c d972 0f3d a6e2 ec3b
000001b0: fc36 ae3a 3d06 a53b f7fe e43c ee2e a93c
000001c0: c2eb 1a3d 69b3 4d3b 0a4a b53c fe0b 0e3c
000001d0: d772 f53c 2f08 8d3c ea0f 243d 11df 3a3d
000001e0: cf81 cf3c c531 603c 971a e9ba 8642 853b
000001f0: 7444 5e3c 339a c73c b267 aa3b bb3a 442c
00000200: 2bd8 be3c 8e32 d53c 0c68 943c d456 fc3b
00000210: 02dc 853a 14b9 713c 701a 19ba 6e0e ba3c
00000220: e58f 5f3c 56ce 893b 7b0a d73c f01f ad3c
00000230: b2f8 4b2c a855 b63c 1688 303c af42 8f3c
00000240: 7c83 af3c 6d6e f33b 4d26 a93a 74e0 143c
00000250: ee2d 9a3c 47b3 903c 4b11 e13b 21aa be3c
00000260: 3384 2c3b fda0 89ba 8c0d 873b c760 3e3c
00000270: b688 763b a2f8 de3c 1a2c ec3c 4685 2b3b
00000280: f037 203b e605 f83b a5dc fb3a 042b 763c
00000290: d352 073c 9a2c c63c 4a58 c43c c3f8 bf3c
000002a0: 265c 5dbb 3c3f 573c c359 0b3d 988e 813c
000002b0: 8fab e83c e9d1 9e3b f0b3 913c 91a7 6f3b
000002c0: 1c6e 273c 133a 16bb b54e 8a3b c7ae 3b3c
000002d0: 8783 b33b 8139 39ba 06f3 fc3a ef88 db3b
000002e0: cc82 ec3b 2aab 8f3c b461 293c 0520 7e3d
000002f0: 7973 4e3d 328c 2a3d a276 813c 8fe5 89bb
00000300: cb05 7d3c 52b6 2b3c c650 693c c1f9 333d
00000310: 85e7 9d3b ac9d c23b d2f7 093c d604 a53c
00000320: 82e4 f83b 8289 ce3c 8a9e aebb 257e 2f3d
00000330: 74b3 fd3c f13b b63c a8d5 0bbb f05e d93c
00000340: aa21 643c cce9 f33b 46fe 683c 2c9e ffbb
00000350: cf97 3b3d 5c1a ad3b 846e eebb f57a 2f3c
00000360: 9d07 953b c1c2 9a3b ae5a 9e3c 4fbb c43b
00000370: 2d3a d43c 3fb0 c0ba 24ef 3a3d 4750 b93c
00000380: 0e33 063c fb12 d73b 3e0b e03c bad3 783c
00000390: 1cc8 123c 4419 ee3b 34fc 24bb 870c 553c
000003a0: ccde f1bb 96a5 683c 20c0 553c e028 ae3c
000003b0: edf6 a83c e883 543c a8e3 073c a80a 443b
000003c0: f3e2 473c 3443 b83c b91e 293c 0f31 9c3b
000003d0: 9109 663c 8a64 ac3c e3e2 e13c 11d7 903c
000003e0: 948b 773d a607 03b8 7f4a 6a3b 773f 0f3c
000003f0: a194 903c 0a5a 553c ea6b 4aba 4c9f 7c3d
0.01716237 0.019514639 -0.00035479185 0.007163314 0.010433988 0.0033863613 0.011512931 0.005480343
0.0141920205 0.005063805 0.019738158 0.0146595435 0.018116282 0.009142693 0.023721384 0.03070937
0.007856639 -0.00047350448 -0.0111002885 0.012818732 0.0009123046 -0.009667733 0.0024148624 0.017773535
0.02735678 0.038100056 0.024421217 0.03424229 0.0019909681 0.044459183 0.062026404 0.0065497686
0.013664475 -0.0052743424 0.0058594914 0.0032794762 0.007690968 0.01967225 -0.0015385363 0.021547662
0.0013024063 0.008496173 0.016648808 0.021415379 -0.018657519 0.0068601687 2.4279515e-12 0.01049218
0.030013263 0.019503282 0.011831604 -0.00080206996 -0.01386529 0.021262486 0.0013506601 0.020435812
0.0050481516 0.009636322 -0.0029150196 0.0042676367 0.0017977236 0.017556658 0.017899517 0.025993692
0.006370281 0.0077148126 0.005492732 0.046366677 0.007892952 0.011384808 0.003456739 0.012818924
0.009523492 0.010957648 0.01582761 0.008053559 0.007104474 8.4444536e-14 0.013537456 0.009544809
0.0115355905 0.011367224 0.013727954 0.014497453 0.012333461 0.022518862 0.015123555 0.0047784415
0.018464126 0.01472804 0.0006822526 0.006063454 0.011246322 0.02286205 0.026238158 0.015365496
0.023481619 0.008202941 0.02846211 0.0051878705 0.0038062313 -0.002872038 0.008798558 0.013196412
0.0037089912 0.008966674 0.035021637 0.007229167 0.0013291533 0.005036144 0.027953608 0.02065226
0.037822492 0.0031387454 0.022130031 0.008669851 0.029961986 0.017215816 0.04005424 0.04562289
0.025330452 0.013683741 -0.0017784414 0.004066768 0.013566125 0.02436552 0.0052003497 2.7885877e-12
0.023296436 0.026025083 0.01811602 0.0077007804 0.0010212662 0.014753599 -0.00058404263 0.022711959
0.013645147 0.0042055054 0.026250115 0.021133393 2.8986089e-12 0.022257641 0.010774633 0.017487852
0.021425001 0.0074289353 0.0012905091 0.009086717 0.01882073 0.017663611 0.0068685166 0.023274483
0.0026323914 -0.0010500249 0.004121488 0.011619753 0.0037618107 0.027218167 0.028829623 0.0026171966
0.0024447404 0.0075690625 0.0019215537 0.015024904 0.008259493 0.02419119 0.02396788 0.023434049
-0.0033776849 0.013137635 0.03402115 0.015815064 0.028402118 0.0048468006 0.017785996 0.0036568383
0.010219123 -0.0022922799 0.0042208084 0.011455244 0.0054783258 -0.00070657587 0.0019298501 0.0066996734
0.0072177406 0.017537672 0.010338236 0.062042255 0.050403092 0.041637607 0.015803639 -0.0042082737
0.015443276 0.01048048 0.014240449 0.043939356 0.004818859 0.005939206 0.008420901 0.020143908
0.0075955996 0.025212053 -0.005328958 0.04284491 0.030969359 0.02224538 -0.0021337066 0.026534528
0.013924042 0.0074436422 0.01422078 -0.007800838 0.045799073 0.0052826833 -0.007276358 0.010710468
0.0045480267 0.0047229235 0.019330349 0.0060037742 0.025906647 -0.0014700963 0.04563822 0.022621287
0.008190883 0.006563542 0.02734911 0.015187198 0.008958843 0.0072661955 -0.002517474 0.013003475
-0.007381296 0.014199635 0.013046294 0.021259725 0.020625556 0.012970902 0.008294024 0.0029913578
0.012200105 0.022492982 0.010322266 0.0047665904 0.014040367 0.021044035 0.027574008 0.017680677
0.060435846 -3.1239957e-05 0.003574997 0.008743159 0.017648997 0.013021955 -0.0007721769 0.061675355

linear2.weight f4 [59, 256]
00000000: 0f16 523d 72c9 5b3d 7210 a83d c6e7 033e
00000010: 3586 223d 7899 8d3d 5116 08bf d756 413d
00000020: 27bc c5bc 195b 623d 84c2 743d 8dc3 b73d
00000030: 24ba fdbe 5d3d 0e3d 71cf 5f3d a93a 8e3d
00000040: 3036 533d f23d 13bd c373 0ebf 1b62 683d
00000050: c479 a73d e1a7 a3be bf72 443d fc7d 593d
00000060: d81d 613d 9de5 fcbe c8fd d53d cce2 b5bd
00000070: 23ae e9be fe41 93bd bad8 e9be d511 72be
00000080: 65c2 713d 5731 a5bd 752e 64be 90ba 1e3d
00000090: 7418 ae3d 0116 a63d 93c1 a03c 7cab a4be
000000a0: f4e7 2ebe 24d7 f4be f4b2 9abe f99e 733d
000000b0: f607 6c3d 2aed a03d a983 ffad 9d69 7a3d
000000c0: a75c 073e 2642 ddbe bd38 7e3d f697 993d
000000d0: 0f10 a13d da13 14bf 5fe2 2ebe 3ddf a83a
000000e0: a160 1bbe 141e c1be 6d05 f5be f6f7 e8be
000000f0: dad1 6bbe 8c36 f63c 033f 8f3d 65f2 9e3d
00000100: 586a c33d d648 a73d d6c0 2e3d c7ca 60bd
00000110: 1d6d 613c a226 383d 3b8b 14bd b2fa 933d
00000120: 2ff3 8a3d 588a 04be a66e ccbc 0311 953d
00000130: da56 973d a549 63ab a331 f33d 92bc 9d3d
00000140: 305a 35be 9686 d53c 90a0 8f3d cd21 fcbe
00000150: bd6f 013e ee63 753d 2d2c 9b3d b912 dabe
00000160: e7f9 b3bc 2efd ca3d 3e13 da3c 2237 8fbe
00000170: dca1 6ebc 8333 b0be fb4c 87be 4c95 87bd
00000180: 0e2b 3a3d 90ec 99be 9a6f 003e 9823 71be
00000190: 9d6a 85be 9df0 373d d739 b3be bd4a ecbc
000001a0: d21c 833d 79af debe 708d 833d df3c f0be
000001b0: 6690 013d 6bbb 493d eed7 ba3c 68be 10be
000001c0: beec 9cbd a9a3 cc3d 2ba3 263d c83f 2f3c
000001d0: 2fe9 953d bfd3 253d 89c5 bc3d a78d c83d
000001e0: a45f 9c3d c150 6cbe 841f 893c b9e6 16bd
000001f0: 8768 693d 8eac b63d 3de4 bbbe 52dc 592d
00000200: 560d 7d3d 66cb 8f3d 0ac8 8abe 72c2 d8bd
00000210: 6e45 603b 0813 8b3c 771a 57be 607f 1cbd
00000220: 3ad9 a83d 2dbf 47be b729 03be 2f63 cc3d
00000230: 492b 0a2e 26ea c7be 5364 47bd eb5a 2dbb
00000240: 35d9 a03d 7cff da3d 1e80 cc3c ffd3 cebe
00000250: 4e39 27be 7f90 a63d 2d77 00bf 73d2 80be
00000260: d261 393d a1ed c43d 896a b23d 9fa9 1ebd
00000270: d225 07bf e501 8abe 6d8d ffbe 7c81 c33d
00000280: 384b d83d fa1b 66be 8bea 9f3d dd90 5cbc
00000290: 5330 6b3d 2a51 fc3d 7eef 5bbc 159a 923d
000002a0: c478 bcbe 778b 523d f182 fdbe df52 be3d
000002b0: c049 553c 5967 9fbe 2d7c d5bc e371 5dbe
000002c0: 38ec 6f3d 888e cfbb 9ab7 f93d 1468 32bd
000002d0: 6002 7f3d af0d 193d 2266 0e3d 5f0f b5be
000002e0: c758 4f3d 7d0c 44bd c2e2 9e3d df15 e8be
000002f0: e2e6 ecbd 839c 22bd 381b d63d 3621 953d
00000300: e48e 6fbd e551 ddbd a014 863d aa12 16bd
00000310: fe72 a3bd e634 8fbe 83ad c1bd edaa b0be
00000320: 96f2 1a3d 7dbf 11be ade4 f8be d59e 0dbf
00000330: 763e 49bd 6025 563d cc7e 003d bb60 973d
00000340: e04d 3f3d cb6d 603b 9c0b ac3d 09e2 343e
00000350: ec8c c83d 5aaa d83d c994 303e ddb2 ac3d
00000360: 94b6 28bd 9fd9 923d 2584 8c3d e23c 8fbe
00000370: 2afb 273d 886b 5cbe 6497 c83d baab 8abd
00000380: 0925 823d 7e78 4bbe 599d ab3d 6d99 bc3d
00000390: bb33 ce3d f316 e83c 87de 483d e52c 5e3d
000003a0: 57ae 00bf 6dec 913d c7ee 4e3d 122f 843d
000003b0: 8be7 843d abd4 233d 9699 0a3d 056f 5e3d
000003c0: 219e 433d 3f82 1f3d d6a8 48bd 449f 7e3b
000003d0: 3428 f3be a4a7 90bd f09a ba3d 58c0 d13d
000003e0: ce41 913d 4c76 99be c1bb 603d 8b00 02bf
000003f0: 0588 f6bd 2a10 663d 7d0d 00be 17f4 893d
0.051290568 0.05365891 0.08206262 0.12881383 0.03967877 0.069140375 -0.5315905 0.047201958
-0.02413757 0.05526266 0.059755817 0.08972845 -0.49556077 0.03472649 0.05464119 0.06944782
0.05156535 -0.035947748 -0.5564539 0.056734186 0.08177522 -0.3196402 0.047960993 0.053098664
0.0549601 -0.4939393 0.104487956 -0.08881149 -0.45640668 -0.071903214 -0.45673162 -0.23639615
0.05902328 -0.080660515 -0.22283347 0.03875214 0.08500758 0.08109666 0.019623553 -0.32162082
-0.1708067 -0.4782039 -0.30214655 0.05947778 0.05762478 0.078577355 -2.9048612e-11 0.061135877
0.13218938 -0.4321453 0.06206583 0.074996874 0.07864391 -0.5784279 -0.17078541 0.0012883913
-0.1517358 -0.3771826 -0.47855702 -0.4550168 -0.23029271 0.030055307 0.069944404 0.07761077
0.09541768 0.08168189 0.04266437 -0.054880884 0.013758925 0.044958718 -0.036265593 0.07225551
0.06784665 -0.12943399 -0.024955105 0.07278635 0.073896125 -8.0748803e-13 0.11874702 0.077019826
-0.17710185 0.026065152 0.07013047 -0.49244538 0.12640281 0.059909754 0.07576785 -0.4259241
-0.021969749 0.099115714 0.026620504 -0.2797175 -0.0145649575 -0.344143 -0.2642592 -0.06620273
0.045451216 -0.30063295 0.12542573 -0.23548734 -0.26057902 0.0449072 -0.35005066 -0.028844232
0.064019814 -0.4349325 0.064234614 -0.4692144 0.03163185 0.049251 0.022808041 -0.14135134
-0.076623425 0.09992153 0.040682953 0.010696359 0.07319867 0.04048514 0.09217364 0.09792643
0.076354295 -0.2307768 0.01673866 -0.036841128 0.05698445 0.08919631 -0.3669757 1.2383943e-11
0.061780296 0.07021217 -0.27105743 -0.105839625 0.003422107 0.016976848 -0.2100619 -0.03820741
0.08244558 -0.19506522 -0.12808882 0.09979855 3.1416012e-11 -0.3904583 -0.04867966 -0.0026451896
0.07853929 0.10693261 0.024963435 -0.40396115 -0.16330454 0.08133029 -0.5018185 -0.2516056
0.045259304 0.096156366 0.08711726 -0.038735982 -0.52792084 -0.2695457 -0.49912587 0.095461816
0.10561222 -0.2247161 0.078084074 -0.0134622725 0.057419132 0.12320168 -0.013423799 0.07158295
-0.36810887 0.051402535 -0.49513963 0.0929315 0.013018072 -0.31133536 -0.026060188 -0.21625476
0.058574885 -0.0063341297 0.12193222 -0.043556288 0.062258124 0.037366565 0.03476537 -0.3536329
0.050621774 -0.047863472 0.07758094 -0.45329186 -0.11567475 -0.039700042 0.1045441 0.07281725
-0.05848588 -0.10806636 0.06546903 -0.036638893 -0.079809174 -0.27970046 -0.09456923 -0.34505406
0.037829004 -0.14233203 -0.48611966 -0.55320483 -0.049131833 0.052281737 0.031370923 0.07391497
0.046705127 0.003424513 0.08400652 0.1766435 0.09792504 0.10579367 0.17244257 0.08432553
-0.041189745 0.07170414 0.06861142 -0.27976137 0.041011013 -0.21525395 0.097945005 -0.067710355
0.0635472 -0.19870183 0.08379621 0.09208951 0.100684606 0.028331256 0.049040344 0.054242034
-0.5026602 0.07125173 0.050520685 0.064542904 0.06489476 0.039997738 0.033837877 0.054305095
0.047758225 0.03894257 -0.04898914 0.0038852254 -0.4749161 -0.07063225 0.09111583 0.10241765
0.070926294 -0.29973066 0.054866556 -0.5078208 -0.120376624 0.05616776 -0.12505145 0.067360096

linear2.bias f4 [59]
00000000: 0ea9 86bc adfc a1bc 5bed 5cbc 3891 54bc
00000010: da8c 48bc 2efd a4bc d203 9fbc 7eb6 9fbc
00000020: 95ea 69bc 1f2a 4dbc 6d1a 81bc c400 9ebc
00000030: 72c3 72bc b65d 96bc f274 55bc 9dd1 1ebc
00000040: f291 96bc 70ea 55bc f2ca a2bc 5225 8cbc
00000050: 2436 41bc a94f 23bc 2c38 aebc a52d 84bc
00000060: 75d7 48bc 125c 9abc 6619 89bc c9e0 2cbc
00000070: c962 9fbc cd29 80bc 5ec5 8fbc 56de 92bc
00000080: 50b5 26bc 8b8b 9dbc 4538 9fbc 858f 9fbc
00000090: 6ef1 55bc e14c 8dbc 50f6 80bc 82fe 29bc
000000a0: 67dd 87bc f3bb a2bc 043c 89bc 7333 9bbc
000000b0: a8cb 62bc a07c 87bc e0ed 8fbc 9bdc 88bc
000000c0: 7f8a bbbc 70a5 7abc 963e 1abc 5323 abbc
000000d0: ffb6 4dbc 74e1 a0bc 75c7 89bc 39a6 53bc
000000e0: fa8e 4bbc 66e3 86bc 0825 94bc
-0.016438033 -0.019773806 -0.013484324 -0.012974076 -0.012240613 -0.020140257 -0.019411001 -0.019496199
-0.01427712 -0.0125222495 -0.015759671 -0.019287474 -0.014817106 -0.018355232 -0.01302837 -0.00969353
-0.018380139 -0.013056383 -0.019872162 -0.01710764 -0.011792693 -0.009967723 -0.02126702 -0.016135046
-0.0122584 -0.01884273 -0.016735744 -0.01055164 -0.019456284 -0.015644932 -0.017550167 -0.017928284
-0.010175064 -0.019231578 -0.019436011 -0.019477615 -0.01305805 -0.017248573 -0.015742451 -0.010375621
-0.016585065 -0.019865012 -0.01675225 -0.018945431 -0.013842501 -0.016538918 -0.017569482 -0.016706755
-0.022893189 -0.015298232 -0.009414336 -0.020890867 -0.012555837 -0.019638754 -0.016818741 -0.012918049
-0.012424225 -0.016465854 -0.018084064
