intermediary/model_17650.pth (torch, 356400 bytes, 5 tensors)

embed.weight f4 [59, 128]
0	0xbeb0bb50	-0.34517908
1	0x3e618a22	0.2202535
2	0xbeab88f7	-0.33502933
3	0xbead90cb	-0.3389953
4	0x3eb93234	0.36171114
5	0x3ec8738f	0.39150664
6	0xbdbc77a1	-0.09202505
7	0xbee4287e	-0.44562143
8	0x3edaab1c	0.4270867
9	0x3ea9332f	0.33046862
10	0xbe80199f	-0.25019547
11	0xbec6b535	-0.38810125
12	0x3bcf5254	0.006326953
13	0xbe6bc0ff	-0.23022841
14	0xbeb01520	-0.34391117
15	0x3ebbbef1	0.36669114
16	0xbe3c5867	-0.18393098
17	0xbededc63	-0.43527517
18	0xbeb3d5fa	-0.3512419
19	0x3ec7ff79	0.39062098
20	0x3ece41bc	0.40284526
21	0x3e802855	0.2503077
22	0x3e5d7114	0.21625167
23	0x3de97df1	0.114009745
24	0x3ea9cedd	0.33165637
25	0x3ed444e4	0.4145881
26	0xbeb23535	-0.3480622
27	0x3e59efb0	0.2128284
28	0x3c08aa5b	0.008341397
29	0x3ed0cb91	0.4078031
30	0x3ed364fc	0.41287982
31	0xbe122dca	-0.1427528
32	0xbed887bb	-0.42291054
33	0xbec4f018	-0.38464427
34	0xbe97a50b	-0.29618105
35	0xbe85fff8	-0.2617185
36	0x3ea5fc4b	0.32419047
37	0x3efa2e66	0.48863524
38	0x3e41b724	0.18917519
39	0xbd96bd9f	-0.07360386
40	0xbdb8d71d	-0.090254046
41	0xbea3b86a	-0.31976634
42	0x3ee0892f	0.43854663
43	0x3e8d2413	0.27566585
44	0x3ec78201	0.38966373
45	0x3d9d22e0	0.076726675
46	0x3ed7767e	0.4208259
47	0x3ef64128	0.48096585
48	0xbebae600	-0.365036
49	0xbe915c67	-0.2839081
50	0x3ef9f7ea	0.48821956
51	0x3ec4e026	0.38452262
52	0xbead1b86	-0.3381006
53	0xbec72013	-0.38891658
54	0x3ea91724	0.33025467
55	0x3e93ee6e	0.28892845
56	0xbec13782	-0.37737662
57	0x3e443126	0.19159374
58	0xbe829119	-0.25501326
59	0x3eb874cb	0.36026606
60	0xbea1356c	-0.3148607
61	0x3ebc8dd0	0.36826944
62	0xbee04e99	-0.43809965
63	0xbec33dd8	-0.3813312
64	0xbeaae269	-0.33375862
65	0x3e839801	0.25701907
66	0xbe3e7923	-0.18600897
67	0x3eb188b6	0.34674615
68	0x3ebb0823	0.36529645
69	0xbee71108	-0.4513018
70	0xbe5b4e3e	-0.21416566
71	0xbecf9f50	-0.40551233
72	0xbed7b5b1	-0.42130807
73	0xbed715be	-0.42008775
74	0x3e61afcd	0.22039719
75	0xbe949218	-0.2901771
76	0x3ef18b2b	0.4717649
77	0x3ea7538c	0.3268093
78	0x3e69204a	0.22766224
79	0x3ed6a45a	0.41922265
80	0x3ea9ef1f	0.33190247
81	0xbea9849b	-0.33108982
82	0xbe7662b4	-0.2406109
83	0xbef830b2	-0.48474652
84	0x3ed0b1e2	0.40760714
85	0xbea8c3e8	-0.32961965
86	0x3aa9b903	0.0012948815
87	0xbec0f22f	-0.3768477
88	0xbedf851f	-0.4365625
89	0x3ec6f3a9	0.38857773
90	0x3ea45ea5	0.32103458
91	0xbebe02d1	-0.37111524
92	0x3ec80928	0.39069486
93	0xbef2a79e	-0.47393507
94	0xbeb7fbfa	-0.3593443
95	0x3eb109e9	0.34577873
96	0x3e883fd0	0.26611185
97	0x3ee467ad	0.44610348
98	0xbe91e33b	-0.28493676
99	0x3ea4ae07	0.32164022
100	0x3e7183f3	0.23585491
101	0xbee30a3d	-0.4434375
102	0xbe916ad9	-0.2840183
103	0x3e565dce	0.20934221
104	0x3edde58c	0.43339193
105	0xbecd241e	-0.40066618
106	0x3ee02ba3	0.43783292
107	0x3ee2f09d	0.44324198
108	0x3e915813	0.28387508
109	0xbe994cf1	-0.29941514
110	0xbed97adc	-0.42476547
111	0xbe8059ec	-0.25068605
112	0x3eaf6b1c	0.34261405
113	0xbe685145	-0.22687252
114	0xbede1e74	-0.4338261
115	0xbed7cb30	-0.42147207
116	0x3eb9aa81	0.36262897
117	0xbed06e46	-0.40709132
118	0x3e04524f	0.12922023
119	0xbe94efa0	-0.2908907
120	0x3ede2cbc	0.43393505
121	0xbeac55ee	-0.3365931
122	0x3eb612ca	0.3556121
123	0x3eb24342	0.3481694
124	0xbed63f2c	-0.4184507
125	0x3e875e8c	0.2643932
126	0x3ededa59	0.4352596
127	0x3ef5b121	0.479867
128	0x3e3d9156	0.18512473
129	0x3ea96c2c	0.3309034
130	0xbdff7540	-0.124735355
131	0xbeeacf7a	-0.45861417
132	0xbebd14fc	-0.36930072
133	0xbe4c32d3	-0.19941263
134	0xbdfdba90	-0.123890996
135	0xbed36721	-0.4128962
136	0xbe326664	-0.17421871
137	0x3ee25abd	0.44209853
138	0xbec6f24b	-0.3885673
139	0x3e62e1e4	0.22156483
140	0x3ee12b2b	0.43978247
141	0x3f00273d	0.5005987
142	0xbea1c2e7	-0.3159401
143	0x3bd0a647	0.006367478
144	0x3e717d59	0.23582973
145	0x3d417af6	0.047236405
146	0x3ec52eba	0.38512212
147	0xbec515ef	-0.38493297
148	0x3ec6ad91	0.38804296
149	0xbec1a015	-0.37817445
150	0xbed5fc32	-0.41793972
151	0xbeabc384	-0.33547604
152	0xbe5d190f	-0.2159159
153	0xbde810ce	-0.1133133
154	0x3e99113a	0.29895955
155	0xbeee0027	-0.4648449
156	0xbeebbeee	-0.46044105
157	0xbe4d9e35	-0.20079882
158	0xbe6babfe	-0.23014829
159	0x3ec1ecff	0.37876126
160	0x3eb960c8	0.3620665
161	0xbee9d0c5	-0.4566709
162	0x3efa46ed	0.48882237
163	0x3ed2a838	0.41143966
164	0xbecb4185	-0.39698425
165	0xbeb17c97	-0.34665367
166	0xbedf0eaa	-0.43565875
167	0x3ec3cbeb	0.38241515
168	0x3ee90682	0.45512778
169	0x3ef4453c	0.47709072
170	0xbecbaa00	-0.39778137
171	0x3ecd7ba7	0.40133402
172	0xbe890427	-0.2676098
173	0xbed69a42	-0.41914564
174	0x3f0175ea	0.5057055
175	0x3eb94ce8	0.36191487
176	0xbdf18738	-0.11793369
177	0xbee4144c	-0.44546735
178	0x3ed10a66	0.40828246
179	0x3ec68197	0.38770744
180	0xbed48968	-0.41511083
181	0x3e6753a9	0.22590508
182	0xbe8ee420	-0.2790842
183	0x3e9cb9a2	0.30610377
184	0xbeafda50	-0.34346247
185	0xbda9ec9f	-0.08297085
186	0x3edd66bf	0.43242452
187	0x3dd01579	0.101603456
188	0x3ec2447c	0.37942874
189	0xbea27e35	-0.31736913
190	0xbed45947	-0.41474363
191	0xbea24d54	-0.31699622
192	0xbdd05c07	-0.10173803
193	0x3e9d3466	0.3070404
194	0x3ee049a9	0.43806198
195	0x3ee5d45a	0.44888574
196	0xbecb5cfc	-0.3971938
197	0xbed62e44	-0.41832173
198	0x3ee568b9	0.4480646
199	0x3ec504d8	0.38480258
200	0x3ec4c7bf	0.38433644
201	0x3dd18822	0.102310434
202	0xbeced732	-0.40398556
203	0xbec38174	-0.38184702
204	0xbe619aff	-0.22031783
205	0x3e8deede	0.27721304
206	0xbea07489	-0.3133891
207	0x3e118180	0.14209557
208	0xbf000f41	-0.50023276
209	0xbea060fc	-0.31323993
210	0x3d4a180a	0.04933933
211	0xbed7ead9	-0.42171362
212	0xbec45311	-0.38344625
213	0xbe87d27d	-0.26527777
214	0xbeb05382	-0.3443871
215	0xbec83ff7	-0.391113
216	0x3ebaa81b	0.3645638
217	0xbed3235a	-0.4123791
218	0xbedee5ff	-0.43534848
219	0xbdfdf002	-0.123992935
220	0x3e6ea7ca	0.23306194
221	0xbee55857	-0.4479396
222	0x3ebc2f63	0.36754903
223	0x3e7a6877	0.24453913
224	0xbdd65ba7	-0.104667
225	0xbe66fc04	-0.22557074
226	0x3e6bc0c3	0.23022752
227	0xbe889136	-0.26673287
228	0xbec0e521	-0.3767481
229	0x3e83d66c	0.25749528
230	0xbe3f9396	-0.18708643
231	0xbec3bf5d	-0.38231936
232	0xbe716ebe	-0.23577401
233	0x3ebb24eb	0.36551604
234	0x3eed2487	0.4631693
235	0x3e91b3bb	0.28457436
236	0xbed743eb	-0.42044005
237	0x3e964f24	0.29357255
238	0x3eb0e04d	0.34546128
239	0xbef37648	-0.4755118
240	0xbed3b0ea	-0.41345912
241	0x3edd195d	0.43183413
242	0x3e5fb8c0	0.2184782
243	0x3ed12b1d	0.40853205
244	0xbed1b980	-0.40961838
245	0xbe506021	-0.2034917
246	0x3eadba1f	0.33931062
247	0xbeb6b81c	-0.3568734
248	0xbe8f9de3	-0.28050146
249	0x3ed100eb	0.40821013
250	0x3ee91b76	0.45528764
251	0xbe6fb879	-0.23410214
252	0xbe843e77	-0.25828907
253	0xbeb2f11c	-0.34949577
254	0x3ed95da8	0.42454267
255	0xbec1a767	-0.3782303

linear1.weight f4 [256, 256]
0	0xbe064657	-0.1311277
1	0xbe123440	-0.14277744
2	0x3e2371f9	0.15961446
3	0x3e043dd5	0.12914212
4	0xbe0f2efd	-0.13982768
5	0x3d5e3b8f	0.05425602
6	0x3e2dd7c8	0.16976845
7	0x3bdf63a2	0.006817297
8	0xbe58b113	-0.21161298
9	0xbd2919a6	-0.041284226
10	0x3e344d2f	0.17607568
11	0xbe1d8413	-0.15382414
12	0x3c53f42d	0.012936634
13	0x3bc3ee32	0.005979323
14	0xbe1f3cd9	-0.15550555
15	0x3e322172	0.17395571
16	0x3d8df1d3	0.0693089
17	0x3e15d100	0.14630508
18	0x3e570328	0.20997298
19	0x3de8467e	0.1134157
20	0xbda52ae8	-0.08064824
21	0x3dc529b6	0.09627096
22	0x3cf63423	0.030054158
23	0x3e0669e7	0.13126336
24	0xbcc3f7d2	-0.02392188
25	0xbe42b4aa	-0.1901423
26	0xbe34e757	-0.17666374
27	0xbdac919d	-0.08426211
28	0x3deaa356	0.11456935
29	0x3aac113d	0.0013127696
30	0xbdd25600	-0.102703094
31	0xbbb0ca3f	-0.0053952034
32	0xbcdb0d08	-0.026739612
33	0xbce03a23	-0.027371472
34	0x3b82fd26	0.003997463
35	0x3e41dd25	0.18932016
36	0x3db49e3f	0.088192455
37	0xbdf84db5	-0.121241964
38	0x3e5a7430	0.21333385
39	0xbd61fc64	-0.05517234
40	0x3ac636ff	0.0015122591
41	0x3c94fc66	0.01818676
42	0xbe1ce6bb	-0.15322392
43	0xbc7c622a	-0.0154042635
44	0xbe1456e3	-0.1448627
45	0xbe11ae7f	-0.14226721
46	0xbdf2e2e2	-0.11859681
47	0x3cfc6744	0.03081096
48	0xbe329697	-0.17440258
49	0xbdab4071	-0.083619006
50	0xbd316829	-0.043312225
51	0xbe38e0d0	-0.18054509
52	0x3d542717	0.05179509
53	0xbe130253	-0.14356355
54	0xbe27bde3	-0.1638103
55	0xbcb07742	-0.021541242
56	0x3d54d629	0.05196205
57	0x3b75e625	0.003752121
58	0x3e045ce9	0.12926067
59	0x3d89827e	0.067143425
60	0x3e27bc85	0.16380508
61	0xbd3829c5	-0.04496171
62	0x3e1e4ea9	0.15459694
63	0x3da0a96b	0.07844814
64	0x3e2a6259	0.16639079
65	0xbdef1733	-0.11674347
66	0xbe27be66	-0.16381225
67	0xbe594b47	-0.21220122
68	0xbd4933e6	-0.04912176
69	0xbd5158a6	-0.051109932
70	0xbc22db9e	-0.009940056
71	0xbdae9bdd	-0.08525822
72	0xbdef7c6b	-0.11693653
73	0xbe30a180	-0.17249107
74	0x3e1e2dde	0.15447184
75	0x3e486574	0.19569951
76	0xbe4b61d8	-0.19861543
77	0xbd408a02	-0.047006615
78	0xbcd23e65	-0.025664518
79	0x3e0c4a58	0.13700235
80	0xbe02e5d5	-0.12782986
81	0x3e1510dd	0.14557214
82	0x3e37139f	0.17878579
83	0x3e3d85ee	0.18508121
84	0xbd722c98	-0.05912456
85	0x3d803896	0.06260793
86	0x3d4d2de3	0.05009259
87	0x3dbf999d	0.09355471
88	0x3e069de8	0.13146174
89	0xbe1c2200	-0.15247345
90	0xbe2af5db	-0.16695349
91	0x3e359aef	0.17734884
92	0x3d7879a1	0.06066287
93	0x3db5594d	0.088549234
94	0xbd53bc45	-0.05169322
95	0x3cb6158f	0.022227077
96	0x3c9fa233	0.019486522
97	0xbd208443	-0.039188635
98	0xbc4c6761	-0.012475819
99	0x3d589719	0.052878473
100	0xbe200091	-0.15625216
101	0x3d116c85	0.035503883
102	0x3d4483c0	0.04797721
103	0xbe20e5ef	-0.15712713
104	0xbdc96082	-0.098328605
105	0x3caf1c35	0.021375755
106	0xbd4c51ef	-0.049882825
107	0xbd28f50c	-0.04124932
108	0xbe5299ec	-0.20566529
109	0xbe629dc3	-0.22130494
110	0x3d0eb31a	0.034838773
111	0x3e0e9b85	0.13926513
112	0xbe5e9a83	-0.21738629
113	0xbda6e238	-0.081486166
114	0x3e1912c9	0.14948572
115	0xbdba6f9b	-0.09103318
116	0x3e531449	0.20613207
117	0x3e5b2cac	0.2140376
118	0xbc9a2033	-0.018814182
119	0x3d074c78	0.03303191
120	0x3da03c3b	0.07823988
121	0x3df3ca1c	0.11903784
122	0xbe42368e	-0.18966123
123	0xbd2f585c	-0.042808875
124	0xbe0bd8e9	-0.13656963
125	0xbd869092	-0.06570543
126	0xbd166f16	-0.036727034
127	0xbdf2983c	-0.11845443
128	0xbc051ed2	-0.008125024
129	0x3bca373a	0.0061711343
130	0xbdd3d664	-0.10343626
131	0xbe2ecbce	-0.17069933
132	0x3e37ee3c	0.17961973
133	0xbe33328d	-0.17499752
134	0xbe0af07b	-0.13568299
135	0xbcad0e91	-0.02112511
136	0x3db4a95e	0.08821367
137	0x3e18ab52	0.14909104
138	0xbe18d8b1	-0.14926411
139	0xbda918b0	-0.08256662
140	0xbe6448d6	-0.2229341
141	0xbe5d2a69	-0.2159821
142	0x3e1922ef	0.14954732
143	0x3bb496bf	0.0055111344
144	0xbe62cb91	-0.22147967
145	0xbdc96285	-0.09833244
146	0xbd650674	-0.055914357
147	0x3db753c5	0.08951525
148	0xbe422838	-0.18960655
149	0xbce6876a	-0.028140742
150	0x3e213ede	0.15746638
151	0x3d3f8012	0.046752997
152	0xbe3703b1	-0.17872502
153	0x3dd7e9e7	0.1054266
154	0xbc503a54	-0.012709219
155	0x3de6cd73	0.11269655
156	0xbe1c7357	-0.15278374
157	0xbe3ea5de	-0.18617961
158	0xbc6d7ebe	-0.01449555
159	0x3e5e06ae	0.21682236
160	0xbe51cec3	-0.2048903
161	0x3e5688e0	0.20950651
162	0xbdf5bc8a	-0.119988516
163	0xbbe964f9	-0.0071226326
164	0xbd79d6cd	-0.060995866
165	0x3e01561b	0.12630503
166	0xbd4788c0	-0.0487144
167	0x3e5889ec	0.21146363
168	0xbe5f0ac3	-0.21781449
169	0xbdc08569	-0.09400446
170	0x3da0a70a	0.0784436
171	0xbe25b2e1	-0.16181518
172	0x3e0a8c4c	0.13530082
173	0xbcc39e44	-0.023879178
174	0xbe27313f	-0.1632738
175	0xbdd8ecaa	-0.10592015
176	0x3e20309b	0.15643542
177	0xbcd36ac2	-0.025807742
178	0xbe394f4e	-0.18096659
179	0x3e0243f6	0.12721238
180	0xbe10c19c	-0.14136356
181	0xbdbdbcbd	-0.092645146
182	0x3cd4734d	0.025933886
183	0xbd31ad4d	-0.043378163
184	0x3df20e5e	0.118191466
185	0xbe1b29b2	-0.15152624
186	0xbe4e63a3	-0.20155196
187	0xbdabe1a4	-0.08392647
188	0x3c86ca76	0.016453963
189	0xbe0ddea7	-0.13854466
190	0x3d57bb46	0.052668832
191	0x3e3b6719	0.18301047
192	0x3d1f5199	0.038896177
193	0x3d58d417	0.05293664
194	0xbdc75471	-0.09732903
195	0xbc87c434	-0.01657305
196	0xbde8a6a8	-0.11359912
197	0x3dbebf39	0.093138166
198	0x3d0ea1ec	0.03482239
199	0xbddd7b83	-0.108145736
200	0xbe08315e	-0.13300082
201	0x3e1873bf	0.14887904
202	0xbe18a433	-0.14906387
203	0x3ca73552	0.020411167
204	0xbd587e0f	-0.052854594
205	0xbe49880f	-0.19680808
206	0xbe114960	-0.14188147
207	0xbe475303	-0.1946526
208	0x3e2d2918	0.16910207
209	0xbd108d27	-0.035290863
210	0xbd3c1527	-0.04591861
211	0x3d9c2765	0.076247014
212	0x3e6409fd	0.22269435
213	0xbb948573	-0.00453251
214	0x3e3ab743	0.18233971
215	0x3dbc72ac	0.092015594
216	0xbe080f26	-0.13287029
217	0xbcfa6bb8	-0.030568942
218	0x3d674581	0.05646277
219	0x3bc42918	0.005986344
220	0xbe5393a8	-0.20661795
221	0xbc88bd83	-0.016691929
222	0xbddd8860	-0.10817027
223	0x3d9220f4	0.071351916
224	0x3cf7e53e	0.030260678
225	0xbd36266d	-0.04447024
226	0x3dca0aba	0.09865327
227	0xbdd0035a	-0.10156889
228	0xbe0b8110	-0.13623452
229	0xbdc6577f	-0.09684657
230	0xbb08ea5d	-0.0020891645
231	0xbd8fb1fc	-0.0701637
232	0xbd3382f7	-0.04382607
233	0xbe3e8e2c	-0.18608922
234	0x3c85a855	0.016315619
235	0xbe0b51cb	-0.1360542
236	0x3d207736	0.03917619
237	0x3d6b0948	0.0573819
238	0xbe2adf4e	-0.16686746
239	0x3d29e532	0.041478343
240	0x3d3b2a6c	0.045694754
241	0xbda26473	-0.079293154
242	0x3de1a98c	0.110186666
243	0xbdd66dcc	-0.10470161
244	0x3cef586d	0.02921697
245	0x3bf23210	0.007391222
246	0xbe5d4040	-0.2160654
247	0x3d18b307	0.03728011
248	0xbd1327c8	-0.03592661
249	0xbe3cc182	-0.18433192
250	0x3c8ffe06	0.017577183
251	0xbe020a04	-0.12699133
252	0xbb908a57	-0.0044110226
253	0xbe28c7e0	-0.16482496
254	0x3d014fa3	0.031570088
255	0x3db6646e	0.08905874

linear1.bias f4 [256]
0	0x3c965af9	0.018353926
1	0x3cbf2664	0.023333736
2	0x3b73c9c6	0.0037199124
3	0x3b6f5227	0.0036517472
4	0x3c2c8fe3	0.010532352
5	0xb8b97ad3	-8.844365e-05
6	0x3c08dfb8	0.00835412
7	0x3ca036b3	0.019557333
8	0x3c4bc326	0.012436664
9	0x3b832f24	0.0040034223
10	0x3c82dd15	0.01597456
11	0x3c5ed0aa	0.013599554
12	0x3c88e3bc	0.016710155
13	0x3c24cfc7	0.010059304
14	0x3cb89454	0.022531666
15	0x3c5a3dbb	0.013320382
16	0x3c171dda	0.009223426
17	0x3a124e6b	0.0005581143
18	0x3b617c50	0.0034406371
19	0xbc63d426	-0.013905561
20	0x3bc836a1	0.006110028
21	0xbbb74267	-0.0055926326
22	0x3b2d7832	0.0026469347
23	0x3ad729ff	0.0016415714
24	0x3ceb2ae4	0.028706975
25	0x3d1a65ee	0.037694864
26	0x3ca0bc86	0.019621145
27	0x3d0e5a11	0.034753863
28	0x3adfd60a	0.0017077338
29	0x3cac4f11	0.021033796
30	0x3d674633	0.05646343
31	0x3b9a1ddb	0.004703266
32	0x3c870280	0.016480684
33	0xbae8ca1e	-0.0017760431
34	0x3bbf28dd	0.0058337287
35	0x3b9ab058	0.004720729
36	0x3b13ec64	0.002257132
37	0x3c954eb0	0.018225998
38	0xba86af36	-0.0010275606
39	0xba9af1cb	-0.0011821327
40	0x3b46bad3	0.0030323758
41	0x3bf6543c	0.0075173657
42	0x3c4be147	0.012443847
43	0x3cbc8271	0.023011418
44	0xbc7ed80f	-0.015554442
45	0x3b8fe44f	0.00439123
46	0x25fe8602	4.4152784e-16
47	0x3c1e085d	0.009645549
48	0x3d00ec0f	0.031475123
49	0x3b8fe63e	0.0043914607
50	0x3c16d2f2	0.009205567
51	0x3a12c7ae	0.00055992126
52	0xbc98e1e3	-0.018662399
53	0x3cb2c0b6	0.021820407
54	0x3b535743	0.0032248057
55	0xbbd2d70a	-0.006434326
56	0x3bbbb055	0.0057278075
57	0x3c170ec6	0.009219831
58	0x3aff0dcc	0.0019459068
59	0x39d35e27	0.00040315205
60	0x3b170db3	0.0023048937
61	0x3c92dc80	0.017927408
62	0x3c9471c7	0.01812066
63	0x3ce15e41	0.027510764
64	0x3bdc9ff7	0.0067329365
65	0x3bee64cc	0.0072751995
66	0x3b8b493c	0.0042506736
67	0x3d3da2c3	0.0462978
68	0x3c16b6bd	0.009198842
69	0x3bdb39aa	0.0066902237
70	0x3b2b1b79	0.0026108904
71	0x3c5094c3	0.01273078
72	0x3bfccef8	0.0077151023
73	0x3c501586	0.012700444
74	0x3c515555	0.012776692
75	0x3c3f3aa9	0.0116717005
76	0x3be77a89	0.007064168
77	0x2363881a	1.2334515e-17
78	0x3c6be68e	0.01439823
79	0x3c0e579e	0.008687882
80	0x3c930460	0.017946422
81	0x3c896d97	0.01677589
82	0x3c724f9b	0.014789487
83	0x3c26941f	0.010167151
84	0x3c50145f	0.012700169
85	0x3ce1f17a	0.027580965
86	0x3c48dc3a	0.012259537
87	0x3b86dc45	0.0041156136
88	0x3cbb0b57	0.022832556
89	0x3c4209bb	0.01184314
90	0x3ad568ea	0.0016281877
91	0x3bd84120	0.0065995604
92	0x3c49070e	0.012269748
93	0x3cd22228	0.025651053
94	0x3ca4a8a1	0.02009994
95	0x3c72d414	0.014821071
96	0x3cb338f5	0.021877745
97	0x3c1c6aee	0.009546978
98	0x3ca879bd	0.020565862
99	0x3b9282bb	0.0044711507
100	0x3aca89c9	0.001545244
101	0x3b2a99e4	0.0026031667
102	0x3c32676f	0.010888918
103	0x3c7c2062	0.01538858
104	0x3b9ebd9a	0.0048443796
105	0x3b6d3046	0.0036192103
106	0x3d1a48d7	0.03766712
107	0x3c49a0be	0.01230639
108	0x3b20b3d7	0.0024521255
109	0x3ba25c5b	0.0049548573
110	0x3cf2d59a	0.029642869
111	0x3cfb0d7a	0.030646075
112	0x3cf2ffb2	0.02966294
113	0x3b8dadc8	0.004323695
114	0x3d03b29c	0.032152757
115	0x3c277755	0.010221322
116	0x3ce7ad1c	0.028280787
117	0x3c9cb6f8	0.019130215
118	0x3d1f2104	0.038849846
119	0x3d404a2f	0.046945747
120	0x3cc45f19	0.023971127
121	0x3c5b9544	0.013402287
122	0x3bfca393	0.0077099293
123	0x3b4d4600	0.003132224
124	0x3c43b7c7	0.011945671
125	0x3cd55fa6	0.026046585
126	0x3bc52f7b	0.006017623
127	0x27091924	1.9026198e-15
128	0x3ccb9aa8	0.02485402
129	0x3cfa8c51	0.030584486
130	0x3cc3f7f2	0.02392194
131	0x3be75698	0.0070598833
132	0xba80f77f	-0.0009839385
133	0x3c334c55	0.010943492
134	0x3a1d8289	0.0006008526
135	0x3d14d3a4	0.03633465
136	0x3c679496	0.014134547
137	0x3c346156	0.011009535
138	0x3d0dabff	0.034587856
139	0x3cb36c4e	0.02190223
140	0x26b3b1e7	1.2468841e-15
141	0x3cae69ed	0.021290744
142	0x3c2a003b	0.0103760315
143	0x3c827bd9	0.015928196
144	0x3ca87354	0.020562805
145	0x3bf27e0f	0.0074002813
146	0x3b935f2c	0.0044974294
147	0x3c0d8250	0.008637026
148	0x3c90f81f	0.017696438
149	0x3c722d42	0.014781298
150	0x3bfd0c6a	0.007722427
151	0x3cce5add	0.025189811
152	0x3bba8de5	0.0056931847
153	0xbafff26f	-0.0019527207
154	0x3b956f70	0.0045604035
155	0x3c8b736d	0.017022813
156	0x3b174e87	0.0023087577
157	0x3cda107f	0.026619194
158	0x3d3b36bf	0.045706507
159	0x3c398c13	0.0113249
160	0x3bbd9503	0.005785586
161	0x3bac503d	0.0052585886
162	0xbb04fdad	-0.0020292804
163	0x3c80df6b	0.015731534
164	0x3bd1d3fb	0.006403444
165	0x3c83bf6a	0.016082484
166	0x3cadd38c	0.021219037
167	0x3cb80fb1	0.02246842
168	0xbb7bce37	-0.0038422474
169	0x3c6572f4	0.014004458
170	0x3cf3c639	0.029757606
171	0x3c956740	0.01823771
172	0x3cf0330d	0.029321218
173	0x3ba880e7	0.0051423195
174	0x3c858e8a	0.01630332
175	0x3b848b5a	0.0040449323
176	0x3b6c16c2	0.0036024307
177	0xbb52b943	-0.0032153882
178	0x3c23bb64	0.009993408
179	0x3c65f858	0.014036261
180	0x3bd013e5	0.006350028
181	0xbb436925	-0.002981731
182	0x3be83509	0.0070864004
183	0x3c98441b	0.018587163
184	0x3bbac590	0.005699821
185	0x3c94452c	0.01809939
186	0x3c1b1751	0.009466008
187	0x3d779314	0.060443
188	0x3d6172d1	0.055041138
189	0x3d2dc9a0	0.042428613
190	0x3c6fe5d2	0.014642196
191	0x39470952	0.00018981591
192	0xb9ce4fba	-0.00039350783
193	0x3c29f2db	0.010372843
194	0x3c012958	0.007883392
195	0x3d3820e9	0.04495326
196	0x3bfa73cc	0.0076431986
197	0x3bdc1454	0.0067162905
198	0x3bd0ba29	0.0063698483
199	0x3c96cea3	0.018409079
200	0x3bd62f32	0.006536388
201	0x3c8269a5	0.015919516
202	0xba50463a	-0.0007945035
203	0x3d1cc752	0.038276024
204	0x3c970d57	0.018438978
205	0x3ced3b17	0.02895884
206	0xba3f8505	-0.0007305893
207	0x3cebcc8c	0.028784059
208	0x3c8b64f2	0.017015908
209	0x3c032d3f	0.008006393
210	0x3c53d42f	0.0129290065
211	0xbb4fb1f6	-0.0031691766
212	0x3d40a848	0.047035486
213	0x3c482b5e	0.012217371
214	0xbc01cc5b	-0.007922257
215	0x3bee9457	0.007280867
216	0x3bb12fe9	0.0054073227
217	0x3bcf6dd0	0.0063302293
218	0x3c8a306d	0.016868794
219	0x3bd2fc7e	0.006438791
220	0x3cdecce2	0.027197305
221	0xb95a9342	-0.00020844958
222	0x3d408331	0.047000114
223	0x3bba6898	0.005688738
224	0x3c3baa9f	0.011454253
225	0x3c19e677	0.009393326
226	0x3d232b9c	0.03983651
227	0x3c670c61	0.014102072
228	0x3c054eb7	0.008136443
229	0x3c2c3189	0.010509857
230	0xb9372311	-0.00017465303
231	0x3bc7810f	0.006088383
232	0x3b9624eb	0.0045820377
233	0x3c60911b	0.013706471
234	0x3c68f39c	0.014218237
235	0x3cb168de	0.02165645
236	0x3cae0fe9	0.02124782
237	0x3c4f9aa2	0.012671145
238	0x3c0a4756	0.008439859
239	0x3b8c3b51	0.004279532
240	0x3c57d317	0.013172886
241	0x3c9cdf23	0.019149369
242	0xb9f2eb77	-0.00046333272
243	0x3b356d8d	0.0027683706
244	0x3c137461	0.008999915
245	0x3cb2f142	0.021843556
246	0x3cd10c85	0.025518665
247	0x3c9a656b	0.018847188
248	0x3d1cdb68	0.03829518
249	0x3aa6e7f8	0.0012733927
250	0x3b542428	0.0032370184
251	0x3baab0bd	0.005209057
252	0x3c4c4d1e	0.012469558
253	0x3c784efc	0.01515555
254	0x3bbc0238	0.005737569
255	0x3d6780c2	0.056519277

linear2.weight f4 [59, 256]
0	0x3d681118	0.056656927
1	0x3d48af27	0.048995163
2	0x3dab5e55	0.08367602
3	0x3e0df9d8	0.13864839
4	0x3d2bd2cf	0.04194909
5	0x3d9333d2	0.07187618
6	0xbf0a74a9	-0.5408426
7	0x3d59d38b	0.05318026
8	0xbcb5897d	-0.022160286
9	0x3d564e17	0.052320566
10	0x3d6eb19d	0.058274854
11	0x3db1c93e	0.08680962
12	0xbefd2254	-0.49440253
13	0x3d08a081	0.033356193
14	0x3d5332e5	0.05156221
15	0x3d9108f3	0.07081785
16	0x3d5f8726	0.054572247
17	0xbd1459f3	-0.036218595
18	0xbf11a5f2	-0.5689384
19	0x3d782c00	0.060588837
20	0x3d9b8c29	0.07595093
21	0xbea1c619	-0.3159645
22	0x3d38c0be	0.04510569
23	0x3d6112be	0.054949515
24	0x3d5f21b2	0.054475494
25	0xbefbaae6	-0.49153823
26	0x3dd854c6	0.10563044
27	0xbd9ffe03	-0.07812121
28	0xbee77943	-0.45209703
29	0xbda22b99	-0.07918472
30	0xbef2ea0a	-0.47444183
31	0xbe78e91c	-0.24307674
32	0x3d7351b6	0.059404097
33	0xbdbf781c	-0.09349081
34	0xbe5edab6	-0.21763119
35	0x3d1e376b	0.03862707
36	0x3dafd2c9	0.08585126
37	0x3dabc2b8	0.08386749
38	0x3cabf399	0.02099018
39	0xbe94e299	-0.2907913
40	0xbe2ca4bf	-0.1685972
41	0xbef563eb	-0.47927794
42	0xbe97e45a	-0.29666406
43	0x3d66214d	0.0561841
44	0x3d6b29db	0.057412963
45	0x3d9e823f	0.07739686
46	0xa7e6aabd	-6.402294e-15
47	0x3d70eae2	0.05881775
48	0x3e0afe7f	0.13573645
49	0xbee6c1e0	-0.4506979
50	0x3d6c9351	0.05775768
51	0x3d9a0d15	0.075220264
52	0x3d9ac1ff	0.07556533
53	0xbf13dc86	-0.5775837
54	0xbe2c9e91	-0.16857363
55	0xbcacc518	-0.021090075
56	0xbe21e440	-0.15809727
57	0xbebc7599	-0.3680847
58	0xbef7de16	-0.48411626
59	0xbee946fc	-0.4556197
60	0xbe6d1e6d	-0.23156138
61	0x3c97b21f	0.018517552
62	0x3d9145e1	0.070934065
63	0x3d9b65c9	0.07587773
64	0x3dc250dc	0.09488079
65	0x3daf101b	0.08547994
66	0x3d3a3cb2	0.04546804
67	0xbd5eb208	-0.054369003
68	0x3c592684	0.013253812
69	0x3d32453a	0.04352305
70	0xbd138084	-0.036011234
71	0x3d965622	0.07340647
72	0x3d8e4f33	0.069487
73	0xbe016169	-0.12634815
74	0xbce94916	-0.028477233
75	0x3d934c8f	0.07192337
76	0x3d985b5e	0.07439302
77	0xa4b85d40	-7.995525e-17
78	0x3def3a3f	0.116810314
79	0x3d9b8fca	0.07595785
80	0xbe407a3c	-0.18796629
81	0x3cbcdbd7	0.023054047
82	0x3d95e65d	0.07319329
83	0xbeebf968	-0.4608872
84	0x3deafe90	0.11474335
85	0x3d6cafff	0.05778503
86	0x3da2e57e	0.079539284
87	0xbeda4a9c	-0.42635047
88	0xbcded0b8	-0.027199134
89	0x3dc61eb7	0.09673827
90	0x3c827eaa	0.015929539
91	0xbe91693b	-0.28400597
92	0xbc540bbd	-0.012942252
93	0xbeb07b2b	-0.3446897
94	0xbe8c35b5	-0.27384725
95	0xbd7be18f	-0.061494406
96	0x3d3b4ee9	0.04572955
97	0xbe980fda	-0.29699594
98	0x3dfb1306	0.12259488
99	0xbe6a3e91	-0.2287543
100	0xbe8e0eb2	-0.27745587
101	0x3d380c9c	0.0449339
102	0xbeb239ca	-0.34809715
103	0xbc77005d	-0.01507577
104	0x3d844a19	0.064594455
105	0xbedfb128	-0.43689847
106	0x3d66b7b2	0.05632753
107	0xbef0336b	-0.4691423
108	0x3cf70730	0.030154794
109	0x3d4ebc6d	0.050472666
110	0x3cb0175c	0.021495514
111	0xbe0162c8	-0.12635338
112	0xbd9a8be6	-0.07546215
113	0x3dc80814	0.09767166
114	0x3d272efc	0.040816292
115	0x3c8426f9	0.016131865
116	0x3d91ab5f	0.071127646
117	0x3d26e847	0.04074886
118	0x3db9840d	0.0905839
119	0x3dc28bac	0.094992965
120	0x3d928fd6	0.07156341
121	0xbe707ebe	-0.23485848
122	0x3cb21aac	0.021741234
123	0xbd3a0934	-0.045418933
124	0x3d68a44d	0.056797314
125	0x3daef725	0.08543233
126	0xbebdfa22	-0.371049
127	0x275236b7	2.9173015e-15
128	0x3d7fd131	0.06245536
129	0x3d8d8b22	0.06911303
130	0xbe8601db	-0.2617329
131	0xbdd8797d	-0.10570047
132	0xbb7e2282	-0.0038777892
133	0x3d050f07	0.032485034
134	0xbe54cb02	-0.20780566
135	0xbd1fd8f8	-0.039025277
136	0x3da6745e	0.08127664
137	0xbe4dd228	-0.200997
138	0xbe0faade	-0.14030024
139	0x3dca7494	0.09885517
140	0x2870b3f1	1.3361695e-14
141	0xbeb990e3	-0.36243352
142	0xbb2d4c16	-0.0026443056
143	0xbb86b43e	-0.004110842
144	0x3da39099	0.07986564
145	0x3dd3b416	0.10337083
146	0x3cc59eef	0.024123637
147	0xbecdf55e	-0.40226263
148	0xbe225d66	-0.15855941
149	0x3da0cadf	0.078511946
150	0xbf000736	-0.50011003
151	0xbe81970b	-0.2531055
152	0x3d35e77d	0.044410218
153	0x3dbf0eb3	0.093289755
154	0x3da95049	0.08267266
155	0xbd175baa	-0.036952652
156	0xbf0927f6	-0.535766
157	0xbe87878d	-0.26470605
158	0xbef428c5	-0.47687355
159	0x3dbe846e	0.09302603
160	0x3dd686e5	0.10474948
161	0xbe732955	-0.23746236
162	0x3da47301	0.08029748
163	0xbc16f039	-0.009212547
164	0x3d678cb3	0.056530666
165	0x3df7a9e2	0.120929495
166	0xbc2871a3	-0.010280999
167	0x3d8f3f80	0.069945335
168	0xbebde627	-0.37089655
169	0x3d47dab4	0.048792556
170	0xbf010e99	-0.504129
171	0x3dbe155f	0.0928142
172	0x3c3f6fbe	0.011684356
173	0xbe9b18a4	-0.30292237
174	0xbcde5704	-0.027141102
175	0xbe5beaf2	-0.21476343
176	0x3d58a135	0.052888114
177	0xbb4b5e9f	-0.003103174
178	0x3df6d2ae	0.12051903
179	0xbd3087e9	-0.043098364
180	0x3d7a7272	0.0611443
181	0x3d128710	0.035773337
182	0x3d1b7185	0.037950058
183	0xbea64527	-0.32474634
184	0x3d466ba2	0.04844249
185	0xbd361a38	-0.044458598
186	0x3d99a273	0.07501688
187	0xbeebc3a9	-0.46047714
188	0xbdf7ae3f	-0.12093782
189	0xbd169c4a	-0.036770143
190	0x3dcc39ac	0.099719375
191	0x3d8c6e99	0.06857032
192	0xbb06c714	-0.0020565437
193	0xbdd65ca2	-0.10466887
194	0x3d87b1df	0.06625723
195	0xbd11feba	-0.035643317
196	0xbdbcacec	-0.0921267
197	0xbe9173b1	-0.28408578
198	0xbdc46177	-0.095889024
199	0xbeb1d133	-0.3472992
200	0x3d11c785	0.035590667
201	0xbe0f8f8c	-0.14019603
202	0xbefaa10c	-0.48950994
203	0xbf17a94b	-0.59242696
204	0xbd6e0c34	-0.058117107
205	0x3d5b00a2	0.0534674
206	0x3c7c57b0	0.015401766
207	0x3d8a5af2	0.06755628
208	0x3d4765e8	0.04868117
209	0x3bf6cad5	0.0075315037
210	0x3dab1cdd	0.083551146
211	0x3e326985	0.17423065
212	0x3dc29395	0.09500805
213	0x3dcd02ed	0.10010324
214	0x3e2e4c99	0.17021407
215	0x3da8583c	0.08219954
216	0xbe001b07	-0.1251031
217	0x3d905887	0.07048135
218	0x3d8106e8	0.063001454
219	0xbe916b7b	-0.28402314
220	0x3d165a3a	0.03670714
221	0xbe5d1bf5	-0.21592696
222	0x3dc296e0	0.09501433
223	0xbd338bb5	-0.043834407
224	0x3d718518	0.05896482
225	0xbe64598d	-0.22299786
226	0x3dad111d	0.0845053
227	0x3dbe0b93	0.09279551
228	0x3dce4446	0.10071616
229	0x3ca7ae8d	0.020468974
230	0x3d4eb8ed	0.050469328
231	0x3d4e0eb4	0.05030699
232	0xbee4a24e	-0.4465508
233	0x3d8af13f	0.06784295
234	0x3d586c6e	0.05283778
235	0x3d82c06b	0.06384357
236	0x3d848f5a	0.06472655
237	0x3d29e0ca	0.04147414
238	0x3d062194	0.032746866
239	0x3d6abb0e	0.057307296
240	0x3d3f8aaf	0.04676312
241	0x3d0fd98b	0.035119575
242	0xbd3f71dd	-0.046739448
243	0x3b936bab	0.004498919
244	0xbef16631	-0.47148278
245	0xbd91c95c	-0.071184844
246	0x3dbe4fcb	0.09292563
247	0x3dd3a5fb	0.10334393
248	0x3d923afb	0.07140156
249	0xbe9b8ece	-0.3038239
250	0x3d444df7	0.047925916
251	0xbf01ad6f	-0.50655264
252	0xbe1a5250	-0.15070462
253	0x3d5a7a52	0.05333931
254	0xbe0500bc	-0.12988561
255	0x3d8a30a0	0.06747556

linear2.bias f4 [59]
0	0xbc818bc9	-0.015813725
1	0xbc9fb1cd	-0.019493962
2	0xbc7ea53d	-0.015542326
3	0xbc6ba2b1	-0.01438205
4	0xbc628924	-0.013826642
5	0xbca7850b	-0.020449182
6	0xbca8e24f	-0.020615725
7	0xbc9b7bf3	-0.018980002
8	0xbc6ecd5b	-0.014575328
9	0xbc52a62f	-0.012857004
10	0xbc860d8a	-0.016363878
11	0xbc8c3b14	-0.017118014
12	0xbc81af0a	-0.015830535
13	0xbc9211e5	-0.017830798
14	0xbc72f9e9	-0.014830091
15	0xbc1cee5b	-0.009578313
16	0xbca953a8	-0.020669773
17	0xbc63757f	-0.013882994
18	0xbca9d3cf	-0.020730881
19	0xbc8c25c5	-0.017107854
20	0xbc56a1d6	-0.013100108
21	0xbc2419f8	-0.010015957
22	0xbcb6fc9f	-0.022337256
23	0xbc8dab9e	-0.017293748
24	0xbc5b7e4b	-0.01339681
25	0xbca33140	-0.019920945
26	0xbc93f9c7	-0.018063439
27	0xbc4e7363	-0.0126007525
28	0xbc93d7cb	-0.018047234
29	0xbc7dfa3d	-0.015501556
30	0xbc8b91b0	-0.017037243
31	0xbc80c592	-0.015719209
32	0xbc242850	-0.010019377
33	0xbc9d1843	-0.019176608
34	0xbc989718	-0.018626735
35	0xbc905abb	-0.017621389
36	0xbc62e6d8	-0.013848983
37	0xbc8d41f8	-0.01724337
38	0xbc8b8124	-0.017029352
39	0xbc389eae	-0.011268301
40	0xbc87e623	-0.01658923
41	0xbca2e763	-0.019885724
42	0xbc846375	-0.016160706
43	0xbca6b2a6	-0.020348858
44	0xbc660b23	-0.014040741
45	0xbc9ecc06	-0.019384395
46	0xbc9e14ac	-0.019296966
47	0xbc942b16	-0.018086951
48	0xbcb55762	-0.022136394
49	0xbc750b3d	-0.014956293
50	0xbc24639c	-0.010033514
51	0xbc9790d3	-0.018501675
52	0xbc333769	-0.010938504
53	0xbc8bd29f	-0.017068205
54	0xbc82997c	-0.015942328
55	0xbc4cfd1e	-0.01251152
56	0xbc3a813e	-0.011383353
57	0xbc97ef0b	-0.018546602
58	0xbc96e188	-0.018418089
