intermediary/model_12800.pth (torch, 356400 bytes, 5 tensors)

embed.weight f4 [59, 128]
-0.33697116 0.22858468 -0.38301432 -0.33429423 0.38621405 0.39614168 -0.13240011 -0.4386303
0.43305457 0.32317406 -0.33627087 -0.38513637 0.029011378 -0.22215419 -0.3388227 0.3692377
-0.2166575 -0.43069178 -0.34172395 0.3941022 0.40211275 0.24934661 0.14710867 0.15398987
0.31566045 0.42055205 -0.35626835 0.25700697 0.024224084 0.4007652 0.41194272 -0.14991467
-0.41958404 -0.39326626 -0.30781275 -0.27030724 0.27529025 0.4868014 0.22082642 -0.10288377
-0.09623733 -0.3049833 0.44155166 0.25293365 0.41725713 0.105724774 0.41839454 0.48326787
-0.3693926 -0.28937832 0.48186848 0.3915287 -0.33595318 -0.38459605 0.3390269 0.21626526
-0.38137412 0.18425125 -0.3133309 0.38675135 -0.28898972 0.3724004 -0.43677506 -0.3962059
-0.33909634 0.20766616 -0.19154643 0.165515 0.37199914 -0.44589615 -0.18268722 -0.41318005
-0.40299666 -0.41937757 0.25551578 -0.2921943 0.46534413 0.31386182 0.23497929 0.4151156
0.3494071 -0.30415982 -0.1919206 -0.48599496 0.4063228 -0.32438245 0.03337742 -0.32991007
-0.4436707 0.39802575 0.3256364 -0.35020497 0.4036009 -0.49125656 -0.3490245 0.34847414
0.2805704 0.4419 -0.28634563 0.34229347 0.23984076 -0.44234928 -0.28494787 0.19929934
0.42840666 -0.4048444 0.4375672 0.43379334 0.27488124 -0.31438288 -0.41638628 -0.2447065
0.3324956 -0.20400172 -0.44067225 -0.41960374 0.35977796 -0.42181134 0.092528194 -0.28718072
0.4311843 -0.3395353 0.36858553 0.33350688 -0.42002362 0.27949765 0.44104388 0.4720419
0.20818056 0.33040187 -0.108285554 -0.45671108 -0.351711 -0.18703957 -0.13560183 -0.41072085
-0.16213275 0.4400057 -0.39061016 0.21357009 0.44210863 0.50197315 -0.25852466 0.12287671
0.23970638 0.025574688 0.36611205 -0.38840136 0.3865074 -0.37151438 -0.42074108 -0.34550312
-0.21263641 -0.019180605 0.30565163 -0.47768834 -0.45500618 -0.18613374 -0.22491714 0.37394428
0.3652362 -0.47671953 0.49475574 0.40601984 -0.39175883 -0.3465352 -0.43016103 0.3768165
0.47479743 0.49388734 -0.3902686 0.41600826 -0.22488384 -0.41980585 0.50726616 0.3843662
-0.058083765 -0.43022445 0.4189546 0.39084852 -0.41300538 0.22515748 -0.27771604 0.30666038
-0.39634594 0.098492004 0.4283401 0.09557799 0.37647834 -0.29347095 -0.41333744 -0.3358973
-0.14528547 0.30745444 0.43719947 0.4445824 -0.37559164 -0.42048913 0.4365903 0.3859095
0.37330955 0.088019826 -0.42775115 -0.3823246 -0.19918874 0.28116107 -0.30473876 0.22113651
-0.49964342 -0.31797934 0.022504304 -0.42349315 -0.37632415 -0.2589811 -0.3479805 -0.41585234
0.35152453 -0.4090808 -0.43249086 0.04095296 0.23685242 -0.43999973 0.38010544 0.26974735
-0.10406116 -0.23269674 0.21928804 -0.25240365 -0.36592224 0.2458217 -0.12622645 -0.36393586
-0.23284619 0.37557888 0.46521825 0.26527235 -0.41945723 0.31719014 0.34764674 -0.4862407
-0.41086632 0.43655235 0.2042339 0.41644937 -0.41156042 -0.1287593 0.36891302 -0.3576465
-0.26304057 0.40430343 0.4540322 -0.22349308 -0.28265297 -0.35079065 0.43844312 -0.38651356
00000000: 7c87 acbe 1a12 6a3e 741a c4be 9d28 abbe
00000010: d9bd c53e 15d3 ca3e e593 07be 2794 e0be
00000020: 54b9 dd3e 1277 a53e b22b acbe 9830 c5be
00000030: 45a9 ed3c 637c 63be 2b7a adbe b90c bd3e
00000040: 77db 5dbe a283 dcbe 71f6 aebe c3c7 c93e
00000050: b9e1 cd3e b854 7f3e a8a3 163e 85af 1d3e
00000060: 3f9e a13e 9952 d73e ce68 b6be 6b96 833e
00000070: 9671 c63c 1931 cd3e 28ea d23e 3b83 19be
00000080: b8d3 d6be 325a c9be a299 9dbe b665 8abe
00000090: d8f2 8c3e 083e f93e 5220 623e bab4 d2bd
000000a0: 1418 c5bd c526 9cbe 0f13 e23e 8580 813e
000000b0: baa2 d53e 3b86 d83d cf37 d63e e36e f73e
000000c0: 0721 bdbe 6529 94be 77b7 f63e 7376 c83e
000000d0: 0e02 acbe c6e9 c4be ef94 ad3e a474 5d3e
000000e0: 7843 c3be 5cac 3c3e e86c a0be 4604 c63e
000000f0: 76f6 93be 44ab be3e fba0 dfbe 80db cabe
00000100: 099e adbe 70a6 543e bf24 44be c47c 293e
00000110: ac76 be3e 804c e4be 5c12 3bbe 568c d3be
00000120: 9455 cebe a8b8 d6be f7d2 823e 7e9a 95be
00000130: 9641 ee3e 7fb2 a03e 699e 703e 088a d43e
00000140: 7de5 b23e d6ba 9bbe d586 44be 55d4 f8be
00000150: 8b09 d03e 7515 a6be c3b6 083d f9e9 a8be
00000160: ce28 e3be 08ca cb3e d0b9 a63e 114e b3be
00000170: c7a4 ce3e fb85 fbbe 57b3 b2be 346b b23e
00000180: eca6 8f3e b840 e23e e59b 92be 1741 af3e
00000190: d198 753e 9b7b e2be b0e4 91be 2015 4c3e
000001a0: 1e58 db3e c447 cfbe cf08 e03e 291a de3e
000001b0: 3cbd 8c3e cbf6 a0be 9530 d5be 5794 7abe
000001c0: dd3c aa3e d4e5 50be cb9f e1be 4dd6 d6be
000001d0: d134 b83e a8f7 d7be 6c7f bd3d 5a09 93be
000001e0: 30c4 dc3e 92d7 adbe 3eb7 bc3e 6ac1 aa3e
000001f0: 560d d7be 511a 8f3e 81d0 e13e 7aaf f13e
00000200: 492d 553e 6f2a a93e d1c4 ddbd 09d6 e9be
00000210: 7713 b4be 4d87 3fbe 35db 0abe 014a d2be
00000220: 2106 26be 6d48 e13e 0efe c7be 1eb2 5a3e
00000230: 105c e23e 5081 003f 585d 84be c9a6 fb3d
00000240: 9775 753e 0282 d13c 0a73 bb3e 8bdc c6be
00000250: 4ce4 c53e 2237 bebe 606b d7be c9e5 b0be
00000260: 5cbd 59be a520 9dbc 5f7e 9c3e 9193 f4be
00000270: 92f6 e8be d899 3ebe ae50 66be a075 bf3e
00000280: 3d00 bb3e 9514 f4be a050 fd3e d5e1 cf3e
00000290: 9d94 c8be 106d b1be 113e dcbe 18ee c03e
000002a0: a618 f33e cdde fc3e 49d1 c7be 09ff d43e
000002b0: f347 66be cbf0 d6be 32dc 013f a6cb c43e
000002c0: 3ee9 6dbd 6146 dcbe 3881 d63e 4c1d c83e
000002d0: 7175 d3be af8f 663e cc30 8ebe 9702 9d3e
000002e0: dbed cabe 2db6 c93d 654f db3e 65be c33d
000002f0: c5c1 c03e d341 96be f7a0 d3be bbfa abbe
00000300: b7c5 14be ab6a 9d3e 9cd8 df3e 4ea0 e33e
00000310: 8c4d c0be 5a4a d7be c488 df3e ee95 c53e
00000320: 6e22 bf3e bd43 b43d 3302 dbbe 0dc0 c3be
00000330: 22f8 4bbe 58f4 8f3e b806 9cbe 9c71 623e
00000340: 43d1 ffbe 30ce a2be f25a b83c 18d4 d8be
00000350: 8fad c0be 2c99 84be 802a b2be 99ea d4be
00000360: 06fb b33e 0a73 d1be 716f ddbe 4abe 273d
00000370: 7189 723e a547 e1be 2e9d c23e 531c 8a3e
00000380: 041e d5bd 0e48 6ebe 0b8d 603e 0d3b 81be
00000390: 295a bbbe afb8 7b3e 8241 01be cd55 babe
000003a0: 3b6f 6ebe e04b c03e 1631 ee3e c7d1 873e
000003b0: 19c3 d6be bf66 a23e c1fe b13e 8bf4 f8be
000003c0: 125d d2be ca83 df3e b122 513e da38 d53e
000003d0: 0cb8 d2be 7ad9 03be 2be2 bc3e 711d b7be
000003e0: 41ad 86be dc00 cf3e e976 e83e 5fdb 64be
000003f0: e4b7 90be d59a b3be 9e7b e03e 1be5 c5be

linear1.weight f4 [256, 256]
-0.13073646 -0.14107384 0.14462125 0.13383643 -0.15243378 0.042411428 0.17341451 -0.011443547
-0.21399073 -0.035822548 0.18976644 -0.15744244 -0.011448058 0.0126236 -0.16052076 0.14515418
0.071007766 0.14403342 0.2129856 0.10850739 -0.06706956 0.09686041 0.03983926 0.11937128
-0.0038775709 -0.19639145 -0.18656902 -0.07681101 0.10776778 0.01666668 -0.10048126 0.0073400885
-0.026878836 0.006731074 0.026186273 0.19131787 0.103156954 -0.11976008 0.20704521 -0.04573308
-0.013103845 0.019368181 -0.15457109 -0.019920932 -0.1353147 -0.14056247 -0.11590449 0.0026232696
-0.18086278 -0.09884126 -0.024869477 -0.17606312 0.05694062 -0.1391959 -0.16534427 0.0148129305
0.053522717 8.2884886e-05 0.15018363 0.09490843 0.18060552 -0.050247207 0.14984803 0.10277026
0.15894093 -0.12544335 -0.1654626 -0.14706989 -0.045929506 -0.05073056 -0.021298654 -0.08522055
-0.10638863 -0.16463177 0.12326872 0.19951485 -0.18974063 -0.05945685 -0.035420373 0.1278971
-0.104004785 0.14375608 0.1699869 0.18074363 -0.048665855 0.06739743 0.044066347 0.06694715
0.13364582 -0.15865 -0.16566978 0.15641636 0.037505716 0.12489513 -0.07217927 0.0207468
0.03759718 -0.037679143 0.002076657 0.04269649 -0.15413742 0.037592087 0.037623104 -0.14815576
-0.10933862 0.019854868 -0.051171668 -0.031109227 -0.19704628 -0.21280508 0.030278586 0.15520178
-0.2160257 -0.09308255 0.15664808 -0.09531488 0.2070589 0.2172404 -0.03422552 0.046252366
0.09788683 0.116680466 -0.18579578 -0.03949279 -0.1371845 -0.067590386 -0.044589583 -0.122966774
-0.010695847 -0.00017305266 -0.09373656 -0.17008844 0.16758214 -0.1799979 -0.131025 -0.012856491
0.092511274 0.14845245 -0.1575053 -0.078044906 -0.21264668 -0.21921676 0.117453516 0.0018358065
-0.22610404 -0.10248171 -0.054716777 0.08612239 -0.18967667 -0.03380635 0.15346871 0.05772293
-0.17861615 0.084883526 -0.015920525 0.11062523 -0.15702623 -0.18702073 -0.01907541 0.211415
-0.19989365 0.19774602 -0.12621155 -0.010534638 -0.08483924 0.11403716 -0.045810163 0.2014017
-0.1981207 -0.11664181 0.070920065 -0.16694078 0.09521046 -0.024754694 -0.15869541 -0.10113787
0.1408937 -0.040543653 -0.17865732 0.12624547 -0.13530986 -0.100338526 0.035603218 -0.028872332
0.13401628 -0.17332682 -0.1815165 -0.1038529 0.0055098413 -0.12923822 0.045209296 0.1696053
0.046823435 0.049385555 -0.086631 0.0222834 -0.13768208 0.10087143 0.0490345 -0.10447905
-0.14107986 0.1544383 -0.11643675 0.008444761 -0.06757638 -0.19113512 -0.13199177 -0.20735729
0.16712558 -0.033251792 -0.047406975 0.077300034 0.21281542 0.01237497 0.18628338 0.08147729
-0.13277246 -0.03973695 0.06286133 -0.032988638 -0.1976043 -0.028363155 -0.09638176 0.075653784
0.01578001 -0.03436872 0.100471824 -0.10453304 -0.14632453 -0.08987047 -0.007457523 -0.085429475
-0.022273237 -0.17871566 0.0054949103 -0.12834907 0.0555116 0.046709158 -0.15958217 0.03020408
0.055751916 -0.056375626 0.10332458 -0.106102645 0.025253125 -0.023295674 -0.19730698 0.03339153
-0.055143587 -0.18522353 -0.0061696977 -0.13389917 0.01551287 -0.16433658 0.018126579 0.093656905
00000000: c7df 05be a975 10be 9817 143e 6b0c 093e
00000010: 9a17 1cbe 9bb7 2d3d 9393 313e b77d 3bbc
00000020: 6320 5bbe aaba 12bd 2252 423e 9738 21be
00000030: a390 3bbc 37d3 4e3c 8e5f 24be 4ca3 143e
00000040: 856c 913d 7f7d 133e e618 5a3e 1f39 de3d
00000050: c45b 89bd c05e c63d 7e2e 233d ee78 f43d
00000060: d81e 7ebb d71a 49be f30b 3fbe 174f 9dbd
00000070: 5bb5 dc3d 9088 883c 1ec9 cdbd 2085 f03b
00000080: 0131 dcbc 5790 dc3b 9884 d63c d5e8 433e
00000090: f443 d33d c644 f5bd a903 543e 9c52 3bbd
000000a0: 82b1 56bc 05aa 9e3c e247 1ebe 3931 a3bc
000000b0: f08f 0abe 9cef 0fbe 555f edbd 29eb 2b3b
000000c0: 1834 39be 496d cabd 13bb cbbc e449 34be
000000d0: 913a 693d 5f89 0ebe 0250 29be efb1 723c
000000e0: a33a 5b3d 7cd2 ad38 bdc9 193e 5a5f c23d
000000f0: a7f0 383e 04d0 4dbd c371 193e 3779 d23d
00000100: 69c1 223e 3974 00be 076f 29be 7d99 16be
00000110: 9420 3cbd d9ca 4fbd 847a aebc 1d88 aebd
00000120: 48e2 d9bd 3b95 28be 5074 fc3d 9f4d 4c3e
00000130: 5e4b 42be 0789 73bd f414 11bd 75f7 023e
00000140: 7600 d5bd cb34 133e 0c11 2e3e dc14 393e
00000150: d955 47bd aa07 8a3d ea7e 343d 961b 893d
00000160: 73da 083e 2575 22be 57a5 29be 9c2b 203e
00000170: 989f 193d 05c9 ff3d bad2 93bd 31f5 a93c
00000180: 80ff 193d 7255 1abd 8618 083b 84e2 2e3d
00000190: 33d6 1dbe 29fa 193d af1a 1a3d 25b6 17be
000001a0: edec dfbd ada6 a23c 6299 51bd c7d8 febc
000001b0: 80c6 49be 93e9 59be cc0a f83c 37ed 1e3e
000001c0: d735 5dbe 10a2 bebd 5b68 203e 7334 c3bd
000001d0: 4007 543e 4474 5e3e 0f30 0cbd 1f73 3d3d
000001e0: e478 c83d 2bf6 ee3d 4041 3ebe 31c3 21bd
000001f0: 187a 0cbe d46c 8abd 91a3 36bd 01d6 fbbd
00000200: a23d 2fbc 7875 35b9 f4f8 bfbd aa2b 2ebe
00000210: a79a 2b3e 5f51 38be 6b2b 06be 08a4 52bc
00000220: 8d76 bd3d eb03 183e 1249 21be 02d6 9fbd
00000230: 0dc0 59be 5c7a 60be 788b f03d 729f f03a
00000240: d187 67be eee1 d1bd b31e 60bd f060 b03d
00000250: 9a3a 42be 8778 0abd e726 1d3e e16e 6c3d
00000260: 27e7 36be 6ad7 ad3d c36b 82bc 7b8f e23d
00000270: 7ccb 20be 5d82 3fbe 0944 9cbc 2c7d 583e
00000280: ecb0 4cbe ef7d 4a3e 9a3d 01be 7999 2cbc
00000290: 32c0 adbd 518c e93d 70a3 3bbd 3f3c 4e3e
000002a0: 27e0 4abe e7e1 eebd 8a3e 913d 86f2 2abe
000002b0: b4fd c23d 5bca cabc 0d81 22be 5f21 cfbd
000002c0: 7046 103e 1a11 26bd f2f1 36be 7e46 013e
000002d0: ab8e 0abe 497e cdbd aed4 113d ab85 ecbc
000002e0: 903b 093e 967c 31be 76df 39be d4b0 d4bd
000002f0: e68b b43b 0657 04be 622d 393d 03ad 2d3e
00000300: eec9 3f3d 8248 4a3d 986b b1bd ad8b b63c
00000310: 88fc 0cbe ae95 ce3d 66d8 483d 1df9 d5bd
00000320: 3d77 10be 1325 1e3e 6476 eebd e55b 0a3c
00000330: 7c65 8abd edb8 43be da28 07be 7855 54be
00000340: f822 2b3e 0833 08bd d12d 42bd 7b4f 9e3d
00000350: 49ec 593e 63c0 4a3c 12c1 3e3e 91dd a63d
00000360: 81f5 07be 36c3 22bd 71bd 803d 181f 07bd
00000370: c858 4abe d959 e8bc cd63 c5bd 5ff0 9a3d
00000380: 1445 813c 37c6 0cbd 2cc4 cd3d 6b15 d6bd
00000390: 19d6 15be 020e b8bd 3d5e f4bb a6f5 aebd
000003a0: 5d76 b6bc 3d01 37be a60e b43b f06d 03be
000003b0: 2260 633d 1a52 3f3d 8269 23be 8c6e f73c
000003c0: 1f5c 643d 21ea 66bd d69b d33d 584c d9bd
000003d0: a4df ce3c 92d6 bebc d70a 4abe 8fc5 083d
000003e0: 3ede 61bd 3dab 3dbe 2d2b cabb dd1c 09be
000003f0: b129 7e3c d947 28be 317e 943c 31cf bf3d

linear1.bias f4 [256]
0.017804189 0.018828332 -0.0014583988 0.0018156487 0.0092862435 0.002183324 0.0133133475 0.009601898
0.015651334 0.007550724 0.016084682 0.014090184 0.016613094 0.010676233 0.02643917 0.03495882
0.0021421895 -0.0021693613 -0.010030895 0.011433025 -0.004913415 -0.00868943 0.0057179984 0.016608164
0.028236222 0.0398437 0.024761753 0.0348278 0.00019808189 0.048694983 0.06136387 0.005373986
0.014057613 -0.005789202 0.0061089443 0.0038836391 0.008885026 0.023205513 -0.002022435 0.02130644
0.0034194202 0.0088697905 0.01939186 0.021567143 -0.017215388 0.00611505 9.4204835e-12 0.012223085
0.030994063 0.017606383 0.014675004 0.0031755217 -0.013111953 0.020826763 0.003547759 0.018773109
0.004116043 0.008916778 -0.0025084564 0.0013010714 0.00084635126 0.0193254 0.019756977 0.027310139
0.0047580544 0.005818092 0.003832049 0.043506093 -0.006383193 0.0120309265 0.0015622566 0.010124285
0.010171808 0.011718938 0.018883353 0.0072603514 0.0057328437 3.1643972e-13 0.013725423 0.012212192
0.013254147 0.007771924 0.005645168 0.010617897 0.0069454834 0.024894677 0.025858143 0.004000419
0.01826742 0.015547277 0.0025676824 0.0060764463 0.010862208 0.02342225 0.030148724 0.014745356
0.026133642 0.009131664 0.02796609 0.0075874263 0.0032936232 -0.0059536183 0.010835333 0.016796444
0.004730916 0.0067741517 0.03745956 0.00460929 0.0011549337 0.007760736 0.029199144 0.02108378
0.037645847 0.0033162895 0.017834164 0.010597909 0.031914625 0.015299611 0.037880793 0.045691162
0.01886666 0.014931449 -0.0056439866 0.0012322171 0.010374541 0.027158575 0.0052956115 7.417492e-12
0.02247057 0.022164643 0.022596452 0.007605088 0.00095970207 -0.002086116 -0.00066785037 0.018232534
0.015386984 0.0041694953 0.023984358 0.021335017 7.950106e-12 0.022638725 0.009311801 0.015474418
0.021329064 0.0064139976 -0.0012385144 0.008818246 0.01890241 0.016684515 0.0069676493 0.02269392
0.0034202265 -0.0017889314 0.003950448 0.009471499 0.0034586294 0.02725791 0.008935937 0.0011948167
0.0028264786 0.005244638 0.0005327445 0.014197826 0.0063087963 0.024272947 0.022796772 0.024930334
-0.0030971088 0.011199793 0.030613957 0.015186045 0.030310636 0.0063931616 0.018835928 0.002487034
0.015406927 -0.0024583298 0.014208796 0.013993932 0.004993662 -0.00047427666 0.0033714802 0.0034256387
0.005112703 0.019918526 0.010453084 0.06275138 0.04960985 0.040158223 0.014577129 -0.005324806
0.015610954 0.010755281 0.011267009 0.03652592 0.00731551 0.0061014635 0.007953789 0.017246323
0.005475345 0.025575655 -0.005055197 0.030821875 0.029245036 0.020495778 -0.0023424511 0.026549011
0.02211216 0.007324104 0.01855406 -0.007236988 0.04578364 0.0056718006 -0.0066979257 0.01045952
-0.00010890936 0.0051864255 0.017938867 0.0061787586 0.02301659 -3.6838603e-05 0.045439895 0.020323506
0.0077203126 0.0060509387 0.02771686 0.015013714 0.0070749153 0.0060159657 -0.000879559 0.014594748
-0.0032958863 0.0148718245 0.010381667 0.020012597 0.015901007 0.015880099 0.008726756 0.0011547424
0.012361222 0.024792813 0.009265915 0.0045529255 0.012278758 0.022307418 0.027806578 0.018449355
0.058447458 -0.00042468446 0.0011222382 0.0070654713 0.022172615 0.015693264 -0.0015155525 0.06109329
00000000: 17da 913c e03d 9a3c be27 bfba 10fb ed3a
00000010: 5425 183c 1916 0f3b 3a20 5a3c 4751 1d3c
00000020: 3a37 803c 106c f73b 06c4 833c 84da 663c
00000030: 2f18 883c 5eeb 2e3c f596 d83c fb30 0f3d
00000040: fa63 0c3b d82b 0ebb 9f58 24bc 9551 3b3c
00000050: b600 a1bb 1c5e 0ebc 0c5e bb3b d80d 883c
00000060: a64f e73c 2633 233d 29d9 ca3c 98a7 0e3d
00000070: 34b4 4f39 6474 473d ae58 7b3d 4318 b03b
00000080: e751 663c 59b3 bdbb 8a2d c83b a784 7e3b
00000090: 8092 113c 7d19 be3c d48a 04bb d88a ae3c
000000a0: 5a18 603b 9952 113c aedb 9e3c 94ad b03c
000000b0: 4907 8dbc c260 c83b 16ba 252d 5643 483c
000000c0: 43e7 fd3c 433b 903c 6e6f 703c 6a1c 503b
000000d0: 84d3 56bc e39c aa3c 8581 683b 10ca 993c
000000e0: dfdf 863b ad17 123c ea64 24bb b688 aa3a
000000f0: acdd 5d3a 4d50 9e3c 62d9 a13c 83b9 df3c
00000100: 74e9 9b3b b1a5 be3b 1d23 7b3b 7233 323d
00000110: 1b2a d1bb 5d1d 453c a2c4 cc3a 54e0 253c
00000120: a8a7 263c ca00 403c 43b1 9a3c 3ee8 ed3b
00000130: 94da bb3b c523 b22a 99e0 603c a515 483c
00000140: ec27 593c a0ab fe3b 1afb b83b b0f6 2d3c
00000150: f096 e33b ecef cb3c 75d4 d33c f215 833b
00000160: 8ea5 953c 02ba 7e3c 9046 283b ed1c c73b
00000170: 67f7 313c 05e0 bf3c 75fa f63c 8196 713c
00000180: 3816 d63c fa9c 153c 2419 e53c f29f f83b
00000190: d4d9 573b 9216 c3bb ae86 313c b298 893c
000001a0: cd05 9b3b b4f9 dd3b 326f 193d 8709 973b
000001b0: 2561 973a c64d fe3b 0b33 ef3c e4b7 ac3c
000001c0: 8832 1a3d 1b56 593b f418 923c daa2 2d3c
000001d0: e9b8 023d 38ab 7a3c e428 1b3d a826 3b3d
000001e0: 418e 9a3c 09a3 743c 31f1 b8bb 5882 a13a
000001f0: fbf9 293c a97b de3c cf86 ad3b 6a7d 022d
00000200: 3314 b83c a092 b53c 321c b93c 1a34 f93b
00000210: 8494 7b3a 38b7 08bb ae12 2fba 655c 953c
00000220: b019 7c3c 43a0 883b d87a c43c c6c6 ae3c
00000230: 18dc 0b2d d974 b93c 8690 183c 6a88 7d3c
00000240: 4aba ae3c 832c d23b a655 a2ba 687a 103c
00000250: 3ad9 9a3c f7ad 883c e150 e43b 9ae8 b93c
00000260: e125 603b 947a eaba c272 813b 592e 1b3c
00000270: 2caa 623b fb4b df3c 0968 123c 659b 9c3a
00000280: 713c 393b 36db ab3b e1a7 0b3a 009e 683c
00000290: 05ba ce3b 0fd8 c63c 4cc0 ba3c b33a cc3c
000002a0: ddf8 4abb 567f 373c 1fca fa3c e4ce 783c
000002b0: 034e f83c ba7d d13b ce4d 9a3c 82fd 223b
000002c0: 566d 7c3c ee1b 21bb 03cc 683c ce46 653c
000002d0: dfa1 a33b 56a8 f8b9 0df4 5c3b ae80 603b
000002e0: 7688 a73b 2d2c a33c 6943 2b3c cc83 803d
000002f0: b333 4b3d f37c 243d e9d4 6e3c b67b aebb
00000300: 16c5 7f3c eb36 303c 4399 383c 349c 153d
00000310: f2b6 ef3b c9ee c73b 9c50 023c 2948 8d3c
00000320: 866a b33b 0984 d13c 11a6 a5bb 287e fc3c
00000330: 4993 ef3c c3e6 a73c cf83 19bb 507d d93c
00000340: 9024 b53c 0aff ef3b affe 973c 4124 edbb
00000350: a087 3b3d 83da b93b 467a dbbb 685e 2b3c
00000360: 4466 e4b8 e4f2 a93b 88f4 923c 2f77 ca3b
00000370: 4a8d bc3c 2683 1ab8 2f1f 3a3d 7b7d a63c
00000380: adfa fc3b f446 c63b 780e e33c 15fc 753c
00000390: b1d4 e73b 9421 c53b 3592 66ba cf1e 6f3c
000003a0: ccff 57bb f4a8 733c de17 2a3c 75f1 a33c
000003b0: d442 823c fb16 823c abfa 0e3c ba5a 973a
000003c0: b986 4a3c 4c1a cb3c 10d0 173c b530 953b
000003d0: d82c 493c 0cbe b63c 9fca e33c 1a23 973c
000003e0: 9a66 6f3d 2fa8 deb9 1118 933a 7885 e73b
000003f0: 58a3 b53c 298f 803c 81a5 c6ba f53c 7a3d

linear2.weight f4 [59, 256]
0.047463518 0.052129246 0.080635116 0.12659056 0.03745595 0.067343675 -0.52739835 0.0440572
-0.021318426 0.055259075 0.060474705 0.08457726 -0.49491593 0.03406693 0.051926438 0.06936833
0.051228527 -0.03497606 -0.55518454 0.055845592 0.077964105 -0.31966433 0.04793553 0.052692927
0.055369843 -0.49328363 0.10022051 -0.08638045 -0.45251584 -0.068399765 -0.45655194 -0.23761982
0.058814302 -0.06397063 -0.21527746 0.038162936 0.08581774 0.07923354 0.018840862 -0.31595057
-0.16905963 -0.47802255 -0.29668298 0.058257908 0.05695166 0.07892601 -9.503803e-11 0.060078472
0.1291786 -0.43193263 0.06297424 0.07564905 0.077489346 -0.5796262 -0.16907096 0.0042902115
-0.14967881 -0.37982267 -0.48584694 -0.4614293 -0.23648441 0.03395903 0.071037434 0.07696563
0.09463116 0.08070608 0.04348303 -0.054396175 0.012097693 0.04460581 -0.03706735 0.07281796
0.06837464 -0.1321649 -0.019507244 0.07370132 0.0725697 -3.1744223e-12 0.11664263 0.07225892
-0.17596456 0.024602389 0.06951822 -0.50788236 0.12209242 0.059210382 0.07809736 -0.42044622
-0.022323424 0.0977547 0.028015167 -0.28320563 -0.011904402 -0.34199888 -0.25074202 -0.064963795
0.042981613 -0.2984781 0.12484539 -0.23084286 -0.2661731 0.044920444 -0.34260502 -0.03515885
0.06324065 -0.43134624 0.06541759 -0.47328985 0.030671371 0.051717196 0.022538293 -0.13889186
-0.075178824 0.099317804 0.03430841 0.008876173 0.072382815 0.039274883 0.090430476 0.098476104
0.07598583 -0.22816771 0.01585793 -0.037336223 0.05750399 0.08429294 -0.36549956 4.0569877e-11
0.062278427 0.071500994 -0.27147162 -0.10160132 -0.006766264 0.013473596 -0.21164206 -0.044932578
0.08308078 -0.1856115 -0.12271143 0.09817472 9.692915e-11 -0.38572666 -0.055906367 -0.0007515224
0.07829697 0.10625136 0.027161056 -0.40592292 -0.16080874 0.07905438 -0.49528676 -0.25429764
0.045510285 0.09497368 0.08739087 -0.038706698 -0.52980334 -0.27067786 -0.50581574 0.092238665
0.10321025 -0.18952851 0.07704727 -0.012834849 0.057232138 0.12268027 -0.012390785 0.06628471
-0.37110627 0.047377188 -0.48948008 0.091461666 0.0127275055 -0.31095314 -0.02287835 -0.21610066
0.060771678 -8.705624e-05 0.12259821 -0.043436658 0.062390607 0.036674697 0.034459896 -0.36168462
0.05019578 -0.045195978 0.07854369 -0.45379475 -0.11222741 -0.039103646 0.10409936 0.070102274
-0.06524624 -0.109699495 0.06655848 -0.036120713 -0.08322811 -0.28324646 -0.09653468 -0.3393868
0.03657767 -0.13477544 -0.48752975 -0.53852713 -0.044991434 0.05118976 0.03967105 0.07107635
0.04455216 0.0042192857 0.0844557 0.17357907 0.098494045 0.10177916 0.16981716 0.08456662
-0.035091393 0.07267117 0.064141124 -0.2831914 0.04578612 -0.21157832 0.09847115 -0.06934766
0.062157873 -0.19028951 0.08218951 0.09060898 0.09923686 0.028584026 0.048001394 0.056296606
-0.5076292 0.06870283 0.04953227 0.063921094 0.06542009 0.039267607 0.032812104 0.05410053
0.048081286 0.040533356 -0.04362559 0.0042344676 -0.48749274 -0.0665804 0.089755856 0.10106216
0.07143076 -0.30486697 0.05453799 -0.5066886 -0.11645764 0.05322594 -0.12600808 0.06870215
00000000: 1b69 423d 7a85 553d 0624 a53d f5a0 013e
00000010: 696b 193d 7beb 893d 9403 07bf 5375 343d
00000020: fba3 aebc 5757 623d 53b4 773d d836 ad3d
00000030: 9f65 fdbe c489 0b3d d1b0 543d fc10 8e3d
00000040: 01d5 513d 0f43 0fbd 9320 0ebf 59be 643d
00000050: a5ab 9f3d 0bab a3be 0c58 443d 8ad4 573d
00000060: 7dcb 623d ac8f fcbe 6940 cd3d 3ce8 b0bd
00000070: 28b0 e7be 2d15 8cbd 2dc1 e9be 9c52 73be
00000080: 44e7 703d 0903 83bd b271 5cbe bd50 1c3d
00000090: 36c1 af3d 3245 a23d 2758 9a3c 46c4 a1be
000000a0: f81d 2dbe 5fbf f4be d5e6 97be d89f 6e3d
000000b0: 2546 693d f6a3 a13d a8fd d0ae d814 763d
000000c0: 6547 043e 4626 ddbe a3f8 803d e4ed 9a3d
000000d0: bcb2 9e3d 6262 14bf f020 2dbe e794 8c3b
000000e0: 6745 19be 1e78 c2be eec0 f8be 7640 ecbe
000000f0: f828 72be a018 0b3d 137c 913d 28a0 9d3d
00000100: fbcd c13d 3b49 a53d 431b 323d 86ce 5ebd
00000110: 6735 463c 95b4 363d efd3 17bd 9521 953d
00000120: 0108 8c3d 3c56 07be a8cd 9fbc b8f0 963d
00000130: 6c9f 943d 4f61 5fac 55e2 ee3d 7cfc 933d
00000140: 0e30 34be f38a c93c 925f 8e3d 9404 02bf
00000150: 970b fa3d 9686 723d 82f1 9f3d ba44 d7be
00000160: 9ddf b6bc 9e33 c83d 1080 e53c 5400 91be
00000170: ae0a 43bc 7a1a afbe 4261 80be bd0b 85bd
00000180: 7d0d 303d 1fd2 98be f1ae ff3d 1262 6cbe
00000190: d747 88be 80fe 373d ed69 afbe ba02 10bd
000001a0: 5084 813d 6ad9 dcbe a8f9 853d 0c53 f2be
000001b0: 8742 fb3c 69d5 533d 3aa2 b83c ab39 0ebe
000001c0: 5bf7 99bd 2267 cb3d fa86 0c3d 5e6d 113c
000001d0: 713d 943d b3de 203d 9d33 b93d d7ad c93d
000001e0: 759e 9b3d cca4 69be 7de8 813c deed 18bd
000001f0: 4e89 6b3d c7a1 ac3d c222 bbbe 9f6d 322e
00000200: aa17 7f3d 1d6f 923d 54fe 8abe 5a14 d0bd
00000210: 89b7 ddbb 5cc0 5c3c b2b8 58be 390b 38bd
00000220: 4226 aa3d f110 3ebe 2150 fbbd d40f c93d
00000230: 4326 d52e f77d c5be 13fe 64bd d101 45ba
00000240: 295a a03d 509a d93d dd80 de3c 21d5 cfbe
00000250: 0cab 24be 43e7 a13d 3a96 fdbe 4d33 82be
00000260: fe68 3a3d 9081 c23d fcf9 b23d ea8a 1ebd
00000270: 31a1 07bf 4a96 8abe 247d 01bf a0e7 bc3d
00000280: e55f d33d c313 42be f6ca 9d3d 4249 52bc
00000290: 3f6c 6a3d cb3f fb3d b802 4bbc 47c0 873d
000002a0: a401 bebe 950e 423d 229d fabe 4150 bb3d
000002b0: 0787 503c 4035 9fbe 616b bbbc 7e49 5dbe
000002c0: b9eb 783d f791 b6b8 c514 fb3d a3ea 31bd
000002d0: 4b8d 7f3d 3538 163d d225 0d3d ba2e b9be
000002e0: 179a 4d3d 6b1f 39bd 84db a03d c957 e8be
000002f0: 7cd7 e5bd 252b 20bd 0c32 d53d c891 8f3d
00000300: d29f 85bd 21aa e0bd d04f 883d 50f3 13bd
00000310: 8073 aabd ae05 91be f9b3 c5bd 1bc4 adbe
00000320: 78d2 153d 9302 0abe 809d f9be eadc 09bf
00000330: f048 38bd 5bac 513d 1c7e 223d 7a90 913d
00000340: 537c 363d ef41 8a3b 1cf7 ac3d b6be 313e
00000350: 3fb7 c93d 9871 d03d 8de4 2d3e 4431 ad3d
00000360: febb 0fbd 9fd4 943d 6c5c 833d 77fe 90be
00000370: 3a8a 3b3d fda7 58be 3eab c93d 2506 8ebd
00000380: 4199 7e3d 41db 42be f952 a83d 3391 b93d
00000390: b23c cb3d 0c29 ea3c 1c9d 443d 4597 663d
000003a0: fdf3 01bf 12b4 8c3d 59e2 4a3d 10e9 823d
000003b0: f8fa 853d 12d7 203d fc65 063d 8498 5d3d
000003c0: e2f0 443d 4e06 263d bfb0 32bd 4ac1 8a3b
000003d0: a698 f9be 4e5b 88bd ebd1 b73d aef9 ce3d
000003e0: 4a4a 923d 8617 9cbe 3a63 5f3d 58b6 01bf
000003f0: 5881 eebd 7103 5a3d 4308 01be b6b3 8c3d

linear2.bias f4 [59]
-0.0150591275 -0.01913035 -0.0138478745 -0.012646591 -0.011460167 -0.020018172 -0.021431461 -0.020148043
-0.01455179 -0.013067611 -0.016148785 -0.019487489 -0.01531705 -0.019399555 -0.013991482 -0.009873981
-0.019990165 -0.013500927 -0.020209482 -0.016537983 -0.012213474 -0.009316941 -0.021335568 -0.016824909
-0.012327871 -0.018790115 -0.017227858 -0.011025125 -0.016817452 -0.016670639 -0.0187811 -0.016762005
-0.010723182 -0.018028758 -0.01832077 -0.018005438 -0.01377003 -0.017193567 -0.0158665 -0.010277487
-0.014724949 -0.02018485 -0.016660925 -0.017688 -0.012007386 -0.016071236 -0.017553616 -0.017791416
-0.022932908 -0.015612943 -0.009348001 -0.019771466 -0.012915728 -0.018915603 -0.017548813 -0.011900115
-0.0111546945 -0.01623241 -0.018053425
00000000: 8fba 76bc 40b7 9cbc 32e2 62bc a633 4fbc
00000010: 6dc3 3bbc 26fd a3bc 0891 afbc 820d a5bc
00000020: a26a 6ebc 8819 56bc 754a 84bc 3aa4 9fbc
00000030: 5df4 7abc d1eb 9ebc 873c 65bc 7ac6 21bc
00000040: 6ac2 a3bc fe32 5dbc 5b8e a5bc aa7a 87bc
00000050: 061b 48bc 15a6 18bc eec7 aebc 64d4 89bc
00000060: d7fa 49bc baed 99bc 7021 8dbc baa2 34bc
00000070: c1c4 89bc dd90 88bc d2da 99bc 7950 89bc
00000080: 49b0 2fbc 0cb1 93bc 7015 96bc 2480 93bc
00000090: b19b 61bc 86d9 8cbc 76fa 81bc e862 28bc
000000a0: ea40 71bc b35a a5bc 7e7c 88bc 6de6 90bc
000000b0: a1ba 44bc d3a7 83bc 9acc 8fbc 4ebf 91bc
000000c0: cbdd bbbc 6ecd 7fbc 5c28 19bc c5f7 a1bc
000000d0: 7d9c 53bc e5f4 9abc 87c2 8fbc b3f8 42bc
000000e0: 2ec2 36bc d5f9 84bc c7e4 93bc
