intermediary/model_11800.pth (torch, 356400 bytes, 5 tensors)

embed.weight f4 [59, 128]
0	0xbeae57fd	-0.34051505
1	0x3e693169	0.22772755
2	0xbec83d25	-0.3910915
3	0xbead6b15	-0.3387076
4	0x3ecad3ff	0.39614865
5	0x3ecc9b4a	0.39962226
6	0xbe16e2ff	-0.1473503
7	0xbee1bf97	-0.44091484
8	0x3ee070bb	0.43836007
9	0x3ea5a8fe	0.32355493
10	0xbeb1fbc3	-0.3476239
11	0xbec4f3ab	-0.38467154
12	0x3c9be48d	0.01902988
13	0xbe5b9f5e	-0.21447513
14	0xbeae43c5	-0.3403608
15	0x3ebc4a22	0.3677531
16	0xbe6f736d	-0.23383875
17	0xbedd1036	-0.4317643
18	0xbeacb39d	-0.33730784
19	0x3eca7b7b	0.39547333
20	0x3ecd4944	0.4009496
21	0x3e7a1465	0.24421842
22	0x3e0f08ba	0.13968173
23	0x3e2d9a96	0.16953501
24	0x3e9fd769	0.31219032
25	0x3ed8a84c	0.423159
26	0xbeb574c3	-0.35440645
27	0x3e87c75b	0.26519284
28	0x3d0193ce	0.0316351
29	0x3ecce617	0.40019295
30	0x3ed21366	0.41030425
31	0xbe1aa100	-0.15100479
32	0xbed64b2c	-0.41854227
33	0xbecbb460	-0.39786053
34	0xbe9d08bc	-0.30670726
35	0xbe8666c0	-0.26250267
36	0x3e871616	0.26384038
37	0x3ef97b6f	0.48726985
38	0x3e6aedf5	0.22942336
39	0xbdfdf710	-0.12400639
40	0xbdc40397	-0.09570997
41	0xbe980a3e	-0.29695314
42	0x3ee1d731	0.4410949
43	0x3e71fbb9	0.23631181
44	0x3edcf845	0.43158165
45	0x3ddab6bb	0.10679384
46	0x3ed52a4e	0.41633838
47	0x3ef8c1ab	0.48585257
48	0xbebc68b9	-0.36798647
49	0xbe92eb78	-0.28695273
50	0x3ef72780	0.48272324
51	0x3eca420d	0.39503518
52	0xbeae2202	-0.3401032
53	0xbec3d5df	-0.38249108
54	0x3eb0e88c	0.3455242
55	0x3e463129	0.1935469
56	0xbec270b2	-0.37976605
57	0x3e344958	0.17606103
58	0xbea66409	-0.32498196
59	0x3ec91e45	0.39280906
60	0xbe8e17ac	-0.27752435
61	0x3ec0598a	0.37568313
62	0xbedf807b	-0.4365271
63	0xbecc3374	-0.39883006
64	0xbeaf3788	-0.34222054
65	0x3e4cf923	0.20016913
66	0xbe3e99ec	-0.18613404
67	0x3dc209dc	0.09474537
68	0x3ebee064	0.3728057
69	0xbee4ff41	-0.44725993
70	0xbe1ffe3f	-0.15624331
71	0xbed45ead	-0.41478482
72	0xbecb72e3	-0.3973609
73	0xbed6def2	-0.4196697
74	0x3e838663	0.25688466
75	0xbe94eb3d	-0.29085723
76	0x3eecbfcc	0.4624008
77	0x3e9f475f	0.3110914
78	0x3e718ec1	0.23589613
79	0x3ed45d3f	0.4147739
80	0x3eb25244	0.3482839
81	0xbe981bb8	-0.29708648
82	0xbe316a79	-0.17325772
83	0xbef965fd	-0.48710623
84	0x3ed181bb	0.4091929
85	0xbea46c1c	-0.3211373
86	0x3d0cbc8c	0.0343595
87	0xbea6f1a9	-0.32606247
88	0xbee3515d	-0.44398013
89	0x3ecd60f3	0.4011303
90	0x3ea8b72e	0.32952255
91	0xbea34bfc	-0.3189391
92	0x3ed09ca5	0.4074451
93	0xbefe511a	-0.4967125
94	0xbeb088f4	-0.34479487
95	0x3eb2e45a	0.34939843
96	0x3e8f0a8e	0.2793774
97	0x3ee39f35	0.44457403
98	0xbe924727	-0.2856991
99	0x3eb0bc42	0.3451863
100	0x3e7ebe81	0.24877359
101	0xbee42386	-0.44558352
102	0xbe8f7a5d	-0.28023043
103	0x3e3f2dc5	0.18669803
104	0x3edc4647	0.43022367
105	0xbece8443	-0.40335283
106	0x3ee18a9c	0.44051063
107	0x3eddca8e	0.433186
108	0x3e8e80a0	0.27832508
109	0xbea2f32c	-0.3182615
110	0xbed5de35	-0.41771093
111	0xbe7c0213	-0.24610166
112	0x3ea6fa12	0.32612664
113	0xbe4ad30b	-0.19807069
114	0xbee08cae	-0.4385733
115	0xbed5fa73	-0.4179264
116	0x3eb76b45	0.35824028
117	0xbeda0bd8	-0.4258716
118	0x3d99539b	0.074866496
119	0xbe91bb93	-0.2846342
120	0x3ede7490	0.43448305
121	0xbeb01ea8	-0.3439839
122	0x3ec0d491	0.37662175
123	0x3ea69414	0.3253485
124	0xbed9088a	-0.42389327
125	0x3e90dc89	0.28293255
126	0x3ee1daa7	0.4411213
127	0x3ef00b62	0.46883684
128	0x3e5823e7	0.21107446
129	0x3eab2c82	0.33432394
130	0xbde281da	-0.110599235
131	0xbee943d0	-0.4555955
132	0xbeb01a49	-0.34395054
133	0xbe3878e9	-0.18014874
134	0xbe0f72c4	-0.14008623
135	0xbed1e29a	-0.40993196
136	0xbe255cdf	-0.16148709
137	0x3ee232a8	0.44179273
138	0xbecc30cd	-0.39880982
139	0x3e59dbe1	0.21275283
140	0x3ee4b1e8	0.44666982
141	0x3f0104bc	0.5039785
142	0xbe70071d	-0.23440214
143	0x3df11a7d	0.1177263
144	0x3e708606	0.23488626
145	0x3c252745	0.010080163
146	0x3eb63214	0.35585082
147	0xbec63daf	-0.38718936
148	0x3ec344e9	0.38138512
149	0xbebe1546	-0.37125605
150	0xbedaa3bd	-0.42703047
151	0xbeb3453b	-0.35013756
152	0xbe510d96	-0.20415339
153	0x3bdb63cf	0.0066952477
154	0x3e9be110	0.30445147
155	0xbef7e92a	-0.48420078
156	0xbee7c768	-0.45269322
157	0xbe3772cb	-0.17914884
158	0xbe6608ae	-0.22464249
159	0x3ebe1175	0.37122694
160	0x3eba9a50	0.36445856
161	0xbef428ee	-0.47687477
162	0x3efface8	0.49936604
163	0x3ece7389	0.4032252
164	0xbec84eef	-0.39122722
165	0xbeb0e338	-0.34548354
166	0xbed957e5	-0.4244987
167	0x3ebfce42	0.3746205
168	0x3ef63e48	0.48094392
169	0x3eff053a	0.49808675
170	0xbeca59d8	-0.3952167
171	0x3ed8a597	0.42313835
172	0xbe65a607	-0.22426616
173	0xbed7fcad	-0.42184964
174	0x3f018531	0.5059386
175	0x3ec7c07a	0.39014035
176	0xbcc7b3c2	-0.024377707
177	0xbedaeb3b	-0.42757592
178	0x3ed94897	0.42438194
179	0x3ec94155	0.39307657
180	0xbed38d15	-0.41318575
181	0x3e68d171	0.22736146
182	0xbe8dbc5d	-0.27682772
183	0x3e9b8a65	0.30379024
184	0xbed5c4f5	-0.4175183
185	0x3dfcc111	0.12341512
186	0x3edb276c	0.42803514
187	0x3dd299a8	0.10283214
188	0x3ebf7ec3	0.374014
189	0xbe9077b9	-0.2821634
190	0xbed5ae18	-0.41734385
191	0xbeaf2d05	-0.34214035
192	0xbe17ace9	-0.14812054
193	0x3ea18b00	0.3155136
194	0x3ee193d4	0.44058096
195	0x3ee1f11a	0.44129258
196	0xbebe5250	-0.37172174
197	0xbed8f9bb	-0.4237803
198	0x3edbad54	0.42905676
199	0x3ec55661	0.38542464
200	0x3ebe250b	0.37137637
201	0x3da79fff	0.08184814
202	0xbedc69d6	-0.43049496
203	0xbec1b595	-0.3783385
204	0xbe4e46ca	-0.20144191
205	0x3e905397	0.28188774
206	0xbe9d60fd	-0.3073806
207	0x3e723c4f	0.23655818
208	0xbeff704b	-0.4989036
209	0xbea3d46d	-0.31998006
210	0x3c99925c	0.018746547
211	0xbeda2a2c	-0.426103
212	0xbec1b3d0	-0.378325
213	0xbe87700d	-0.26452675
214	0xbeb2c355	-0.34914652
215	0xbed76dc0	-0.4207592
216	0x3eae7692	0.34074837
217	0xbed0d63b	-0.40788445
218	0xbedd7635	-0.43254247
219	0x3da47bbd	0.08031414
220	0x3e711366	0.23542556
221	0xbee08897	-0.4385421
222	0x3ec183e4	0.37795937
223	0x3e93a875	0.2883946
224	0xbdde975e	-0.10868715
225	0xbe701014	-0.23443633
226	0x3e5f8943	0.21829705
227	0xbe7c7ed7	-0.2465776
228	0xbebb3c92	-0.3656965
229	0x3e6eba7a	0.23313323
230	0xbdacecbe	-0.084435925
231	0xbeb5fbd7	-0.355437
232	0xbe69c102	-0.22827533
233	0x3ec29f4c	0.3801216
234	0x3eef6d72	0.46763188
235	0x3e815968	0.25263524
236	0xbed76025	-0.4206554
237	0x3ea57dce	0.32322544
238	0x3eafa3cf	0.34304664
239	0xbef9dbc1	-0.4880047
240	0xbed4f7eb	-0.41595396
241	0x3ee0b3b6	0.4388711
242	0x3e5177e6	0.20455894
243	0x3ed779d8	0.42085147
244	0xbed369a4	-0.41291535
245	0xbdbc558b	-0.091960035
246	0x3ec17920	0.37787724
247	0xbeb54b8c	-0.354092
248	0xbe833c4f	-0.2563195
249	0x3ecda90e	0.4016804
250	0x3ee76138	0.4519136
251	0xbe575f00	-0.21032333
252	0xbe909c27	-0.28244135
253	0xbeb5ed2e	-0.35532516
254	0x3ee36d0a	0.44419128
255	0xbecacc3f	-0.39608952

linear1.weight f4 [256, 256]
0	0xbe095962	-0.13413003
1	0xbe0f0146	-0.1396533
2	0x3e12d8c5	0.14340504
3	0x3e056516	0.13026842
4	0xbe19c0c8	-0.15014946
5	0x3d0aa269	0.033846293
6	0x3e2d080e	0.16897604
7	0xbc1fb02e	-0.009746594
8	0xbe5af12d	-0.21381064
9	0xbcf9fac1	-0.030515077
10	0x3e3fc9d7	0.1872934
11	0xbe241d8e	-0.16026899
12	0xbcc296b5	-0.023753503
13	0x3b61fcd8	0.0034482982
14	0xbe20040d	-0.15626545
15	0x3e0d63a8	0.13807547
16	0x3d8a9de7	0.06768399
17	0x3e13e73d	0.14443679
18	0x3e559789	0.20858587
19	0x3de5cf93	0.11221232
20	0xbd832a93	-0.06404605
21	0x3dd3947c	0.103310555
22	0x3d59770d	0.05309205
23	0x3df455c9	0.11930425
24	0xbc87f840	-0.016597867
25	0xbe4bbb06	-0.19895563
26	0xbe48877c	-0.19582933
27	0xbd98aca0	-0.074548006
28	0x3dd2a868	0.10286027
29	0x3c6681fd	0.014069078
30	0xbdca12be	-0.09866856
31	0x3c128415	0.008942624
32	0xbce0b75e	-0.027431186
33	0x3cbeedac	0.02330669
34	0x3d048c67	0.03236046
35	0x3e4569dd	0.19278665
36	0x3dd6ac64	0.104821
37	0xbdf76231	-0.120792754
38	0x3e50df93	0.20397787
39	0xbd39a4b2	-0.04532308
40	0xbcad3d3e	-0.021147367
41	0x3c567bb6	0.013091018
42	0xbe1f0df8	-0.15532672
43	0xbcc4a9ad	-0.024006689
44	0xbe03f46d	-0.1288621
45	0xbe122c29	-0.14274658
46	0xbdfd3ca2	-0.123650804
47	0xbbddcb7a	-0.006768641
48	0xbe33bd50	-0.17552686
49	0xbdce6eaa	-0.10079701
50	0xbd00a095	-0.031403143
51	0xbe2dff14	-0.16991836
52	0x3d66eb26	0.0563766
53	0xbe0e83e0	-0.13917494
54	0xbe229f83	-0.15881161
55	0x3c59273f	0.013253986
56	0x3d737a11	0.059442583
57	0xbbee1b93	-0.0072664707
58	0x3e1aca6f	0.15116285
59	0x3dc66758	0.0968768
60	0x3e3a90db	0.1821932
61	0xbd7cbdce	-0.06170445
62	0x3e18faa3	0.1493936
63	0x3deaf8bb	0.11473223
64	0x3e2de386	0.16981325
65	0xbdff6ce4	-0.12471941
66	0xbe35bbe0	-0.1774745
67	0xbe0ce3d7	-0.13758789
68	0xbd38cd65	-0.045117754
69	0xbd5c8504	-0.05383779
70	0xbd00a1bc	-0.031404242
71	0xbdafe60b	-0.08588799
72	0xbde42b7f	-0.11141109
73	0xbe222515	-0.15834458
74	0x3df6cb75	0.12050525
75	0x3e5219b5	0.20517619
76	0xbe49ada1	-0.1969514
77	0xbd8f6cd0	-0.07003176
78	0xbd279ce0	-0.040921092
79	0x3deb127f	0.11478137
80	0xbda959cc	-0.082690805
81	0x3e13590c	0.14389437
82	0x3e2d2038	0.16906822
83	0x3e3e1288	0.18561757
84	0xbd0dc8b6	-0.03461524
85	0x3d7ddb12	0.0619765
86	0x3d4b9b0b	0.049708407
87	0x3d9843e9	0.07434828
88	0x3e0ce88f	0.13760589
89	0xbe27c2f2	-0.1638296
90	0xbe2a2622	-0.16616109
91	0x3e165c29	0.14683594
92	0x3cdfa693	0.027301108
93	0x3e01b896	0.1266807
94	0xbda88aa9	-0.08229572
95	0x3c8ec472	0.017427657
96	0x3d242d3e	0.04008221
97	0xbd2b59a0	-0.04183352
98	0x3bf78cf4	0.0075546447
99	0x3d14cf56	0.036330543
100	0xbe245e91	-0.16051699
101	0x3cd1440e	0.025545146
102	0x3cc981a8	0.024597958
103	0xbe1d609c	-0.15368885
104	0xbdd4b0e0	-0.10385299
105	0x3c65e50d	0.014031661
106	0xbd583e06	-0.052793525
107	0xbd0a08b6	-0.033699714
108	0xbe4c5672	-0.19954851
109	0xbe609e15	-0.21935304
110	0x3c9281bd	0.01788413
111	0x3e20decc	0.1570999
112	0xbe576270	-0.21033645
113	0xbdd62249	-0.10455758
114	0x3e2d0552	0.16896561
115	0xbdd0c59e	-0.101939425
116	0x3e56489f	0.2092614
117	0x3e5d705e	0.21624896
118	0xbd4f5942	-0.050622232
119	0x3d431c8f	0.047634657
120	0x3de20527	0.11036139
121	0x3dde22c0	0.10846472
122	0xbe40a070	-0.18811202
123	0xbd570195	-0.052491743
124	0xbe0c1f41	-0.13683797
125	0xbd8f00ba	-0.069825605
126	0xbd41d3ad	-0.04732101
127	0xbdf4ead8	-0.119588554
128	0xbc18e0aa	-0.009330908
129	0x3a1270ef	0.00055862864
130	0xbddbad76	-0.107264444
131	0xbe36c939	-0.17850198
132	0x3e2c9fda	0.16857854
133	0xbe399982	-0.18124965
134	0xbe0c367a	-0.13692656
135	0xbc796579	-0.015221947
136	0x3dcc05bf	0.099620335
137	0x3e13ddc9	0.14440073
138	0xbe26dd14	-0.16295272
139	0xbd987f4d	-0.07446156
140	0xbe5bf9b5	-0.21481974
141	0xbe695aa1	-0.22788478
142	0x3de4e5e8	0.11176664
143	0x3a9e6dcb	0.0012087164
144	0xbe6edf0e	-0.23327276
145	0xbdea51f8	-0.114414155
146	0xbd6d908e	-0.057999186
147	0x3d9da4fb	0.07697483
148	0xbe41a171	-0.18909241
149	0xbd278da7	-0.040906575
150	0x3e1d2850	0.15347409
151	0x3d7815f4	0.06056781
152	0xbe34cd42	-0.17656425
153	0x3db675a8	0.0890916
154	0xbb815f85	-0.0039481544
155	0x3defeff5	0.1171569
156	0xbe2655d9	-0.16243686
157	0xbe41e746	-0.1893588
158	0xbc60f0e3	-0.013729307
159	0x3e593438	0.21211326
160	0xbe4a8932	-0.19778898
161	0x3e48efbe	0.19622704
162	0xbe0d2274	-0.13782674
163	0xbca63323	-0.020288056
164	0xbdbb1510	-0.09134877
165	0x3dee3b71	0.11632431
166	0xbd4550d9	-0.048172805
167	0x3e45df03	0.19323353
168	0xbe4b1c99	-0.19835128
169	0xbe016a83	-0.12638287
170	0x3d9dee66	0.077114865
171	0xbe30ff3b	-0.17284863
172	0x3dbb0453	0.09131684
173	0xbcc4f76e	-0.024043765
174	0xbe1de57e	-0.15419576
175	0xbdc7b5b8	-0.09751457
176	0x3e0da4bd	0.13832374
177	0xbd1d22a0	-0.0383631
178	0xbe30e75d	-0.17275758
179	0x3e02fb85	0.1279126
180	0xbe0a250e	-0.13490698
181	0xbdce5b68	-0.10076028
182	0x3d2938e8	0.041314036
183	0xbcbbede0	-0.022940576
184	0x3e0eec2b	0.13957278
185	0xbe3308ef	-0.17483877
186	0xbe3d1617	-0.18465458
187	0xbdd777e7	-0.105209164
188	0xbaf10e24	-0.0018391055
189	0xbdf145fb	-0.11780926
190	0x3d24ed11	0.040265147
191	0x3e2662d8	0.16248643
192	0x3d15e4f6	0.036595307
193	0x3d50bbaf	0.05096024
194	0xbda40f57	-0.08010738
195	0x3d01fcac	0.031735107
196	0xbe0ce92b	-0.13760822
197	0x3dd736ad	0.105084755
198	0x3d75821c	0.059938535
199	0xbdd2a24c	-0.10284862
200	0xbe18754d	-0.14888497
201	0x3e211857	0.15731941
202	0xbddf1f60	-0.10894656
203	0xbbcc47a5	-0.0062341266
204	0xbd71e95f	-0.05906045
205	0xbe3dec1e	-0.18547103
206	0xbe03df3b	-0.12878124
207	0xbe56200c	-0.20910662
208	0x3e2f165c	0.17098373
209	0xbd29bd0c	-0.041440055
210	0xbd5c0f7f	-0.053725716
211	0x3d927142	0.071505085
212	0x3e5b07f8	0.21389759
213	0x3c7d23d0	0.015450433
214	0x3e41c324	0.18922096
215	0x3d95931c	0.073034495
216	0xbe0f96cd	-0.1402237
217	0xbd062e9d	-0.032759298
218	0x3d950f35	0.07278291
219	0xbd20e678	-0.039282292
220	0xbe4b949f	-0.19880913
221	0xbcf8710b	-0.03032734
222	0xbdc23a6c	-0.09483799
223	0x3d974fd2	0.073882714
224	0x3c28f3a5	0.010311996
225	0xbd030b17	-0.031992998
226	0x3dcfdc3e	0.1014943
227	0xbdcf42fc	-0.10120198
228	0xbe0e6db9	-0.13909043
229	0xbdb1806b	-0.08667072
230	0xbc606fb9	-0.013698512
231	0xbda766b6	-0.081738874
232	0xbc590fe5	-0.013248418
233	0xbe385aea	-0.18003431
234	0x3affba5f	0.0019510499
235	0xbdf0a600	-0.11750412
236	0x3d844536	0.064585134
237	0x3d4cd9d3	0.05001242
238	0xbe22a5ca	-0.15883556
239	0x3cd5cd2b	0.026098808
240	0x3d82a89d	0.06379817
241	0xbd55c09a	-0.052185632
242	0x3dbec0b3	0.09314098
243	0xbde2dec2	-0.11077644
244	0x3c9c1424	0.019052573
245	0xbd2fc2a0	-0.04291022
246	0xbe443b51	-0.19163252
247	0x3d02ad71	0.031903688
248	0xbd8cd2d7	-0.06876152
249	0xbe43a034	-0.19104081
250	0xbbdcc2f7	-0.006737109
251	0xbe0754cc	-0.13215941
252	0x3ca2b7da	0.019863058
253	0xbe25d9e3	-0.16196398
254	0x3c0db93b	0.008650119
255	0x3dd0b172	0.10190095

linear1.bias f4 [256]
0	0x3c76496d	0.0150321545
1	0x3ca8f337	0.020623786
2	0x39980049	0.00028991912
3	0xbb65d79f	-0.0035071147
4	0x3c8dfb61	0.01733178
5	0xbaaa32f3	-0.0012985155
6	0x3c999288	0.01874663
7	0x3c9593e3	0.018258994
8	0x3c9b3e19	0.018950509
9	0x3bf9727d	0.007612525
10	0x3c6c1148	0.014408417
11	0x3c5b9596	0.013402363
12	0x3c8a390d	0.016872907
13	0x3c1e5dd8	0.009665929
14	0x3cd79478	0.026315913
15	0x3d1ef253	0.038805317
16	0xbb812d12	-0.0039421404
17	0xbb8daaa8	-0.0043233223
18	0xbbbcc81e	-0.0057611605
19	0xba20a8a0	-0.00061286427
20	0xbc5dc110	-0.013534799
21	0xbc047b52	-0.0080860425
22	0x3c1d7ebc	0.009612735
23	0x3c676861	0.014124007
24	0x3cc7d4c1	0.024393441
25	0x3d19fea9	0.03759638
26	0x3ca7d593	0.020487582
27	0x3d221dac	0.03957908
28	0x3b479491	0.0030453543
29	0x3d266fb0	0.040633857
30	0x3d6d8296	0.057985865
31	0x37478400	1.1892058e-05
32	0x3c665c79	0.014060133
33	0xbbdad979	-0.006678757
34	0x3c0ff5fa	0.008786673
35	0x3ba196d2	0.0049313093
36	0x3c3aac40	0.011393607
37	0x3cdc5095	0.026893893
38	0xba32462d	-0.0006800618
39	0x3c8c230a	0.017106552
40	0x3b641983	0.0034805245
41	0x3c36ac87	0.011149532
42	0x3ca25e51	0.019820364
43	0x3cc7541f	0.024332104
44	0xbc4614f1	-0.012089954
45	0x3ba7a72d	0.0051163645
46	0x2e68ba20	5.2916005e-11
47	0x3c45ac86	0.012065059
48	0x3cccefce	0.025016692
49	0x3c066b02	0.008204224
50	0x3c64ed20	0.013972551
51	0x3b5eea8c	0.0034014313
52	0x3c165d07	0.009177453
53	0x3c95b1ee	0.01827332
54	0x3b5b8c46	0.0033500358
55	0x3cce545f	0.025186716
56	0x3b8ee3b2	0.0043606395
57	0x3bf87c7b	0.0075831986
58	0xbb405c15	-0.002935176
59	0xbb79d5c4	-0.00381218
60	0x39e72f62	0.00044095056
61	0x3c92c158	0.01791446
62	0x3c9b293f	0.018940566
63	0x3cc43a3d	0.023953551
64	0x3b16249a	0.002291
65	0x3bbf703a	0.005842236
66	0x3bb418a5	0.005496102
67	0x3d310a2f	0.043222602
68	0xbc4ceb9f	-0.012507348
69	0x3c4e070a	0.01257492
70	0x3b7ad9de	0.0038276832
71	0x3c1c69d3	0.009546715
72	0x3bf20cbe	0.007386773
73	0x3be1c3ff	0.0068898196
74	0x3cacef42	0.02111018
75	0x3beb8af0	0.0071881935
76	0x3c10d8c8	0.008840747
77	0x2c9816e5	4.3226416e-12
78	0x3c23cab1	0.009997056
79	0x3c2466cd	0.010034275
80	0xbb6ba92b	-0.0035958986
81	0x3ba625f8	0.005070444
82	0x3c1479c7	0.009062237
83	0x3c12d254	0.008961279
84	0xbc1cf423	-0.009579691
85	0x3c8b6d1a	0.017019797
86	0x3d054c3e	0.032543413
87	0x3aaca844	0.0013172706
88	0x3c975ec6	0.018477809
89	0x3c4eab10	0.012614027
90	0x3bc16da6	0.0059029637
91	0x3c043ebb	0.008071597
92	0x3c5123fb	0.012764926
93	0x3cc333bd	0.023828382
94	0x3c94b371	0.01815197
95	0x3c653d96	0.013991734
96	0x3cd210d9	0.0256428
97	0x3c28ef34	0.010310937
98	0x3ce4fe31	0.02795324
99	0x3c096ff3	0.008388507
100	0x3b689941	0.0035491737
101	0xbc0cf322	-0.008602889
102	0x3c601083	0.013675812
103	0x3c524d6c	0.012835842
104	0x3c32eb35	0.010920336
105	0x3be15cc6	0.0068775145
106	0x3cfe6e83	0.031058555
107	0x3aa3c0c5	0.0012493363
108	0x3ac02d21	0.0014661887
109	0x3c3e63fc	0.011620518
110	0x3cedfdfb	0.029051771
111	0x3c972631	0.018450828
112	0x3d1b85e0	0.03796947
113	0xba2048cf	-0.0006114365
114	0x3c8c7f3d	0.017150516
115	0x3c10b4c7	0.008832163
116	0x3cdddef4	0.027083851
117	0x3d0904b1	0.03345174
118	0x3d0e3ee7	0.034727957
119	0x3d3e9ecc	0.04653816
120	0x3c93a4bf	0.018022893
121	0x3c60600a	0.0136947725
122	0xbb3f6b5a	-0.0029208274
123	0x398f953f	0.00027386282
124	0x3c1c3148	0.009533234
125	0x3cd52c6f	0.026022164
126	0x3b192472	0.002336767
127	0x2e40f3a4	4.3872142e-11
128	0x3ccec474	0.02524016
129	0x3ca53146	0.020165097
130	0x3cb1f93c	0.02172529
131	0x3beaadd1	0.007161834
132	0x3b8735d5	0.0041262903
133	0xbc4bee18	-0.012446903
134	0xb9e9db06	-0.00044604408
135	0x3c2f8ac8	0.01071424
136	0x3c4dc765	0.012559746
137	0x3c3763b7	0.011193207
138	0x3d09bb35	0.0336258
139	0x3ca2b8c3	0.019863492
140	0x2e5a2f5c	4.9609525e-11
141	0x3c87078e	0.016483095
142	0x3c2181dd	0.009857622
143	0x3c8fd1ab	0.017556032
144	0x3ca99d1b	0.020704797
145	0x3b94b6e5	0.0045384043
146	0x3aa32ebe	0.0012449843
147	0x3c280e9e	0.010257391
148	0x3ceb8e17	0.028754277
149	0x3c900a41	0.017583014
150	0x3bee3851	0.007269897
151	0x3cb2ee26	0.021842074
152	0x3b669fe2	0.0035190512
153	0x3a2d1f44	0.0006604085
154	0x3b8566dc	0.0040710997
155	0x3b4a117b	0.0030833173
156	0x3b7a8e09	0.0038231632
157	0x3cee0a9d	0.029057795
158	0x3b36d4d2	0.0027897847
159	0xbba62088	-0.005069796
160	0x3b82a324	0.003986733
161	0x3a654b6c	0.00087468955
162	0xbb514839	-0.0031933917
163	0x3c62c3f2	0.013840662
164	0x3bf14aa8	0.007363636
165	0x3cd1594d	0.025555277
166	0x3cbf9cc5	0.023390183
167	0x3cc98ec0	0.024604201
168	0xba253957	-0.0006302795
169	0x3bda593c	0.0066634696
170	0x3cf8c91a	0.03036933
171	0x3c57df94	0.013175864
172	0x3cd99335	0.026559452
173	0x3b83b46c	0.0040193107
174	0x3c8a5bb0	0.016889423
175	0x3b09a111	0.0021000544
176	0x3cccef74	0.025016524
177	0xbb14447a	-0.0022623823
178	0x3ce32f07	0.027732385
179	0x3c54d8d3	0.012991148
180	0x3bbe915e	0.005815669
181	0xba1991aa	-0.00058581925
182	0x3b3662a5	0.0027829793
183	0x3b8fb74c	0.0043858644
184	0x3beadbe9	0.0071673286
185	0x3c902cb5	0.017599443
186	0x3c6f8aa8	0.014620461
187	0x3d7b4773	0.061347436
188	0x3d154709	0.036444698
189	0x3d18b235	0.037279326
190	0x3c657314	0.014004488
191	0xbb9a7204	-0.0047132988
192	0x3c36fb7d	0.011168358
193	0x3c33009b	0.010925437
194	0x3ba40eef	0.005006663
195	0x3d3426b6	0.04398223
196	0x3b99c70e	0.0046929186
197	0x3c03b857	0.0080395555
198	0x3c03a5b9	0.008035117
199	0x3c85f097	0.016350074
200	0x3ba843d2	0.005135038
201	0x3ce7de6e	0.028304305
202	0xbbf72560	-0.0075422972
203	0x3cd11477	0.025522454
204	0x3cdd3560	0.02700299
205	0x3ca68f82	0.020332102
206	0xbc2eadb5	-0.010661532
207	0x3ca8ed60	0.020621002
208	0x3c6ee192	0.014580147
209	0x3bd61135	0.006532813
210	0x3c52b561	0.012860627
211	0xbb9fa3ec	-0.004871836
212	0x3d3e9fac	0.046538994
213	0x3bb0e847	0.0053987834
214	0xbbfa251c	-0.0076338183
215	0x3c5dbed1	0.013534264
216	0xbb22c8d5	-0.0024838944
217	0x3b812ae5	0.003941881
218	0x3c86a318	0.016435191
219	0x3bfc28bd	0.007695286
220	0x3bc60885	0.006043496
221	0x3acf3279	0.0015807889
222	0x3d3eb8b2	0.046562858
223	0x3c2a6db9	0.0104021365
224	0x3bcf9c4a	0.00633577
225	0x3b3688c9	0.0027852526
226	0x3c8d65e0	0.017260492
227	0x3c9894fe	0.018625733
228	0x3bf46d2b	0.007459303
229	0x3ba43563	0.005011247
230	0xb6e0da5c	-6.7011406e-06
231	0x3c1de5d9	0.0096373195
232	0x3aec171e	0.001801226
233	0x3c80a39b	0.015703013
234	0x3c56e714	0.013116617
235	0x3cb77b43	0.022397643
236	0x3c91a437	0.017778499
237	0x3c62e848	0.0138493255
238	0x3c77391a	0.015089298
239	0x3bbb2aa7	0.0057118717
240	0x3c7b51dc	0.015339341
241	0x3cd52108	0.026016727
242	0x3ca79f83	0.020461803
243	0x3b0f5341	0.0021869692
244	0x3bf6abe0	0.0075278133
245	0x3ca44da0	0.020056546
246	0x3cc434c6	0.023950946
247	0x3c96744b	0.018366
248	0x3d425de0	0.047452807
249	0xbad96eba	-0.0016588785
250	0x3ad94863	0.0016577359
251	0x3c013016	0.007885
252	0x3cb02ebf	0.021506665
253	0x3c69f0d3	0.014278608
254	0xbac1d2bc	-0.0014787535
255	0x3d77791d	0.060418237

linear2.weight f4 [59, 256]
0	0x3d1b78a4	0.03795685
1	0x3d5c8e1a	0.053846456
2	0x3da5b33b	0.08090826
3	0x3e0b0878	0.1357745
4	0x3d0ee2b0	0.034884155
5	0x3d8a3d89	0.06750018
6	0xbf04d863	-0.5189268
7	0x3d2c81bc	0.04211591
8	0xbce53953	-0.027981436
9	0x3d5f298d	0.054482985
10	0x3d76d21e	0.060258977
11	0x3db2f546	0.087381884
12	0xbf00205c	-0.50049376
13	0x3cfd7b97	0.030942721
14	0x3d525b2b	0.051356476
15	0x3d977a89	0.073964186
16	0x3d5a2f5f	0.053267833
17	0xbd069129	-0.03285328
18	0xbf10f0a7	-0.56617206
19	0x3d530308	0.051516563
20	0x3d9d70d2	0.076875344
21	0xbe96805f	-0.29394814
22	0x3d34fb09	0.04418472
23	0x3d55ecb8	0.052227706
24	0x3d531399	0.05153236
25	0xbefd7d22	-0.4950953
26	0x3dd3097e	0.10304545
27	0xbdb6651d	-0.089060046
28	0xbee80574	-0.4531666
29	0xbd39ec56	-0.045391403
30	0xbee907be	-0.4551372
31	0xbe73f2f9	-0.23823155
32	0x3d730699	0.059332464
33	0xbd5aa5f7	-0.053380933
34	0xbe660881	-0.22464181
35	0x3d1f8ff0	0.03895563
36	0x3db641cb	0.08899268
37	0x3da31696	0.07963292
38	0x3ca1b84f	0.019741205
39	0xbead2fa3	-0.33825406
40	0xbe31e27b	-0.17371552
41	0xbef57549	-0.47941044
42	0xbe9b88d9	-0.30377844
43	0x3d64d6c0	0.055868864
44	0x3d7767fb	0.060401898
45	0x3da5f62a	0.08103593
46	0xb0335a7d	-6.524841e-10
47	0x3d73036b	0.05932943
48	0x3e0566c5	0.13027485
49	0xbed75811	-0.42059377
50	0x3d7fd110	0.062455237
51	0x3d985efa	0.0743999
52	0x3d87a6ef	0.06623637
53	0xbf12dee0	-0.5737133
54	0xbe31e713	-0.17373304
55	0x3b9f0423	0.004852788
56	0xbe19672d	-0.14980765
57	0xbec0b594	-0.37638533
58	0xbef76b84	-0.48324215
59	0xbef007e7	-0.4688103
60	0xbe78d27d	-0.24299045
61	0x3d23298c	0.039834544
62	0x3d94a5d2	0.0725819
63	0x3d9c2a38	0.0762524
64	0x3dbd75f3	0.09251013
65	0x3da345ff	0.07972335
66	0x3d385d82	0.04501105
67	0xbd678b22	-0.05652917
68	0x3ba51d5b	0.0050389
69	0x3d2d8471	0.042362634
70	0xbd11a1fd	-0.035554875
71	0x3d91d922	0.07121493
72	0x3d8ee55b	0.0697734
73	0xbe08c65e	-0.13356921
74	0xbc9a811c	-0.018860392
75	0x3d96d7f1	0.07365406
76	0x3d93515f	0.07193255
77	0xadfd150e	-2.877212e-11
78	0x3df848b8	0.12123245
79	0x3d97ea9f	0.07417797
80	0xbe4b1be0	-0.19834852
81	0x3caf35f3	0.02138803
82	0x3d89ed65	0.067347325
83	0xbf0457d1	-0.516965
84	0x3df118b7	0.11772292
85	0x3d744ba9	0.059642468
86	0x3da9c9a1	0.08290411
87	0xbeda17f6	-0.42596406
88	0xbcb1626b	-0.021653375
89	0x3dccb54f	0.09995519
90	0x3ced543d	0.028970832
91	0xbe924b13	-0.28572902
92	0xbc4179a5	-0.0118087875
93	0xbeb204c6	-0.34769267
94	0xbe8a0bd2	-0.26962143
95	0xbd910f45	-0.070829906
96	0x3d2cab5c	0.04215561
97	0xbe994239	-0.29933336
98	0x3e020a1c	0.12699169
99	0xbe6a9482	-0.22908214
100	0xbe878a9e	-0.26472944
101	0x3d389304	0.04506208
102	0xbeb08c9a	-0.3448227
103	0xbd2e1b82	-0.042506702
104	0x3d88bf39	0.06677098
105	0xbedd8cf5	-0.43271604
106	0x3d8bda3a	0.06828733
107	0xbef2136d	-0.47280446
108	0x3d02db6b	0.031947535
109	0x3d50bccf	0.050961312
110	0x3c93c0de	0.018036302
111	0xbdfd9e36	-0.12383692
112	0xbd9d2472	-0.07672967
113	0x3dca4ca1	0.09877897
114	0x3ce558d1	0.027996453
115	0x3bbb56cc	0.005717134
116	0x3d9415b0	0.07230699
117	0x3d196aa7	0.037455227
118	0x3dbca697	0.09211462
119	0x3dc70291	0.097172864
120	0x3d9ae672	0.07563485
121	0xbe6bc784	-0.23025328
122	0x3c8a1ce1	0.016859474
123	0xbd2485ac	-0.040166542
124	0x3d6a083c	0.05713676
125	0x3da9477e	0.08265589
126	0xbebb12f1	-0.3653789
127	0x2fa2a177	2.9582356e-10
128	0x3d7ef0f0	0.062241495
129	0x3d9376c7	0.07200389
130	0xbe903445	-0.28164878
131	0xbdd62598	-0.10456389
132	0xbcaf38b3	-0.021389341
133	0x3ba56837	0.005047824
134	0xbe5ec71f	-0.21755646
135	0xbda2b9f8	-0.07945627
136	0x3da9b239	0.082859464
137	0xbe4337a2	-0.19064191
138	0xbdf0b7fd	-0.11753843
139	0x3dcad264	0.0990341
140	0x302d4b67	6.3044187e-10
141	0xbea9ea98	-0.33186793
142	0xbd896180	-0.0670805
143	0xbabdc86a	-0.0014479284
144	0x3da38492	0.0798427
145	0x3ddd33e9	0.10800917
146	0x3ccf1c48	0.02528204
147	0xbecd85e6	-0.4014122
148	0xbe24786a	-0.1606156
149	0x3da8f544	0.08249906
150	0xbf00ff9d	-0.50390035
151	0xbe8358b2	-0.25653607
152	0x3d3164e8	0.043309122
153	0x3dc85939	0.09782643
154	0x3db3304d	0.08749447
155	0xbd1ae979	-0.037820313
156	0xbf080b0d	-0.5314186
157	0xbe87913c	-0.26477993
158	0xbf01f422	-0.5076314
159	0x3da5502e	0.08071934
160	0x3dd6d458	0.1048972
161	0xbcea374e	-0.028590824
162	0x3d9c06b9	0.0761847
163	0xbc92e1b5	-0.017929891
164	0x3d6dbaa6	0.05803933
165	0x3e00fafd	0.12595744
166	0xbc701c6a	-0.014655212
167	0x3d8ba8dc	0.06819317
168	0xbebcaba9	-0.36849716
169	0x3d423a86	0.047419094
170	0xbf013f3b	-0.5048711
171	0x3dbc3a9d	0.09190867
172	0x3be4e1dd	0.006984933
173	0xbea197e8	-0.31561208
174	0xbcce7d42	-0.025206212
175	0xbe61e1af	-0.22058748
176	0x3d826dbf	0.06368589
177	0x3c98a53a	0.018633474
178	0x3e057b77	0.1303538
179	0xbd28a62f	-0.04117411
180	0x3d8465ae	0.06464706
181	0x3d156e4b	0.036482137
182	0x3d0ca40b	0.03433613
183	0xbeb7e049	-0.35913303
184	0x3d434058	0.047668785
185	0xbd4b8961	-0.04969156
186	0x3da1ad6b	0.07894405
187	0xbeea32ed	-0.45741978
188	0xbde66a0c	-0.112506956
189	0xbd18d453	-0.037311863
190	0x3dd74cc0	0.10512686
191	0x3d9369a1	0.071978815
192	0xbda69750	-0.08134329
193	0xbdde57c9	-0.108565874
194	0x3d8bc830	0.06825292
195	0xbd0e4c65	-0.034740824
196	0xbda16745	-0.07881025
197	0xbe924d02	-0.28574377
198	0xbdc694ea	-0.09696372
199	0xbeac4393	-0.33645305
200	0x3d22e42d	0.039768387
201	0xbe086276	-0.1331881
202	0xbef9f580	-0.48820114
203	0xbf02577e	-0.5091475
204	0xbd2d039d	-0.042239774
205	0x3d44f26e	0.04808276
206	0x3d715f32	0.058928676
207	0x3d900eb4	0.070340544
208	0x3d34522a	0.04402367
209	0x3b7076d9	0.0036691932
210	0x3dac079e	0.0839989
211	0x3e33b276	0.17548546
212	0x3dc6fcb9	0.09716172
213	0x3dc9dea5	0.09856919
214	0x3e323f77	0.17407022
215	0x3da9c1c6	0.082889125
216	0xbd065d0b	-0.032803576
217	0x3d96b996	0.073596165
218	0x3d851d00	0.06499672
219	0xbe925313	-0.28579006
220	0x3d427654	0.047476128
221	0xbe59effb	-0.21282952
222	0x3dc7170b	0.09721192
223	0xbd4c3eed	-0.0498647
224	0x3d77fa7d	0.06054162
225	0xbe42298b	-0.1896116
226	0x3da64b06	0.08119778
227	0x3dbc6f82	0.09200956
228	0x3dcb6155	0.09930674
229	0x3cd56495	0.026048938
230	0x3d460d96	0.0483528
231	0x3d70c116	0.05877789
232	0xbf02d131	-0.5110045
233	0x3d8be351	0.068304665
234	0x3d4f6bfb	0.050640088
235	0x3d862009	0.06549079
236	0x3d857289	0.065159865
237	0x3d2056ab	0.039145153
238	0x3ce56cbb	0.028005948
239	0x3d64a948	0.0558255
240	0x3d4362c9	0.04770163
241	0x3d174713	0.036933016
242	0xbd31378a	-0.043265857
243	0x3bc292cf	0.005937911
244	0xbef984fa	-0.48734266
245	0xbd8e821d	-0.06958411
246	0x3dbb9051	0.091583855
247	0x3dd191eb	0.1023291
248	0x3d923004	0.071380645
249	0xbe9b7fbe	-0.30370897
250	0x3d5353dc	0.051593646
251	0xbf02c699	-0.51084286
252	0xbde59035	-0.11209146
253	0x3d5a757d	0.0533347
254	0xbe0015aa	-0.12508264
255	0x3d8cb2f1	0.06870068

linear2.bias f4 [59]
0	0xbc849f8d	-0.016189361
1	0xbc98997f	-0.01862788
2	0xbc5a177b	-0.013311262
3	0xbc592e47	-0.013255662
4	0xbc3a8940	-0.011385262
5	0xbca25e8b	-0.019820472
6	0xbcaa6d5b	-0.020804098
7	0xbc932297	-0.01796083
8	0xbc6c2b64	-0.014414642
9	0xbc3c30c3	-0.011486235
10	0xbc804304	-0.015656956
11	0xbc954e75	-0.018225888
12	0xbc93c8f4	-0.018040158
13	0xbc9616ed	-0.018321479
14	0xbc6e8b0f	-0.014559521
15	0xbc023ea0	-0.007949501
16	0xbc9110af	-0.01770815
17	0xbc49e80d	-0.012323392
18	0xbca20f18	-0.019782588
19	0xbc84fcc0	-0.016233802
20	0xbc381a33	-0.011236715
21	0xbc10dc32	-0.008841561
22	0xbca69d30	-0.020338625
23	0xbc828588	-0.015932813
24	0xbc692f0c	-0.014232408
25	0xbc9dca71	-0.01926157
26	0xbc935627	-0.017985417
27	0xbc1b0e59	-0.00946387
28	0xbc93b750	-0.018031746
29	0xbc800ff0	-0.0156326
30	0xbc8c7f35	-0.0171505
31	0xbc744dcd	-0.014911127
32	0xbc3d677b	-0.011560316
33	0xbc9af236	-0.018914323
34	0xbc8d7c17	-0.017271085
35	0xbca48dbb	-0.020087114
36	0xbc4149bd	-0.011797366
37	0xbc7c766b	-0.015409092
38	0xbc800afc	-0.015630238
39	0xbc3655cc	-0.011128854
40	0xbc7ac6ea	-0.015306214
41	0xbcac5a3a	-0.021039117
42	0xbc7fc303	-0.015610459
43	0xbc98d5e0	-0.018656671
44	0xbc566a64	-0.013086889
45	0xbc805289	-0.015664356
46	0xbc8ddfbf	-0.017318605
47	0xbc8f80fc	-0.01751756
48	0xbcaf0851	-0.02136627
49	0xbc8459b9	-0.016156064
50	0xbc15a625	-0.00913385
51	0xbc9d6531	-0.01921329
52	0xbc2e2c0e	-0.010630621
53	0xbc9eea64	-0.019398876
54	0xbc8becfa	-0.017080773
55	0xbc4f9de1	-0.012671919
56	0xbc2e9dfc	-0.010657784
57	0xbc69891b	-0.01425388
58	0xbc72b5b6	-0.014813831
