intermediary/model_11650.pth (torch, 356400 bytes, 5 tensors)

embed.weight f4 [59, 128]
0	0xbeadfe48	-0.33983064
1	0x3e69e373	0.22840671
2	0xbec94248	-0.3930838
3	0xbeadc471	-0.33938935
4	0x3ecbca49	0.3980277
5	0x3ecd0b54	0.40047705
6	0xbe18ca16	-0.1492084
7	0xbee179f4	-0.44038355
8	0x3ee12c59	0.43979147
9	0x3ea61262	0.324359
10	0xbeb23f3e	-0.34813875
11	0xbec5b903	-0.38617715
12	0x3cb0fdbb	0.021605363
13	0xbe5d9866	-0.21640167
14	0xbeae1603	-0.3400117
15	0x3ebcb530	0.36856985
16	0xbe73b64c	-0.2380001
17	0xbede1ae8	-0.43379903
18	0xbeac5c02	-0.33663946
19	0x3ecb44aa	0.39700824
20	0x3ecd2a66	0.4007141
21	0x3e7a41e3	0.24439196
22	0x3e0e4af4	0.1389578
23	0x3e2c01eb	0.16797607
24	0x3ea00b54	0.31258643
25	0x3eda686f	0.42657802
26	0xbeb55036	-0.3541276
27	0x3e88da07	0.26728842
28	0x3d0a3e1d	0.033750642
29	0x3eccfdce	0.40037388
30	0x3ed28081	0.41113666
31	0xbe1bb794	-0.15206748
32	0xbed6c3c0	-0.4194622
33	0xbecca388	-0.39968514
34	0xbe9dfb85	-0.30855957
35	0xbe87221b	-0.26393208
36	0x3e864b16	0.2622916
37	0x3ef9594e	0.48700947
38	0x3e6cd0fe	0.23126599
39	0xbe029c7e	-0.1275501
40	0xbdc32cc3	-0.09530022
41	0xbe9951c2	-0.2994519
42	0x3ee27460	0.44229412
43	0x3e730f1f	0.23736237
44	0x3ede6e67	0.43443605
45	0x3dd9e611	0.10639585
46	0x3ed53ff4	0.41650355
47	0x3ef87ba5	0.48531833
48	0xbebceb3c	-0.3689822
49	0xbe934c53	-0.28769168
50	0x3ef64e8a	0.48106796
51	0x3eca53fb	0.39517197
52	0xbeaf1489	-0.34195355
53	0xbec4a3f0	-0.38406324
54	0x3eb17440	0.34659004
55	0x3e439c8e	0.1910269
56	0xbec3579d	-0.3815278
57	0x3e3626b7	0.17788206
58	0xbea76036	-0.3269059
59	0x3ec99d3c	0.39377773
60	0xbe8e6c97	-0.27817222
61	0x3ec099ab	0.3761724
62	0xbedfc321	-0.4370356
63	0xbecd59cd	-0.40107575
64	0xbeb05111	-0.3443685
65	0x3e4ebd54	0.2018941
66	0xbe3f6dbe	-0.18694207
67	0x3dacd073	0.08438196
68	0x3ebf2cf4	0.37338984
69	0xbee4bd56	-0.44675702
70	0xbe1adb11	-0.1512263
71	0xbed5408c	-0.41650808
72	0xbecb8141	-0.3974705
73	0xbed72a3d	-0.42024413
74	0x3e840737	0.25786754
75	0xbe94500c	-0.2896732
76	0x3eeca147	0.46216795
77	0x3ea0719a	0.3133667
78	0x3e7208e0	0.23636198
79	0x3ed4532c	0.41469705
80	0x3eb43ab7	0.35201046
81	0xbe9934e5	-0.29923168
82	0xbe311363	-0.17292552
83	0xbef89971	-0.48554567
84	0x3ed1309c	0.408574
85	0xbea48bd7	-0.3213794
86	0x3d095faa	0.033538498
87	0xbea772c2	-0.3270474
88	0xbee4738b	-0.44619402
89	0x3ecd636b	0.40114912
90	0x3eaa9480	0.33316422
91	0xbea23f30	-0.31688833
92	0x3ed1045c	0.40823638
93	0xbefe2342	-0.49636275
94	0xbeaffd69	-0.34373024
95	0x3eb39a55	0.35078683
96	0x3e8f3747	0.2797186
97	0x3ee41d72	0.44553715
98	0xbe924305	-0.28566757
99	0x3eb1b95a	0.34711725
100	0x3e81244d	0.25223008
101	0xbee3d707	-0.4449999
102	0xbe8f7528	-0.2801907
103	0x3e3f9015	0.18707307
104	0x3edc41c5	0.43018928
105	0xbecfabed	-0.40560856
106	0x3ee19f15	0.44066682
107	0x3eddd53c	0.43326747
108	0x3e8eb310	0.2787099
109	0xbea34eed	-0.31896153
110	0xbed5b61b	-0.41740498
111	0xbe7b9cf2	-0.24571589
112	0x3ea86707	0.32891104
113	0xbe4828b1	-0.19546773
114	0xbee09cd6	-0.43869656
115	0xbed66fcc	-0.4188217
116	0x3eb819db	0.35957226
117	0xbeda9aa9	-0.4269612
118	0x3d95a7ed	0.0730742
119	0xbe926a8c	-0.28596914
120	0x3edf108d	0.43567315
121	0xbeb1a3b4	-0.34695208
122	0x3ec1420e	0.37745708
123	0x3ea643f7	0.32473728
124	0xbed8725e	-0.42274755
125	0x3e916cb9	0.2840326
126	0x3ee1b15c	0.44080627
127	0x3ef04417	0.46926948
128	0x3e572a62	0.21012262
129	0x3eabde06	0.33567828
130	0xbde36ccd	-0.111047365
131	0xbee9c243	-0.45656022
132	0xbeaee575	-0.34159437
133	0xbe37562f	-0.1790397
134	0xbe107cd4	-0.14110118
135	0xbed2273a	-0.41045552
136	0xbe2426d6	-0.1603044
137	0x3ee2df54	0.4431101
138	0xbecce87f	-0.4002113
139	0x3e5aca20	0.21366167
140	0x3ee5c24c	0.448748
141	0x3f00fcf8	0.50386
142	0xbe6d8f36	-0.23199162
143	0x3df365ef	0.11884677
144	0x3e6cb600	0.23116302
145	0x3c0c4b6c	0.008562904
146	0x3eb631a3	0.35584745
147	0xbec60d9d	-0.3868226
148	0x3ec2f8d3	0.38080463
149	0xbebd9e91	-0.3703504
150	0xbedae705	-0.4275438
151	0xbeb39478	-0.3507421
152	0xbe4ff99b	-0.2031006
153	0x3c29e1c7	0.010368771
154	0x3e9cd980	0.3063469
155	0xbef7d8da	-0.48407632
156	0xbee8d17f	-0.45472333
157	0xbe36510b	-0.17804353
158	0xbe65cfcf	-0.22442554
159	0x3ebe50d8	0.37171054
160	0x3eba0b19	0.36336592
161	0xbef4490a	-0.47711974
162	0x3eff66b1	0.49883035
163	0x3ece0715	0.40239778
164	0xbec99ada	-0.39375955
165	0xbeb05204	-0.34437573
166	0xbeda0608	-0.42582726
167	0x3ebff802	0.37493902
168	0x3ef6ca72	0.4820133
169	0x3eff37f4	0.49847376
170	0xbec9f98d	-0.39448205
171	0x3ed93a49	0.4242728
172	0xbe659410	-0.22419763
173	0xbed7e62d	-0.42167798
174	0x3f01a24c	0.5063827
175	0x3ec89be5	0.39181438
176	0xbca30539	-0.019899951
177	0xbedaf1a9	-0.42762497
178	0x3eda3625	0.42619434
179	0x3ec9c0bf	0.39404866
180	0xbed3dc98	-0.41379237
181	0x3e6a6351	0.22889449
182	0xbe8e8cf1	-0.27841905
183	0x3e9b8c25	0.3038036
184	0xbed79435	-0.4210526
185	0x3e0197ef	0.12655614
186	0x3edc5992	0.43037087
187	0x3dd00b05	0.10158352
188	0x3ebf5b70	0.3737445
189	0xbe8ebbde	-0.27877706
190	0xbed6d2a1	-0.41957572
191	0xbeafff5d	-0.34374514
192	0xbe17925c	-0.14801925
193	0x3ea1db5b	0.31612667
194	0x3ee21e9a	0.44163972
195	0x3ee272a1	0.4422808
196	0xbebf31f2	-0.37342793
197	0xbed9a048	-0.42505097
198	0x3edb9569	0.42887428
199	0x3ec4dfe4	0.38452065
200	0x3ebe332f	0.37148425
201	0x3da75387	0.081702285
202	0xbeddc806	-0.43316668
203	0xbec1ee76	-0.37877244
204	0xbe4eb03a	-0.20184413
205	0x3e902971	0.28156617
206	0xbe9cfaa1	-0.30659965
207	0x3e74e5f5	0.23915847
208	0xbefeef7b	-0.49792084
209	0xbea384df	-0.3193731
210	0x3c9201d6	0.017823141
211	0xbedae358	-0.42751575
212	0xbec2553f	-0.37955663
213	0xbe87c9db	-0.2652119
214	0xbeb21750	-0.3478341
215	0xbed7e8e6	-0.42169875
216	0x3ead5060	0.33850384
217	0xbed11cf0	-0.4084239
218	0xbedd2423	-0.43191633
219	0x3db11f9a	0.08648606
220	0x3e720fdc	0.23638862
221	0xbee11723	-0.43962964
222	0x3ec19f8f	0.37817046
223	0x3e95629d	0.29176798
224	0xbdde0c1e	-0.10842155
225	0xbe712d2a	-0.23552385
226	0x3e5fb95f	0.21848057
227	0xbe7b342a	-0.24531618
228	0xbebb67ad	-0.36602536
229	0x3e6bed77	0.23039804
230	0xbd98d0b0	-0.07461679
231	0xbeb57a09	-0.35444668
232	0xbe6b0189	-0.22949804
233	0x3ec2df5b	0.38061032
234	0x3eefa149	0.46802738
235	0x3e7f99fe	0.24961087
236	0xbed6e3fb	-0.4197081
237	0x3ea5dcaa	0.32394916
238	0x3eaedb2d	0.34151593
239	0xbefb18b5	-0.49042287
240	0xbed50a1e	-0.4160928
241	0x3ee1cd69	0.44102028
242	0x3e51da6b	0.20493476
243	0x3ed80748	0.42193055
244	0xbed395d3	-0.41325244
245	0xbdaeeea2	-0.08541609
246	0x3ec333d3	0.38125476
247	0xbeb51755	-0.35369363
248	0xbe82777e	-0.2548179
249	0x3eccfa7f	0.40034863
250	0x3ee8616c	0.45386827
251	0xbe52580e	-0.20541403
252	0xbe90d09c	-0.28284156
253	0xbeb5ef4c	-0.35534132
254	0x3ee4505f	0.44592568
255	0xbecb04b2	-0.3965202

linear1.weight f4 [256, 256]
0	0xbe0933fd	-0.13398738
1	0xbe1127ec	-0.14175385
2	0x3e13eb75	0.14445288
3	0x3e03f200	0.12885284
4	0xbe1b0a7a	-0.15140715
5	0x3cfa8059	0.030578779
6	0x3e2b1a5e	0.16709277
7	0xbc19acdb	-0.009379591
8	0xbe5d49cd	-0.21610184
9	0xbce85018	-0.028358504
10	0x3e3fe6e3	0.1874042
11	0xbe24c4b6	-0.16090664
12	0xbcdfc470	-0.027315348
13	0x3a5c5e82	0.0008406417
14	0xbe1e4969	-0.15457691
15	0x3e0b07c4	0.13577181
16	0x3d8e0646	0.0693479
17	0x3e159985	0.14609344
18	0x3e55872d	0.20852347
19	0x3de69eeb	0.1126078
20	0xbd8434ba	-0.06455369
21	0x3dd8eb4f	0.105917566
22	0x3d5ae92e	0.053445034
23	0x3df629bb	0.12019678
24	0xbca22399	-0.019792365
25	0xbe4db41a	-0.20088235
26	0xbe4839e7	-0.19553338
27	0xbd972e82	-0.073819175
28	0x3dd0fae6	0.10204105
29	0x3c40c7a6	0.01176635
30	0xbdc95cae	-0.0983213
31	0x3c1f23d8	0.009713136
32	0xbcd5502a	-0.026039202
33	0x3ce77a86	0.028256666
34	0x3d0748e4	0.0330285
35	0x3e45937a	0.19294539
36	0x3dd74688	0.105115
37	0xbdf891af	-0.12137162
38	0x3e502899	0.20327987
39	0xbd380b56	-0.044932686
40	0xbcc20ab6	-0.023686748
41	0x3c3a38cc	0.0113660805
42	0xbe20f9a8	-0.15720236
43	0xbccc805d	-0.024963552
44	0xbe024806	-0.12722787
45	0xbe114dae	-0.14189789
46	0xbe003fea	-0.12524381
47	0xbc144873	-0.009050476
48	0xbe32e321	-0.17469455
49	0xbdcf06e4	-0.10108736
50	0xbd05a28d	-0.032625724
51	0xbe2c9407	-0.16853343
52	0x3d649050	0.05580169
53	0xbe0e846c	-0.13917702
54	0xbe21e428	-0.15809691
55	0x3c47608d	0.012169016
56	0x3d7e21e9	0.062044058
57	0xbc117412	-0.008877771
58	0x3e19b683	0.15011029
59	0x3dc4ac18	0.09603137
60	0x3e3ba116	0.18323168
61	0xbd831bec	-0.0640181
62	0x3e194d5f	0.14970921
63	0x3df3a179	0.11896033
64	0x3e2eff29	0.17089523
65	0xbdff99a3	-0.12480476
66	0xbe39b19d	-0.1813416
67	0xbe0c52b2	-0.13703421
68	0xbd3a8032	-0.045532413
69	0xbd5cd78e	-0.053916506
70	0xbd0bf2cd	-0.0341671
71	0xbdb02aff	-0.08601951
72	0xbde51ea7	-0.11187487
73	0xbe20490a	-0.15652862
74	0x3df6379c	0.120223254
75	0x3e53c053	0.20678835
76	0xbe4cb8da	-0.1999239
77	0xbd96ad1c	-0.07357237
78	0xbd310949	-0.043221746
79	0x3de59826	0.11210661
80	0xbda1f19d	-0.07907412
81	0x3e15bf9f	0.14623879
82	0x3e2cf9b9	0.16892137
83	0x3e3dd0c7	0.18536673
84	0xbd083e6f	-0.033262666
85	0x3d83610f	0.06414997
86	0x3d44e81d	0.048072923
87	0x3d99b457	0.075051
88	0x3e0e1e99	0.1387886
89	0xbe291116	-0.16510424
90	0xbe286de0	-0.16448164
91	0x3e142744	0.14468104
92	0x3cc7d0cd	0.024391556
93	0x3e00ec57	0.12590156
94	0xbdabb610	-0.08384335
95	0x3c85a613	0.016314542
96	0x3d208e1c	0.039198026
97	0xbd2b5314	-0.041827276
98	0x3be59074	0.0070057455
99	0x3d0ce725	0.034400124
100	0xbe266394	-0.16248924
101	0x3cd09e79	0.02546619
102	0x3cc52a2d	0.024067963
103	0xbe1df6e1	-0.15426208
104	0xbdd37b75	-0.10326282
105	0x3c59a690	0.0132843405
106	0xbd537491	-0.05162484
107	0xbd111e9b	-0.03542958
108	0xbe4cd2ab	-0.20002238
109	0xbe601db8	-0.21886337
110	0x3c8a300f	0.01686862
111	0x3e22215c	0.15833038
112	0xbe582030	-0.21106029
113	0xbdda26da	-0.106519416
114	0x3e306390	0.1722548
115	0xbdd1f986	-0.10252671
116	0x3e547286	0.20746812
117	0x3e5f6bdb	0.21818487
118	0xbd5f7c1a	-0.05456171
119	0x3d47feec	0.048827097
120	0x3de224c8	0.11042172
121	0x3dd98ed1	0.10622943
122	0xbe421b03	-0.18955617
123	0xbd604a1d	-0.05475818
124	0xbe0ae1c4	-0.13562685
125	0xbd9204b3	-0.071298026
126	0xbd4a2d1a	-0.04935942
127	0xbdf7ea61	-0.12105251
128	0xbbdbd3cc	-0.0067085978
129	0xba84ccf3	-0.001013188
130	0xbddd4862	-0.108048216
131	0xbe37453e	-0.17897508
132	0x3e2c855c	0.16847748
133	0xbe38b61c	-0.18038219
134	0xbe0cef86	-0.13763246
135	0xbc59dec1	-0.013297738
136	0x3dcddc4a	0.100517824
137	0x3e13392d	0.1437728
138	0xbe27a6c9	-0.16372217
139	0xbd94ea44	-0.07271245
140	0xbe5b3836	-0.21408162
141	0xbe68e66b	-0.22744147
142	0x3de387fe	0.11109923
143	0x3a27785b	0.0006388479
144	0xbe6efafc	-0.2333793
145	0xbdebe009	-0.11517341
146	0xbd76642a	-0.060154118
147	0x3d9ab0f8	0.07553285
148	0xbe402b68	-0.18766558
149	0xbd2974d5	-0.041371185
150	0x3e1d0acc	0.1533615
151	0x3d758f50	0.059951127
152	0xbe3479aa	-0.17624536
153	0x3db4df59	0.08831663
154	0xbaf9960d	-0.0019041911
155	0x3defed6a	0.11715205
156	0xbe263dc6	-0.16234502
157	0xbe40a065	-0.18811186
158	0xbc4368f6	-0.01192688
159	0x3e577a74	0.21042806
160	0xbe49bcc4	-0.19700915
161	0x3e47afc1	0.19500639
162	0xbe0da30c	-0.13831729
163	0xbcb1e60a	-0.021716136
164	0xbdb9d88a	-0.09074505
165	0x3dea8710	0.114515424
166	0xbd4aac98	-0.049481004
167	0x3e42c536	0.19020543
168	0xbe4a81e3	-0.1977611
169	0xbe00a12d	-0.12561484
170	0x3d9ffb3a	0.078115895
171	0xbe32adce	-0.17449114
172	0x3db9cba7	0.09072047
173	0xbcc52b5c	-0.024068527
174	0xbe1ce0af	-0.15320085
175	0xbdc7b860	-0.097519636
176	0x3e0de2e7	0.13856088
177	0xbd1e4927	-0.038643982
178	0xbe315543	-0.17317681
179	0x3e03e16d	0.12878962
180	0xbe0a72ec	-0.13520402
181	0xbdcc1be8	-0.0996626
182	0x3d2da53d	0.04239391
183	0xbcc5dd4c	-0.024153374
184	0x3e10adf5	0.1412886
185	0xbe342153	-0.17590837
186	0xbe3e22f4	-0.18568021
187	0xbddb1b77	-0.10698598
188	0xbbaa32bf	-0.0051940377
189	0xbdf07477	-0.11740964
190	0x3d1fe21b	0.03903399
191	0x3e2378f3	0.15964107
192	0x3d1269f1	0.035745565
193	0x3d518b9e	0.05115854
194	0xbd9eca45	-0.077534236
195	0x3d095968	0.03353253
196	0xbe0c39d9	-0.13693942
197	0x3dd9c29b	0.10632821
198	0x3d74ab2e	0.059733562
199	0xbdd1e0c2	-0.10247947
200	0xbe18b799	-0.14913787
201	0x3e23e888	0.16006672
202	0xbddc74f3	-0.10764494
203	0xbc081b76	-0.008307328
204	0xbd6e753c	-0.058217272
205	0xbe3b5890	-0.18295503
206	0xbe02a27c	-0.12757295
207	0xbe581f50	-0.21105695
208	0x3e2eda1f	0.17075394
209	0xbd2cb321	-0.042163018
210	0xbd5d9d5a	-0.05410514
211	0x3d922961	0.07136799
212	0x3e5c73f3	0.21528606
213	0x3c7bb720	0.015363485
214	0x3e425cc3	0.18980698
215	0x3d938f0f	0.07205021
216	0xbe0fb3fa	-0.140335
217	0xbd07d8f8	-0.033165902
218	0x3d97fc59	0.07421178
219	0xbd1f750b	-0.03892998
220	0xbe4a6d58	-0.19768274
221	0xbcfd47ef	-0.03091809
222	0xbdc1a254	-0.0945479
223	0x3d93928b	0.07205685
224	0x3c17b6be	0.009259878
225	0xbcf4bbc3	-0.029874688
226	0x3dcc3584	0.09971145
227	0xbdd1643c	-0.10224196
228	0xbe0ec12a	-0.13940874
229	0xbdace2a2	-0.08441664
230	0xbc7bdc29	-0.0153723145
231	0xbda6ca7d	-0.0814409
232	0xbc3164d5	-0.010827263
233	0xbe357cff	-0.17723463
234	0x3a9c0ade	0.0011905094
235	0xbdedcf13	-0.11611762
236	0x3d863570	0.06553161
237	0x3d4fd80a	0.05074314
238	0xbe23ac9b	-0.15983813
239	0x3cc67492	0.024225507
240	0x3d885869	0.06657488
241	0xbd564ae3	-0.05231751
242	0x3dbd1a33	0.09233513
243	0xbde106a5	-0.109875955
244	0x3c860ac8	0.016362563
245	0xbd3a8024	-0.04553236
246	0xbe43b493	-0.19111852
247	0x3d02e918	0.031960577
248	0xbd9000bf	-0.07031392
249	0xbe4415dc	-0.19148964
250	0xbbcd60e5	-0.0062676542
251	0xbe0784c3	-0.13234238
252	0x3cac2051	0.021011503
253	0xbe256b24	-0.16154152
254	0x3bf64fa1	0.0075168167
255	0x3dd23a56	0.10265033

linear1.bias f4 [256]
0	0x3c7b6237	0.01534324
1	0x3ca37b28	0.019956186
2	0x3a1ad437	0.0005906256
3	0xbbd63835	-0.006537462
4	0x3c982a45	0.018574843
5	0x3964b936	0.00021812771
6	0x3c9677a8	0.018367603
7	0x3c8fbafb	0.017545214
8	0x3c997fe3	0.018737739
9	0x3bf5203f	0.0074806507
10	0x3c830099	0.015991496
11	0x3c60ff42	0.013732733
12	0x3c8859c8	0.016644374
13	0x3c33fe02	0.010985853
14	0x3cdcc6c5	0.02695025
15	0x3d22b640	0.03972459
16	0xbb8af5c6	-0.0042407243
17	0xbb79c367	-0.0038110854
18	0xba4f0562	-0.00078972254
19	0xba10c766	-0.0005522877
20	0xbc73cece	-0.014880849
21	0xbb28c86f	-0.0025754233
22	0x3c28f704	0.010312799
23	0x3c6c5214	0.014423866
24	0x3cc10aed	0.02356478
25	0x3d174ed7	0.036940422
26	0x3ca9a710	0.020709544
27	0x3d2c3969	0.042046938
28	0x3b2a64fe	0.0026000137
29	0x3d382cbf	0.04496455
30	0x3d7d1c07	0.061794307
31	0xb9af6b0d	-0.0003345836
32	0x3c6f6be1	0.014613123
33	0xbbf1698a	-0.0073673176
34	0x3bee213c	0.0072671454
35	0x3b869661	0.004107282
36	0x3c416525	0.0118039
37	0x3cca688c	0.024708055
38	0x3a458fa2	0.00075363566
39	0x3c9db1f7	0.0192499
40	0x3b7078e0	0.003669314
41	0x3c2fc0a6	0.010727083
42	0x3ca88ac3	0.02057398
43	0x3cc40610	0.023928672
44	0xbc478fff	-0.012180327
45	0x3bc016f0	0.0058621094
46	0x2eb42265	8.191562e-11
47	0x3c56aa34	0.013102103
48	0x3cca9751	0.024730356
49	0x3ba3212f	0.004978321
50	0x3c72913d	0.014805135
51	0x3b00c4c0	0.0019648522
52	0x3c4f6490	0.012658253
53	0x3c91f649	0.017817633
54	0x3b60580c	0.0034232168
55	0x3cd6d480	0.026224375
56	0x3b50ec6e	0.0031879204
57	0x3bf58b26	0.0074933944
58	0xbb6538c2	-0.0034976457
59	0xbb93ca7e	-0.004510223
60	0xba8ae88a	-0.0010597866
61	0x3c94e7ef	0.018177
62	0x3c9f956e	0.019480433
63	0x3cc64864	0.02420444
64	0x3b18e596	0.0023330203
65	0x3bb8d702	0.0056408653
66	0x3b9620af	0.004581533
67	0x3d3384d7	0.043827858
68	0xbc437ad2	-0.011931138
69	0x3c1e8659	0.009675586
70	0x3bd86a9c	0.0066045057
71	0x3c1a78b2	0.00942819
72	0x3c07740a	0.008267412
73	0x3bd11bff	0.006381511
74	0x3cbc6fc4	0.023002513
75	0x3bdf46cd	0.00681386
76	0x3c0cb24f	0.008587434
77	0x2cebb1e1	6.6988502e-12
78	0x3b8c6266	0.004284191
79	0x3c23dcd4	0.01000138
80	0x3a11b72a	0.00055586046
81	0x3c148744	0.009065453
82	0x3c30f80e	0.010801328
83	0x3c2822c0	0.010262191
84	0xbbb3b54a	-0.005484258
85	0x3c861849	0.016369002
86	0x3d06d49d	0.032917608
87	0x3b085695	0.002080356
88	0x3c949235	0.018136123
89	0x3c37f5bd	0.011228022
90	0x3b9f6467	0.004864264
91	0x3c0ba550	0.0085233
92	0x3c5d5132	0.013508128
93	0x3ccba368	0.024858192
94	0x3c756ab0	0.01497905
95	0x3c547dc2	0.012969436
96	0x3ce5eaae	0.028066006
97	0x3c1d5195	0.00960197
98	0x3cedc653	0.029025232
99	0x3c05cdbe	0.008166729
100	0x3b3d491a	0.0028882683
101	0xbbf55113	-0.0074864714
102	0x3c3977ff	0.011320113
103	0x3c50396b	0.012709002
104	0x3c866983	0.016407734
105	0x3be81b4c	0.007083332
106	0x3cf72e2c	0.030173384
107	0x3b46a979	0.0030313416
108	0x3b1008ac	0.0021977825
109	0x3c3005dd	0.010743585
110	0x3cdf245f	0.027239023
111	0x3ca712fd	0.020394797
112	0x3d11af44	0.035567537
113	0xbad2e6d7	-0.0016090524
114	0x3c9431d3	0.018090164
115	0x3c3bf04c	0.011470865
116	0x3ce6e982	0.028187517
117	0x3d142a72	0.03617329
118	0x3d179dca	0.037015714
119	0x3d455bbf	0.0481832
120	0x3c8d39dd	0.017239505
121	0x3c5857c8	0.013204522
122	0xbb16f236	-0.0023032553
123	0x3b30dbb2	0.0026986417
124	0x3c58c63b	0.013230856
125	0x3cd6d77b	0.026225796
126	0x3ac30de8	0.0014881464
127	0x2e6c8ee1	5.378709e-11
128	0x3cc8bbd1	0.02450362
129	0x3ca9baa4	0.02071888
130	0x3ca3182b	0.019908985
131	0x3bde5fd0	0.006786324
132	0x3b9903d1	0.0046696444
133	0xbc3b919d	-0.011448291
134	0xba414bce	-0.00073736615
135	0x3c0944fc	0.008378264
136	0x3c2815f8	0.010259144
137	0x3c6e56c0	0.01454705
138	0x3d05a6bb	0.03262971
139	0x3ca7cdcd	0.020483876
140	0x2e788fce	5.6516396e-11
141	0x3ca51e22	0.02015597
142	0x3c29bf04	0.010360483
143	0x3c8535fe	0.016261097
144	0x3ca2c2af	0.019868223
145	0x3bd51c5b	0.0065036244
146	0x3a58bc78	0.000826783
147	0x3c1ceefd	0.009578464
148	0x3ce5ea80	0.02806592
149	0x3c8b0133	0.016968345
150	0x3c02f0ec	0.007992011
151	0x3cb56bd4	0.022146143
152	0x3b0bc3d9	0.002132645
153	0x39debad2	0.00042482332
154	0x3a394404	0.0007067325
155	0x3ae77b31	0.0017660615
156	0x3af3736d	0.0018573828
157	0x3ce7d4fc	0.028299801
158	0x3b36ac71	0.002787378
159	0x3bb97e3b	0.0056608
160	0x3b7a5bee	0.0038201767
161	0x3aea8575	0.0017892556
162	0xbb5eb2d8	-0.003398111
163	0x3c6af777	0.014341227
164	0x3be4cab2	0.006982171
165	0x3cd51855	0.026012579
166	0x3cb9a56d	0.022661889
167	0x3cc8926b	0.02448388
168	0xba6b8a7a	-0.0008985173
169	0x3c0c6c46	0.008570736
170	0x3cf6c2a6	0.030122112
171	0x3c5a504b	0.013324807
172	0x3cda4ebf	0.026648877
173	0x3b72d66a	0.003705407
174	0x3c952ffa	0.018211354
175	0x3b0f6ed4	0.0021886127
176	0x3cc0d32f	0.0235382
177	0xbb41b289	-0.0029555878
178	0x3ce48b25	0.02789838
179	0x3c5476d6	0.012967786
180	0x3bb45732	0.0055035586
181	0xba384ca8	-0.00070304656
182	0x3b021b20	0.0019852594
183	0x3bb1b4c1	0.005423159
184	0x3bd212f0	0.006410949
185	0x3c852b2e	0.016255941
186	0x3c6646a0	0.014054924
187	0x3d736239	0.059419844
188	0x3d130f63	0.035903346
189	0x3d1538ca	0.03643111
190	0x3c68dba7	0.014212525
191	0xbb35ad52	-0.0027721715
192	0x3bf541da	0.0074846568
193	0x3c307b1d	0.01077154
194	0x3b88d418	0.004175674
195	0x3d37ccc2	0.044873007
196	0x3baa75ed	0.005202046
197	0x3c0a788c	0.008451592
198	0x3c0f88a7	0.008760608
199	0x3c72f300	0.0148284435
200	0x3c036edb	0.0080220355
201	0x3cfac94a	0.03061356
202	0xbbfb5d95	-0.007671068
203	0x3d004447	0.031315114
204	0x3cdb4ca7	0.02676995
205	0x3c9bba93	0.019009864
206	0xbc7eb024	-0.015544925
207	0x3caf4af2	0.021398041
208	0x3c475816	0.012166997
209	0x3bd02e9f	0.006353214
210	0x3c72e5da	0.014825309
211	0xbbab622b	-0.0052302084
212	0x3d4626f7	0.048377004
213	0x3b9015b1	0.004397117
214	0xbbf8cd18	-0.0075928085
215	0x3c41d01b	0.011829401
216	0xbb79d882	-0.0038123433
217	0x3b9400d8	0.004516702
218	0x3c87816d	0.016541207
219	0x3c0cafdd	0.008586851
220	0x3bb21092	0.0054341042
221	0x3a10b30b	0.00055198435
222	0x3d454137	0.048157897
223	0x3b9caee8	0.0047815926
224	0x3bff47ea	0.0077905552
225	0x3b900329	0.004394908
226	0x3c77baf4	0.015120257
227	0x3c95d696	0.0182908
228	0x3c164aec	0.009173136
229	0x3b1d8a91	0.002403889
230	0xb9117ee0	-0.00013875542
231	0x3bfe12eb	0.00775372
232	0x3b68e15a	0.003553471
233	0x3c73947f	0.014866947
234	0x3c504a1d	0.0127129825
235	0x3cb2da29	0.021832542
236	0x3c8e69f7	0.017384512
237	0x3c688dd8	0.014193974
238	0x3c44c978	0.0120109245
239	0x3bb4ee8a	0.0055216
240	0x3c5b41a3	0.013382348
241	0x3cd85c6c	0.026411258
242	0x3cb18c7b	0.021673432
243	0x3b0f3111	0.0021849314
244	0x3c0f73f6	0.008755675
245	0x3ca546ec	0.02017542
246	0x3ccdb296	0.02510957
247	0x3c99a1ca	0.018753905
248	0x3d3daf59	0.046309803
249	0xbb18c834	-0.002331269
250	0x3a69caa8	0.0008918443
251	0x3c37d63e	0.011220513
252	0x3cb6b85a	0.022304703
253	0x3c71ef5a	0.0147665385
254	0xbb0eb75a	-0.0021776767
255	0x3d68462a	0.05670754

linear2.weight f4 [59, 256]
0	0x3d117ea5	0.03552117
1	0x3d6166cb	0.05502967
2	0x3da8b62e	0.08237873
3	0x3e09dac1	0.13462354
4	0x3d14486c	0.03620188
5	0x3d8f6e40	0.070034504
6	0xbf05ddb9	-0.52291447
7	0x3d2a2885	0.04154255
8	0xbcd78f5a	-0.026313473
9	0x3d602365	0.054721255
10	0x3d73d360	0.059527755
11	0x3db2eeae	0.08736931
12	0xbf0010b2	-0.50025475
13	0x3d06e1eb	0.032930296
14	0x3d4df0d2	0.050278492
15	0x3d988f08	0.07449156
16	0x3d5c1493	0.05373056
17	0xbd086263	-0.033296954
18	0xbf11c605	-0.5694278
19	0x3d4fe7d8	0.050758213
20	0x3d9e7633	0.077373885
21	0xbe998fc8	-0.2999251
22	0x3d33f1ec	0.043931887
23	0x3d5a8772	0.053351827
24	0x3d56dd87	0.05245736
25	0xbefdc66b	-0.49565443
26	0x3dd04015	0.10168473
27	0xbdb779e9	-0.089587994
28	0xbee83968	-0.45356297
29	0xbd2d8de7	-0.042371657
30	0xbeebc8b8	-0.46051574
31	0xbe71f7d5	-0.23629697
32	0x3d7602a0	0.060061097
33	0xbd4e8b83	-0.050426017
34	0xbe67d293	-0.22638921
35	0x3d21a557	0.03946432
36	0x3db7bb06	0.08971219
37	0x3da2ca3b	0.07948729
38	0x3c9d9bc6	0.019239318
39	0xbeb05f4b	-0.34447703
40	0xbe33f4ac	-0.17573804
41	0xbef7cc7b	-0.48398194
42	0xbe9d1dc2	-0.30686766
43	0x3d656732	0.056006618
44	0x3d7723c2	0.060336836
45	0x3da74ed6	0.08169334
46	0xb06d1579	-8.625061e-10
47	0x3d6ce3b7	0.057834353
48	0x3e04d579	0.12972058
49	0xbed419da	-0.41425973
50	0x3d80ad5d	0.062830664
51	0x3d97d98d	0.074145414
52	0x3d881edd	0.06646512
53	0xbf12941d	-0.5725725
54	0xbe33f221	-0.17572834
55	0x3b2f10b3	0.0026712834
56	0xbe1a14c0	-0.15046978
57	0xbec05d6a	-0.3757127
58	0xbef7fe01	-0.48435977
59	0xbeef959e	-0.46793836
60	0xbe7c94e2	-0.2466617
61	0x3d257fa9	0.04040495
62	0x3d96e3ca	0.07367666
63	0x3d9b4988	0.07582384
64	0x3dbe54dc	0.092935294
65	0x3da5ecd5	0.08101813
66	0x3d3241ab	0.043519657
67	0xbd67b3c8	-0.056567937
68	0x3b8ce484	0.004299702
69	0x3d28e598	0.041234583
70	0xbd068e84	-0.032850757
71	0x3d8efccd	0.06981812
72	0x3d933f20	0.071897745
73	0xbe08343e	-0.13301179
74	0xbca935af	-0.020655481
75	0x3d97e8c4	0.074174434
76	0x3d901ff7	0.07037347
77	0xae337489	-4.0803392e-11
78	0x3dfe9e85	0.12432579
79	0x3d9a0e9c	0.07522318
80	0xbe4c5d3a	-0.19957438
81	0x3cbaa66d	0.022784436
82	0x3d893b04	0.067007095
83	0xbf040218	-0.51565695
84	0x3deecbf8	0.11659998
85	0x3d73afb3	0.05949373
86	0x3da8eb7d	0.08248041
87	0xbedb3034	-0.42810214
88	0xbcb466f8	-0.022021756
89	0x3dcda90b	0.10042008
90	0x3ce77c6b	0.02825757
91	0xbe931d1b	-0.28733143
92	0xbc38e4aa	-0.0112849865
93	0xbeb40475	-0.3515965
94	0xbe8b59e3	-0.27217016
95	0xbd978c87	-0.0739985
96	0x3d2bca34	0.041940883
97	0xbe992f73	-0.29919013
98	0x3e0429ff	0.12906645
99	0xbe6e8810	-0.23294091
100	0xbe89f0d0	-0.26941538
101	0x3d3b5b3d	0.04574131
102	0xbeb15f45	-0.34642997
103	0xbd3f8cfc	-0.046765313
104	0x3d87b364	0.06626013
105	0xbedeaa61	-0.43489364
106	0x3d8fb31c	0.07016584
107	0xbef451d0	-0.47718668
108	0x3d03c7af	0.032172855
109	0x3d540a1c	0.051767454
110	0x3ca06621	0.019579949
111	0xbdfce290	-0.12347901
112	0xbd9da3cc	-0.076972574
113	0x3dcc6b37	0.09981387
114	0x3cea2102	0.028580192
115	0x3b4f7857	0.0031657421
116	0x3d93d62c	0.072185844
117	0x3d1ac40e	0.03778463
118	0x3dbe29b2	0.092852965
119	0x3dc9a76d	0.09846387
120	0x3d9cea66	0.076618955
121	0xbe6f1de5	-0.23351248
122	0x3c8ba24d	0.017045164
123	0xbd1ca1b4	-0.03824015
124	0x3d684e7a	0.056715466
125	0x3da88cf6	0.08230011
126	0xbebd16dc	-0.36931503
127	0x2fde9852	4.0489795e-10
128	0x3d80c34e	0.062872514
129	0x3d93a3ec	0.07209
130	0xbe8fb197	-0.28065178
131	0xbdd46488	-0.10370737
132	0xbcbb4781	-0.022861244
133	0x3b8cfd62	0.0043026665
134	0xbe6190a1	-0.22027828
135	0xbdbbee6d	-0.091763355
136	0x3da9f7c0	0.08299208
137	0xbe482e57	-0.19548927
138	0xbdf21a5c	-0.11821434
139	0x3dc6c6c8	0.09705883
140	0x306545f6	8.3409135e-10
141	0xbe97c95c	-0.29645813
142	0xbd8b2045	-0.06793264
143	0xba02207f	-0.0004963949
144	0x3da0c966	0.07850914
145	0x3ddca76f	0.10774123
146	0x3cdfe830	0.027332395
147	0xbecee456	-0.40408581
148	0xbe274b82	-0.16337398
149	0x3dab37b9	0.08360238
150	0xbf00e928	-0.5035577
151	0xbe847fc4	-0.25878727
152	0x3d398dbe	0.04530119
153	0x3dc83def	0.09777438
154	0x3db58f81	0.08865262
155	0xbd1e0868	-0.038582236
156	0xbf07e12c	-0.5307796
157	0xbe87e8bb	-0.26544747
158	0xbf0245c2	-0.5088769
159	0x3da59a92	0.080861226
160	0x3dd41940	0.103563786
161	0xbd033796	-0.032035433
162	0x3d9bf232	0.076145545
163	0xbc9d5704	-0.019206531
164	0x3d6ed8e5	0.058312315
165	0x3e043b33	0.12913208
166	0xbc9260ac	-0.017868362
167	0x3d89d44f	0.06729948
168	0xbebc85cb	-0.36820826
169	0x3d3ae31d	0.04562675
170	0xbf018bcb	-0.5060393
171	0x3db8c7a0	0.090224504
172	0x3bc9aac9	0.0061543924
173	0xbea2258a	-0.31669265
174	0xbccd72e3	-0.025079196
175	0xbe6579d3	-0.22409754
176	0x3d86751d	0.06565306
177	0x3cabfe79	0.020995365
178	0x3e057236	0.1303185
179	0xbd25683e	-0.040382616
180	0x3d8436ac	0.0645574
181	0x3d1880ca	0.037232198
182	0x3d0e47b1	0.03473634
183	0xbeb776e8	-0.35832906
184	0x3d455f1b	0.048186403
185	0xbd4fd8d8	-0.050743908
186	0x3da4ed7d	0.0805311
187	0xbee9b3b8	-0.45644927
188	0xbde659ae	-0.11247574
189	0xbd19f8eb	-0.037590902
190	0x3dd7fa03	0.10545733
191	0x3d953c82	0.072869316
192	0xbdc27f0e	-0.0949689
193	0xbde1e7ba	-0.110305265
194	0x3d8e5092	0.06948961
195	0xbd12888b	-0.03577475
196	0xbda14951	-0.07875312
197	0xbe932220	-0.28736973
198	0xbdca793a	-0.098864034
199	0xbead958b	-0.33903155
200	0x3d276e96	0.040876947
201	0xbe0798f0	-0.13241935
202	0xbefa3937	-0.48871776
203	0xbeffb594	-0.4994322
204	0xbd2957bd	-0.04134344
205	0x3d43b214	0.04777725
206	0x3d7c145d	0.061542857
207	0x3d91896a	0.07106288
208	0x3d379de4	0.04482831
209	0x3bc5e77f	0.0060395594
210	0x3dac4ce3	0.084131025
211	0x3e351039	0.1768197
212	0x3dc99469	0.0984276
213	0x3dcb8d65	0.09939078
214	0x3e34c4d8	0.17653215
215	0x3da9be7d	0.08288286
216	0xbd040bdc	-0.032237872
217	0x3d959012	0.0730287
218	0x3d84a837	0.06477397
219	0xbe9324c7	-0.28738996
220	0x3d47249b	0.048618894
221	0xbe5c83b1	-0.21534611
222	0x3dc9b614	0.09849182
223	0xbcc94113	-0.024567163
224	0x3d70fc75	0.05883451
225	0xbe41c965	-0.18924482
226	0x3da60a22	0.081074014
227	0x3dc23fb9	0.094848104
228	0x3dc9433e	0.098272786
229	0x3ccff8d7	0.02538721
230	0x3d49f35a	0.049304344
231	0x3d709b03	0.05874158
232	0xbf017b19	-0.5057846
233	0x3d8c7f02	0.06860162
234	0x3d55eb57	0.05222639
235	0x3d880282	0.06641103
236	0x3d87a451	0.06623138
237	0x3d25a9a0	0.04044497
238	0x3cd43731	0.025905224
239	0x3d62355a	0.05522666
240	0x3d445128	0.04792896
241	0x3d1dd317	0.03853139
242	0xbd3974be	-0.04527735
243	0x3b8804f7	0.0041509825
244	0xbef9e367	-0.48806307
245	0xbd90d1cf	-0.07071268
246	0x3dbd0ba7	0.09230738
247	0x3dd30ca0	0.103051424
248	0x3d92270d	0.071363546
249	0xbe9b23e7	-0.3030083
250	0x3d545530	0.051839054
251	0xbf01f7b7	-0.5076861
252	0xbde43950	-0.11143744
253	0x3d5772dc	0.052599773
254	0xbe00518e	-0.1253111
255	0x3d8d59dc	0.06901905

linear2.bias f4 [59]
0	0xbc882c14	-0.01662258
1	0xbc96f817	-0.018428845
2	0xbc6681c0	-0.014069021
3	0xbc51bbd3	-0.012801128
4	0xbc447712	-0.011991279
5	0xbca7298f	-0.020405559
6	0xbcaac138	-0.020844087
7	0xbc935cb0	-0.017988533
8	0xbc72a0ce	-0.014808847
9	0xbc3e7fea	-0.011627177
10	0xbc6d44f5	-0.014481773
11	0xbc8ca050	-0.017166287
12	0xbc9304ad	-0.017946566
13	0xbc99bb2b	-0.018766006
14	0xbc688e56	-0.014194092
15	0xbc0d5fd4	-0.008628804
16	0xbc8f35b7	-0.017481668
17	0xbc4d61d7	-0.012535534
18	0xbc9b8368	-0.018983558
19	0xbc80e9df	-0.015736518
20	0xbc4a6b1d	-0.012354639
21	0xbc120e0e	-0.008914484
22	0xbcad62d0	-0.021165282
23	0xbc83a136	-0.016068082
24	0xbc6248af	-0.013811274
25	0xbc971673	-0.018443322
26	0xbc91cca2	-0.017797772
27	0xbc16a42b	-0.009194414
28	0xbc8cd155	-0.017189661
29	0xbc83f19a	-0.016106416
30	0xbc8eeb88	-0.017446294
31	0xbc883b31	-0.016629787
32	0xbc31ed89	-0.010859855
33	0xbc935204	-0.017983444
34	0xbc89c686	-0.016818296
35	0xbc9d71b0	-0.01921925
36	0xbc497d89	-0.012297996
37	0xbc76156f	-0.015019759
38	0xbc85acbe	-0.016317721
39	0xbc234d65	-0.009967183
40	0xbc700ef1	-0.014652
41	0xbcabc462	-0.020967666
42	0xbc7f4f16	-0.01558282
43	0xbc9a6119	-0.018845128
44	0xbc51bc14	-0.012801189
45	0xbc7c65e2	-0.01540515
46	0xbc8af591	-0.016962798
47	0xbc83b4b6	-0.01607738
48	0xbcacdd48	-0.021101609
49	0xbc78f54a	-0.0151952
50	0xbc1e372f	-0.0096567115
51	0xbc9ecc45	-0.019384513
52	0xbc27c882	-0.010240676
53	0xbc9ceaf1	-0.019154998
54	0xbc90c359	-0.017671274
55	0xbc46c32a	-0.012131492
56	0xbc2c9c80	-0.010535359
57	0xbc6f9b73	-0.014624464
58	0xbc8621cd	-0.01637354
