intermediary/model_13000.pth (torch, 356400 bytes, 5 tensors)

embed.weight f4 [59, 128]
000000 ef 40 ad be 83 a0 6a 3e ca 7c c3 be be 2b ab be
       -0.33838603 0.22912793 -0.38181144 -0.3343181
000010 78 c8 c4 3e e5 4e cb 3e 33 86 06 be 97 a5 e0 be
       0.38434196 0.3970863 -0.1313713 -0.43876335
000020 56 05 dd 3e cb 3e a6 3e ba 1b ab be 74 60 c5 be
       0.43168133 0.32469782 -0.3341959 -0.3855015
000030 9c ee e5 3c 3e e2 64 be fe 9b ae be b5 0f bd 3e
       0.02806788 -0.2235193 -0.34103388 0.36926046
000040 c8 89 5b be 2f 18 dc be 65 3e af be ab 56 ca 3e
       -0.21439278 -0.429872 -0.3422729 0.39519247
000050 a6 f8 cd 3e 3b 18 80 3e c1 b4 1a 3e ea 0f 1f 3e
       0.40228766 0.25018486 0.15108015 0.15533414
000060 bc 32 a2 3e d8 1f d6 3e d7 2a b7 be d7 da 82 3e
       0.31679332 0.4182117 -0.35774872 0.25557587
000070 32 55 b4 3c 80 e5 cd 3e aa d6 d2 3e 66 46 1a be
       0.02201328 0.40214157 0.411794 -0.15065917
000080 29 94 d6 be b2 ac c9 be 42 0d 9d be 3b 54 8a be
       -0.41909912 -0.3938957 -0.30674177 -0.27017388
000090 78 27 8e 3e 23 ae f8 3e b5 db 5f 3e 3f 35 cf bd
       0.27764487 0.48570356 0.21861155 -0.10117578
0000a0 3d 0f c9 bd 61 0a 9d be 54 f2 e1 3e 45 a7 82 3e
       -0.098173596 -0.3067198 0.44130194 0.25518242
0000b0 06 bd d4 3e 88 88 da 3d 5e 53 d6 3e 94 8b f7 3e
       0.41550463 0.106705725 0.4186048 0.48348677
0000c0 83 95 bd be 70 33 95 be 82 2e f7 3e 61 51 c8 3e
       -0.3702813 -0.29140806 0.4827767 0.39124587
0000d0 4e 4a ac be f6 12 c5 be ad 8b ad 3e 46 1d 62 3e
       -0.3365044 -0.3849103 0.33895627 0.2208148
0000e0 9b 83 c3 be 4c 6e 40 3e ee 61 9f be 19 cf c5 3e
       -0.38186345 0.18792075 -0.31129402 0.38634565
0000f0 73 97 94 be 8b 91 be 3e b9 a5 df be ac 7f ca be
       -0.29021797 0.37220415 -0.43681124 -0.3955053
000100 7a a8 ad be cf 10 57 3e fa f4 44 be 2e d4 37 3e
       -0.339176 0.21002506 -0.19234076 0.17952034
000110 4c 25 be 3e cd 5a e4 be ce b0 3f be bf dc d3 be
       0.3713783 -0.44600525 -0.1871979 -0.41379353
000120 71 03 d0 be 37 04 d7 be 2a db 81 3e 2c 5c 96 be
       -0.40627626 -0.41995403 0.2536252 -0.29367197
000130 ac ad ee 3e 96 fe a0 3e 95 db 70 3e dc b1 d4 3e
       0.46616876 0.31444234 0.23521264 0.41541946
000140 9f 1a b3 3e 66 5a 9c be 47 c9 48 be 0d df f8 be
       0.34981248 -0.3053772 -0.19608031 -0.48607674
000150 2b 72 cf 3e 52 a5 a5 be c7 c9 03 3d fe 22 aa be
       0.4051679 -0.32352692 0.03217485 -0.33229822
000160 0c 67 e2 be c4 92 cb 3e 4b 12 a7 3e cb 78 b4 be
       -0.44219244 0.3976041 0.32631144 -0.35248408
000170 a8 9d ce 3e a1 40 fb be e7 83 b3 be 3e 81 b2 3e
       0.40354657 -0.49072745 -0.3506157 0.3486423
000180 0b 5f 8f 3e 9a 71 e2 3e 1a ee 93 be 0f 8c af 3e
       0.280022 0.44227296 -0.28892595 0.34286544
000190 34 0d 75 3e 52 08 e2 be 45 7a 91 be 60 b1 4d 3e
       0.23930818 -0.44146973 -0.28413597 0.20087194
0001a0 1c ab db 3e 86 ad ce be 6a 40 e0 3e c4 ea dd 3e
       0.42903984 -0.40366763 0.43799144 0.43343174
0001b0 02 32 8d 3e 06 84 a1 be 47 ac d5 be a5 f8 78 be
       0.27577215 -0.31546038 -0.41733 -0.243136
0001c0 23 d0 aa 3e 9e bd 53 be 57 12 e2 be 73 e9 d7 be
       0.3336192 -0.20677802 -0.44154617 -0.42170295
0001d0 b9 aa b8 3e b5 61 d7 be 24 89 c3 3d 37 72 93 be
       0.3606775 -0.42066732 0.09547642 -0.28798077
0001e0 44 33 dd 3e 82 6a ae be 65 7a bb 3e ba c7 ab 3e
       0.43203175 -0.34065634 0.36616817 0.33550817
0001f0 cd 28 d7 be d1 03 8f 3e 41 a9 e1 3e ba 53 f2 3e
       -0.42023316 0.279326 0.44074443 0.47329503
000200 24 3b 55 3e 24 d8 a8 3e 86 5c df bd 99 a1 e9 be
       0.20823342 0.32977402 -0.10906319 -0.45631102
000210 48 3e b5 be 5a 30 40 be c2 52 0a be be 31 d3 be
       -0.3539908 -0.18768445 -0.13508132 -0.41248888
000220 c4 d1 27 be c0 89 e1 3e 98 01 c7 be ab 4b 5d 3e
       -0.16388613 0.44050407 -0.38868403 0.21610896
000230 40 10 e3 3e e4 96 00 3f 3b cc 85 be 34 5e f9 3d
       0.44348335 0.5023024 -0.26132378 0.12176171
000240 9d 70 75 3e 8e 67 d6 3c 50 56 bd 3e 61 4f c7 be
       0.2396874 0.026172426 0.36979914 -0.3892775
000250 ff 6f c6 3e cf 40 be be 18 61 d8 be 0a c5 b0 be
       0.3875732 -0.3715882 -0.42261577 -0.3452533
000260 87 28 5a be e6 0a b2 bc fa 0c 9d 3e 9d 82 f4 be
       -0.21304522 -0.021733712 0.30673963 -0.477559
000270 79 2c e9 be 66 87 3f be b1 18 66 be e0 28 bf 3e
       -0.45541742 -0.18703994 -0.22470357 0.37335873
000280 83 47 bb 3e 51 e5 f3 be 83 65 fd 3e 9d 0b d0 3e
       0.36577997 -0.47635892 0.4949151 0.4063386
000290 1f 59 c8 be cf 01 b1 be 58 ac dc be 17 81 c0 3e
       -0.39130494 -0.34571692 -0.43100238 0.37598488
0002a0 4a 94 f2 3e 83 53 fc 3e b8 07 c8 be c2 30 d5 3e
       0.4737876 0.49282464 -0.3906839 0.41638762
0002b0 88 42 68 be 47 20 d7 be 50 e6 01 3f ba 90 c4 3e
       -0.2268163 -0.42016813 0.50742054 0.38391668
0002c0 b3 4a 81 bd c2 88 dd be 64 cf d6 3e 92 d6 c7 3e
       -0.06313076 -0.432684 0.419551 0.39030892
0002d0 30 e6 d2 be 1f 90 68 3e a2 ff 8e be de 35 9d 3e
       -0.41191244 0.22711228 -0.27929407 0.3070516
0002e0 88 57 c8 be 32 3b bd 3d ac 5d dc 3e a6 21 c3 3d
       -0.3912928 0.09239806 0.43040216 0.09527902
0002f0 ce 07 c1 3e a6 14 97 be 3b d1 d3 be f1 f0 ab be
       0.37701267 -0.2950794 -0.41370568 -0.3358226
000300 66 1a 15 be 79 1c 9d 3e 0e de df 3e 61 ca e3 3e
       -0.14560851 0.30685785 0.43724102 0.4449034
000310 e0 03 c1 be 49 1b d8 be d9 08 e0 3e 5f 12 c6 3e
       -0.3769827 -0.42208317 0.4375675 0.3868589
000320 bf b2 bf 3e 97 b5 b5 3d 20 bd da be c2 37 c4 be
       0.3744106 0.08872526 -0.42722416 -0.3832379
000330 0f 35 4a be 15 83 90 3e c8 dc 9b be 22 36 5d 3e
       -0.19746803 0.28225008 -0.3044188 0.21602681
000340 e2 0d 00 bf d5 f5 a2 be 47 d3 bd 3c 46 e9 d8 be
       -0.50021183 -0.3182818 0.023172034 -0.42365474
000350 e2 a4 c0 be 62 cf 83 be d2 c0 b1 be 60 8d d5 be
       -0.37625796 -0.25744158 -0.34717423 -0.41709423
000360 e5 6e b4 3e 4b dc d1 be f4 89 dd be c1 b5 fa 3c
       0.35240856 -0.40988383 -0.43269312 0.030604245
000370 b0 3e 72 3e c4 9b e1 be e1 c2 c2 3e 96 e4 88 3e
       0.23656726 -0.44064152 0.38039306 0.26736897
000380 51 c3 d4 bd ca d3 6e be 90 c1 61 3e 88 43 82 be
       -0.10388816 -0.23322979 0.22046494 -0.25442147
000390 f5 84 bb be c3 ef 7d 3e 19 e9 06 be 66 d1 ba be
       -0.36624876 0.24798493 -0.13174857 -0.36487883
0003a0 6d 4e 70 be cd fd bf 3e 17 00 ee 3e 03 df 88 3e
       -0.23467417 0.37498322 0.46484444 0.26732644
0003b0 32 20 d7 be 89 5a a2 3e 58 6d b2 3e bd b6 f8 be
       -0.4201675 0.31709698 0.34849048 -0.48576918
0003c0 04 05 d3 be 43 cc df 3e 58 2c 4f 3e a5 1e d5 3e
       -0.41214764 0.43710527 0.2023176 0.41624942
0003d0 15 cb d2 be b3 c7 0b be b3 f6 bb 3e ce 7b b7 be
       -0.41170564 -0.13650398 0.36711654 -0.35836643
0003e0 d0 ba 87 be 2d 7d cf 3e 1d b0 e8 3e 4f 6b 66 be
       -0.26509714 0.4052519 0.45446864 -0.22501872
0003f0 a3 5e 8f be c0 16 b3 be 75 30 e1 3e b7 5c c5 be
       -0.2800189 -0.34978294 0.43982282 -0.38547298

linear1.weight f4 [256, 256]
000000 c7 76 05 be 48 b5 10 be db 41 16 3e 79 27 08 3e
       -0.13033591 -0.14131653 0.1467356 0.13296308
000010 be 05 1a be b6 f2 2a 3d f3 26 32 3e 28 c7 23 bc
       -0.15041253 0.041735373 0.1739767 -0.009996213
000020 1b 82 59 be 34 b4 10 bd 6c b7 42 3e 09 6c 21 be
       -0.21241038 -0.035328105 0.19015282 -0.15763868
000030 10 89 2b bc 2e 06 53 3c 00 d9 23 be f6 85 14 3e
       -0.01046969 0.012879891 -0.16000748 0.14504227
000040 3d 0e 92 3d f8 52 15 3e d5 ec 57 3e 5f 57 de 3d
       0.07131622 0.14582431 0.21086438 0.108565085
000050 e1 d9 8d bd a3 86 c5 3d e9 86 1d 3d a6 c0 f3 3d
       -0.06926323 0.096448205 0.03845874 0.11901979
000060 f1 d5 a8 bb eb 03 49 be 7b 5b 3f be 3e 25 9e bd
       -0.005152457 -0.19630401 -0.18687241 -0.07721947
000070 2d ce dc 3d 77 47 77 3c f4 05 cb bd 76 e0 e9 3b
       0.107815124 0.015092722 -0.09913245 0.0071373535
000080 e3 19 da bc 29 78 b8 3b 35 8d d2 3c 4c 5f 45 3e
       -0.026623672 0.0056295586 0.025702098 0.19274634
000090 f6 85 d5 3d e9 b1 f5 bd e2 47 54 3e 66 41 3d bd
       0.10425942 -0.11996824 0.20730546 -0.046204947
0000a0 32 53 47 bc 35 85 a6 3c e9 c8 1d be 9a 9e 9c bc
       -0.012165831 0.02032719 -0.15408672 -0.019118596
0000b0 6c 09 0b be 1b 1a 10 be 91 96 ec bd ea 5d 70 3b
       -0.13577813 -0.14072458 -0.11552156 0.003667707
0000c0 d6 18 39 be 91 88 c7 bd e0 ee de bc 73 65 34 be
       -0.1807588 -0.09742845 -0.027213514 -0.17616825
0000d0 5b 3d 66 3d 97 3a 0f be 9b b6 28 be 60 f6 6b 3c
       0.056210857 -0.13987194 -0.16475908 0.014402002
0000e0 a5 53 60 3d 50 dc 53 b8 cb fb 16 3e de fb bb 3d
       0.05476727 -5.0511502e-05 0.14744489 0.09178899
0000f0 46 37 38 3e 95 5b 47 bd dc 3e 19 3e 0e 7c cf 3d
       0.17989835 -0.048671324 0.14965385 0.101310834
000100 6d 05 21 3e 7c 2f fe bd 35 54 29 be f6 ac 19 be
       0.15724726 -0.12411401 -0.16536029 -0.15007386
000110 d9 65 3f bd 05 7f 4f bd 8f 40 a1 bc 48 2e ad bd
       -0.04672799 -0.050658245 -0.019684104 -0.08456093
000120 84 aa dc bd 59 c5 27 be 8a 31 fe 3d 5c 90 4c 3e
       -0.10774711 -0.16383876 0.124117926 0.19976944
000130 f2 49 43 be 7d cf 70 bd c0 32 0d bd 8e 35 02 3e
       -0.19071177 -0.058791626 -0.034472227 0.12715742
000140 47 d5 da bd fc 25 13 3e 70 55 2d 3e cb 80 3a 3e
       -0.10685211 0.14369959 0.16927123 0.18213193
000150 6e fa 48 bd d0 82 8c 3d 34 20 34 3d 85 03 88 3d
       -0.049066953 0.06860888 0.043976024 0.06641296
000160 cf 12 0b 3e 92 70 21 be 2b bc 29 be a7 8b 21 3e
       0.13581394 -0.15765598 -0.16575687 0.1577593
000170 e4 28 1a 3d e3 5d fc 3d 87 22 93 bd 35 ea a8 3c
       0.037636653 0.12322595 -0.0718432 0.020619491
000180 e4 f4 19 3d fa 65 20 bd 9f 62 11 3a 74 00 31 3d
       0.03758706 -0.039159752 0.0005546007 0.043213323
000190 c2 6f 1c be f3 b8 1a 3d 79 7e 23 3d 4e 4c 19 be
       -0.15277007 0.037774038 0.039915536 -0.14970514
0001a0 2e 1c e0 bd 3e 37 a2 3c 73 1d 53 bd 22 a1 06 bd
       -0.10942875 0.019801732 -0.051541757 -0.032868512
0001b0 0f df 49 be 1a 49 5a be 45 90 fc 3c d1 8d 1d 3e
       -0.19713996 -0.21316949 0.030830512 0.1538613
0001c0 75 ea 5b be bc 23 bb bd 98 c4 20 3e 70 a6 c3 bd
       -0.21476157 -0.09137675 0.15699995 -0.0955323
0001d0 9d dc 53 3e 49 d8 5d 3e 0d f7 02 bd af 52 3c 3d
       0.20689626 0.21664537 -0.031973887 0.04597729
0001e0 41 c7 c5 3d 30 fd ee 3d 9a 7c 3d be f5 32 1d bd
       0.09657145 0.116693854 -0.18504563 -0.038378675
0001f0 e2 80 0b be 26 25 89 bd 27 69 38 bd d3 f5 ff bd
       -0.13623384 -0.066965386 -0.045022156 -0.12498059
000200 10 d4 32 bc 0a 6e d8 39 9f db ba bd bf 83 2c be
       -0.010914817 0.00041280716 -0.09123921 -0.16847132
000210 73 d6 2b 3e 98 ae 36 be 51 5f 04 be 38 96 44 bc
       0.16781025 -0.1784004 -0.12926985 -0.011998706
000220 ac 5b bd 3d 18 c0 17 3e e5 51 21 be 68 5e a0 bd
       0.09246001 0.14819372 -0.15753897 -0.078305066
000230 ba 28 5b be d4 ff 5f be 8d 24 f4 3d a5 6e 00 3b
       -0.21402255 -0.21874934 0.11921034 0.00195972
000240 09 ca 66 be 3e f0 cc bd 28 94 60 bd df 73 b2 3d
       -0.22538008 -0.1000676 -0.054828793 0.08713507
000250 e9 72 41 be be 59 05 bd 83 3d 1d 3e 4a ba 6a 3d
       -0.18891491 -0.032556288 0.15355496 0.057306565
000260 f9 f8 37 be 23 f5 ab 3d b5 6e 87 bc 79 1b e6 3d
       -0.1796607 0.083963655 -0.016532281 0.11235709
000270 10 59 21 be 8a d7 3d be 9c c2 a2 bc c0 d1 57 3e
       -0.15756631 -0.18539253 -0.019868188 0.21076107
000280 7d 9e 4d be 1a 3f 4b 3e ab d0 01 be 21 8d 2f bc
       -0.2007999 0.1984829 -0.12677257 -0.0107148
000290 f8 22 ae bd a4 50 ec 3d 39 4c 3d bd 3c 81 4e 3e
       -0.085027635 0.115388185 -0.04621527 0.20166487
0002a0 9e e4 4a be 10 16 eb bd 6c 4e 91 3d a0 de 2a be
       -0.19813773 -0.114788175 0.07095036 -0.16686487
0002b0 ed 7a c5 3d 2b 4c bd bc c5 97 23 be b0 f8 d1 bd
       0.09642587 -0.023107609 -0.15975864 -0.102525115
0002c0 fd 23 11 3e b0 18 1f bd 76 b3 37 be 80 70 01 3e
       0.14173885 -0.038841903 -0.17939553 0.12640572
0002d0 25 a8 09 be 6b 36 cc bd 40 aa 0e 3d 8f 3e f6 bc
       -0.13443048 -0.09971317 0.03483033 -0.030059127
0002e0 93 83 07 3e ba 96 2f be 1a 73 3c be 1a 9e d4 bd
       0.13233785 -0.17147341 -0.18403283 -0.10381718
0002f0 e5 0a cb 3b b2 67 06 be 6e c5 3c 3d f2 a1 2c 3e
       0.006196367 -0.13125494 0.04608672 0.16858652
000300 45 2e 45 3d 88 98 4c 3d d9 e2 b4 bd 9b d5 b4 3c
       0.04813983 0.049950153 -0.0883233 0.022074511
000310 39 8d 0e be 15 7c ce 3d 5a 16 44 3d 34 46 d8 bd
       -0.1392106 0.100822605 0.04787288 -0.10560265
000320 77 30 10 be e7 3c 1d 3e bd de f2 bd 42 d7 1d 3c
       -0.14080988 0.15355264 -0.1185889 0.009633841
000330 f8 fc 8c bd 28 3c 42 be c5 56 08 be 1e 63 52 be
       -0.068841875 -0.1896826 -0.1331435 -0.20545623
000340 c4 f2 2a 3e 51 ba 05 bd 75 0e 3d bd 59 08 9f 3d
       0.1669417 -0.03264839 -0.046156365 0.07765264
000350 46 63 5c 3e 79 40 37 3c bd 15 3f 3e 1f 3a a8 3d
       0.21522245 0.011184805 0.18660636 0.08214211
000360 41 5f 07 be 81 e1 24 bd fb 26 7d 3d 40 0b f5 bc
       -0.1321993 -0.04025412 0.061804753 -0.029912591
000370 63 b7 4a be 76 c2 d9 bc 75 74 c4 bd cf 4f 9b 3d
       -0.19796519 -0.026581984 -0.09592525 0.07583582
000380 d1 54 8b 3c 91 65 11 bd 80 b8 cf 3d 66 7c d6 bd
       0.017008217 -0.035497252 0.101426125 -0.10472946
000390 12 59 14 be a5 7b bb bd 10 5b ee bb b3 b1 ac bd
       -0.14487103 -0.09154443 -0.007274039 -0.08432331
0003a0 9b 3f c3 bc de 83 36 be 9a 3f b4 3b 51 1e 03 be
       -0.02383404 -0.17823741 0.005500746 -0.12804534
0003b0 29 96 62 3d 4c fb 3d 3d 3e 55 22 be f3 47 fc 3c
       0.055318985 0.046382234 -0.1585283 0.030796027
0003c0 7b 41 63 3d b6 a1 6b bd 2b 1f d7 3d cf 3f d7 bd
       0.05548237 -0.057527266 0.10503992 -0.105102174
0003d0 64 b8 d4 3c 62 00 a8 bc 7d dd 49 be 2e 5c 04 3d
       0.02596683 -0.020507995 -0.19713397 0.032314472
0003e0 91 bc 5f bd b7 8a 3c be 0d db 94 bb 5e 55 0a be
       -0.05462319 -0.1841229 -0.0045427145 -0.13509127
0003f0 1d 04 6d 3c f7 3e 28 be 39 94 96 3c ef 74 bd 3d
       0.014466313 -0.16430269 0.018381225 0.09250819

linear1.bias f4 [256]
000000 6a b6 93 3c bd d5 9e 3c 52 72 2a 3a f3 ed 8e 3b
       0.018031318 0.019389028 0.00065020204 0.004361862
000010 00 14 32 3c c3 c3 14 3b 3f 56 5b 3c f4 d7 17 3c
       0.010869026 0.002269969 0.013387262 0.009267796
000020 78 11 6e 3c 01 c8 01 3c 6b 94 96 3c fc cd 49 3c
       0.014530532 0.00792122 0.018381318 0.012317177
000030 e1 48 88 3c b5 ec 32 3c 15 2d b5 3c ae a9 0c 3d
       0.016636314 0.010920693 0.022116223 0.034341507
000040 c7 c2 94 3b b2 84 04 bb 6f e3 29 bc 06 9c 69 3c
       0.004539821 -0.0020220694 -0.010369166 0.01425839
000050 c4 0d 64 bb 93 93 d9 bb f4 ae 93 3b 8c 5c 80 3c
       -0.0034798244 -0.0066399067 0.00450694 0.01566913
000060 fd 92 db 3c 11 04 22 3d 4f 80 b4 3c 25 d3 0e 3d
       0.026803488 0.03955466 0.022033839 0.034869332
000070 6f bb 8b 39 bf 92 48 3d 9c 9e 7d 3d 7e f0 6d 3b
       0.00026651795 0.048968073 0.06191884 0.0036306675
000080 f3 9e 63 3c e3 b5 0c bc b4 5c c0 3b c4 45 9b 3b
       0.013892877 -0.008588287 0.005870426 0.0047385413
000090 5c 5c f2 3b 71 9c c2 3c df 0f 06 ba 14 46 a6 3c
       0.007396264 0.023756238 -0.00051140593 0.020297088
0000a0 6e 5b 44 3b 92 49 20 3c b8 07 a5 3c 8e 50 ab 3c
       0.0029961723 0.0097831655 0.020145282 0.020912435
0000b0 d4 ac 8a bc 5d d3 cc 3b b0 e6 c5 2c 46 09 30 3c
       -0.016928114 0.0062507824 5.624688e-12 0.010744398
0000c0 d6 85 fb 3c 65 f5 9a 3c 1c 5c 5f 3c 22 77 6a 39
       0.030703466 0.018915841 0.0136328 0.0002236036
0000d0 9d c8 1e bc 0a e8 b6 3c cd 7f 4f 3b 3a 61 b4 3c
       -0.009691385 0.022327442 0.0031661869 0.022019017
0000e0 b2 10 9f 3b 63 09 10 3c 10 b3 b9 ba 5a c6 55 3a
       0.004854285 0.0087913005 -0.0014167745 0.0008154862
0000f0 1c 66 a5 3a 4c c9 a3 3c 4c 38 91 3c 0e be d7 3c
       0.0012618932 0.019993447 0.01772704 0.026335742
000100 83 a7 c3 3b e9 76 e9 3b 12 b7 a0 3b 11 ce 30 3d
       0.0059708967 0.007124771 0.004904636 0.04316527
000110 93 9d 80 bb 46 f0 1f 3c fc 22 11 3b f4 be 2a 3c
       -0.0039250343 0.0097618755 0.0022146096 0.010421503
000120 58 0a 37 3c ae 05 1f 3c b6 4c 9d 3c 8a 34 12 3c
       0.0111719 0.009705944 0.019201618 0.008923659
000130 f4 06 bd 3b 9c 3d 8d 2a 2e f7 63 3c 3a f2 37 3c
       0.005768651 2.5089382e-13 0.013913913 0.011227185
000140 92 68 57 3c 53 24 2e 3c 15 00 17 3c e7 70 61 3c
       0.01314749 0.010628778 0.009216328 0.013759828
000150 ed 66 d5 3b ce 6c cb 3c 59 ea 9b 3c 38 89 8e 3b
       0.006512514 0.024832156 0.019032644 0.004349854
000160 9c e4 8d 3c 20 9e 73 3c 26 30 d8 b8 66 60 be 3b
       0.017320924 0.014869243 -0.00010308651 0.0058098314
000170 5b a3 20 3c ed d7 cf 3c 47 b5 dd 3c 45 e0 71 3c
       0.009804572 0.025371516 0.027063979 0.014762943
000180 c5 de b8 3c cf d2 08 3c 17 83 e2 3c f0 15 9e 3b
       0.022567162 0.008351042 0.0276504 0.0048243925
000190 96 04 6c 3b d1 e5 b5 bb 89 92 33 3c e4 a4 86 3c
       0.0036013476 -0.005551078 0.01096023 0.016436048
0001a0 4e b8 50 3b 5e ca ea 3b 02 2a 21 3d 4b d7 bb 3b
       0.0031848135 0.0071652373 0.039346702 0.005732452
0001b0 74 cb 13 3b e1 8c e3 3b 24 80 f6 3c df 4a a7 3c
       0.0022551687 0.0069442843 0.0300904 0.020421444
0001c0 57 e6 12 3d 34 9f 96 3b 6c c4 a0 3c 85 0a 11 3c
       0.0358642 0.004596615 0.019624911 0.008852606
0001d0 7b f9 fa 3c c7 4d 7f 3c 98 24 20 3d c9 45 3f 3d
       0.03063654 0.015582508 0.0390974 0.04669741
0001e0 d4 84 a7 3c d9 33 72 3c 6f 35 87 bb 2e de b9 3a
       0.02044908 0.014782869 -0.004126243 0.0014180595
0001f0 55 85 25 3c d6 11 d8 3c 6a 05 c1 3b 99 38 a0 2c
       0.01010259 0.026375692 0.005890538 4.553757e-12
000200 54 6b c8 3c 19 f1 c9 3c c2 5a a6 3c 85 eb ea 3b
       0.02446524 0.024651097 0.020306949 0.0071691894
000210 6a a0 2d ba 7e eb d3 3b e5 05 e9 39 a1 e9 b1 3c
       -0.000662333 0.006467282 0.00044445615 0.021717848
000220 00 b2 76 3c 31 cd d8 3b 7d 2d b8 3c 29 c2 a5 3c
       0.015057087 0.0066162576 0.022482628 0.020234184
000230 0a f3 cb 2c 85 5c c9 3c a6 10 0c 3c c2 04 81 3c
       5.7965898e-12 0.02458025 0.008548891 0.015749339
000240 80 03 a2 3c 1e f0 e5 3b c4 c4 23 ba 98 37 08 3c
       0.01977706 0.0070171496 -0.0006247277 0.008314036
000250 e3 12 93 3c 93 a4 93 3c c2 51 04 3c 4f 78 ab 3c
       0.017953342 0.018022811 0.008076133 0.020931391
000260 92 85 36 3b e4 82 60 bb d6 28 89 3b b8 8c 20 3c
       0.002785061 -0.0034257704 0.004185776 0.009799175
000270 27 5f 4e 3b c6 26 de 3c 44 b3 5f 3c 65 d2 90 3b
       0.003148982 0.027118098 0.01365358 0.004419612
000280 fb c8 15 3b d6 cd 9d 3b 40 df 4c 3b c4 19 5d 3c
       0.002285539 0.0048157973 0.0031260997 0.013494913
000290 5e 49 aa 3b 3c 5c c3 3c 54 45 bb 3c ca 34 bb 3c
       0.0051967343 0.023847692 0.022860207 0.02285232
0002a0 d8 4c bd ba a0 3e 22 3c ae 6b 02 3d 49 6f 76 3c
       -0.0014442457 0.009902626 0.031840973 0.015041181
0002b0 53 2f ea 3c 97 44 ad 3b 85 85 8c 3c b5 53 62 3b
       0.02858702 0.0052877176 0.01715351 0.0034534757
0002c0 03 48 68 3c b2 7e 2e bb 63 89 25 3c 94 f1 57 3c
       0.014177325 -0.002662581 0.010103556 0.013180155
0002d0 d7 b8 c7 3b 30 cf 87 b7 1d dc 92 3b 81 b0 91 3b
       0.0060950327 -1.6189733e-05 0.004481806 0.0044460897
0002e0 49 7c da 3b 87 bb 94 3c d7 99 1f 3c 96 03 81 3d
       0.006667648 0.018155826 0.009741268 0.06299512
0002f0 4c 9e 4f 3d 01 c8 24 3d ed 40 6e 3c c5 9c bb bb
       0.050688073 0.0402298 0.014541847 -0.0057254755
000300 ea 99 9a 3c 9e a2 41 3c c8 2a 49 3c 7a 9e 1d 3d
       0.01887222 0.011818556 0.012278266 0.038481213
000310 3e 28 cb 3b 1f 15 c0 3b 24 d9 14 3c d6 67 95 3c
       0.0061998656 0.005861893 0.0090849735 0.01823799
000320 d3 2c 75 3b 23 46 cc 3c 82 15 9a bb e4 46 0b 3d
       0.003741075 0.024935788 -0.004702271 0.034003153
000330 db 74 02 3d 39 ec ad 3c 56 2c 6c bb 4d a4 d3 3c
       0.031849723 0.021230804 -0.0036037168 0.02583518
000340 52 fc 9b 3c a0 94 06 3c 27 df 8b 3c 9c 2b f3 bb
       0.019041214 0.008214146 0.01707418 -0.00742097
000350 11 11 40 3d 0f f8 98 3b c9 d5 fb bb 40 aa 41 3c
       0.046891276 0.0046682428 -0.0076853973 0.011820376
000360 29 f8 ea 3a 30 70 cb 3b dd 95 95 3c 74 86 bc 3b
       0.0017926741 0.006208442 0.018259937 0.0057533327
000370 da 4f b5 3c 82 1a f5 39 00 85 3f 3d 18 39 a3 3c
       0.022132803 0.0004674979 0.046757698 0.019924685
000380 a5 c1 d4 3b bb f5 f2 3b 59 b5 e1 3c 15 90 5f 3c
       0.006492811 0.0074145473 0.027552294 0.013645192
000390 32 33 dc 3b 3e 1b bb 3b 75 fc 54 ba be 2d 85 3c
       0.00671997 0.0057100346 -0.0008124777 0.016257163
0003a0 40 15 a9 bb 04 79 7b 3c 5c 1b 42 3c a8 af ab 3c
       -0.005160004 0.015348677 0.011847343 0.020957783
0003b0 ed 45 8a 3c 57 66 47 3c 79 51 2e 3c c8 f6 1e 3b
       0.016879046 0.012170396 0.010639542 0.002425598
0003c0 50 81 5a 3c 43 f9 cd 3c e3 1d 32 3c 31 98 9a 3b
       0.013336495 0.025143271 0.010871383 0.0047178497
0003d0 4e d6 82 3c d1 71 aa 3c 30 bf e1 3c 84 67 96 3c
       0.015971329 0.020806225 0.027556986 0.018359907
0003e0 db 4d 76 3d fd 48 02 b9 a8 0b 80 3a 08 9d e4 3b
       0.060132843 -0.00012424956 0.0009769099 0.0069767274
0003f0 3e f3 b1 3c 4c 59 5b 3c 23 52 2e ba a3 f3 77 3d
       0.021722432 0.013387989 -0.00066498126 0.060535084

linear2.weight f4 [59, 256]
000000 36 ae 46 3d e8 28 59 3d 0b aa a7 3d b5 d9 04 3e
       0.048505984 0.053017527 0.0818673 0.12973674
000010 a2 65 23 3d c9 14 8b 3d bb 72 07 bf 5c 1b 3a 3d
       0.039891846 0.06791074 -0.5290944 0.04543625
000020 99 9a be bc 51 8a 5a 3d 45 4c 76 3d 2e 7b b3 3d
       -0.023267077 0.053354565 0.06013133 0.08763729
000030 2b 77 fe be e9 b5 06 3d bd 7f 58 3d d4 32 91 3d
       -0.49700293 0.032888327 0.052856196 0.07089773
000040 0a 41 5a 3d 8b 12 14 bd 09 3c 0d bf 44 c8 6b 3d
       0.053284682 -0.036150496 -0.5516973 0.057564035
000050 7f 18 a2 3d 9a 5d a5 be 0f c8 3c 3d de 12 59 3d
       0.079148285 -0.32297975 0.04608923 0.05299651
000060 9d 64 69 3d f5 77 fd be f3 b7 d2 3d 63 26 b4 bd
       0.056980718 -0.49505582 0.10288992 -0.08796384
000070 e5 d7 e5 be ea c1 8b bd d8 2a e9 be 94 86 75 be
       -0.44891277 -0.068240955 -0.455405 -0.23977119
000080 10 3d 72 3d 68 3d 8e bd 64 42 5e be 8f 8f 1f 3d
       0.059140265 -0.06945306 -0.21705014 0.038955268
000090 f1 f4 b1 3d 5d b2 a2 3d 01 9f a2 3c 8a 1d a3 be
       0.08689297 0.07944176 0.01985121 -0.31858474
0000a0 75 75 2d be 12 a5 f6 be f6 c0 98 be 80 bc 6f 3d
       -0.16939338 -0.48172814 -0.29834718 0.058529377
0000b0 98 ab 6f 3d 8f 93 a1 3d 67 98 8c ae 55 4e 7e 3d
       0.058513254 0.07889473 -6.393535e-11 0.062086422
0000c0 3c 3b 06 3e dd b2 dd be b4 a1 78 3d 43 bc 9d 3d
       0.13108534 -0.43300524 0.060701087 0.07701924
0000d0 bd 64 a1 3d f7 ec 14 bf 9a 83 2d be a4 70 6e 3b
       0.078805424 -0.5817408 -0.16944733 0.0036383057
0000e0 6e 27 1e be db 83 c0 be 36 29 f8 be 98 8e eb be
       -0.15444729 -0.37600598 -0.4846894 -0.46007228
0000f0 6a f4 6f be 9d df 05 3d 17 6f 91 3d 1a 73 9d 3d
       -0.2343308 0.032683957 0.07101267 0.076879695
000100 c2 64 be 3d 2a 35 a7 3d 29 a3 33 3d 4d 1a 5e bd
       0.09296562 0.08164437 0.043856774 -0.0542243
000110 97 fd 4f 3c b2 79 33 3d 73 49 15 bd 1c 8e 95 3d
       0.012694738 0.04381723 -0.036447 0.07302496
000120 0a 27 8a 3d cd a6 08 be 14 7f b9 bc 51 86 98 3d
       0.06745727 -0.1334488 -0.022643603 0.07447494
000130 2b 55 97 3d 17 21 0e ac 7d 64 f1 3d c8 09 9b 3d
       0.073892914 -2.0197782e-12 0.11786745 0.07570225
000140 42 8a 35 be 6c ca b8 3c c2 65 8c 3d 0d a5 ff be
       -0.17728522 0.02255746 0.06855346 -0.4993061
000150 63 98 fc 3d 92 85 74 3d 16 01 9f 3d 69 e2 d9 be
       0.12333753 0.059697695 0.07763879 -0.4255555
000160 93 2d bc bc 92 a4 cb 3d 78 87 e1 3c 8a 2c 90 be
       -0.02297095 0.09943499 0.027530417 -0.2815898
000170 4e 99 74 bc c0 aa b1 be 8a a8 84 be 7e 26 88 bd
       -0.014929129 -0.34700584 -0.25909835 -0.06647967
000180 ce 17 35 3d 38 7e 96 be 89 71 01 3e 9d 7b 71 be
       0.044212155 -0.29393172 0.12640966 -0.23582311
000190 1c 8d 87 be bf 34 37 3d 23 30 b1 be a8 30 0c bd
       -0.26474845 0.044728037 -0.34607038 -0.03422609
0001a0 21 ed 81 3d 93 56 db be 96 d1 85 3d fa 81 f2 be
       0.06344057 -0.42839488 0.06534116 -0.4736479
0001b0 1f ae fd 3c 4e 73 54 3d 45 db a8 3c c0 19 13 be
       0.030966816 0.051867776 0.020612368 -0.14365292
0001c0 53 31 9b bd 7e 82 c8 3d 76 cc 12 3d 1f b6 1d 3c
       -0.07577767 0.097905144 0.03583952 0.009625941
0001d0 b8 fe 92 3d e9 d7 23 3d c8 e4 b9 3d b7 52 ca 3d
       0.0717749 0.04000083 0.0907684 0.09879058
0001e0 54 37 9d 3d 9d 4d 6e be ea df 86 3c 86 70 17 bd
       0.076765686 -0.23271795 0.016464192 -0.036972545
0001f0 22 22 6b 3d 55 66 b0 3d 53 51 bd be e8 93 f2 2d
       0.0574056 0.08613268 -0.36976108 2.7577898e-11
000200 bc 55 83 3d 57 1e 93 3d b4 07 88 be 96 93 d6 bd
       0.06412837 0.07183521 -0.26568377 -0.104773685
000210 88 88 55 39 2c 73 6c 3c da 81 58 be b4 ef 2c bd
       0.00020364125 0.014431756 -0.21143284 -0.042220786
000220 a1 66 ac 3d 78 28 3f be 49 6e 00 be a0 2b cc 3d
       0.084180124 -0.18667781 -0.1254207 0.09969258
000230 61 7a 92 2e 6f 8a c8 be 67 79 55 bd 15 a2 59 ba
       6.66105e-11 -0.39168116 -0.05211773 -0.0008302045
000240 8e 5e a1 3d f4 2f da 3d cb 13 ca 3c cf 38 cf be
       0.07879363 0.106536776 0.024667641 -0.4047303
000250 07 6f 27 be f8 9b a9 3d 86 b6 ff be f7 db 81 be
       -0.16350947 0.08281702 -0.49943942 -0.25363132
000260 95 44 35 3d 2b 4f c3 3d 14 18 b1 3d 9f ea 1b bd
       0.044254858 0.095365845 0.08647171 -0.03806555
000270 94 63 07 bf 96 bf 87 be 8d 66 00 bf fd bd bf 3d
       -0.5288632 -0.26513356 -0.5015648 0.09362409
000280 d1 ad d6 3d 74 c3 59 be be a0 9b 3d 84 c0 7d bc
       0.104823716 -0.21265966 0.075990185 -0.015487794
000290 13 cf 67 3d 6d d3 fe 3d ba 41 57 bc 47 23 8d 3d
       0.056593966 0.1244267 -0.013138229 0.06891494
0002a0 3e 4f be be b5 b5 48 3d a3 02 fd be 09 21 be 3d
       -0.37169832 0.049001414 -0.49416074 0.09283645
0002b0 1c 5b 38 3c d7 8a a1 be ee 53 d5 bc ea 89 5d be
       0.011252191 -0.3155124 -0.026040997 -0.21634641
0002c0 6f ff 75 3d 1c eb 3b bb 4d bc fd 3d 85 7a 2d bd
       0.060058054 -0.0028674072 0.12389431 -0.04235317
0002d0 c9 d1 7f 3d 8f 45 19 3d 99 d2 11 3d 34 fd b7 be
       0.062455926 0.037419852 0.035601232 -0.35935366
0002e0 a4 d3 49 3d 9d 36 45 bd f0 dc a3 3d 1e 7a e7 be
       0.0492741 -0.048147786 0.08001125 -0.45210356
0002f0 71 7f ea bd 76 cf 24 bd b6 ae d7 3d 63 f8 94 3d
       -0.11450089 -0.040236913 0.1053137 0.072739385
000300 9b 92 81 bd d1 af d6 bd bd a4 87 3d 21 d2 15 bd
       -0.06326791 -0.10482753 0.06623218 -0.036577348
000310 51 6a a9 bd fa 33 90 be 52 6c c6 bd 55 d2 ae be
       -0.08272231 -0.28164655 -0.09688629 -0.34144846
000320 50 f7 18 3d aa 97 0a be 80 08 fa be d4 92 0a bf
       0.03734523 -0.13534418 -0.4883461 -0.5413029
000330 85 fa 47 bd c2 c9 4c 3d e2 94 17 3d 42 f0 90 3d
       -0.0488229 0.0499971 0.03700722 0.070770755
000340 46 97 3b 3d 3b 40 95 3a 67 7b ae 3d e0 96 32 3e
       0.045798562 0.001138694 0.08519631 0.17440367
000350 65 6a ca 3d 96 0c d3 3d 03 34 2e 3e 27 41 aa 3d
       0.098835744 0.10305135 0.17012028 0.08313208
000360 b4 13 10 bd 1c b1 94 3d 99 56 86 3d 76 2e 90 be
       -0.03517504 0.072603434 0.06559486 -0.28160447
000370 4c 07 31 3d 03 fd 5c be 76 60 ca 3d 6c 8e 8f bd
       0.04321985 -0.21580891 0.0988168 -0.07009587
000380 35 8c 83 3d 35 7d 48 be 6c a8 ab 3d d2 e8 bc 3d
       0.06423227 -0.19579013 0.08381733 0.092240945
000390 d6 94 cd 3d db 5c e4 3c 97 b9 47 3d 28 6d 64 3d
       0.10038154 0.027876308 0.048760977 0.055768162
0003a0 5e 23 00 bf c0 1e 8b 3d 68 a1 52 3d b3 ff 83 3d
       -0.50053966 0.067929745 0.05142346 0.06445255
0003b0 1b 45 86 3d cc af 1f 3d 7f fa 0f 3d 18 0a 5d 3d
       0.065561496 0.038986012 0.035151 0.053964704
0003c0 d4 2b 43 3d de 75 1a 3d a6 ed 33 bd 81 fa 6d 3b
       0.04764922 0.037710063 -0.04392781 0.0036312642
0003d0 29 c3 f7 be 00 b5 93 bd b8 46 ba 3d 73 79 d1 3d
       -0.48391083 -0.072122574 0.0909552 0.10228243
0003e0 5d 3d 93 3d 7a 8b 9a be 35 56 61 3d 6f 25 01 bf
       0.071894385 -0.30184537 0.055013854 -0.50447744
0003f0 b4 46 f0 bd a5 ea 5e 3d c9 91 04 be e4 e0 8c 3d
       -0.117322356 0.054422993 -0.12946238 0.06878832

linear2.bias f4 [59]
000000 a7 ad 85 bc a9 14 98 bc 02 b5 62 bc f5 f8 40 bc
       -0.016318155 -0.018564539 -0.013837101 -0.011778106
000010 7a c5 4e bc 38 c9 b1 bc 96 2a b0 bc 66 9c a2 bc
       -0.012620324 -0.021702394 -0.021504682 -0.019849967
000020 29 9b 6b bc 3a 3c 43 bc 05 f4 83 bc e2 cc 9e bc
       -0.014380255 -0.011916215 -0.016107569 -0.019384805
000030 a1 5b 8d bc 7c 61 a3 bc dd fd 59 bc 5e 0f 1e bc
       -0.017255606 -0.019943945 -0.013305155 -0.0096472185
000040 9a 0e a2 bc a8 56 56 bc 28 18 af bc 6d d7 83 bc
       -0.019782353 -0.013082184 -0.021373823 -0.016093934
000050 d3 18 3c bc d7 31 15 bc 9a cc ad bc df 38 8a bc
       -0.011480528 -0.009106121 -0.021215726 -0.016872821
000060 eb fe 63 bc cb fe 97 bc 7b 56 90 bc f5 d3 2d bc
       -0.013915758 -0.018554112 -0.017619362 -0.0106096165
000070 3f e1 91 bc fd 7d 79 bc 98 54 9a bc 29 39 89 bc
       -0.017807601 -0.015227792 -0.018839166 -0.016750889
000080 29 e7 35 bc d9 76 9a bc ea d1 92 bc 87 87 96 bc
       -0.011102476 -0.0188555 -0.01792236 -0.018375171
000090 df d1 4f bc 88 4a 89 bc 50 34 78 bc ba 94 32 bc
       -0.0126843145 -0.016759172 -0.015149191 -0.010899717
0000a0 79 25 7b bc ae 7e 9c bc 14 1f 83 bc c5 5f 9c bc
       -0.015328758 -0.019103374 -0.01600603 -0.019088635
0000b0 28 81 54 bc 21 9e 89 bc 62 61 96 bc 47 2f 86 bc
       -0.012970246 -0.016799035 -0.018356983 -0.016379965
0000c0 ac be b7 bc 3a 92 76 bc f9 7d 1d bc 8e 29 a8 bc
       -0.022429787 -0.015049512 -0.009612554 -0.020527627
0000d0 97 58 49 bc 23 9a 98 bc 0d d0 90 bc 4f 68 49 bc
       -0.012289188 -0.018628186 -0.017677331 -0.0122929355
0000e0 23 9b 3c bc ad 54 8d bc 68 2c 8b bc
       -0.011511597 -0.01725229 -0.016988948
