intermediary/model_10100.pth (torch, 356400 bytes, 5 tensors)

embed.weight f4 [59, 128]
00000000: ad7b aebe c124 733e f09a cfbe 1fa7 b0be
00000010: 4bb5 cf3e 81bc d03e cc03 21be 56e0 e0be
00000020: 95b1 e33e 35ae a43e c4c0 b6be 7f79 c4be
00000030: eb88 e53c 539e 55be b6af adbe eebd bd3e
00000040: f48d 8cbe f22c debe cbf5 a3be 3499 ca3e
00000050: f2ad c73e 12d3 7a3e a41a 0f3e 252e 473e
00000060: f20e 9d3e 8d70 dc3e 3f19 b4be 55b5 903e
00000070: 316c 5d3d 16ef ca3e 69d8 d13e a559 1dbe
00000080: 6d93 d7be 831a d1be 4043 9fbe 361f 87be
00000090: a021 743e e294 f83e 4991 823e 3d35 30be
000000a0: 83bc bbbd 48ba 99be 0937 e33e 573b 633e
000000b0: dd50 e73e 83f6 f13d 145d d33e 5488 fa3e
000000c0: 4a7d bdbe 9978 8dbe e443 f53e e037 ce3e
000000d0: eff6 b1be 5ab7 c1be 0079 b43e fb6b fd3d
000000e0: c771 c3be 52cb 423e aa57 b3be b8c7 cc3e
000000f0: 8da0 87be 6728 c43e d05b e0be 719d d0be
00000100: 9d5c b2be 42dd 463e b63f 43be 320e 8abc
00000110: 6516 bc3e 75e1 e5be 26d4 babd cb0d d4be
00000120: b91d c5be 98c0 d7be 3c22 823e ce4f 92be
00000130: 474f eb3e fa82 9c3e 4bce 763e 25db d23e
00000140: 8b21 b73e 029c 9bbe 084d eebd 6578 fabe
00000150: 61b0 d33e 418b a5be 75d6 b13c f865 a7be
00000160: 8cf6 e1be 8b9c d03e 2fe8 b03e 7430 5fbe
00000170: 39d9 d13e 86fb 00bf 1552 aebe 6310 b53e
00000180: a626 933e b84e e53e 8736 93be 9e57 b93e
00000190: 34ff 863e 631f e5be bc52 88be e8dd 393e
000001a0: a42d dd3e 2e3a cfbe 8f08 e33e b866 de3e
000001b0: 8807 933e db2f a5be 159e d6be 06bb 80be
000001c0: 6a3c a93e 7cae 3abe 2824 e0be d49b d4be
000001d0: 5fe5 b73e 4c00 dbbe 4b3d 533d eeff 90be
000001e0: 8388 df3e 75e7 b5be 0b3c ca3e 8200 9f3e
000001f0: c755 d9be 4487 973e 5a88 dd3e a195 ec3e
00000200: 020a 553e 9162 b33e 0c28 eebd fa46 e9be
00000210: 22fa adbe 90b0 18be e269 1cbe fac1 d5be
00000220: b94c 30be 63f8 e33e 181b d5be 4b21 583e
00000230: 11ac e83e 4f1f 023f b09f 47be 656f ef3d
00000240: a562 6e3e 2be9 d1ba 537e af3e 4fa6 c6be
00000250: 24ed b93e a777 bebe a209 dcbe 8263 b5be
00000260: 28c2 35be 8093 403d 8ab2 a13e 48e6 fabe
00000270: 2548 e7be fb75 19be 0547 62be b579 bd3e
00000280: 1ebb bc3e ae1d f7be 25fb 003f f3ac c93e
00000290: 915f c9be bd4f afbe 02a4 d2be bf36 be3e
000002a0: 142f fc3e 6d00 023f 07f1 cabe 606a da3e
000002b0: e92c 75be 3779 d9be fa99 013f 8ce5 ce3e
000002c0: c37a 973c f67f d9be 5aa9 dd3e 97d9 cb3e
000002d0: 074f d6be 5238 713e 6fc9 95be 963a 9e3e
000002e0: 03a4 ebbe a24c 293e 9c50 de3e a015 f63d
000002f0: cb2a bd3e 61e9 82be 8dea d7be 16dc b3be
00000300: ff25 21be fb52 a63e dd4b e93e 83cf e03e
00000310: 8a5c b9be 23d6 ddbe f046 d73e 16cf c73e
00000320: 6f20 bd3e 3eb6 903d 50e0 dfbe 3397 bebe
00000330: 8a16 44be fbc4 8e3e 596f 9ebe 7b76 883e
00000340: 9105 ffbe b638 a0be f8c0 7b3c 051c dcbe
00000350: b275 c9be 051e 8bbe baa5 b6be b3f1 d9be
00000360: f260 a33e 571a d1be fcb1 e0be e0a0 0d3e
00000370: 440a 863e 0f1c e2be 22be c23e f2a6 ab3e
00000380: dea5 edbd b1d4 7ebe 6779 5f3e 17b1 5abe
00000390: 982e bdbe b232 3f3e a0f1 243d 9945 acbe
000003a0: 9e16 77be 9090 c53e 4a56 f23e fa74 5f3e
000003b0: ed70 d8be 9bb5 a63e dd11 ad3e 1212 fdbe
000003c0: ee29 d7be 882c e43e 0d47 483e 6b2e db3e
000003d0: 3b3a d5be aff7 63bc f809 cb3e 5c1a b2be
000003e0: 66e1 7fbe b4ce cd3e 6ff1 e63e df9f 2bbe
000003f0: 8481 92be e547 bdbe 8e28 ea3e 450b cfbe
-0.34078732 0.23744489 -0.40547895 -0.34502503 0.40568003 0.40768817 -0.15724105 -0.43921155
0.44471422 0.3216416 -0.35693944 -0.38373944 0.02801939 -0.20861177 -0.3392312 0.37058967
-0.27452052 -0.43393666 -0.32023463 0.3957001 0.38999897 0.2449458 0.13975006 0.19451196
0.30675465 0.4305462 -0.3517551 0.28263345 0.054058257 0.39635533 0.4098542 -0.15366228
-0.42104664 -0.4084054 -0.31105995 -0.26391 0.23840952 0.4855109 0.2550147 -0.17207809
-0.09166815 -0.30024934 0.44377926 0.22190605 0.4517888 0.118145965 0.4128195 0.48932135
-0.3700965 -0.2763107 0.4790336 0.40277004 -0.34758708 -0.378352 0.35248566 0.12374111
-0.38172743 0.19022873 -0.3502782 0.39996123 -0.26489678 0.38312075 -0.43820047 -0.40745118
-0.34836283 0.1942034 -0.19067273 -0.016852472 0.36735836 -0.44898573 -0.09122495 -0.41416773
-0.3849924 -0.42139125 0.25416744 -0.2857651 0.4595892 0.30568677 0.24102132 0.4118282
0.3576778 -0.30392462 -0.11635786 -0.4891998 0.41345504 -0.32332805 0.021708706 -0.32694983
-0.44133413 0.40744433 0.34552142 -0.21795827 0.4098604 -0.50383794 -0.34047 0.35364065
0.28740424 0.4478662 -0.2875254 0.3619966 0.2636658 -0.4475051 -0.2662562 0.18151057
0.43198884 -0.40474075 0.44342467 0.43437743 0.28716683 -0.32263073 -0.41917482 -0.25142688
0.33053905 -0.18230623 -0.43777585 -0.41525137 0.35917184 -0.42773664 0.051572125 -0.2832026
0.43658838 -0.3552815 0.39498934 0.31055075 -0.42448255 0.29595387 0.4326809 0.46207908
0.20804599 0.35036138 -0.11628732 -0.45561963 -0.339799 -0.14911103 -0.15274766 -0.41749555
-0.17216767 0.44525442 -0.41622233 0.2110645 0.45443776 0.50829023 -0.1949451 0.11691169
0.23279817 -0.0016014924 0.34276065 -0.38798758 0.36313736 -0.37200662 -0.429761 -0.3542748
-0.17749846 0.047015667 0.31581527 -0.49003816 -0.4517223 -0.14986412 -0.22097404 0.37006918
0.3686151 -0.4826483 0.50383216 0.39389762 -0.39330724 -0.34240523 -0.41140753 0.37151143
0.49254668 0.507819 -0.39637014 0.42659283 -0.23942913 -0.42475292 0.50625575 0.40409505
0.018491155 -0.4248044 0.43293267 0.39814445 -0.41857168 0.2355664 -0.29255244 0.30904073
-0.4602357 0.1653314 0.43420875 0.120158434 0.3694671 -0.2556868 -0.42171136 -0.3512885
-0.1573715 0.32485184 0.45565692 0.4390832 -0.36203414 -0.43327436 0.4204631 0.39025182
0.36938807 0.0706601 -0.43725824 -0.3722473 -0.19149223 0.2788466 -0.30944327 0.26652893
-0.49808934 -0.31293267 0.015365832 -0.42990127 -0.39347607 -0.2717134 -0.35673314 -0.42567214
0.319099 -0.40840408 -0.4388579 0.138309 0.26179707 -0.44162032 0.38035685 0.33525807
-0.11603902 -0.24885823 0.21823655 -0.21356617 -0.3694961 0.18671682 0.040269494 -0.3364685
-0.24129722 0.38586855 0.47331458 0.21821967 -0.42273656 0.3256043 0.3380269 -0.4942785
-0.42024177 0.44565225 0.19558354 0.42808852 -0.4164599 -0.013914033 0.39656043 -0.34785736
-0.24988326 0.40196764 0.45106074 -0.16760205 -0.28614438 -0.36968914 0.45734066 -0.40438285

linear1.weight f4 [256, 256]
00000000: 531b 0bbe ae63 0ebe 1100 1d3e 3744 033e
00000010: c94e 27be dbc0 ae3c a856 323e b58b 48bc
00000020: 631c 68be 832a f9bc b1fc 413e 5b8b 2abe
00000030: 8bb1 0fbd 3aa9 f138 f7b1 29be 7f72 103e
00000040: 6662 ad3d e7a8 223e acfa 633e f352 da3d
00000050: e7e9 1cbd b1b6 e23d 16ba 623d a1dd e53d
00000060: 3bb9 88bc e725 5abe 23ee 50be 48f3 a4bd
00000070: 08b4 b83d c80d 503c 905f d0bd 5fdc 383c
00000080: ecd8 b3bc 9e05 343d 1799 273d a2ca 4c3e
00000090: a36d d03d b139 00be b703 493e 842a 0dbd
000000a0: 6950 e0bc e59e 8e3c c866 29be be8c cebc
000000b0: 2084 07be 0387 13be f2cb 00be b907 edbc
000000c0: 1519 37be c2f5 dbbd 7627 d9bc c71c 34be
000000d0: c5c9 793d 06ef 0ebe 883a 2bbe 0760 063d
000000e0: 0e46 923d 8c6e 09bc 4e23 273e 8b45 da3d
000000f0: 2c29 453e cd11 89bd 6f1c 1d3e 6d10 063e
00000100: 45af 2e3e 4f03 0dbe 6e09 3cbe d890 03be
00000110: 7e3d 3fbd 95ca 4dbd f854 3dbd 2783 afbd
00000120: 76e0 dfbd 5f46 1bbe 0347 eb3d 916d 553e
00000130: d954 4fbe 7584 9cbd d896 3cbd 9c34 df3d
00000140: b52e 73bd 71a1 183e fe05 213e e89e 3f3e
00000150: 7a7c 22bd 4010 873d 7f23 483d 0443 a53d
00000160: 375d 1c3e 21da 28be abd4 33be 18ad e23d
00000170: ce2d 0d3c 850d 113e 7246 b0bd 5115 813c
00000180: 60ce 423d 3d0c 3abd 21d8 693c 9628 b83c
00000190: 3379 29be c810 f23c c169 66ba 4955 18be
000001a0: 7513 e4bd 46f3 4b3c 4bdd 64bd 09f5 e8bc
000001b0: 6d24 52be 3b94 5ebe 84cb ca3c 3d62 313e
000001c0: a322 5fbe c7b3 e5bd e397 333e c415 dfbd
000001d0: bdea 583e 42a4 5e3e d703 75bd 2eee 343d
000001e0: 4a2d e13d 4846 e33d b49a 47be 02e5 3fbd
000001f0: 5410 12be 9cc5 6cbd ddfb 59bd e3b4 05be
00000200: 1684 323c 6f8f 66bb 423d e1bd 6ee3 41be
00000210: f631 323e b8e7 44be 6c1c 17be 2faa 52bc
00000220: 6872 eb3d 5e9b 173e bdb9 36be 785b 82bd
00000230: f9da 55be d237 6cbe 893f ed3d 910e 63bb
00000240: 6746 7fbe c464 ffbd 6412 85bd c7d5 8e3d
00000250: 4384 45be 0224 5ebd 8430 183e fc41 5d3d
00000260: 3b7c 3cbe b621 b93d 050b e03b 5fa2 f83d
00000270: 1f76 3dbe 9e58 4ebe 520e 83bc 3da4 643e
00000280: 3e77 4cbe 55b9 493e 7102 17be b403 fdbc
00000290: d167 d9bd 3e14 dc3d f3bf 85bd 3517 343e
000002a0: 5182 46be 7c3d 0abe 7453 a83d 948b 3abe
000002b0: 7802 b03d 19a5 83bc 0acc 1bbe 10d1 c3bd
000002c0: da04 0f3e a23e 10bd 6bce 34be 8bee 123e
000002d0: 5f08 10be 58ba d2bd 0eb4 563d 115c 98bc
000002e0: bb44 1e3e 0ca0 3bbe 6373 3cbe 0e7c f9bd
000002f0: 3d87 5dbc f50b e7bd 1665 1d3d c183 1d3e
00000300: e074 1c3d 5fb2 583d 2152 9cbd 9cb4 613d
00000310: e580 17be ee39 f63d b237 ba3d 424b d2bd
00000320: c3cf 20be b3e6 313e e663 e5bd 8dea dbbc
00000330: 1224 4fbd 9913 3abe 6453 ffbd 0e10 5fbe
00000340: 7cd0 2e3e f121 71bd 1417 6bbd 1fab 8f3d
00000350: 7599 623e db7a 883c 9315 483e 2cde 773d
00000360: 6e6b 1abe 248f 19bd 66ba c33d 6fb7 22bd
00000370: 8e2c 4fbe 5e82 16bd a1f8 bfbd 6bb1 843d
00000380: fbf6 fc3b c990 c4bc 9a46 da3d 2677 e1bd
00000390: 9392 07be 7f89 9bbd ec02 0bbd ab61 b1bd
000003a0: e291 1dbc 4261 30be c88f 62bb a112 e1bd
000003b0: dd8a 9f3d 78d6 7a3d 07c4 2bbe d257 d13b
000003c0: c409 af3d 70b7 fdbc 85c4 ac3d ff38 d5bd
000003d0: 93b2 ac3a a479 90bd a1f5 35be d161 033d
000003e0: ca0b b5bd eb1c 4dbe 8756 3cbc e839 12be
000003f0: c3e2 043d ad9f 1dbe 1684 63bb 680f d73d
-0.13584642 -0.13905212 0.15332057 0.1281899 -0.16338648 0.021332195 0.17415869 -0.01224034
-0.22667079 -0.030415779 0.1894405 -0.16654722 -0.035081428 0.000115232964 -0.16571794 0.14106177
0.08466034 0.15884744 0.22263592 0.106603526 -0.038309004 0.11070002 0.055353247 0.11223913
-0.016689887 -0.21303521 -0.20403342 -0.08054215 0.09018713 0.012698598 -0.10174477 0.011283009
-0.021954022 0.04395067 0.040917482 0.19999173 0.101771615 -0.12522008 0.19630323 -0.034464374
-0.027382093 0.017409751 -0.16543114 -0.025213595 -0.13233995 -0.14406972 -0.12577799 -0.028934347
-0.17880662 -0.10740234 -0.026508074 -0.17589103 0.060983438 -0.13958368 -0.16721547 0.032806423
0.07142268 -0.008388173 0.16322061 0.106577955 0.19253987 -0.06692848 0.15342878 0.13092203
0.17059048 -0.13770793 -0.18362972 -0.12848222 -0.046689503 -0.050242025 -0.04622361 -0.08569937
-0.109314844 -0.15163563 0.11488154 0.20842578 -0.2024721 -0.07642452 -0.046042293 0.10898706
-0.059370715 0.14905335 0.15724942 0.18712962 -0.03966949 0.06594896 0.048861977 0.08069423
0.15269934 -0.1648946 -0.17561595 0.11068171 0.008616878 0.14165314 -0.086071864 0.015757235
0.047560096 -0.045421828 0.014272721 0.02248029 -0.1655014 0.029549018 -0.0008789562 -0.14876284
-0.11136524 0.012448138 -0.055875104 -0.028437154 -0.20521708 -0.21736233 0.024755247 0.17322631
-0.21790557 -0.112159304 0.17538409 -0.10892823 0.21183296 0.21742347 -0.059818115 0.04417246
0.10994966 0.110973895 -0.19492608 -0.04684926 -0.14264041 -0.057805642 -0.05321871 -0.13057284
0.01089575 -0.0035180708 -0.10998012 -0.18934414 0.17401871 -0.19229019 -0.14756936 -0.012857958
0.11496431 0.14805362 -0.17844291 -0.063651025 -0.20884313 -0.23068169 0.11584384 -0.0034646133
-0.249292 -0.124703914 -0.06497648 0.069743685 -0.19288735 -0.05423356 0.14862257 0.054018006
-0.18406765 0.09039633 0.006837251 0.12140345 -0.18502091 -0.20150992 -0.01599804 0.22328277
-0.19967362 0.19699605 -0.14747025 -0.030885555 -0.106155045 0.107460484 -0.06530752 0.17586978
-0.1938565 -0.13500017 0.082190424 -0.18217307 0.08594221 -0.016069936 -0.15214553 -0.0956136
0.13966694 -0.03521598 -0.17656867 0.1434881 -0.14065693 -0.102894485 0.052417807 -0.018598588
0.15455906 -0.18322772 -0.18403392 -0.12181865 -0.013521013 -0.112815775 0.03842648 0.15382291
0.0381974 0.052904483 -0.07632852 0.055103883 -0.14795263 0.12022768 0.09092654 -0.102682605
-0.15704255 0.17373161 -0.11200695 -0.026845241 -0.05057151 -0.18171538 -0.124670774 -0.21783468
0.17071718 -0.05887026 -0.057395056 0.07015061 0.22128852 0.016660145 0.1953948 0.060514614
-0.15080044 -0.037490025 0.09557037 -0.039725717 -0.2023184 -0.03674542 -0.09373594 0.06479152
0.007719872 -0.02399482 0.106579974 -0.11009054 -0.13239507 -0.07594585 -0.033938333 -0.08661207
-0.009617301 -0.17224601 -0.0034570564 -0.10989881 0.07790158 0.06123969 -0.16773997 0.006388643
0.085467845 -0.030971259 0.084359206 -0.10411262 0.0013175778 -0.07054451 -0.17769481 0.032075707
-0.08840139 -0.20030563 -0.011495239 -0.14279902 0.03244282 -0.15392943 -0.003471618 0.105009854

linear1.bias f4 [256]
00000000: 5946 ba3c 5e67 b53c 845d 093b 5ccf 4fbc
00000010: 91b8 e63c 5648 373b 02f2 e53b 1e16 443c
00000020: 0e88 743c 02a4 0f3c f6c4 933c d828 483c
00000030: 150e 873c d1b6 9c39 4bbc c93c c165 233d
00000040: da33 29ba ffba b1b9 2420 45bb e146 f839
00000050: 351b a7b4 2805 a83b 45ad e43b 1b58 893c
00000060: a0a0 bb3c 9505 503d c08d b13c 13ef 293d
00000070: 2554 d1b9 50f5 2e3d 7dcd 733d 84ca 1c3c
00000080: 8e5f 203c 4f11 51bc a2e3 ed3c d72b 133c
00000090: 3675 953c ab04 923c bded 753a bfe5 4a3c
000000a0: cd7d cb3b 25ec 893c c812 3c3c bc4c f23c
000000b0: d059 d5bc 80c6 c53b 33e7 f230 84c5 183c
000000c0: 60a8 c83c c3db 9c3b 518c 1f3c 8311 01bc
000000d0: 573c 473d bc50 e83c 741f cd3b 7170 a53c
000000e0: e3a8 5f3b 4277 a93b 678f 2abb 871a 053a
000000f0: 2e4c 6fbb 2b46 173c 17fc 803c 4cfc 403c
00000100: 51e1 c83b e3a6 203c 8ef7 d33b 22e9 223d
00000110: 5d1b 52bc 5b6c 383c d35e ab37 5d9e 6c3c
00000120: 8fc4 143c 5b1e d13b 3e37 6db7 d07c 1f3c
00000130: 1e61 7c3c c87c 2f2f f7ef b33c da7a fe3b
00000140: 286f 053d b9f7 16bc 674c 783c 6b8c 6f3c
00000150: ed28 0cb4 8d08 6a3c 8b34 fb3c da74 8c3a
00000160: 3ec9 553b b82c 513c 9cc3 ad3b acbe 823c
00000170: ce15 743c 36f7 da3c b1ce be3c 1f09 f73b
00000180: 2c4d d43c f277 2b3c 2a2f f43c 3c4f 993c
00000190: ec76 613b 6299 a1bc c75b 7e3b 1b4b 9c3c
000001a0: dbea 183c 01d2 c83b a0e7 2c3d 7433 b83b
000001b0: cfe2 8d3a 30b2 533c 62d9 393d 8691 643c
000001c0: 0154 2b3d 0afd 3b3b cb27 6f3c 28d9 cf3c
000001d0: f57f a23c 60cc 643d 255c 0f3d f89d 2a3d
000001e0: ba97 923c 4267 713c f065 ebba 0c08 1938
000001f0: 6e24 8b3c 5f4c f33c 5298 0e3b 3975 b130
00000200: fe9b da3c 085d b83c e001 2f3d 9a7f 093c
00000210: e955 913b 18c7 56bc fdb1 5dbb b305 b033
00000220: 8bd1 203c 981f 993b 05b5 f03c 6a39 aa3c
00000230: 4122 7330 afe1 2332 bfbf 003c 85d3 763c
00000240: bbc4 8b3c a161 d93b 9e95 813c 89ad 1d3c
00000250: bad0 e33c 1c27 813c 180b c63b 9fa9 da3c
00000260: 46a5 763a fcfd 0dba 5a75 77bb b015 d43b
00000270: f72d 973a a2b4 073d 279a 163c 2c64 4933
00000280: be57 713b 49da b937 557e dd3b 28a8 4c3c
00000290: c9ce 903b 18bf 863c 8464 aa3c 4b26 f93c
000002a0: ce9d 0b3b 6994 553c 294c f73c 3d59 273c
000002b0: 9ec6 123d fb2a 803a 5e77 583c dead 913a
000002c0: 4a30 ac3c d218 64bb c703 4d3c 6865 1d3c
000002d0: 9c7a f83b b3e5 daba 65ca 8c3b cc05 d9ba
000002e0: e62d e13b a464 8e3c a6c7 3a3c 0d2d 783d
000002f0: d1bb f43c 5f3b 0e3d ba6d 833c 2a6f 0fbb
00000300: 8ce8 7233 15a3 4e3c 0c48 383b ada3 003d
00000310: f232 b83b 3b4e 833c 4aac 143c ae63 883c
00000320: 718a 833c 7425 803c d362 52bb a70d 313d
00000330: 27af 023d 7c89 833c 62a5 1b32 6cf3 863c
00000340: a24a 8e3c f111 e23b eabd 2c3c 7a89 8c3a
00000350: 5283 2a3d b999 3b3c 7848 61bc bfc1 413c
00000360: fd28 293c fd33 a83b e9d8 793c bb67 823c
00000370: 28ee 133c 10a1 293a 3e7c 2a3d fa31 0232
00000380: 5ea0 063c 6069 aaba 1670 7b3c 506d af3c
00000390: 7f59 b53b f7d1 1b3b 6439 8039 083b 8e3b
000003a0: a403 24bb 472e 383c 3ca5 913c e8b6 873c
000003b0: 5d63 d23b 6a98 763c 400d 263c 5365 143c
000003c0: 0c85 7e3c f973 c83c 6313 4f3c 0707 a83b
000003d0: a85d 5e3c 6a29 9e3c 139d c83c a3a7 773c
000003e0: f50a 193d 176a 7dbb 9253 9b3b 5885 573c
000003f0: 6792 bc3c 3e8a 5b3c 25cd eb3b 2d6a 773d
0.022738623 0.022144016 0.002096028 -0.012683716 0.02816418 0.00279667 0.007017375 0.011968164
0.014925016 0.00876713 0.018038254 0.012216769 0.016486207 0.00029890848 0.024625918 0.039891962
-0.0006454565 -0.00033899394 -0.0030078972 0.00047355055 -3.112597e-07 0.005127568 0.006978663 0.016765645
0.02290374 0.050786573 0.021674037 0.041487765 -0.0003992628 0.042714417 0.05952214 0.009569768
0.009788407 -0.012760474 0.029039208 0.00898262 0.018244367 0.017824491 0.0009381434 0.012383877
0.006210065 0.016836235 0.011479087 0.029577605 -0.026043802 0.006035626 1.7673528e-09 0.009324435
0.02449435 0.00478694 0.009738044 -0.00787771 0.04864153 0.02835881 0.006259853 0.020195218
0.0034127764 0.0051716873 -0.0026025416 0.00050775 -0.0036513912 0.009233038 0.015745206 0.011778902
0.0061303754 0.009805414 0.00646872 0.039773114 -0.012823907 0.011256303 2.0428944e-05 0.014442054
0.009080066 0.0063817925 -1.4139163e-05 0.009734347 0.015404014 1.5960488e-10 0.02196501 0.00776611
0.03257671 -0.009214335 0.0151549345 0.014620881 -1.3053405e-07 0.014284265 0.030664703 0.0010715977
0.003262117 0.012767009 0.0053028595 0.01596006 0.014897777 0.026729207 0.023291918 0.007538929
0.025915705 0.010465609 0.029807646 0.01871454 0.0034403158 -0.019726459 0.0038812028 0.019078782
0.009333338 0.00612855 0.042213082 0.005621368 0.001082504 0.012920901 0.045373328 0.013950711
0.04182816 0.0028684759 0.01459689 0.025372103 0.019836405 0.05585897 0.034999985 0.041654557
0.017894614 0.014734091 -0.0017959457 3.6485537e-05 0.016985144 0.029699503 0.002175827 1.2911762e-09
0.026685711 0.022505298 0.042726398 0.008392239 0.00443529 -0.013108991 -0.0033828013 8.196675e-08
0.009815584 0.0046729557 0.029383192 0.02077933 8.845156e-10 9.539163e-09 0.007858216 0.015065079
0.017061582 0.0066339527 0.015818413 0.009623894 0.02780949 0.01576572 0.006043803 0.02669221
0.0009408783 -0.000541657 -0.0037759156 0.006472312 0.0011534084 0.03313125 0.009192026 4.6890065e-08
0.003682598 2.2155366e-05 0.0067594447 0.012491263 0.004419182 0.016448542 0.020799883 0.030413767
0.0021303776 0.013035872 0.030187683 0.010214147 0.035833947 0.0009778434 0.013212053 0.0011114439
0.02101912 -0.0034804833 0.012513108 0.009606697 0.0075829756 -0.0016700536 0.0042965882 -0.0016557514
0.0068719266 0.017381974 0.011400139 0.06058984 0.029874714 0.03472459 0.016043533 -0.0021886327
5.6556516e-08 0.012612124 0.0028119115 0.031406093 0.0056213075 0.016028514 0.00907428 0.016649093
0.016057225 0.015642859 -0.003210236 0.04322591 0.03190532 0.016056769 9.059791e-09 0.016473494
0.017369572 0.0068991114 0.010543326 0.0010722124 0.041629143 0.011450225 -0.013750188 0.011825978
0.010324714 0.0051331506 0.015249469 0.015918603 0.009028949 0.00064708386 0.041622393 7.578359e-09
0.008216945 -0.0013001375 0.015346548 0.021414429 0.0055343504 0.0023776272 0.00024456822 0.004340533
-0.0025026584 0.011241502 0.017778985 0.016566709 0.0064205364 0.015050987 0.010134995 0.009057361
0.015534651 0.024469363 0.0126388995 0.005127791 0.013572134 0.019306857 0.024488961 0.015115651
0.037363965 -0.003866797 0.004740187 0.01315435 0.023019029 0.013399659 0.007196086 0.06040399

linear2.weight f4 [59, 256]
00000000: 5d7a 083d a6ba 753d 358b a93d 5227 083e
00000010: cbca 1e3d 756c 953d 7886 0cbf cf5a 2d3d
00000020: f6b4 0bbd 01b5 743d b19e 7a3d ebe6 b43d
00000030: e6d6 ffbe 12cb 9a3c d580 4a3d 3a61 973d
00000040: 0a36 4b3d 72ca 0cbd e902 11bf 3ec2 333d
00000050: a200 d936 ae8c 97be 9021 373d 532a 6d3d
00000060: d27d 503d 48db fbbe 52eb d53d 1136 a5bd
00000070: 2a21 e9be 4d0b 27bc 4383 f2be 773e 54be
00000080: 1b5c 623d 1a11 abbc 7f60 7ebe f15e 2d3d
00000090: 353b b73d 10f7 ab3d 11f7 943c e04a bcbe
000000a0: a381 41be 24fd febe 9136 c9be b991 643d
000000b0: 6d97 743d f99e a43d 5836 8cb2 52bb 5f3d
000000c0: dc93 0d3e c1bf a6be eb4e 843d f55e 8d3d
000000d0: 3e99 c33d 32a8 0fbf ed7f 41be 12f2 0c3c
000000e0: 561c 15be 431d bdbe 480b f7be 62f4 eabe
000000f0: 1219 88be 2bc6 463d 1a50 923d 5242 903d
00000100: 6cc5 be3d e851 a53d bd1d 223d ef1a 5ebd
00000110: 53d0 ee3b a79c 143d 600d dfb7 aa6c 8f3d
00000120: 2a66 8e3d 0afb 04be 8a4c fcbc deac 8d3d
00000130: 5885 903d ab53 99b0 3021 053e 4ee9 9c3d
00000140: c18c 4ebe 9c0d 7c3c afa8 883d 3734 06bf
00000150: dff6 1037 2a81 6e3d 547e 9f3d b25a dcbe
00000160: 7720 91bc 1006 c73d 7856 f73c efc2 98be
00000170: b015 ddbc 272b b2be ec23 95be 5b08 b9bd
00000180: bf73 323d bce9 99be 8718 013e aec4 67be
00000190: 343d 85be 667c 1c3d f128 b1be e7b1 34bd
000001a0: 5b57 973d abaa d6be fe28 933d 63dc f4be
000001b0: c667 0a3d 9faf 733d 8d47 a33c 9cb0 febd
000001c0: 1099 aabd 052a cb3d 0798 e53c 7f52 b5bb
000001d0: 5a1c 8e3d b1c5 213d 56e4 b43d c110 db3d
000001e0: af05 923d 5b62 68be 59f5 5b3c cd7e 63b8
000001f0: 1898 613d 785b a83d dcc5 c0be b796 1d32
00000200: 56ea 823d 2f98 9a3d 2c51 84be 3dc9 d5bd
00000210: d0f5 96bc fecb ee3b b2de 74be e4a7 1bb5
00000220: 9b56 ab3d 8e35 39be f7d9 d0bd 840e ca3d
00000230: 2e1d 8132 7c5f bab3 ec34 8abd 31e5 9bb9
00000240: 86cb a63d 4ed0 d83d ce1d 0d3d ce3a cfbe
00000250: 28b7 1abe db0e ae3d ebd8 ffbe b026 8cbe
00000260: e8f4 243d 1dca c43d c271 dd3d 9ac9 71bd
00000270: 7dc3 08bf 65fc 86be 0943 e8be 3103 2236
00000280: e6c2 d23d 0c31 f2b7 a082 9c3d 7ec7 8dbc
00000290: 5cfa 663d 52c1 023e 39b8 7fbc 79c2 923d
000002a0: 1af9 c1be 22b5 353d 91ae 00bf 67ab be3d
000002b0: e041 34bb 22ac bbbe e34a e7bc d7c4 6ebe
000002c0: 3575 7c3d a19c 523c 02de 013e 4a39 10bd
000002d0: a4d6 803d 9d8f 233d 9563 063d 03c4 c3be
000002e0: b0c8 4d3d eb96 47bd efae a53d aae4 e5be
000002f0: 2e15 02be c4bd 1dbd fb2c d43d 8cc2 943d
00000300: 374e dbb4 e768 e4bd 14e3 843d 6025 3cbd
00000310: 7519 a9bd fcea 98be fb03 ccbd e4a1 acbe
00000320: 6502 313d 99e0 00be 1223 ffbe 397d cabe
00000330: cab6 4abd 0021 453d 5883 c334 99f1 8b3d
00000340: e3b2 2c3d 4897 033c e3dd ad3d c952 313e
00000350: fa0f db3d 206a f23d f59b 2e3e 68cc b13d
00000360: 207c ccbc 4f5f 973d e98d 813d 84ed 98be
00000370: 3000 473d 7f0f 5cbe bd0d db3d b59b a6b1
00000380: 5fa1 723d 7128 48be 7e9f 963d 43a2 c23d
00000390: 66fa c13d 99c3 543c 93b3 4c3d e448 8a3d
000003a0: e434 03bf 8751 883d d7d7 5b3d 810d 7b3d
000003b0: 7e16 8b3d a95b 343d 7e59 cf3c c019 6d3d
000003c0: 1482 3e3d 2ddd f73c 8c1a 49bd 0cc5 cb3b
000003d0: 4316 01bf d8f5 8cbd 5b57 b13d 586a c83d
000003e0: 8fcb 993d ae12 9fbe 258d 513d 3f6e 03bf
000003f0: 289d edbd c422 613d b738 0ebe 411e 8b3d
0.03331982 0.059992455 0.08278505 0.1329625 0.038767617 0.07296077 -0.54892683 0.04232293
-0.034108125 0.05974293 0.061186496 0.088331066 -0.49968642 0.01889566 0.04943927 0.07391591
0.049612083 -0.034372754 -0.56645066 0.043886416 6.4671776e-06 -0.29599518 0.044709742 0.05790169
0.05090124 -0.49190736 0.104452744 -0.08066953 -0.45533115 -0.010195565 -0.4736577 -0.20726953
0.05526362 -0.020882178 -0.24841498 0.04232687 0.0894684 0.08396733 0.018184217 -0.36775875
-0.18897109 -0.49802506 -0.39299443 0.055803034 0.059714723 0.08038134 -1.6322858e-08 0.054622002
0.13825935 -0.32568172 0.06460365 0.06902877 0.09550713 -0.5611602 -0.18896456 0.008602636
-0.1456159 -0.36936387 -0.48250794 -0.45889574 -0.26581627 0.04852883 0.071441844 0.070438996
0.09314999 0.08072263 0.039579142 -0.054224905 0.007288018 0.036282208 -2.65899e-05 0.07003148
0.0695308 -0.12986389 -0.030798215 0.069177374 0.07056683 -1.1155995e-09 0.13000941 0.07661687
-0.20170881 0.015384104 0.06672799 -0.52423424 8.640548e-06 0.05822865 0.07787767 -0.43037945
-0.017715676 0.09717953 0.030192599 -0.29836223 -0.02698788 -0.34798548 -0.2912897 -0.09034797
0.043567415 -0.30061138 0.12607013 -0.22633621 -0.26023257 0.038204573 -0.34601548 -0.044114973
0.073897086 -0.41927084 0.07185553 -0.47824392 0.033790372 0.059493657 0.019931579 -0.12436029
-0.083299756 0.09920124 0.028026594 -0.005533516 0.069390014 0.039495174 0.08832614 0.10696555
0.0712999 -0.2269377 0.013425195 -5.423911e-05 0.05507669 0.08220571 -0.37650955 9.172871e-09
0.06392352 0.07548558 -0.2584318 -0.10438774 -0.01842776 0.0072875014 -0.23913077 -5.798631e-07
0.08366128 -0.18086836 -0.101978235 0.0986605 1.5030846e-08 -8.6786685e-08 -0.06748375 -0.00029734665
0.08144288 0.10586606 0.034452252 -0.40474552 -0.15108931 0.08498927 -0.49970183 -0.27373266
0.040272623 0.096088625 0.10812713 -0.059030153 -0.5342329 -0.26364437 -0.45363644 2.4141739e-06
0.1029108 -2.8871487e-05 0.07642102 -0.01730704 0.056391105 0.12769058 -0.015607887 0.07165999
-0.37885362 0.044362195 -0.5026637 0.09310036 -0.0027505085 -0.36654764 -0.028233951 -0.23317276
0.061635215 0.012854726 0.12682346 -0.035210885 0.062909395 0.039931882 0.032809813 -0.38235483
0.05024022 -0.04872791 0.080900066 -0.4490102 -0.12703392 -0.038511053 0.10360142 0.07263669
-4.0848838e-07 -0.11152821 0.06488624 -0.04593408 -0.08256809 -0.2986678 -0.09961697 -0.33717263
0.043215174 -0.12585677 -0.49831444 -0.39548662 -0.049490727 0.048127174 3.6417146e-07 0.068331905
0.042162787 0.008031674 0.08489587 0.17316736 0.10696407 0.11836648 0.1705168 0.086815655
-0.024961531 0.073912255 0.06325895 -0.2986871 0.048584163 -0.21490286 0.1069598 -4.8489377e-09
0.059235927 -0.19546677 0.073546395 0.09503605 0.09471588 0.012986087 0.049975943 0.06752184
-0.5125258 0.06656175 0.053672638 0.061292175 0.067913994 0.044032726 0.025311228 0.057885885
0.04651077 0.030256832 -0.049097583 0.006218558 -0.50424594 -0.068828285 0.0865924 0.097859085
0.07509529 -0.3106894 0.051159997 -0.513401 -0.11602241 0.054964796 -0.13888822 0.0679288

linear2.bias f4 [59]
00000000: b575 88bc 8c21 9dbc 3eca 82bc 547c 49bc
00000010: 9f5c 1dbc 46b7 80bc 7ab6 9bbc 580d 85bc
00000020: 7ce6 59bc beb4 22bc 0f9f 36bc 81c8 6fbc
00000030: be96 89bc f9ef 99bc 3621 84bc f2dd 26bc
00000040: 7ee4 9ebc 7218 57bc 9e90 b9bc a8c8 a1bc
00000050: a113 75bc f765 30bc 5936 a7bc fab0 5dbc
00000060: efbf 43bc a0e7 93bc c91f 8bbc 3649 22bc
00000070: 1959 4abc ba20 4ebc ae58 57bc 3c7b 7cbc
00000080: 434b 1dbc 85b9 9cbc 72fc 8abc 2a5a 9bbc
00000090: f154 79bc 861a a3bc 611c adbc 8290 4dbc
000000a0: 305b 5bbc 3c91 9dbc 3b5b 6fbc b16a a5bc
000000b0: 7161 74bc 18bc 68bc 244f 68bc bdb9 57bc
000000c0: 9f98 a4bc c28c 70bc 82bc 2bbc a90e 74bc
000000d0: 5dd0 0dbc 837d 95bc 943f 96bc cfa2 87bc
000000e0: 969f 78bc 442b 91bc 11bc 91bc
-0.01665769 -0.019181035 -0.015965577 -0.012297709 -0.009604602 -0.015712392 -0.01900791 -0.016241714
-0.013299581 -0.009930788 -0.011146321 -0.014635206 -0.016795512 -0.018791186 -0.016129117 -0.010184752
-0.019396063 -0.013128387 -0.022651967 -0.019749 -0.014958293 -0.010766498 -0.020411657 -0.013530964
-0.011947616 -0.018054783 -0.01698293 -0.00990515 -0.012350344 -0.012581045 -0.0131437015 -0.015410241
-0.009600463 -0.019131431 -0.016966078 -0.018963892 -0.0152180055 -0.019910108 -0.021131696 -0.01254666
-0.01338844 -0.019234292 -0.014609153 -0.020192476 -0.01491581 -0.014205001 -0.014179025 -0.013166842
-0.020092307 -0.014681997 -0.0104819555 -0.014896073 -0.008655635 -0.018248325 -0.018340863 -0.016557125
-0.015174767 -0.017720826 -0.017789872
