intermediary/model_18750.pth (torch, 356400 bytes, 5 tensors)

embed.weight f4 [59, 128]
00000000: b2e9 b0be 535f 603e 1527 a3be b56f afbe
00000010: 060d b73e ce54 c83e 18d4 bbbd e922 e5be
00000020: 9096 da3e de9d aa3e 75e3 63be 452f c6be
00000030: b215 cabb ae1a 71be 72af b1be 69ef b93e
00000040: b6b2 3ebe 11f9 dfbe fdc5 b3be 3fad c73e
00000050: b88f cd3e ea98 813e db4c 6a3e 2c33 dc3d
00000060: 1d9e ab3e b7dc d43e 39c1 b0be a9cb 4e3e
00000070: 702d f839 1cb3 d13e 2337 d43e 90fd 0cbe
00000080: a1ed d7be 24dc c5be f76d 96be 4a8d 84be
00000090: 5a52 a83e 0670 f93e bba9 3f3e 9544 8bbd
000000a0: 0747 c2bd 8899 a6be 2c84 df3e 3c28 8c3e
000000b0: 88f0 c63e 7fa7 8d3d b3be d83e 706d f63e
000000c0: a0d3 bbbe e928 8fbe 2dd5 fa3e c84b c53e
000000d0: a2d2 adbe 3da1 c6be 8bdf a73e 65fd 963e
000000e0: c7bb c1be 3b10 483e 5dcc 79be 1772 b53e
000000f0: 4bf9 a2be bbc0 bb3e f7b6 e0be 763e c3be
00000100: e4e8 abbe af66 873e 8d3e 3bbe f1d2 b13e
00000110: 91bd b93e 7f51 e7be 0a95 5dbe 8bf9 cdbe
00000120: 9a01 d7be d62f d7be b937 5d3e afe8 93be
00000130: c963 f23e 0321 ab3e 13b2 6d3e d017 d73e
00000140: 24c9 aa3e 349a abbe d187 7dbe e9dc f8be
00000150: 75cf cf3e f1b6 aabe 4020 dcbb 2bed c4be
00000160: 38a5 dfbe 5f3c c53e a07c a73e 11af bebe
00000170: 7833 c73e abe4 f1be 1d20 b8be 7614 b03e
00000180: d04e 853e b303 e53e 422c 94be c534 a33e
00000190: db8a 713e 96e9 e1be 760f 93be d4ac 553e
000001a0: e449 dd3e 2e79 ccbe bae6 df3e c129 e43e
000001b0: 61af 933e 85bb 97be 37a9 d9be 9ba6 83be
000001c0: d7e2 ae3e 9b6b 68be 4c6b ddbe a033 d7be
000001d0: 89bb b83e 9dcf cfbe 2016 063e f585 96be
000001e0: 6242 de3e 6f81 acbe b965 b73e 56ca b23e
000001f0: ea32 d5be 9b08 893e 20cb de3e d6bd f53e
00000200: 46da 363e 3727 aa3e 8db6 0bbe 84a4 e9be
00000210: f878 bdbe ff57 4fbe a35a f5bd 4577 d5be
00000220: 03fb 2abe e5fd e23e 89fa c7be 01f9 623e
00000230: bf83 e23e b15b 003f 505b a6be c2dd 3abd
00000240: b295 783e 2e6d 593d 1855 c73e b24a c4be
00000250: c561 c73e 72c8 c0be bcc0 d5be f638 aabe
00000260: e6a8 58be f8e0 03be 9161 9b3e 6771 edbe
00000270: ad45 edbe b556 50be cd29 6dbe 9941 c23e
00000280: 3dce b83e 92d2 e8be b007 fa3e cd0d d33e
00000290: 0531 ccbe 6f77 b1be 5eb7 debe 4c48 c43e
000002a0: 0d69 e93e 9fdf f33e 2555 cbbe 49d9 cc3e
000002b0: 2a26 8fbe ae63 d6be b6e3 013f 463c b73e
000002c0: febd ebbd 5023 e5be 8408 d23e 97e9 c73e
000002d0: 865d d4be d972 663e 5931 8fbe 5d0c 9c3e
000002e0: af5b afbe d73c ddbd d484 df3e 5867 eb3d
000002f0: 7121 c33e 5f51 a4be 2a92 d4be cd89 9fbe
00000300: 06d0 b9bd 8450 9d3e c7f6 de3e 81d6 e33e
00000310: e9f6 cdbe adf3 d6be 9cba e73e 5072 c33e
00000320: d463 c53e 40d6 dd3d 7ae9 cabe 054e c3be
00000330: d019 63be 2b4b 8d3e 86fa 9fbe df39 063e
00000340: 71c1 00bf 5316 9fbe a3dc 5b3d 766a d9be
00000350: dcaf c3be 7b76 8abe 1163 b3be e0f1 c3be
00000360: 0fc5 ba3e 04fb d3be ab09 e0be 966e 0dbe
00000370: 0683 6e3e e1df e5be 3368 bb3e 3c9f 7f3e
00000380: a858 debd bd5b 66be ea9c 6c3e fbad 86be
00000390: 381f c1be 5913 813e c9ce 46be 23ca c4be
000003a0: 1ec8 69be 780a b93e ecb9 ed3e b531 943e
000003b0: 8ee0 d8be 10ef 943e 7057 b03e a349 f3be
000003c0: d7c1 d3be acb0 dc3e 199e 5f3e d8b4 d03e
000003d0: 30ec d0be d3c9 4dbe eea4 ac3e 296d b6be
000003e0: e573 93be 0485 d23e 3729 ea3e c826 72be
000003f0: ee20 7fbe 16c7 b2be a611 d93e c69d bfbe
-0.34553295 0.21911363 -0.31865755 -0.34264913 0.35752124 0.391272 -0.09171313 -0.44753197
0.42692995 0.33323568 -0.22254737 -0.3870794 -0.006167137 -0.23545334 -0.34704167 0.36315468
-0.1862286 -0.4374471 -0.3511199 0.38999364 0.4014871 0.25311977 0.2288088 0.10751948
0.33519068 0.41574642 -0.34522417 0.20194878 0.000473361 0.40956962 0.41448316 -0.13768601
-0.42173484 -0.38644516 -0.29380772 -0.25889045 0.3287533 0.4871828 0.18717091 -0.0680019
-0.09486204 -0.3253901 0.43655527 0.27374446 0.38855386 0.06916713 0.42332992 0.4813037
-0.36684895 -0.279609 0.48990765 0.3853438 -0.33949763 -0.3879489 0.32787737 0.294902
-0.37838575 0.19537441 -0.24394365 0.35438606 -0.3183082 0.3667048 -0.4388959 -0.3813359
-0.3357612 0.2644553 -0.1828558 0.34731248 0.3627744 -0.45179364 -0.21638885 -0.4022945
-0.4199341 -0.42028683 0.21603288 -0.2888846 0.47341755 0.33423623 0.23212461 0.42010355
0.33356583 -0.33516085 -0.24758841 -0.4860604 0.40587965 -0.33342698 -0.0067177117 -0.38462195
-0.4368074 0.38522622 0.3271227 -0.3724294 0.38906455 -0.47244772 -0.35962 0.3439061
0.26036692 0.44729385 -0.28940016 0.31876197 0.23588125 -0.44123524 -0.28722733 0.2086671
0.43220437 -0.39936203 0.43730718 0.44563106 0.2884474 -0.29635254 -0.42511913 -0.25713047
0.3415744 -0.22697298 -0.43245924 -0.42031574 0.36080578 -0.40588084 0.13094378 -0.29399076
0.4341002 -0.336925 0.35819796 0.34919995 -0.41640407 0.26764378 0.43514347 0.47996396
0.17856702 0.33233044 -0.13643856 -0.45633328 -0.37006354 -0.20248412 -0.11980178 -0.41692558
-0.16697316 0.4433433 -0.3905833 0.221653 0.4424114 0.5013991 -0.3249154 -0.04562164
0.24275854 0.053082637 0.3893211 -0.38338238 0.3894178 -0.37652928 -0.41748607 -0.33246583
-0.2115818 -0.12878788 0.30347875 -0.46375582 -0.4634222 -0.20345576 -0.23160477 0.37940672
0.36094847 -0.45473152 0.4883399 0.41221467 -0.3988115 -0.34661433 -0.43499273 0.38336408
0.4558796 0.47631547 -0.39713398 0.40009525 -0.27958804 -0.41872925 0.50738084 0.35788172
-0.115108475 -0.44753504 0.41022122 0.39045402 -0.41477603 0.22504748 -0.27967337 0.30478182
-0.34249637 -0.1080262 0.43656027 0.11494321 0.3811145 -0.3209333 -0.41517764 -0.3115982
-0.090728804 0.3072549 0.4354765 0.4449959 -0.4022744 -0.41982785 0.4525956 0.3817315
0.38552725 0.108318806 -0.39631253 -0.38145462 -0.22177815 0.2759641 -0.31245822 0.13108014
-0.5029517 -0.3107172 0.053677212 -0.42464036 -0.38220108 -0.27043518 -0.3503652 -0.38270473
0.3647847 -0.41402447 -0.43757376 -0.13811716 0.23292169 -0.4489737 0.36602935 0.24963087
-0.108567536 -0.22495933 0.23106733 -0.26304612 -0.3771913 0.25210074 -0.1941482 -0.38435468
-0.22830245 0.361408 0.4643091 0.28944173 -0.42358822 0.2908864 0.3444171 -0.47517118
-0.41358826 0.4310354 0.21837653 0.40762973 -0.40805197 -0.20096521 0.3371958 -0.35630158
-0.28799358 0.41117108 0.4573457 -0.23647606 -0.24914905 -0.34917516 0.42396277 -0.3742506

linear1.weight f4 [256, 256]
00000000: 18f9 07be 0323 15be effd 293e 0c49 013e
00000010: 68e4 0cbe b5ca 653d 414b 2d3e d0ed 313c
00000020: bdfc 5bbe d471 32bd c797 303e 6f1f 1fbe
00000030: 5d7e 663c 825a 303a 0866 1dbe fb37 3c3e
00000040: ca51 903d e937 143e 2996 593e a555 eb3d
00000050: 4350 a5bd ec5f cb3d c8ac e93c 42c3 0b3e
00000060: 005d 04bd 1299 40be 4f20 36be dedb adbd
00000070: edca e73d b529 35bb da22 d4bd 6c05 b0bb
00000080: 4e60 f1bc 2090 ecbc 13a5 7fba dd8f 423e
00000090: d4e4 a93d 85f2 fabd cf0b 5c3e a046 5bbd
000000a0: b736 8cba a222 813c 7447 1dbe cf0d 80bc
000000b0: 08ea 16be 34b6 11be f156 f8bd 9216 153d
000000c0: 40e1 30be 91df a3bd 0a15 45bd c0d6 37be
000000d0: 4389 4c3d 57f7 15be b2cf 27be 8de9 09bd
000000e0: 8565 593d 512d 3c3b 983d ff3d 6538 773d
000000f0: d0ea 263e d395 36bd 417c 223e 76f5 993d
00000100: 4191 2b3e 0b89 ebbd 20e2 29be 9510 5abe
00000110: 70cf 4abd 442c 4fbd c7ec 0cbc cb8a afbd
00000120: aa3f fcbd da4a 32be 4600 203e fc58 493e
00000130: ec93 50be 9b96 3fbd 25e8 d8bc 2c97 0d3e
00000140: cba1 00be 9fab 163e afce 363e 810f 403e
00000150: bffb 6ebd c832 863d d155 5b3d f7e2 cb3d
00000160: 722a 073e 2879 19be 8166 27be dbf5 343e
00000170: 6b87 7e3d 973b ad3d 6626 4ebd 9737 d13c
00000180: 85f4 713c 4785 27bd 7e40 82bc fad4 573d
00000190: a618 22be f75c 053d 93ef 523d 84d8 24be
000001a0: bc85 c7bd 1245 a73c 12c2 4abd 076d 3dbd
000001b0: 5f4a 52be c3b4 64be 72d1 063d 21e9 0d3e
000001c0: 81f9 5dbe f081 a8bd 6498 1b3e 05f9 bbbd
000001d0: f27b 583e 83c8 5d3e f84c 8abc 0ea3 ed3c
000001e0: d0f7 943d a983 ed3d 1180 42be 7cc3 33bd
000001f0: e3ec 0dbe aa2f 8abd 850b 11bd ce65 f0bd
00000200: cfaa 13bc a2a5 b63b 4918 ddbd 8421 30be
00000210: 7dc3 393e b7fc 32be 7a12 0dbe cf6f bdbc
00000220: 6bd2 b23d 46fe 193e c077 15be 9cce b0bd
00000230: 58e1 68be ddb1 5cbe d5ee 1e3e 721f 1b3c
00000240: 08b4 62be a97b cabd d93a 72bd a04f ba3d
00000250: 9ade 40be 2e9d d7bc 6268 1d3e d998 413d
00000260: a478 37be 39ef df3d cac3 26bc 42be e73d
00000270: 7a34 1dbe 28b4 3ebe 7c43 5cbc b9ac 5f3e
00000280: d579 53be 00fa 573e cd20 f4bd b5e3 d6bb
00000290: d42f 53bd 23eb 023e abcd 47bd 3566 5a3e
000002a0: 1a1f 61be cb86 bbbd 1ced a03d adde 25be
000002b0: ccd1 113e 6e94 c5bc d3f7 26be 2abc d8bd
000002c0: 9a42 223e 7afd bfbc b37a 38be 8f0e 033e
000002d0: ab6b 12be fd74 c2bd 8464 cb3c ab3c 3bbd
000002e0: 4b33 ed3d d23a 19be 6e35 55be e9ac a8bd
000002f0: d03e 893c cfea 0ebe 8162 5b3d b30e 3e3e
00000300: 0554 193d 29f2 623d 03e9 cabd d3b6 c1bc
00000310: ae88 d6bd 3f96 bf3d cd61 0f3d 8921 ddbd
00000320: 1c58 05be 6789 183e d86d 1ebe 556f 983c
00000330: 863e 41bd 3676 4abe 1621 14be e3e0 45be
00000340: 75b5 2f3e ddf8 12bd 5ed5 3bbd 89dc 9b3d
00000350: 7948 653e afe0 02bc 74d2 373e 4378 bb3d
00000360: 1aab 06be b9ab e4bc 1856 6e3d 559e 5c3c
00000370: 7867 55be 4e69 7ebc 45e5 e5bd 4bfa 8c3d
00000380: fdc4 fb3c 1efb 38bd b27e c53d bd57 d4bd
00000390: 9b07 0cbe 22f6 c7bd ea5c edba deda 89bd
000003a0: eb7c 48bd 8c41 41be 22f0 913c 66cf 0abe
000003b0: 837d 133d ee40 7a3d 0c39 2dbe 9413 263d
000003c0: 9c79 2f3d 1269 a2bd 117e e23d cf01 d6bd
000003d0: f11d fa3c 7472 063c c257 5ebe 5d19 1d3d
000003e0: 937d 01bd fcbb 3cbe c202 b13c f0f1 00be
000003f0: 5ae5 28bc fb36 2abe 63f0 ff3c b262 b13d
-0.13278615 -0.14564137 0.16600774 0.12625521 -0.13759005 0.05610152 0.16923238 0.010859922
-0.21483131 -0.043565586 0.17245398 -0.15539335 0.014068213 0.0006727354 -0.15370953 0.1838073
0.0704685 0.14474453 0.21248688 0.11490945 -0.08071949 0.09930405 0.028524771 0.13648704
-0.032315254 -0.18808392 -0.17785762 -0.08489202 0.11318002 -0.0027643268 -0.1035821 -0.00537174
-0.029464867 -0.028877318 -0.0009752076 0.19000192 0.082955986 -0.12253288 0.2148888 -0.05353415
-0.0010697459 0.015763585 -0.15359288 -0.015631584 -0.14737713 -0.14229661 -0.12125958 0.036398478
-0.17273426 -0.08001626 -0.048115768 -0.17953014 0.04993559 -0.14645134 -0.16387823 -0.033669997
0.053075332 0.0028713534 0.1246292 0.060356516 0.16300511 -0.044576477 0.15867712 0.07517521
0.16754629 -0.11500748 -0.16590166 -0.21295388 -0.049514234 -0.050579324 -0.008601374 -0.085713945
-0.123168305 -0.17411366 0.15625104 0.19662851 -0.20368928 -0.046774488 -0.026477883 0.13827199
-0.12561719 0.14713906 0.17852281 0.18755914 -0.058345553 0.065526545 0.053548638 0.099553995
0.13199785 -0.14987624 -0.16347696 0.17671911 0.062140863 0.084586315 -0.05032959 0.025539203
0.014767771 -0.040898588 -0.015899893 0.052693345 -0.15829715 0.03255936 0.051498007 -0.16098219
-0.09742305 0.020418677 -0.049501486 -0.046246555 -0.20536183 -0.2233458 0.032914586 0.13858463
-0.2167721 -0.082279086 0.15194851 -0.09178356 0.21141031 0.2165852 -0.016882405 0.029008415
0.07273829 0.11597378 -0.18994166 -0.0438876 -0.13859896 -0.067473724 -0.035411377 -0.11738168
-0.009012892 0.005573944 -0.10795648 -0.17200285 0.18140979 -0.17479216 -0.1377658 -0.023124604
0.0873154 0.15038404 -0.14596462 -0.086331576 -0.22742212 -0.21552224 0.15520795 0.009467946
-0.22138989 -0.098868676 -0.059138153 0.090972185 -0.18834916 -0.026320066 0.1537185 0.047264908
-0.17917114 0.109343 -0.010178516 0.11315586 -0.1535205 -0.18623412 -0.013443824 0.21843232
-0.20651944 0.21091461 -0.11920319 -0.0065579065 -0.051559284 0.1278501 -0.048780125 0.21328051
-0.2198452 -0.09156569 0.07857725 -0.16198225 0.14240187 -0.024118628 -0.16305475 -0.105827644
0.15845719 -0.023436297 -0.18015556 0.12798522 -0.14298885 -0.0949497 0.024828203 -0.045712154
0.11582049 -0.14963844 -0.20821163 -0.08236105 0.016753584 -0.1395676 0.053560738 0.18560295
0.037433643 0.055406723 -0.09907725 -0.023646748 -0.10475288 0.09354829 0.03500538 -0.10797412
-0.13021892 0.14896165 -0.1547159 0.018607775 -0.047178768 -0.19771656 -0.14465746 -0.19324069
0.17159064 -0.035881866 -0.04585778 0.07610423 0.22390927 -0.007988139 0.17951375 0.091537975
-0.13151208 -0.027913915 0.058187574 0.013465484 -0.20840251 -0.015528036 -0.1122537 0.06883677
0.03073358 -0.04516136 0.09643306 -0.10368297 -0.13674776 -0.09763743 -0.0018109356 -0.06731199
-0.048947256 -0.1887266 0.0178147 -0.13555679 0.03600837 0.061097078 -0.16916293 0.040546015
0.042840585 -0.07930197 0.110592015 -0.10449564 0.030531855 0.008205999 -0.21713164 0.038354266
-0.031613898 -0.18431085 0.02160776 -0.12592292 -0.010308588 -0.16622536 0.031242555 0.08661403

linear1.bias f4 [256]
00000000: c8d5 aa3c 566c e23c 4266 4b3b 6f64 1f3b
00000010: 6f79 313c e809 9a3a ebc5 b63b 2fea 8d3c
00000020: 221e 3f3c f914 993b 38a8 a33c e7fe 453c
00000030: d6ca 8d3c 41a6 193c be35 003d 2252 6f3c
00000040: 582f 023c 5cea b9ba 597a 063b 7d0e 03bc
00000050: d893 393b d93a 69bb 6f37 3e3b 8288 c7bb
00000060: ea31 ea3c c5a4 1b3d 639c a83c 062a 643c
00000070: 3010 ce3a 9454 a93c db64 5a3d 9bea 913b
00000080: 5b45 853c cda8 263c b4e5 a63b 373d 8e3b
00000090: 931e ae3a ff99 983c 0c72 b139 44da 293c
000000a0: b5be 5f3b 6562 043c d609 343c 762c 9e3c
000000b0: fdf1 6abc 03cb 6c3b 5e44 6b24 3b24 f33b
000000c0: 8df4 013d 8573 5a3b 2649 103c 533d 8eb9
000000d0: b8d0 84bc a701 b93c aa40 6b3b 6353 f6bb
000000e0: 3a4d dc3b cf62 1a3c b8a4 f83a 8825 20ba
000000f0: 9f01 dc3a 784e 283c ad73 b03c 0566 d93c
00000100: 88ce 213c a05f 043c 2302 793b 6f05 3b3d
00000110: 685f 283c 86f3 a73b 20a0 cc39 c35f 573c
00000120: 385a 133c e4ea 453c 4f80 433c f42b 4e3c
00000130: 515d ee3b fc89 cd21 855c 803c b56a 1a3c
00000140: aa71 ba3c 1ca1 933c 665b 6a3c c5ed 1c3c
00000150: b6d9 013c a761 eb3c 74a5 6c3c 60eb c83b
00000160: 59f5 923c bc5f 663c c777 003b 17d3 e43b
00000170: 2949 3d3c c8e6 ca3c cf1a 913c 2b50 3c3c
00000180: e0ae a53c 1046 273c b0f9 9b3c 8537 cf3b
00000190: 63ab 423a 09f6 423b 8f03 213c d6c4 503c
000001a0: c59f 663b f582 793b 5416 193d 2c7d 7b3c
000001b0: 3dfb e53a 39f0 c43b b8e7 e33c 9ef7 f53c
000001c0: 21e8 f83c 4a2c b73b dbb9 023d c2af 4a3c
000001d0: b992 f93c 07b0 9f3c e074 273d 1cf9 363d
000001e0: 8c2f b33c 5bee 5a3c 448d e13b 54da 053b
000001f0: 734a 423c ec92 da3c fe6d d13b fa52 9f25
00000200: 3a4a d43c 49dd f63c f921 c33c 84c0 c23b
00000210: ccf8 4bbb dd6d bb3c 5d8c 9f3a ca75 1b3d
00000220: 1602 563c f27a 6f3c 872b fb3c d914 b23c
00000230: c8f6 5225 b213 bf3c ba88 073c 66d0 7e3c
00000240: 4240 993c f153 d23b ccf3 8b3b 7f87 2f3c
00000250: a237 8e3c 9640 853c 27ed a53b 1795 ca3c
00000260: 1cf2 883b 4895 27bb 23b0 693b ecff ac3c
00000270: e104 0e3b f2e7 d73c 4969 3b3d 882e 263c
00000280: 0c94 b43b d5fd 913b 4880 01b9 e33f 753c
00000290: 4201 a33b f6ef 8e3c 4528 8f3c d081 b63c
000002a0: 3d8e 77bb bb7c 4c3c af0a f03c 6463 a13c
000002b0: 91c0 fc3c c395 983b 71d3 823c 923a 863b
000002c0: 3ab1 f9b9 f71e 3ebb 63dc 353c f7e8 5c3c
000002d0: 9cd9 023c be59 feba a457 c43b 0ce8 b03c
000002e0: a2f6 ef3b 69cf 903c 72cb 193c 8a9b 563d
000002f0: 26d1 683d 2a8a 293d 6866 623c 837f 9eba
00000300: 6e11 b0ba 1810 2e3c 938d f83b ac83 3f3d
00000310: 9489 fd3b 4a3a ec3b bb3d 0a3c d647 9e3c
00000320: b2a7 db3b c815 783c 3bc7 a33a bb23 213d
00000330: 48f8 983c 4d44 e43c 4887 5739 970b 123d
00000340: be8b 9f3c f028 0c3c e238 563c c2d6 aaba
00000350: 030b 383d 00fc 283c 51b1 edbb dfd0 e83b
00000360: e8c8 623b 1057 dc3b 2cba 863c 43d2 e23b
00000370: c1a2 a33c c476 8e38 03fa 363d f890 8d3b
00000380: 6f93 f33b 562d 063c 49f0 2d3d b768 683c
00000390: 176b 023c a3c5 f73b c67f 79b8 23c9 653c
000003a0: 3d1f 613b d8e1 553c 4b60 753c 18d0 ac3c
000003b0: 2e35 a13c 1878 583c bcb3 453b 2e9e 903b
000003c0: 45ff 4c3c c1f4 a13c 5271 a1b9 136a 513b
000003d0: dc80 343c ff88 ba3c 33cc c53c 7090 973c
000003e0: b71a 1b3d 9ece 31ba 9031 9c3b c8cd b03b
000003f0: faaf 873c f40c 8f3c 81a2 9d3b 0e61 653d
0.020853892 0.02763955 0.0031036292 0.0024321338 0.010832175 0.001175222 0.005577793 0.017323582
0.011664899 0.0046716896 0.019977674 0.012084699 0.017308634 0.009378017 0.031301253 0.014606984
0.007945858 -0.0014184224 0.0020519702 -0.00799906 0.0028316882 -0.0035588054 0.002902474 -0.006089271
0.028588254 0.037998933 0.020582383 0.013926035 0.0015721377 0.020670213 0.05331884 0.004453016
0.016268423 0.010172081 0.0050933007 0.0043407935 0.0013284258 0.018628119 0.00033845042 0.01036698
0.003414077 0.0080801 0.010988673 0.01930831 -0.014339921 0.0036131747 5.101541e-17 0.0074200905
0.031727362 0.0033333015 0.008806502 -0.0002713004 -0.016212806 0.022583796 0.0035896697 -0.0075172647
0.0067230733 0.009422972 0.0018969988 -0.0006109108 0.0016785151 0.010272615 0.021539534 0.026537905
0.009875901 0.008079439 0.0037995658 0.04565948 0.010276653 0.005125466 0.00039029215 0.01314539
0.008993678 0.012079928 0.011932447 0.012583721 0.007274308 1.3927864e-18 0.015669117 0.009424855
0.022759277 0.018021159 0.014304018 0.009578173 0.0079254415 0.028733088 0.014443744 0.0061315745
0.017939257 0.014060911 0.0019602643 0.0069831717 0.011553087 0.024768248 0.017712979 0.011493723
0.020224988 0.010209575 0.019039959 0.006323757 0.00074260513 0.00297487 0.009827509 0.012742242
0.0035190445 0.0038072441 0.03737481 0.0153496675 0.0017546188 0.006010082 0.027820453 0.0300253
0.030384125 0.0055899965 0.031915527 0.0123710055 0.03046547 0.019493116 0.040882945 0.044671163
0.021873258 0.013362492 0.0068832953 0.0020424323 0.01185857 0.026681386 0.006391286 2.763833e-16
0.0259143 0.030134814 0.02381991 0.00594336 -0.0031123636 0.022879535 0.0012172569 0.03795413
0.013062021 0.014616715 0.030660404 0.021738457 1.8298209e-16 0.023324821 0.008272344 0.015552616
0.018707398 0.006418698 0.004271006 0.010713457 0.017360512 0.016266149 0.005063671 0.024729295
0.0041792523 -0.0025571156 0.0035657964 0.021118127 0.0021670389 0.026355717 0.045754705 0.01014293
0.0055108126 0.004455308 -0.00012350187 0.014968845 0.004974515 0.017448407 0.017475257 0.022278696
-0.003777399 0.01248091 0.02930197 0.019700713 0.030853542 0.004656525 0.015969964 0.0040963376
-0.00047625025 -0.0029010156 0.011099908 0.0134832775 0.007986452 -0.0019405407 0.005991893 0.021595024
0.007323102 0.017677026 0.009386884 0.052394427 0.056840084 0.04139153 0.013818361 -0.0012092445
-0.0013432929 0.010623954 0.0075852363 0.04675643 0.007737348 0.007209097 0.008437569 0.019321363
0.0067033404 0.015141912 0.0012495288 0.039340716 0.018673077 0.0278646 0.00020554394 0.035655584
0.019475814 0.008554682 0.013075085 -0.0013033974 0.044932377 0.010313988 -0.007253804 0.0071049775
0.0034604613 0.006724246 0.016446196 0.006922038 0.019975068 6.7932095e-05 0.044672024 0.00432026
0.007433347 0.00818952 0.042465482 0.014185122 0.0079601025 0.007561402 -5.9485224e-05 0.0140250055
0.0034350895 0.013054334 0.014976571 0.02109532 0.019678678 0.013212226 0.0030166944 0.0044133877
0.012512033 0.019770028 -0.00030792743 0.0031954094 0.011017051 0.022770403 0.024145221 0.01850149
0.037867274 -0.00067828025 0.0047666505 0.005395625 0.016563404 0.017462231 0.0048106317 0.05600076

linear2.weight f4 [59, 256]
00000000: 1bd3 643d cad5 443d 516d b03d 8321 0d3e
00000010: 53e7 2b3d b7c3 973d 514e 09bf 541b 583d
00000020: eb90 b7bc 138e 553d 37ad 653d 8a16 ad3d
00000030: f02f fcbe f11a 103d 9b1d 5d3d 756c 913d
00000040: 6c22 5c3d 8269 0fbd 2024 12bf ea46 873d
00000050: 859f 9d3d afbb a6be 760f 383d d8d0 653d
00000060: 8518 673d 9790 fdbe 28ba d63d a09a 57bd
00000070: 1c63 e5be 1ffd 9cbd e8a9 f7be 6302 7ebe
00000080: 601d 6b3d a28f f5bd c253 60be 0763 1f3d
00000090: ef70 b63d 65e1 ad3d b4d4 b83c b0bc 8cbe
000000a0: d4ee 2fbe 197f f3be e720 94be 1cb2 673d
000000b0: 1dbb 673d 069e 9a3d 6d9a 4fa6 7bd6 723d
000000c0: 762c 063e 3b32 e5be 26d5 733d 5227 993d
000000d0: a74a 913d 90b2 14bf bede 2fbe 749d eebc
000000e0: 0aaf 20be b6ef bebe d46e f8be c2f5 e7be
000000f0: 7b95 70be 4ca7 713c b41d 983d 6853 9c3d
00000100: 19e1 c33d 217e b23d 21d0 3d3d a661 5ebd
00000110: cd1a 6c3c b176 2b3d c885 10bd 8b46 923d
00000120: f9e3 8c3d 05bb 02be 5a43 d4bc 3a5a 963d
00000130: 07ae 923d 5aaf 10a3 23ce e63d 0fc7 9b3d
00000140: 747b 46be 6dc1 d23c 65d0 953d 3f7e eabe
00000150: 16be ec3d c4c5 6b3d 931b a73d 5d2c d9be
00000160: 4daa d8bc 92ea ca3d 163f 8e3c 35e8 92be
00000170: 821d 4ebc f4f6 afbe 7c2a 88be 84d3 72bd
00000180: 94f9 343d a834 97be 2737 003e cbc4 60be
00000190: 61bb 8dbe 40bf 393d 696a acbe 5919 52bc
000001a0: 9f6d 883d b72f dfbe 5bea 653d 635a edbe
000001b0: b9f5 f83c 1969 4b3d fe88 bf3c daae 00be
000001c0: c724 92bd cf08 ca3d ad7b 2e3d fb50 733c
000001d0: c20b 943d 70c7 223d 118b bd3d 8db6 c53d
000001e0: 0e83 8d3d de41 6abe a74a 9e3c b7ad 3bbd
000001f0: f809 643d 9d2d ab3d bb7c bcbe 0ae0 1126
00000200: 5a96 7d3d 8e0e 893d 6a31 85be 2ae0 debd
00000210: 4dc5 a0bb 4339 0b3d d966 57be fd1a 27bd
00000220: 011d a53d 2780 4abe ab31 10be 6d59 ca3d
00000230: 8ea5 0627 30cb bbbe 59a8 c0ba 6e48 aebb
00000240: 54d4 a73d 642a da3d 605f bc3c d4d7 cabe
00000250: 1f44 1bbe 3b30 a73d 8141 00bf f754 82be
00000260: f4c4 303d 3613 c53d 2979 af3d 6b7b 0bbd
00000270: 6549 09bf 028d 87be 727f f4be ade5 bc3d
00000280: 540b d13d 327b 6bbe 06ac a53d 5cd7 22bc
00000290: a5f0 5c3d cca3 f73d 7b43 0abc 17c8 8d3d
000002a0: 1169 bebe bb1d 3e3d 4163 00bf 02c8 be3d
000002b0: 9ccd 633c d4a0 9bbe 4562 e4bc 9a28 5cbe
000002c0: 953b 563d c427 a0ba e056 f93d a7d7 2cbd
000002d0: c983 803d 58bc 1b3d efe2 203d c679 9fbe
000002e0: a769 443d 339a 30bd d6a8 9f3d 87a7 f0be
000002f0: cef0 ffbd 5ef6 05bd f78e cf3d 200a 8e3d
00000300: 0622 04bb dac7 d3bd f9fb 8d3d c6ee 15bd
00000310: a82a c5bd 03e6 92be 6664 cabd dd61 acbe
00000320: 23c6 0c3d 1bbb 11be 8c40 fbbe f38d 18bf
00000330: 7bab 3abd 8adc 5d3d f726 563c a302 8d3d
00000340: 07a6 423d 98a4 fd3b cfa5 aa3d c3dd 303e
00000350: b8b0 c53d 9ea3 d13d 3046 2c3e 6afa ab3d
00000360: bc0f 01be 48fd 933d ba3d 7a3d 90e5 92be
00000370: 2a49 213d eb62 53be 3bb2 c53d 91d2 33bd
00000380: b38a 713d 1fc5 60be 1b80 b53d 5b85 bd3d
00000390: 5dae ca3d dad5 af3c 3cd8 523d 8450 473d
000003a0: b0a5 e1be 67b0 883d c569 593d 09a5 793d
000003b0: 2431 7b3d 520a 2f3d fb2a 043d cd7a 6f3d
000003c0: 8563 3a3d 9d33 133d 2e26 32bd 7197 a43b
000003d0: 1967 f4be dcf5 8fbd b97d bd3d 8916 d13d
000003e0: 43a1 8d3d f7c4 9bbe a23f 383d 0d3c 00bf
000003f0: 6bcb 2cbe 8d39 553d 001f 08be 5c10 893d
0.05586539 0.048055448 0.086146004 0.13782315 0.041968655 0.074103765 -0.53635126 0.052760437
-0.02240797 0.052137446 0.056073394 0.084515646 -0.49255323 0.035181943 0.053983312 0.07100765
0.053743765 -0.03501273 -0.5708637 0.06605323 0.076964416 -0.32565066 0.04493662 0.056107372
0.056419868 -0.49524376 0.10484725 -0.052637696 -0.44802177 -0.076654665 -0.48371816 -0.24805598
0.05740106 -0.119902864 -0.21906951 0.0389128 0.08908259 0.08490256 0.022562362 -0.27487707
-0.1718095 -0.47557905 -0.28931352 0.056566343 0.05657493 0.07549672 -7.202684e-16 0.059286576
0.13102898 -0.44764885 0.059529446 0.07478203 0.07094317 -0.58084965 -0.17174813 -0.029127814
-0.15691772 -0.3729226 -0.48522055 -0.45304686 -0.23494522 0.014749359 0.074275404 0.07633096
0.09564418 0.087154634 0.046341065 -0.054292344 0.014410687 0.04186124 -0.035283834 0.07142361
0.0687942 -0.12766655 -0.025911022 0.07341428 0.07162099 -7.843388e-18 0.11269786 0.07606327
-0.19383031 0.025726998 0.07315139 -0.45799443 0.115596935 0.05756165 0.08159556 -0.4241666
-0.026448393 0.09908022 0.017364066 -0.28692785 -0.012580277 -0.34368098 -0.26594913 -0.05928375
0.04418333 -0.2953236 0.12521039 -0.2195007 -0.2768202 0.045348406 -0.33674935 -0.012823426
0.066615336 -0.4359109 0.056131702 -0.46358022 0.030390607 0.049660776 0.023380753 -0.125667
-0.07135921 0.09864961 0.042598415 0.01485085 0.07228805 0.03974098 0.092550404 0.096539594
0.06909762 -0.22876689 0.019322706 -0.045819964 0.05567357 0.083583094 -0.36813912 5.061061e-16
0.061910965 0.06692229 -0.26014262 -0.108826 -0.0049063326 0.033990156 -0.21035327 -0.040797222
0.08062173 -0.19775449 -0.14081447 0.09880338 1.8685983e-15 -0.36678457 -0.0014698609 -0.005318693
0.08194795 0.106526166 0.022994697 -0.3961779 -0.15162705 0.08163496 -0.5009995 -0.25455448
0.04315658 0.09622805 0.08568031 -0.034053247 -0.53627616 -0.26474768 -0.47753483 0.09223495
0.10207239 -0.22996214 0.080894515 -0.009939041 0.053940434 0.12091789 -0.00843894 0.0692293
-0.37189534 0.046415072 -0.5015145 0.09315492 0.013904002 -0.3039614 -0.02787889 -0.21499863
0.052302916 -0.0012218882 0.12174773 -0.04219785 0.06275136 0.038021415 0.03927892 -0.31147593
0.04795232 -0.043115806 0.07795875 -0.47002813 -0.12497102 -0.032705657 0.1013469 0.06935525
-0.002016188 -0.10340853 0.069328256 -0.036604665 -0.09627277 -0.2869111 -0.09882431 -0.33668414
0.034368645 -0.14231531 -0.49072683 -0.595916 -0.045573693 0.0541654 0.013070813 0.068852685
0.047521617 0.0077405684 0.08332407 0.17272095 0.09652847 0.102362856 0.1682365 0.08397372
-0.12603658 0.07226044 0.061094023 -0.28690767 0.039376415 -0.20643203 0.096531354 -0.043901984
0.058970165 -0.21950196 0.08862325 0.09253951 0.098965384 0.021464277 0.05147575 0.04866077
-0.44071722 0.06674271 0.053079385 0.060948405 0.06132616 0.04273445 0.032267552 0.05846672
0.045505065 0.035937894 -0.043493442 0.005022936 -0.47734907 -0.07029316 0.09252495 0.10209376
0.06915524 -0.3042371 0.04498256 -0.5009163 -0.16874473 0.052056838 -0.13293076 0.066925734

linear2.bias f4 [59]
00000000: 00f9 77bc 5db3 98bc c9d1 81bc 431e 6cbc
00000010: 85c9 52bc 2707 a2bc ca6b a9bc fc28 a1bc
00000020: e643 72bc 3984 56bc d69a 83bc 02b6 87bc
00000030: 2181 83bc 31af 8fbc 9359 6dbc 01c3 21bc
00000040: b043 a7bc 476a 57bc c062 aabc 4280 86bc
00000050: 93b6 48bc ec5a 34bc 5c68 adbc 0b60 93bc
00000060: 537f 58bc 0536 a9bc 5a3a 9abc 7ad8 36bc
00000070: f345 92bc b1ad 6bbc e4a7 91bc 92e3 7cbc
00000080: ef70 21bc 9874 8fbc ee0e 8ebc 42b1 92bc
00000090: c84a 56bc d3c7 8cbc f56b 85bc 6cdc 42bc
000000a0: ac68 87bc 4291 9ebc c8f2 79bc 86b6 9dbc
000000b0: 61bb 68bc eaec 96bc 4ef8 97bc 8d40 8dbc
000000c0: 9390 b0bc 3019 64bc 2cba 1cbc 32fa 9fbc
000000d0: 7225 1fbc 0f2c 8abc 5e34 7ebc 908c 5ebc
000000e0: a15f 42bc 361e 97bc 3b07 8ebc
-0.01513505 -0.018640215 -0.015847104 -0.014411512 -0.012865429 -0.019778801 -0.02068128 -0.019672863
-0.014786696 -0.013093048 -0.016065042 -0.01656628 -0.016052784 -0.017539592 -0.014486688 -0.009873153
-0.020418018 -0.013147897 -0.02079904 -0.01641858 -0.01225056 -0.011008006 -0.021167926 -0.017990133
-0.01321395 -0.020655641 -0.018826652 -0.0111600105 -0.01785562 -0.014384673 -0.017780252 -0.015435116
-0.009853586 -0.01751165 -0.017341103 -0.017906789 -0.013079353 -0.017185127 -0.01628683 -0.011893373
-0.016529404 -0.019356374 -0.0152556375 -0.019252073 -0.014204831 -0.018423516 -0.018551018 -0.017242694
-0.021553313 -0.013922021 -0.009565871 -0.019528482 -0.0097135175 -0.016866712 -0.015515415 -0.013583317
-0.01186362 -0.018447023 -0.017337432
