intermediary/model_10150.pth (torch, 356400 bytes, 5 tensors)

embed.weight f4 [59, 128]
0	0xbeae9cc5	-0.3410398
1	0x3e738960	0.23782873
2	0xbecf2390	-0.4045682
3	0xbeb01e9b	-0.3439835
4	0x3ecf994a	0.40546638
5	0x3ed0c67c	0.40776432
6	0xbe1fe20b	-0.15613572
7	0xbee0e8c7	-0.43927595
8	0x3ee3c915	0.4448935
9	0x3ea4d107	0.32190725
10	0xbeb6f4eb	-0.35733733
11	0xbec47fd5	-0.38378778
12	0x3cdf6007	0.02726747
13	0xbe5557e7	-0.20834313
14	0xbeadfed6	-0.33983487
15	0x3ebdf022	0.3709727
16	0xbe8c54d9	-0.27408484
17	0xbede0a3a	-0.43367177
18	0xbea4c160	-0.32178783
19	0x3eca6d51	0.39536527
20	0x3ec84cd4	0.39121115
21	0x3e7b1dd1	0.24523093
22	0x3e0eccb7	0.1394528
23	0x3e468106	0.19385156
24	0x3e9d3f2a	0.30712253
25	0x3edc6dfc	0.4305266
26	0xbeb45bf7	-0.35226414
27	0x3e90680e	0.28204387
28	0x3d589287	0.052874114
29	0x3ecb39fa	0.3969267
30	0x3ed1f0b1	0.41003945
31	0xbe1de7c6	-0.15420446
32	0xbed7eb79	-0.4217184
33	0xbed10961	-0.40827468
34	0xbe9f2229	-0.3108075
35	0xbe86c345	-0.26320854
36	0x3e75837f	0.23975943
37	0x3ef8e54a	0.48612434
38	0x3e821e9a	0.25413972
39	0xbe2f7768	-0.17135394
40	0xbdbbbd02	-0.0916691
41	0xbe99b3b9	-0.3001993
42	0x3ee3587c	0.44403446
43	0x3e64470d	0.22292729
44	0x3ee72f06	0.45153064
45	0x3def4e74	0.116848856
46	0x3ed37513	0.41300258
47	0x3efa9b2e	0.48946518
48	0xbebd6b57	-0.36995956
49	0xbe8d778a	-0.27630264
50	0x3ef58086	0.47949618
51	0x3ece99ce	0.4035172
52	0xbeb17bc6	-0.34664744
53	0xbec1c5bc	-0.37846172
54	0x3eb490f8	0.35266852
55	0x3e0273af	0.12739442
56	0xbec3983d	-0.38202086
57	0x3e436ab0	0.19083667
58	0xbeb32177	-0.3498647
59	0x3eccb4bb	0.39981636
60	0xbe87dbfb	-0.2653502
61	0x3ec45b6e	0.38351005
62	0xbee06a82	-0.4383126
63	0xbed0be01	-0.4076996
64	0xbeb29574	-0.3487965
65	0x3e474dd7	0.19463287
66	0xbe433058	-0.1906141
67	0xbc700755	-0.014650186
68	0x3ebc7555	0.36808267
69	0xbee5ef37	-0.4490907
70	0xbdbfc053	-0.09362855
71	0xbed3e98b	-0.41389117
72	0xbec562d8	-0.38551974
73	0xbed7fd45	-0.42185417
74	0x3e8253c4	0.25454533
75	0xbe9282ce	-0.2861542
76	0x3eeba729	0.4602597
77	0x3e9d0732	0.30669552
78	0x3e76b463	0.2409225
79	0x3ed337b8	0.41253448
80	0x3eb70f9b	0.35754094
81	0xbe9bb37d	-0.30410376
82	0xbdf26bb8	-0.11836952
83	0xbefad6cb	-0.48992
84	0x3ed3bed0	0.41356516
85	0xbea5d13a	-0.3238619
86	0x3cb71776	0.022350054
87	0xbea77a92	-0.327107
88	0xbee1dcd2	-0.44113785
89	0x3ed0b4ca	0.4076293
90	0x3eb0fdaa	0.3456853
91	0xbe643d1f	-0.22288941
92	0x3ed1d48b	0.4098247
93	0xbf00fadc	-0.5038278
94	0xbeae5b4e	-0.34054035
95	0x3eb52ec1	0.35387233
96	0x3e932f9e	0.28747267
97	0x3ee563b0	0.44802618
98	0xbe937bb5	-0.28805318
99	0x3eb92390	0.36159945
100	0x3e86c0f7	0.26319095
101	0xbee5591e	-0.44794554
102	0xbe88c9e9	-0.26716545
103	0x3e3997fa	0.1812438
104	0x3edcfb0a	0.43160278
105	0xbecf3c96	-0.4047591
106	0x3ee2dfac	0.44311273
107	0x3ede7f0c	0.43456304
108	0x3e92da28	0.28682065
109	0xbea509e3	-0.32234105
110	0xbed69c9e	-0.41916364
111	0xbe80545c	-0.2506436
112	0x3ea95e40	0.3307972
113	0xbe3b6c5f	-0.18303059
114	0xbee06cfc	-0.43833148
115	0xbed4aaf0	-0.41536665
116	0x3eb7f8cc	0.35932004
117	0xbedb1cca	-0.42795402
118	0x3d558aae	0.05213421
119	0xbe9167af	-0.28399417
120	0x3edfad9b	0.43687138
121	0xbeb62123	-0.35572156
122	0x3ec9df23	0.39428052
123	0x3e9fa10a	0.3117755
124	0xbed961af	-0.4245734
125	0x3e9791e2	0.29603487
126	0x3eddbd21	0.43308356
127	0x3eece8ba	0.46271306
128	0x3e54b4ca	0.2077209
129	0x3eb32614	0.3498999
130	0xbdee1850	-0.11625731
131	0xbee91a57	-0.45527908
132	0xbeade04f	-0.33960196
133	0xbe18f7f0	-0.1493833
134	0xbe1c2378	-0.15247905
135	0xbed54002	-0.41650397
136	0xbe2f9768	-0.171476
137	0x3ee3cd08	0.44492364
138	0xbed52b3b	-0.41634545
139	0x3e587faa	0.2114245
140	0x3ee86298	0.4538772
141	0x3f01c0bb	0.5068471
142	0xbe48f399	-0.19624175
143	0x3def2491	0.11676896
144	0x3e6ca25c	0.2310881
145	0xbaf7a190	-0.0018892754
146	0x3eaf7325	0.34267536
147	0xbec65708	-0.38738275
148	0x3eb95002	0.36193854
149	0xbebe3545	-0.37150016
150	0xbedbdce3	-0.4294196
151	0xbeb516c5	-0.35368934
152	0xbe364dbe	-0.17803094
153	0x3d3c3f62	0.045958884
154	0x3ea1204b	0.3146995
155	0xbefa5375	-0.48891798
156	0xbee7509e	-0.45178694
157	0xbe19ae6d	-0.15007944
158	0xbe61bd7e	-0.22044942
159	0x3ebdcd53	0.37070712
160	0x3ebc4838	0.3677385
161	0xbef6a343	-0.48171434
162	0x3f00b46a	0.5027529
163	0x3ec977c3	0.39349183
164	0xbec9524f	-0.3932061
165	0xbeaf1860	-0.34198284
166	0xbed2e682	-0.41191489
167	0x3ebeb33c	0.3724612
168	0x3efbbb11	0.49166158
169	0x3f01a631	0.5064421
170	0xbeca457a	-0.3950613
171	0x3eda10b0	0.42590857
172	0xbe72ebf6	-0.23722824
173	0xbed9031a	-0.4238518
174	0x3f017055	0.5056203
175	0x3ece6233	0.40309295
176	0x3c854657	0.016268892
177	0xbed8eec3	-0.4236966
178	0x3edd1364	0.43178856
179	0x3ecbb906	0.397896
180	0xbed5c7df	-0.41754052
181	0x3e70cc62	0.23515466
182	0xbe9569ad	-0.29182187
183	0x3e9e3e14	0.30906737
184	0xbeea7016	-0.4578864
185	0x3e28a279	0.16468228
186	0x3eddbaec	0.43306673
187	0x3df14af1	0.11781872
188	0x3ebc7a17	0.36811897
189	0xbe82b8ca	-0.25531608
190	0xbed7d575	-0.42155042
191	0xbeb366f7	-0.35039493
192	0xbe201c02	-0.15635684
193	0x3ea60d7a	0.32432157
194	0x3ee89b6d	0.4543108
195	0x3ee0b44d	0.4388756
196	0xbeb90cf5	-0.36142698
197	0xbedd3a4d	-0.43208542
198	0x3ed79dba	0.42112523
199	0x3ec75ad4	0.38936484
200	0x3ebcd976	0.3688466
201	0x3d91948d	0.07108412
202	0xbedfdd1d	-0.43723384
203	0xbebe6338	-0.37185073
204	0xbe438f37	-0.19097601
205	0x3e8e6c6b	0.2781709
206	0xbe9e0038	-0.30859542
207	0x3e8788bc	0.26471508
208	0xbefea1c0	-0.4973278
209	0xbea0488b	-0.31305346
210	0x3c86ce6b	0.01645585
211	0xbedbd6ec	-0.4293741
212	0xbec8abd4	-0.39193594
213	0xbe8b02a6	-0.27150458
214	0xbeb568bf	-0.35431477
215	0xbed9a4a7	-0.42508432
216	0x3ea374fe	0.31925195
217	0xbed07f31	-0.4072204
218	0xbee064b0	-0.43826818
219	0x3e0bdf43	0.13659386
220	0x3e84b73a	0.2592104
221	0xbee1dd26	-0.44114035
222	0x3ec2835b	0.3799084
223	0x3eaa6590	0.3328061
224	0xbdec969d	-0.11552165
225	0xbe7cd258	-0.24689615
226	0x3e5edf68	0.2176491
227	0xbe5be812	-0.21475247
228	0xbebc3956	-0.36762494
229	0x3e4135ed	0.18868227
230	0x3d175848	0.036949426
231	0xbeac606f	-0.33667323
232	0xbe766341	-0.240613
233	0x3ec4d60e	0.3844456
234	0x3ef1f573	0.47257575
235	0x3e5f2815	0.21792634
236	0xbed809c2	-0.42194945
237	0x3ea66796	0.32500905
238	0x3eace9ab	0.33772025
239	0xbefd2923	-0.49445447
240	0xbed6777a	-0.41888028
241	0x3ee4bb51	0.4467416
242	0x3e47c92a	0.19510332
243	0x3edaedcb	0.42759547
244	0xbed4dce0	-0.41574764
245	0xbc82d9ad	-0.015972937
246	0x3ecb4e72	0.39708287
247	0xbeb1b974	-0.34711802
248	0xbe7f3173	-0.24921207
249	0x3ecd55ac	0.40104425
250	0x3ee6ab5d	0.45052615
251	0xbe2b9d11	-0.16759135
252	0xbe926e6a	-0.28599864
253	0xbebce8ba	-0.36896306
254	0x3ee9a123	0.4563075
255	0xbece6343	-0.40310106

linear1.weight f4 [256, 256]
0	0xbe0a28d7	-0.13492142
1	0xbe0ee568	-0.13954699
2	0x3e1d54a4	0.15364319
3	0x3e03e465	0.12880094
4	0xbe26aa38	-0.16275871
5	0x3cbb1038	0.022834882
6	0x3e3215b1	0.17391087
7	0xbc470207	-0.012146479
8	0xbe670ce8	-0.22563517
9	0xbd0063b9	-0.031345103
10	0x3e42aed2	0.19012001
11	0xbe2a0803	-0.16604619
12	0xbd0cf15f	-0.034409877
13	0x3a4f59fd	0.00079098326
14	0xbe28aeb6	-0.16472897
15	0x3e106f3c	0.14104933
16	0x3dac61ed	0.08417115
17	0x3e22b9a0	0.15891123
18	0x3e639fe9	0.2222897
19	0x3ddcbab6	0.107778
20	0xbd1d2d96	-0.038373552
21	0x3de27852	0.110581055
22	0x3d5f94df	0.054585334
23	0x3de522fb	0.111883126
24	0xbc8e4e50	-0.017371327
25	0xbe59851b	-0.21242182
26	0xbe50cf7a	-0.20391646
27	0xbda555c0	-0.08072996
28	0x3dbb10d3	0.09134068
29	0x3c642e37	0.013927034
30	0xbdd0969e	-0.10184978
31	0x3c1f4279	0.009720438
32	0xbcb12ad5	-0.02162687
33	0x3d328ae0	0.043589473
34	0x3d2a21e9	0.041536245
35	0x3e4d50b8	0.20050323
36	0x3dd2416e	0.10266386
37	0xbe01a459	-0.1266035
38	0x3e48fafb	0.19626991
39	0xbd14576e	-0.036216192
40	0xbcdc2e3c	-0.026877515
41	0x3c8f0e59	0.017462896
42	0xbe29df7c	-0.16589159
43	0xbcc8da5a	-0.02451818
44	0xbe0680f9	-0.13135137
45	0xbe138042	-0.14404395
46	0xbe00bf68	-0.12573016
47	0xbcedd71b	-0.029033234
48	0xbe37e836	-0.17959675
49	0xbddca4b6	-0.107736036
50	0xbcdaf518	-0.026728198
51	0xbe348fec	-0.17633027
52	0x3d7bab52	0.06144268
53	0xbe0e7a68	-0.13913882
54	0xbe2a7dd5	-0.16649564
55	0x3cffeb0e	0.031240012
56	0x3d91267c	0.070874184
57	0xbc0477df	-0.00808522
58	0x3e26fdcc	0.16307753
59	0x3ddc0030	0.10742223
60	0x3e458e3f	0.19292544
61	0xbd8af31f	-0.06784653
62	0x3e1d5a3e	0.15366456
63	0x3e0616cf	0.13094638
64	0x3e2ea4b6	0.1705502
65	0xbe0d5702	-0.13802722
66	0xbe3c134e	-0.18366739
67	0xbe03f8d9	-0.12887897
68	0xbd3e77bc	-0.046500906
69	0xbd4de0e9	-0.05026332
70	0xbd41251f	-0.047154542
71	0xbdb0feb1	-0.086423285
72	0xbdde9be0	-0.108695745
73	0xbe1c0fea	-0.15240446
74	0x3debf66d	0.11521611
75	0x3e5524e7	0.20814858
76	0xbe5019b1	-0.203223
77	0xbd9d7f85	-0.07690338
78	0xbd396dba	-0.04527066
79	0x3de0814f	0.10962164
80	0xbd77cec1	-0.06049991
81	0x3e18aac6	0.14908895
82	0x3e2248ee	0.15848133
83	0x3e3fa37f	0.18714713
84	0xbd27670c	-0.040869758
85	0x3d89bf1c	0.06725904
86	0x3d45de82	0.048307903
87	0x3da3f54d	0.08005772
88	0x3e1c819e	0.1528382
89	0xbe29fab9	-0.1659955
90	0xbe338037	-0.17529379
91	0x3de36ec2	0.1110511
92	0x3c28378b	0.010267149
93	0x3e11419f	0.14185189
94	0xbdaf2224	-0.08551434
95	0x3c83547d	0.016031498
96	0x3d3b012a	0.045655407
97	0xbd36277b	-0.044471245
98	0x3c6cfb53	0.014464217
99	0x3cb64cf9	0.0222535
100	0xbe29d70e	-0.16585943
101	0x3cfc75d4	0.030817904
102	0x3b05080f	0.0020298993
103	0xbe18f06a	-0.1493546
104	0xbde204e5	-0.1103609
105	0x3c63fed1	0.013915733
106	0xbd662d32	-0.056195445
107	0xbce4bfe2	-0.027923528
108	0xbe5236ad	-0.2052867
109	0xbe5f9831	-0.218354
110	0x3ccb7d03	0.024839884
111	0x3e3120a0	0.17297602
112	0xbe5f30ad	-0.21795912
113	0xbde7eafe	-0.11324118
114	0x3e344029	0.176026
115	0xbdde4132	-0.10852279
116	0x3e58c64d	0.21169396
117	0x3e5df2f1	0.21674706
118	0xbd77f838	-0.060539454
119	0x3d3195ca	0.04335574
120	0x3de4716f	0.11154448
121	0x3de24aaa	0.11049397
122	0xbe476fad	-0.19476195
123	0xbd4580f7	-0.048218694
124	0xbe112bf3	-0.14176922
125	0xbd6e447e	-0.058170788
126	0xbd587952	-0.052850075
127	0xbe0608fe	-0.13089368
128	0x3c40ea68	0.011774637
129	0xbb439867	-0.0029845478
130	0xbde30062	-0.110840574
131	0xbe4218ac	-0.18954724
132	0x3e327d31	0.17430569
133	0xbe44a674	-0.19204122
134	0xbe17101b	-0.14752237
135	0xbc4fb388	-0.012677081
136	0x3deb2a7e	0.11482714
137	0x3e179a15	0.14804871
138	0xbe370b10	-0.17875314
139	0xbd81983f	-0.06327867
140	0xbe5574ef	-0.20845388
141	0xbe6af7ec	-0.22946137
142	0x3deef140	0.116671085
143	0xbb75cf39	-0.0037507548
144	0xbe7e8a2b	-0.24857394
145	0xbe00104b	-0.12506215
146	0xbd842d97	-0.06454008
147	0x3d8e1167	0.06936913
148	0xbe451d1c	-0.19249386
149	0xbd63207d	-0.055450905
150	0x3e1978de	0.14987513
151	0x3d59ac4d	0.053142834
152	0xbe3c43f5	-0.18385299
153	0x3db9cb07	0.090719275
154	0x3bf94aec	0.0076078083
155	0x3df61fab	0.12017759
156	0xbe3cf919	-0.18454398
157	0xbe4de9f2	-0.20108774
158	0xbc84885a	-0.016178299
159	0x3e6557f5	0.22396834
160	0xbe4c276a	-0.1993691
161	0x3e4995a4	0.1968599
162	0xbe15ad2a	-0.14616838
163	0xbcfb1b53	-0.030652678
164	0xbdd77923	-0.10521152
165	0x3ddcf4cc	0.10788879
166	0xbd85cb06	-0.06532864
167	0x3e35b982	0.17746547
168	0xbe454758	-0.19265497
169	0xbe088f7e	-0.13335988
170	0x3da8bf15	0.08239571
171	0xbe39a406	-0.18128976
172	0x3dafce51	0.085842736
173	0xbc851317	-0.016244454
174	0xbe1bd98e	-0.1521971
175	0xbdc58030	-0.096435905
176	0x3e0f5c6d	0.14000101
177	0xbd0e50b1	-0.034744922
178	0xbe35a42e	-0.17738411
179	0x3e13318f	0.14374374
180	0xbe0f987c	-0.14023012
181	0xbdd1209b	-0.10211297
182	0x3d5298ea	0.05141536
183	0xbc9bfbe5	-0.019041011
184	0x3e1cd633	0.15316086
185	0xbe3b5dc8	-0.18297493
186	0xbe3c2efb	-0.18377297
187	0xbdf8df44	-0.121519595
188	0xbc5c5f13	-0.013450402
189	0xbde77c89	-0.1130305
190	0x3d1e4c73	0.038647126
191	0x3e1e882d	0.15481634
192	0x3d1ba09f	0.037994977
193	0x3d561280	0.052263737
194	0xbd99b213	-0.07504668
195	0x3d6155d1	0.05501348
196	0xbe16f319	-0.14741172
197	0x3df70b0e	0.120626554
198	0x3db9365f	0.090435736
199	0xbdd06fc2	-0.10177566
200	0xbe20bb54	-0.1569646
201	0x3e327558	0.17427576
202	0xbde6d186	-0.11270432
203	0xbcd970a6	-0.026542973
204	0xbd4ea64b	-0.050451558
205	0xbe3b5046	-0.1829234
206	0xbdff30dd	-0.12460492
207	0xbe5fe63e	-0.21865174
208	0x3e2e50f7	0.17023073
209	0xbd6fac0c	-0.058513686
210	0xbd6c3c9d	-0.057674993
211	0x3d8fdc80	0.07024479
212	0x3e624e97	0.22100292
213	0x3c8823bc	0.016618602
214	0x3e479e64	0.19494015
215	0x3d7da3bf	0.06192374
216	0xbe18f6ad	-0.1493785
217	0xbd1bbbff	-0.038021084
218	0x3dc176ab	0.09446462
219	0xbd24efaa	-0.040267624
220	0xbe4dc11d	-0.20093198
221	0xbd181bc5	-0.037135858
222	0xbdc032dd	-0.093847014
223	0x3d8509c6	0.06496005
224	0x3be5edea	0.007016887
225	0xbcc38da6	-0.023871254
226	0x3dda9241	0.10672427
227	0xbde172dc	-0.11008236
228	0xbe082ddc	-0.13298744
229	0xbd9b9a0d	-0.07597742
230	0xbd07b5bf	-0.03313231
231	0xbdb00733	-0.08595123
232	0xbc1d0253	-0.009583074
233	0xbe303849	-0.17208971
234	0xbb5a8c4c	-0.0033347784
235	0xbde2a742	-0.11067058
236	0x3d9ef6f4	0.07761946
237	0x3d7d5ec7	0.061857965
238	0xbe2c0281	-0.1679783
239	0x3be98566	0.007126498
240	0x3dae8dae	0.08523117
241	0xbcfa73a2	-0.030572716
242	0x3daca238	0.08429378
243	0xbdd52ce5	-0.104089536
244	0x3a856664	0.001017761
245	0xbd8f75d5	-0.070048966
246	0xbe361b86	-0.17783937
247	0x3d054ba7	0.03254285
248	0xbdb3f847	-0.087875895
249	0xbe4c2880	-0.19937325
250	0xbc38ebea	-0.011286715
251	0xbe118662	-0.14211419
252	0x3d0594e6	0.032612704
253	0xbe1dc5bc	-0.15407461
254	0xbb59d463	-0.0033238165
255	0x3dd7c640	0.1053586

linear1.bias f4 [256]
0	0x3cbaf44b	0.022821566
1	0x3cbf7c42	0.02337468
2	0x3a9e539d	0.0012079362
3	0xbc327d3f	-0.010894119
4	0x3cd7aebf	0.026328443
5	0x3b13dfa8	0.002256373
6	0x3bc5ae7f	0.0060327644
7	0x3c4ffbd1	0.012694315
8	0x3c794997	0.015215299
9	0x3c1a6d97	0.009425542
10	0x3c95b729	0.018275814
11	0x3c58b8f3	0.013227689
12	0x3c8bb0e1	0.017052116
13	0xbb8365f5	-0.004009957
14	0x3cd30211	0.025757821
15	0x3d227f24	0.039672032
16	0xbb19b591	-0.002345417
17	0xba8f7135	-0.0010943773
18	0xbb81a923	-0.0039569302
19	0x3a295596	0.00064595917
20	0xb4f86c37	-4.6272336e-07
21	0x3b65102e	0.003495227
22	0x3bf73bde	0.0075449785
23	0x3c968e5e	0.018378433
24	0x3cc8ac49	0.024496214
25	0x3d4ac152	0.04950077
26	0x3cb69776	0.02228902
27	0x3d224a1e	0.039621465
28	0xb9f8952a	-0.00047413382
29	0x3d2a22a4	0.041536942
30	0x3d789b0a	0.06069473
31	0x3c0502eb	0.0081183715
32	0x3c3a4b32	0.011370467
33	0xbc69c4aa	-0.01426808
34	0x3ce1f565	0.027582834
35	0x3c1a2596	0.009408375
36	0x3c95c787	0.018283619
37	0x3c9c6ce1	0.019094886
38	0x3b15e4d5	0.002287199
39	0x3c4c3ae0	0.012465209
40	0x3bd9d425	0.006647604
41	0x3c7fcac9	0.015612313
42	0x3c427bdf	0.0118703535
43	0x3cee95a0	0.029124081
44	0xbcd26c04	-0.025686271
45	0x3bb9df3b	0.005672363
46	0x30d3a97a	1.5400439e-09
47	0x3c2235bf	0.009900509
48	0x3cc103db	0.023561409
49	0x3b99b207	0.004690412
50	0x3c17268c	0.009225499
51	0xbc0917e3	-0.008367511
52	0x3d51665e	0.051123016
53	0x3ce685bb	0.02813994
54	0x3bda5a11	0.006663569
55	0x3c97494e	0.018467572
56	0x3b99db39	0.004695323
57	0x3ba5d11e	0.005060329
58	0xbb1261e0	-0.002233617
59	0xb907ce16	-0.00012951376
60	0xbb86f84a	-0.004118954
61	0x3c1baa5c	0.009501066
62	0x3c8d5c6b	0.017255982
63	0x3c41793e	0.011808692
64	0x3bab6248	0.005230222
65	0x3c1e98e8	0.00968001
66	0x3bb97a86	0.005660358
67	0x3d23f7c8	0.040031224
68	0xbc48145c	-0.012211885
69	0x3c280f24	0.010257516
70	0x380a8f8f	3.3035463e-05
71	0x3c620ffa	0.013797754
72	0x3c1f4a80	0.009722352
73	0x3bd97ce7	0.006637204
74	0x392d8076	0.00016546421
75	0x3c18d323	0.009327683
76	0x3c6e227d	0.01453459
77	0x2f1a8ca1	1.405618e-10
78	0x3caa6e4a	0.020804543
79	0x3c050282	0.008118274
80	0x3d05dbf8	0.03268048
81	0xbc0ce93e	-0.008600531
82	0x3c7f3211	0.015575902
83	0x3c71e846	0.014764851
84	0xb487ec01	-2.5317425e-07
85	0x3c6ab6e6	0.014325833
86	0x3cf12271	0.029435368
87	0x3a15b45b	0.0005710774
88	0x3b325995	0.002721404
89	0x3c69f8e4	0.014280532
90	0x3bc62ed7	0.006048064
91	0x3c7fb10e	0.015606178
92	0x3c7e0b07	0.015505559
93	0x3cd926ab	0.026507696
94	0x3cbf07be	0.023319121
95	0x3c109293	0.0088240085
96	0x3ccfeb69	0.025380807
97	0x3c3506c7	0.011048979
98	0x3ced42bb	0.028962484
99	0x3c946a19	0.018116998
100	0x3b2ad7b3	0.0026068508
101	0xbc8db67c	-0.01729893
102	0x3b83f8ad	0.004027447
103	0x3c948d32	0.018133733
104	0x3c1bc4b9	0.009507352
105	0x3bb6be02	0.00557685
106	0x3d2e973c	0.042624697
107	0x3be1b3b4	0.0068878774
108	0x3b12e9b3	0.0022417128
109	0x3c2ed1ff	0.010670184
110	0x3d34aa4f	0.04410773
111	0x3c6233db	0.013806309
112	0x3d328321	0.043582086
113	0x3b503514	0.0031769918
114	0x3c76d238	0.0150647685
115	0x3ccf8bc0	0.025335193
116	0x3cabcea7	0.020972563
117	0x3d6297ec	0.055320665
118	0x3d13a8c2	0.036049612
119	0x3d2ca82d	0.042152572
120	0x3c72a0b1	0.01480882
121	0x3c685e6f	0.014182671
122	0xba5dd621	-0.00084623887
123	0x387b3cda	5.9899736e-05
124	0x3c833263	0.016015237
125	0x3ce8903c	0.028389089
126	0x3af387f4	0.0018579946
127	0x30ab2298	1.245172e-09
128	0x3ce5b250	0.028039128
129	0x3cc0f8ea	0.023556191
130	0x3d2af028	0.041732937
131	0x3c018d3a	0.007907206
132	0x3b93062b	0.0044868193
133	0xbc3c1db4	-0.011481691
134	0xbb9217c2	-0.0044583986
135	0x3447cfbd	1.8608894e-07
136	0x3c1fb20d	0.00974704
137	0x3b6a49e9	0.003574962
138	0x3cfa177e	0.03052878
139	0x3cab493e	0.020908948
140	0x306dd85b	8.652756e-10
141	0x32ae6ae2	2.030487e-08
142	0x3c09af01	0.008403541
143	0x3c8e19f8	0.017346367
144	0x3c8b35c0	0.016993403
145	0x3bd02f5c	0.006353302
146	0x3c867d61	0.016417207
147	0x3c245f2b	0.010032455
148	0x3ce8fe47	0.028441561
149	0x3c913aa4	0.017728157
150	0x3bce52df	0.0062965
151	0x3ce06b23	0.027394837
152	0x3b1562ed	0.002279456
153	0xb9bdae01	-0.00036178532
154	0xbb1d1a34	-0.0023971917
155	0x3bddf02d	0.006773016
156	0x3a9b7c37	0.001186258
157	0x3d0df0b0	0.034653366
158	0x3c14e3ce	0.009087516
159	0x340b84f4	1.2993752e-07
160	0x3b9c31e8	0.0047666915
161	0x3813f4b2	3.527542e-05
162	0x3bb6e884	0.0055819172
163	0x3c44ac11	0.012003914
164	0x3b864c9c	0.004098488
165	0x3c8d1c46	0.017225396
166	0x3cadc08c	0.021209978
167	0x3ce1ac5c	0.027548008
168	0x3a5570ad	0.0008142095
169	0x3c663d06	0.014052635
170	0x3cf3e387	0.02977158
171	0x3c36bcb6	0.011153391
172	0x3d125fab	0.035735767
173	0x3956379e	0.0002042935
174	0x3c68a640	0.014199793
175	0x39b3f530	0.0003432422
176	0x3c9e7013	0.01934055
177	0xbade60cf	-0.0016966107
178	0x3c4b913f	0.012424766
179	0x3c25f437	0.010129026
180	0x3bedb7cf	0.0072545777
181	0xba4c2e03	-0.00077888387
182	0x3b8c266d	0.0042770416
183	0xbacd209f	-0.0015649981
184	0x3c15be7c	0.009139653
185	0x3c9372c5	0.017999062
186	0x3c50e855	0.012750705
187	0x3d68fa76	0.056879483
188	0x3cf38606	0.029726993
189	0x3d15935b	0.036517482
190	0x3c8a4e28	0.01688297
191	0xbb379c38	-0.0028016698
192	0x340cfad3	1.3129765e-07
193	0x3c451e35	0.012031128
194	0x3b8f52dd	0.0043738917
195	0x3cf7e4c9	0.03026046
196	0x3bd68279	0.0065463153
197	0x3c809c4b	0.015699526
198	0x3c166399	0.009179019
199	0x3c6cf005	0.014461522
200	0x3c898a01	0.016789438
201	0x3c8d3a8f	0.017239837
202	0xbb6b125d	-0.00358691
203	0x3d2aa26a	0.041658796
204	0x3d05685b	0.032570224
205	0x3c8f46de	0.017489847
206	0x32b6293a	2.1206336e-08
207	0x3c7b0ef5	0.01532339
208	0x3c5d4b66	0.013506746
209	0x3bc3a9f9	0.00597119
210	0x3c2bd73d	0.0104883285
211	0x3a63d876	0.0008691618
212	0x3d2c9f97	0.042144384
213	0x3c3f0bf6	0.011660567
214	0xbc54dc94	-0.012992043
215	0x3c33fdb4	0.0109857805
216	0x3c469ee2	0.012122842
217	0x3b9b385c	0.004736943
218	0x3c791ade	0.01520416
219	0x3c81112f	0.015755264
220	0x3c182eda	0.009288514
221	0x3a87cbec	0.0010360456
222	0x3d2bfb4a	0.041987695
223	0x32192746	8.914702e-09
224	0x3bfcbaf9	0.0077127186
225	0x38e64ac2	0.000109811794
226	0x3c7b8031	0.015350387
227	0x3ca51cb3	0.020155286
228	0x3baf5161	0.0053502773
229	0x3b04b207	0.0020247714
230	0xb994aee2	-0.00028359058
231	0x3b4f4eb8	0.0031632613
232	0xbb72a305	-0.0037023437
233	0x3c3fa1f5	0.011696328
234	0x3c825aa6	0.015912365
235	0x3c8125fe	0.015765186
236	0x3bdaf6ce	0.0066822534
237	0x3c82e2f1	0.015977355
238	0x3c09b189	0.008404144
239	0x3c16394a	0.009168932
240	0x3c756ca5	0.014979516
241	0x3cbbb238	0.02291213
242	0x3c3cf454	0.011532862
243	0x3bc37225	0.005964535
244	0x3c5d20a1	0.013496549
245	0x3c97edfb	0.018546095
246	0x3cd8ad6e	0.026449885
247	0x3c8e08db	0.017338207
248	0x3d18d603	0.037313472
249	0xbbbe4389	-0.0058063907
250	0x3bb73320	0.0055908114
251	0x3c622b43	0.01380426
252	0x3cc25fb6	0.02372728
253	0x3c55a0d6	0.013038835
254	0x3bcd18dc	0.006259067
255	0x3d7732b7	0.0603511

linear2.weight f4 [59, 256]
0	0x3d0d1d08	0.034451514
1	0x3d71ddd3	0.05904944
2	0x3da9d88b	0.082932554
3	0x3e0a450e	0.13502905
4	0x3d1efb2a	0.038813747
5	0x3d947906	0.07249646
6	0xbf0cbf70	-0.5497961
7	0x3d2e1a94	0.042505816
8	0xbd0696ee	-0.03285878
9	0x3d7c5006	0.061599754
10	0x3d79b0ab	0.0609595
11	0x3db57c73	0.088616274
12	0xbefeb90b	-0.49750552
13	0x3ca2f097	0.019890113
14	0x3d4f4fd9	0.050613258
15	0x3d96f0d6	0.073701546
16	0x3d49a4e5	0.04922952
17	0xbd0a5cf1	-0.033780042
18	0xbf11009e	-0.56641567
19	0x3d3295d7	0.04359993
20	0x374f6502	1.2361679e-05
21	0xbe98633c	-0.2976321
22	0x3d423734	0.047415927
23	0x3d69174e	0.05690699
24	0x3d54b6dc	0.0519322
25	0xbefb6d5d	-0.49106875
26	0x3dd88365	0.105719365
27	0xbda8b344	-0.08237317
28	0xbeea6265	-0.45778194
29	0xbc0e3427	-0.008679426
30	0xbef26d3c	-0.47348964
31	0xbe57323e	-0.2101526
32	0x3d67537e	0.05647611
33	0xbcb30b78	-0.021856055
34	0xbe7dbf50	-0.24780011
35	0x3d2bbe1d	0.041929353
36	0x3db6db36	0.0892853
37	0x3dabf92e	0.08397137
38	0x3c8dfab5	0.01733146
39	0xbebc9b5d	-0.36837283
40	0xbe42c556	-0.1902059
41	0xbefe8535	-0.49711004
42	0xbec74b2c	-0.3892454
43	0x3d6c90ed	0.0577554
44	0x3d730307	0.05932906
45	0x3da550a3	0.08072021
46	0xb27fe219	-1.4894362e-08
47	0x3d5f7486	0.054554485
48	0x3e0ef0ff	0.1395912
49	0xbea8e9f6	-0.32990998
50	0x3d833272	0.06406106
51	0x3d90b1e1	0.07065178
52	0x3dc54c3a	0.0963368
53	0xbf103544	-0.56331277
54	0xbe42b40a	-0.19013992
55	0x3c23d346	0.009999102
56	0xbe146b23	-0.14493994
57	0xbebc213e	-0.36744112
58	0xbef6e016	-0.4821784
59	0xbeec525a	-0.4615658
60	0xbe882c33	-0.2659622
61	0x3d47f480	0.048817158
62	0x3d90d956	0.070727035
63	0x3d91ae47	0.07113319
64	0x3db9fce9	0.09081442
65	0x3da82eb4	0.08212033
66	0x3d2b60bb	0.041840296
67	0xbd5c0150	-0.05371219
68	0x3bcff665	0.006346511
69	0x3d14b2c4	0.036303297
70	0xb815b5be	-3.569363e-05
71	0x3d8ef7f5	0.06980888
72	0x3d8eb198	0.06967467
73	0xbe050771	-0.1299112
74	0xbcea6b21	-0.028615536
75	0x3d921e09	0.07134635
76	0x3d919d11	0.07110036
77	0xb08ac775	-1.0097511e-09
78	0x3e02677e	0.12734792
79	0x3d9d6847	0.07685905
80	0xbe521d0d	-0.20518894
81	0x3c77b672	0.015119182
82	0x3d8b04c2	0.06788017
83	0xbf06aa38	-0.52603483
84	0x3789e46f	1.6438045e-05
85	0x3d73c468	0.05951348
86	0x3d9eaf54	0.07748285
87	0xbedacbfa	-0.42733747
88	0xbc8b4f04	-0.017005451
89	0x3dc5ac13	0.09651961
90	0x3cff769c	0.031184487
91	0xbe98957e	-0.29801553
92	0xbcceadac	-0.025229298
93	0xbeb3675d	-0.35039797
94	0xbe964c3f	-0.29355046
95	0xbdbaf96a	-0.09129603
96	0x3d317640	0.043325663
97	0xbe99afbc	-0.30016887
98	0x3e0120b8	0.12610137
99	0xbe672fa0	-0.22576761
100	0xbe8503a9	-0.25979355
101	0x3d268bfb	0.04066084
102	0xbeb2a7ea	-0.34893733
103	0xbd35e9bc	-0.04441236
104	0x3d99c08c	0.075074285
105	0xbed7fc08	-0.42184472
106	0x3d9063fb	0.0705032
107	0xbef5792e	-0.47944015
108	0x3d0a8b23	0.033824097
109	0x3d752d73	0.059857797
110	0x3ca3585e	0.019939598
111	0xbe01c7ad	-0.12673827
112	0xbda3f004	-0.08004764
113	0x3dc5e7eb	0.096633755
114	0x3cddb784	0.027065046
115	0xbbaed6fc	-0.0053356867
116	0x3d8e72c2	0.06955482
117	0x3d20eb92	0.039287157
118	0x3db02eea	0.08602698
119	0x3dd9ef6d	0.1064137
120	0x3d900893	0.070328854
121	0xbe67b296	-0.22626719
122	0x3c47e62c	0.012200873
123	0xb8967da9	-7.1759634e-05
124	0x3d60e9c2	0.05491043
125	0x3dacca34	0.08437005
126	0xbec056e7	-0.375663
127	0x320f9e32	8.359665e-09
128	0x3d85e8df	0.06538557
129	0x3d9a46c7	0.07533031
130	0xbe847d60	-0.25876904
131	0xbdd3e0c3	-0.10345604
132	0xbc97f531	-0.018549534
133	0x3bcffd76	0.0063473536
134	0xbe74f621	-0.23922016
135	0xb5b15d99	-1.3214768e-06
136	0x3dad4323	0.08460071
137	0xbe36ddba	-0.1785802
138	0xbdce1423	-0.100624345
139	0x3dcdee13	0.10055175
140	0x326cd047	1.3784365e-08
141	0xb44d7d1d	-1.9137629e-07
142	0xbd8980e2	-0.067140356
143	0xba0b65b6	-0.00053175853
144	0x3da835b9	0.08213372
145	0x3dd8d0ec	0.10586724
146	0x3d12651c	0.035740957
147	0xbecf74c2	-0.40518767
148	0xbe1b30a4	-0.15155274
149	0x3db07dd9	0.086177535
150	0xbf0007bb	-0.50011796
151	0xbe8b7b09	-0.27242306
152	0x3d299d81	0.041409973
153	0x3dc1ab02	0.09456445
154	0x3ddc925e	0.10770105
155	0xbd6f5412	-0.058429785
156	0xbf08b185	-0.53395873
157	0xbe876599	-0.264447
158	0xbeea1847	-0.45721647
159	0x36985803	4.540199e-06
160	0x3dd61bbd	0.104545094
161	0xb8191548	-3.6497862e-05
162	0x3d9ee78b	0.07759007
163	0xbc8284d4	-0.015932478
164	0x3d685cd1	0.05672914
165	0x3e02965b	0.12752669
166	0xbc810e1f	-0.015753804
167	0x3d93244a	0.07184656
168	0xbec1fb0d	-0.3788685
169	0x3d39dcf8	0.045376748
170	0xbf00dc6d	-0.50336343
171	0x3dc2af8b	0.095061384
172	0xbb01544c	-0.0019734083
173	0xbebc0ebb	-0.36729988
174	0xbcdee9a4	-0.027211018
175	0xbe6e75c3	-0.2328711
176	0x3d7aea17	0.0612584
177	0x3c4cf4e3	0.012509557
178	0x3e03e985	0.1288205
179	0xbd15fffc	-0.03662108
180	0x3d82006c	0.06347737
181	0x3d29fa00	0.041498184
182	0x3d0cc16b	0.034364145
183	0xbec30d4a	-0.38096076
184	0x3d48ba6e	0.04900592
185	0xbd48d435	-0.0490305
186	0x3da5dff0	0.08099353
187	0xbee59bd1	-0.4484544
188	0xbe02ffcc	-0.12792891
189	0xbd1ac1e7	-0.037782576
190	0x3dd155be	0.10221432
191	0x3d959557	0.07303875
192	0xb57752cf	-9.213517e-07
193	0xbde0c5a8	-0.109752
194	0x3d843995	0.064562954
195	0xbd398fb2	-0.045303054
196	0xbda73f74	-0.081663996
197	0xbe98b11c	-0.29822624
198	0xbdc64166	-0.096804425
199	0xbeadd673	-0.33952674
200	0x3d2da527	0.04239383
201	0xbe02f060	-0.12787008
202	0xbeff2a50	-0.4983697
203	0xbeccd3a7	-0.40005228
204	0xbd4e312f	-0.050339874
205	0x3d4c23f8	0.04983899
206	0x353b8d5c	6.9868634e-07
207	0x3d915c81	0.07097722
208	0x3d3113ce	0.043231778
209	0x3c0661c2	0.008202018
210	0x3dafc71e	0.085829005
211	0x3e32774c	0.1742832
212	0x3dd9f6f6	0.10642807
213	0x3df112d9	0.11771173
214	0x3e2ed494	0.1707328
215	0x3db02913	0.08601584
216	0xbcd1856f	-0.025576321
217	0x3d9a5c92	0.07537188
218	0x3d856b1a	0.065145686
219	0xbe98b6b8	-0.29826903
220	0x3d49de7d	0.049284447
221	0xbe5b5c7d	-0.21422
222	0x3dd9efce	0.10641442
223	0xb1c50d98	-5.735e-09
224	0x3d71988f	0.05898338
225	0xbe47aad4	-0.1949876
226	0x3d97a44d	0.07404385
227	0x3dc1e2ea	0.094671085
228	0x3dbf217c	0.093325585
229	0x3c45dec1	0.012077034
230	0x3d4de1d0	0.05026418
231	0x3d89003c	0.06689498
232	0xbf02a600	-0.51034546
233	0x3d8e0798	0.06935042
234	0x3d5f390f	0.054497775
235	0x3d801564	0.0625408
236	0x3d8c6c3f	0.06856584
237	0x3d30b865	0.043144602
238	0x3ccc0624	0.024905272
239	0x3d704608	0.058660537
240	0x3d4187f0	0.04724878
241	0x3cf6f0b7	0.030144079
242	0xbd42423f	-0.04742646
243	0x3c03bb7b	0.008040304
244	0xbf011399	-0.5042053
245	0xbd8e5d42	-0.06951381
246	0x3dae3fbc	0.0850825
247	0x3dc51f72	0.09625138
248	0x3d99d6c7	0.07511669
249	0xbe9ee6b8	-0.310354
250	0x3d57b21a	0.052660085
251	0xbf03d7b4	-0.5150101
252	0xbdeaea85	-0.11470512
253	0x3d66411b	0.056214433
254	0xbe0d5e8f	-0.13805602
255	0x3d8b80f6	0.06811707

linear2.bias f4 [59]
0	0xbc8465e7	-0.016161872
1	0xbc9e7fea	-0.019348104
2	0xbc83513d	-0.016029948
3	0xbc569ff0	-0.0130996555
4	0xbc210204	-0.009827141
5	0xbc868bc1	-0.016424062
6	0xbc9d1c92	-0.019178662
7	0xbc8788c3	-0.016544705
8	0xbc5b1fb8	-0.013374262
9	0xbc27c3ec	-0.0102395825
10	0xbc2fe134	-0.010734845
11	0xbc75bd07	-0.014998681
12	0xbc88ff87	-0.016723407
13	0xbc9d3243	-0.019189006
14	0xbc83ea41	-0.016102912
15	0xbc2231f9	-0.00989961
16	0xbc99d2c2	-0.018777255
17	0xbc52acfb	-0.012858625
18	0xbcbb0fb2	-0.022834633
19	0xbc9decf6	-0.01927803
20	0xbc744dc4	-0.014911119
21	0xbc24cfff	-0.010059356
22	0xbca5d5d1	-0.020243557
23	0xbc6417a9	-0.013921657
24	0xbc41dfde	-0.011833159
25	0xbc95b098	-0.018272683
26	0xbc93d742	-0.018046979
27	0xbc25a329	-0.010109701
28	0xbc4c9dda	-0.012488807
29	0xbc51e317	-0.01281049
30	0xbc5e46dc	-0.013566699
31	0xbc7fc48a	-0.015610823
32	0xbc24b564	-0.0100530125
33	0xbc9f8a40	-0.019475102
34	0xbc8d7e2d	-0.01727208
35	0xbc9b1b24	-0.01893384
36	0xbc7dfb64	-0.015501831
37	0xbca42da9	-0.020041304
38	0xbcafb628	-0.021449164
39	0xbc4f7777	-0.01266276
40	0xbc5a6ec0	-0.013332069
41	0xbc9dfb98	-0.019285008
42	0xbc74cbf3	-0.014941203
43	0xbca78a00	-0.020451546
44	0xbc751d21	-0.014960558
45	0xbc623444	-0.013806406
46	0xbc5ce2bd	-0.013481793
47	0xbc562567	-0.013070441
48	0xbca335f8	-0.019923195
49	0xbc6b92a2	-0.014378222
50	0xbc24d7d9	-0.010061228
51	0xbc7892e8	-0.015171744
52	0xbc0d01d2	-0.008606391
53	0xbc99a4dd	-0.01875537
54	0xbc994401	-0.018709185
55	0xbc844d34	-0.016150095
56	0xbc76528e	-0.015034331
57	0xbc8fbc43	-0.017545825
58	0xbc93b808	-0.018032089
