intermediary/model_15950.pth (torch, 356400 bytes, 5 tensors)

embed.weight f4 [59, 128]
0	0xbeaf77fb	-0.34271225
1	0x3e684af4	0.22684842
2	0xbeb6fc58	-0.35739398
3	0xbeac9dcd	-0.33714142
4	0x3ebc4f3b	0.36779198
5	0x3ec877b4	0.39153826
6	0xbdcf0ecf	-0.101102464
7	0xbee24848	-0.4419577
8	0x3eda213f	0.4260349
9	0x3ea7e9b9	0.32795504
10	0xbe91a061	-0.28442672
11	0xbec773f4	-0.38955653
12	0x3c351020	0.011051208
13	0xbe62c71f	-0.22146271
14	0xbeac5790	-0.33660555
15	0x3ebb9210	0.36634874
16	0xbe415323	-0.1887937
17	0xbede06c8	-0.4336455
18	0xbeb3761c	-0.35051048
19	0x3ec7f773	0.39055976
20	0x3ecc18c9	0.3986266
21	0x3e81efc1	0.2537823
22	0x3e4a4792	0.19753864
23	0x3e015632	0.12630537
24	0x3ea83b62	0.32857805
25	0x3ed4e514	0.41581023
26	0xbeb3214f	-0.3498635
27	0x3e6c491f	0.23074768
28	0x3ca7491f	0.020420609
29	0x3eced533	0.40397033
30	0x3ed3e034	0.4138199
31	0xbe182b30	-0.14860225
32	0xbed793b5	-0.4210488
33	0xbec30041	-0.3808613
34	0xbe9a1580	-0.30094528
35	0xbe88a35a	-0.26687127
36	0x3e9d55e9	0.30729607
37	0x3ef9c469	0.48782662
38	0x3e45cc6b	0.1931626
39	0xbda44869	-0.08021624
40	0xbdb9395b	-0.09044143
41	0xbea315ee	-0.3185267
42	0x3ee138a8	0.43988538
43	0x3e8c1c33	0.27365264
44	0x3ec84efa	0.39122754
45	0x3dc25a60	0.09489894
46	0x3ed55543	0.41666612
47	0x3ef77141	0.48328593
48	0xbeb9f1c1	-0.36317256
49	0xbe91f0d9	-0.28504065
50	0x3ef9ab25	0.48763385
51	0x3ec5a10b	0.3859943
52	0xbeab7e1e	-0.33494657
53	0xbec7b169	-0.3900254
54	0x3ea9a8dd	0.33136645
55	0x3e8992ce	0.26869816
56	0xbec0c87b	-0.37652954
57	0x3e46073a	0.19338694
58	0xbe8e3711	-0.27776387
59	0x3ebd07ba	0.36919957
60	0xbea01802	-0.31268317
61	0x3ebf0792	0.37310463
62	0xbee134f0	-0.439857
63	0xbec69695	-0.3878676
64	0xbead0cd5	-0.33798853
65	0x3e77dd82	0.24205592
66	0xbe41f3e1	-0.18940689
67	0x3ea7c1d3	0.32765064
68	0x3ebcf28d	0.36903802
69	0xbee69f3f	-0.4504337
70	0xbe562d96	-0.20915827
71	0xbed152ad	-0.4088339
72	0xbed69bbd	-0.41915694
73	0xbed6ab3c	-0.41927516
74	0x3e6d24d1	0.23158576
75	0xbe9612f3	-0.29311332
76	0x3eeff9e5	0.46870342
77	0x3ea5b212	0.3236242
78	0x3e68e7cf	0.22744678
79	0x3ed59687	0.41716406
80	0x3eaafb3d	0.33394805
81	0xbea5a04c	-0.3234886
82	0xbe72f2c8	-0.23725426
83	0xbef83ea8	-0.48485303
84	0x3ecfe9aa	0.4060796
85	0xbea522b3	-0.32253036
86	0x3c90c8fe	0.017673966
87	0xbeb8ff5f	-0.36132333
88	0xbee05dd5	-0.43821588
89	0x3eca49bc	0.3950938
90	0x3ea24b10	0.31697893
91	0xbebea773	-0.3723713
92	0x3ec78df7	0.38975498
93	0xbef592a1	-0.4796343
94	0xbeb5a11a	-0.35474473
95	0x3eb19545	0.34684196
96	0x3e8bfae4	0.27339852
97	0x3ee1dc51	0.441134
98	0xbe9225f7	-0.2854459
99	0x3eaa9a35	0.33320776
100	0x3e731e16	0.23741946
101	0xbee33085	-0.44372955
102	0xbe8f77fb	-0.28021225
103	0x3e587042	0.21136573
104	0x3edc1dd7	0.42991516
105	0xbecdba70	-0.40181303
106	0x3ee047df	0.43804833
107	0x3ee0f161	0.43934157
108	0x3e8fbb2d	0.2807249
109	0xbe9a7a82	-0.3017159
110	0xbed6baaa	-0.41939288
111	0xbe775cd1	-0.241565
112	0x3eaf2920	0.34211063
113	0xbe5ee423	-0.21766715
114	0xbedfdd0e	-0.4372334
115	0xbed82ab1	-0.4222007
116	0x3eb98c45	0.3623983
117	0xbed17b17	-0.40914223
118	0x3e016936	0.12637791
119	0xbe92ecbb	-0.28696236
120	0x3edc6694	0.4304701
121	0xbeab2242	-0.33424574
122	0x3eb57e9c	0.35448158
123	0x3eb272ff	0.3485336
124	0xbed5de0e	-0.41770977
125	0x3e892ae4	0.26790535
126	0x3edf8728	0.43657804
127	0x3ef496f9	0.47771433
128	0x3e45a4fb	0.19301216
129	0x3ea875a0	0.3290224
130	0xbde3aa73	-0.11116495
131	0xbeebe4df	-0.46073052
132	0xbebab157	-0.36463425
133	0xbe47d7ca	-0.1951591
134	0xbe00f9d6	-0.12595305
135	0xbed4eeeb	-0.4158853
136	0xbe30146f	-0.17195295
137	0x3ee31c31	0.44357446
138	0xbec72c26	-0.3890087
139	0x3e61ee4d	0.22063561
140	0x3ee13260	0.43983746
141	0x3f008744	0.502064
142	0xbe9ab43d	-0.30215636
143	0x3d8484f8	0.06470674
144	0x3e75c198	0.23999631
145	0x3d1fae5f	0.038984653
146	0x3ec42778	0.38311362
147	0xbec6e752	-0.38848358
148	0x3ec5fad4	0.3866793
149	0xbec008ba	-0.37506658
150	0xbed606ab	-0.41801962
151	0xbeabdc61	-0.33566573
152	0xbe598c75	-0.21244986
153	0xbda333d0	-0.07968867
154	0x3e9ac43d	0.30227843
155	0xbef0ea1c	-0.4705361
156	0xbeebe038	-0.46069503
157	0xbe48137a	-0.1953868
158	0xbe648c9c	-0.22319263
159	0x3ec2741c	0.3797921
160	0x3eb8cf1d	0.36095515
161	0xbeeec99d	-0.46638194
162	0x3efc5f21	0.49291328
163	0x3ed2406b	0.41064772
164	0xbeca3818	-0.3949592
165	0xbeb16145	-0.34644523
166	0xbee075f9	-0.43840006
167	0x3ec42a8c	0.3831371
168	0x3eec5f5d	0.46166506
169	0x3ef696bd	0.4816188
170	0xbeca658d	-0.39530602
171	0x3ed04e7f	0.40684888
172	0xbe81833e	-0.25295442
173	0xbed77fef	-0.42089793
174	0x3f026c06	0.5094608
175	0x3ebe7a78	0.3720281
176	0xbdddeb5a	-0.108359054
177	0xbee26247	-0.44215605
178	0x3ed38545	0.41312614
179	0x3ec762cc	0.38942564
180	0xbed3dafd	-0.41378012
181	0x3e67cd51	0.22636916
182	0xbe8ef1f6	-0.27918977
183	0x3e9ee663	0.31035146
184	0xbeb423dc	-0.3518361
185	0xbcde2696	-0.027118009
186	0x3edcaa7f	0.43098828
187	0x3da67e17	0.081295185
188	0x3ec1be55	0.37840524
189	0xbe9e5a71	-0.30928376
190	0xbed60ef4	-0.41808283
191	0xbea5e7f8	-0.3240354
192	0xbdf2c3d7	-0.1185376
193	0x3e9b48ea	0.30329067
194	0x3ee05e24	0.43821824
195	0x3ee82f13	0.45348415
196	0xbec79f8d	-0.38988915
197	0xbed7e49b	-0.421666
198	0x3ee6028f	0.44923827
199	0x3ec5e493	0.3865095
200	0x3ec36226	0.3816082
201	0x3dcc72af	0.09982812
202	0xbed4f368	-0.41591954
203	0xbec3fa87	-0.38277075
204	0xbe564ca3	-0.20927672
205	0x3e8d612c	0.276132
206	0xbe9dd5e8	-0.3082726
207	0x3e2281fd	0.15869899
208	0xbf0067d4	-0.5015843
209	0xbea0c477	-0.3139989
210	0x3d26fcee	0.040768556
211	0xbed9340f	-0.4242253
212	0xbec2f47f	-0.3807716
213	0xbe829bcb	-0.25509486
214	0xbeb01b0f	-0.34395644
215	0xbece5445	-0.40298668
216	0x3eb92f75	0.3616902
217	0xbed23982	-0.410595
218	0xbee002e0	-0.43752193
219	0xbdae0f22	-0.0849898
220	0x3e6dede6	0.23235282
221	0xbee65bfa	-0.44992048
222	0x3ebf2c0a	0.37338287
223	0x3e75910e	0.23981115
224	0xbdd129d5	-0.10213057
225	0xbe6c91c9	-0.23102488
226	0x3e658560	0.2241416
227	0xbe85cb59	-0.26131704
228	0xbebe7689	-0.3719981
229	0x3e861684	0.26189053
230	0xbe2cf49d	-0.16890188
231	0xbec18bfb	-0.3780211
232	0xbe77d6fe	-0.24203107
233	0x3ebc811b	0.3681725
234	0x3eee8fb2	0.46594006
235	0x3e8d1654	0.27556098
236	0xbed823d5	-0.42214838
237	0x3e9a8403	0.30178842
238	0x3eb22afc	0.3479842
239	0xbef68393	-0.48147258
240	0xbed310e4	-0.41223824
241	0x3edfcc22	0.43710428
242	0x3e55069f	0.20803307
243	0x3ed19191	0.4093137
244	0xbed32623	-0.41240034
245	0xbe46b94b	-0.19406621
246	0x3eb2127f	0.34779736
247	0xbeb6c3f7	-0.35696384
248	0xbe8d7725	-0.27629963
249	0x3ed08cc1	0.40732387
250	0x3ee9df18	0.4567802
251	0xbe696be8	-0.22795069
252	0xbe8895b9	-0.2667673
253	0xbeb2b14f	-0.349009
254	0x3edbaf8d	0.42907372
255	0xbec12ff5	-0.377319

linear1.weight f4 [256, 256]
0	0xbe05e612	-0.13076046
1	0xbe10e82d	-0.14151068
2	0x3e1a5fbc	0.15075582
3	0x3e0706a9	0.13186134
4	0xbe12dcf5	-0.14342101
5	0x3d4e01eb	0.050294798
6	0x3e2baae8	0.16764414
7	0x3b2089f5	0.0024496291
8	0xbe56660d	-0.20937367
9	0xbd15752c	-0.036488697
10	0x3e3b326c	0.18280953
11	0xbe1fa36a	-0.15589681
12	0x3b917d74	0.004440004
13	0x3c08f66a	0.008359531
14	0xbe1fcb39	-0.15604867
15	0x3e25a153	0.16174822
16	0x3d8dd3a1	0.06925131
17	0x3e130bf6	0.14360031
18	0x3e55dba8	0.20884573
19	0x3de4a24d	0.11163769
20	0xbda1c328	-0.07898551
21	0x3dc6c276	0.09705059
22	0x3d1348c1	0.035958055
23	0x3e0196eb	0.12655227
24	0xbc84a25d	-0.016190702
25	0xbe43c40d	-0.19117756
26	0xbe3574cc	-0.17720336
27	0xbda3b69d	-0.07993815
28	0x3de81b61	0.11333347
29	0x3c065b9e	0.008200554
30	0xbdcc310b	-0.09970292
31	0xbb106281	-0.002203137
32	0xbcc8105d	-0.024421865
33	0xbc87228c	-0.016495965
34	0x3c12772b	0.008939545
35	0x3e40aefa	0.18816748
36	0x3dc5b23e	0.096531376
37	0xbdf6565b	-0.1202819
38	0x3e56c897	0.20974956
39	0xbd5f96de	-0.054587238
40	0xbad24469	-0.0016042116
41	0x3c8a4a41	0.01688111
42	0xbe1abcfd	-0.15111156
43	0xbc8329c8	-0.016011134
44	0xbe0fb4a9	-0.1403376
45	0xbe0ef3c2	-0.13960174
46	0xbdeaed81	-0.114710815
47	0x3cbdc7f2	0.02316663
48	0xbe337a95	-0.1752723
49	0xbdb84786	-0.08998017
50	0xbd18c42d	-0.037296463
51	0xbe36504e	-0.17804071
52	0x3d522275	0.051302392
53	0xbe129286	-0.14313707
54	0xbe266c9f	-0.16252373
55	0xbc0126bf	-0.007882773
56	0x3d4e5413	0.05037315
57	0x3b3c9af7	0.002877889
58	0x3e09cc8f	0.13456939
59	0x3d9c1401	0.07621003
60	0x3e2b9109	0.16754545
61	0xbd401fa2	-0.046905167
62	0x3e199c2e	0.15000984
63	0x3dad0a85	0.08449272
64	0x3e26135e	0.16218325
65	0xbdf0fe9a	-0.117673114
66	0xbe27b259	-0.16376628
67	0xbe4f06bf	-0.20217417
68	0xbd439c2c	-0.04775636
69	0xbd552651	-0.052038494
70	0xbc63d35b	-0.013905372
71	0xbdafbf96	-0.08581464
72	0xbde7f7fa	-0.11326595
73	0xbe2d9175	-0.16950019
74	0x3e14d2fe	0.14533612
75	0x3e49008b	0.19629113
76	0xbe45201b	-0.19250529
77	0xbd47adfc	-0.04874991
78	0xbcec50c3	-0.028847104
79	0x3e08e692	0.13369206
80	0xbdf8be18	-0.121456325
81	0x3e143172	0.14471987
82	0x3e33a54a	0.17543522
83	0x3e3ad004	0.18243414
84	0xbd5d1cc6	-0.05398252
85	0x3d753b11	0.059870783
86	0x3d396dae	0.045270614
87	0x3da6cba0	0.08144307
88	0x3e04e69f	0.129786
89	0xbe1d4804	-0.15359503
90	0xbe27cf0e	-0.16387579
91	0x3e3319a9	0.17490257
92	0x3d61141d	0.054950822
93	0x3dc96058	0.09832829
94	0xbd701aae	-0.058619194
95	0x3ca6c100	0.020355701
96	0x3ce0b3eb	0.027429542
97	0xbd1d6b6e	-0.03843253
98	0xbc0f5fe5	-0.00875089
99	0x3d4bd039	0.049759123
100	0xbe1d8938	-0.15384376
101	0x3d1cd261	0.03828657
102	0x3d35eaf6	0.04441353
103	0xbe1e9c9e	-0.15489432
104	0xbdc98afe	-0.09840964
105	0x3cb84aa0	0.022496521
106	0xbd534aef	-0.051585134
107	0xbd18b60c	-0.03728299
108	0xbe4dd919	-0.20102347
109	0xbe610b99	-0.2197708
110	0x3d0bd922	0.03414262
111	0x3e107c4d	0.14109917
112	0xbe5e655c	-0.21718353
113	0xbdaad1ab	-0.08340772
114	0x3e19c8bf	0.15017985
115	0xbdbfba7e	-0.093617424
116	0x3e5281cb	0.20557325
117	0x3e5939d3	0.21213464
118	0xbcb00b9f	-0.021489916
119	0x3d194278	0.037416905
120	0x3daeda80	0.08537769
121	0x3df2f3cb	0.11862906
122	0xbe3ce154	-0.18445331
123	0xbd30f4b0	-0.043202102
124	0xbe0c467c	-0.13698763
125	0xbd888e81	-0.066678055
126	0xbd255632	-0.040365405
127	0xbdf738b5	-0.12071363
128	0xbc10dd9e	-0.0088419
129	0x3b8aef52	0.004239955
130	0xbdc931cb	-0.098239504
131	0xbe2b11f6	-0.1670607
132	0x3e31c95b	0.17361967
133	0xbe3310ae	-0.17486832
134	0xbe08fb8c	-0.13377208
135	0xbc8be05b	-0.017074754
136	0x3db6657b	0.089060746
137	0x3e17502c	0.14776677
138	0xbe1dde17	-0.15416752
139	0xbda92559	-0.082590766
140	0xbe5fb146	-0.21844968
141	0xbe5e018e	-0.2168028
142	0x3e0ec803	0.13943486
143	0x3adc9177	0.001682802
144	0xbe5e0a8a	-0.21683708
145	0xbdca7539	-0.0988564
146	0xbd5a0701	-0.053229336
147	0x3db87cbe	0.09008168
148	0xbe3e8c52	-0.18608215
149	0xbce3fbde	-0.02783006
150	0x3e209ee8	0.15685618
151	0x3d43a0d4	0.0477608
152	0xbe36e9b1	-0.17862584
153	0x3dc6fd37	0.09716266
154	0xbc838707	-0.016055597
155	0x3de1f72c	0.110334724
156	0xbe1a621b	-0.15076487
157	0xbe3ca099	-0.18420638
158	0xbc859b8a	-0.016309518
159	0x3e5b40da	0.21411458
160	0xbe4da12a	-0.2008101
161	0x3e513a86	0.20432481
162	0xbdf6dbb9	-0.120536275
163	0xbbdf23da	-0.0068096938
164	0xbd90e7a8	-0.07075435
165	0x3dfb36de	0.122663245
166	0xbd3f70f5	-0.046738584
167	0x3e55d9d8	0.20883882
168	0xbe58e59a	-0.21181336
169	0xbdcd5be9	-0.10027296
170	0x3d9b813f	0.07593011
171	0xbe244623	-0.1604238
172	0x3dfbd25d	0.12295983
173	0xbcc4ebc0	-0.024038196
174	0xbe2553ab	-0.16145198
175	0xbdd568db	-0.1042039
176	0x3e1b1b84	0.15147215
177	0xbcf2c862	-0.029636566
178	0xbe37cb9a	-0.17948762
179	0x3e005a96	0.12534556
180	0xbe0d3290	-0.1378882
181	0xbdc3ce24	-0.095608026
182	0x3ce8af03	0.028403765
183	0xbd1e4573	-0.03864045
184	0x3df4c07e	0.119507775
185	0xbe1ffd89	-0.1562406
186	0xbe45f573	-0.19331913
187	0xbdb544c8	-0.088510096
188	0x3c56a248	0.013100214
189	0xbe0a099b	-0.13480227
190	0x3d4fe268	0.050753027
191	0x3e368caa	0.17827097
192	0x3d2e68cf	0.042580422
193	0x3d5b45a2	0.053533204
194	0xbdc788d5	-0.097428955
195	0xbb0632ad	-0.0020476982
196	0xbdfc6893	-0.123246334
197	0x3dbf2e01	0.093349464
198	0x3d1308c9	0.03589705
199	0xbdd94fb2	-0.10610904
200	0xbe082dc2	-0.13298705
201	0x3e1990db	0.14996664
202	0xbe0b7be7	-0.13621484
203	0x3ca54aed	0.020177329
204	0xbd7458a7	-0.059654858
205	0xbe470555	-0.19435628
206	0xbe0e1ea9	-0.13878883
207	0xbe4a3e2e	-0.19750282
208	0x3e2b90ee	0.16754505
209	0xbd055079	-0.032547448
210	0xbd3088af	-0.0430991
211	0x3d9c0e4a	0.07619913
212	0x3e5faa9d	0.21842428
213	0x3975394a	0.00023386363
214	0x3e38c5f0	0.18044257
215	0x3db7d12b	0.089754425
216	0xbe0476b5	-0.12935908
217	0xbd0f7cf0	-0.03503126
218	0x3d6474a3	0.055775296
219	0xbbe8d1b4	-0.0071050767
220	0xbe4e8c7a	-0.20170775
221	0xbca826f1	-0.020526381
222	0xbdd51561	-0.10404468
223	0x3d97f72f	0.074201934
224	0x3cd49afd	0.02595281
225	0xbd264d27	-0.040600922
226	0x3dc84abb	0.09779879
227	0xbdcfc9fd	-0.10145948
228	0xbe0cc76e	-0.13747951
229	0xbdc5659b	-0.0963852
230	0xbb456c9b	-0.0030124548
231	0xbd98af4d	-0.07455311
232	0xbd13a046	-0.03604152
233	0xbe3b4e7b	-0.18291657
234	0x3c46c954	0.012132961
235	0xbe08b8c2	-0.1335173
236	0x3d2d5c14	0.04232414
237	0x3d5e2095	0.05423029
238	0xbe2882fb	-0.16456215
239	0x3d2362e2	0.039889224
240	0x3d404853	0.046943974
241	0xbd952a47	-0.072834544
242	0x3dde0b4d	0.10841999
243	0xbdd1470b	-0.102186285
244	0x3cfb4fe7	0.030677749
245	0x3aea784e	0.0017888637
246	0xbe578455	-0.21046574
247	0x3d14bc3c	0.036312327
248	0xbd2667a1	-0.040626172
249	0xbe3ad064	-0.18243557
250	0x3c37c12f	0.011215492
251	0xbe02a2d2	-0.12757424
252	0x3b4ed220	0.003155835
253	0xbe261a63	-0.16221003
254	0x3cd56bb9	0.026052343
255	0x3db76e03	0.0895653

linear1.bias f4 [256]
0	0x3c9f9bfb	0.019483557
1	0x3cbb8352	0.022889767
2	0x3b060146	0.0020447536
3	0x3c2fcaa3	0.010729465
4	0x3c334842	0.010942521
5	0x3a086ab0	0.0005203886
6	0x3bfe8af0	0.0077680275
7	0x3ba8c95e	0.005150958
8	0x3c426578	0.011865012
9	0x3b882001	0.004154206
10	0x3c8162d7	0.0157942
11	0x3c61eead	0.013789815
12	0x3c9189c3	0.017765885
13	0x3c2d90ea	0.010593632
14	0x3ca2114a	0.019783635
15	0x3c8eb6e5	0.017421195
16	0x3c07b622	0.00828317
17	0xbadf1c01	-0.0017021896
18	0x3b41e057	0.002958318
19	0xbc641260	-0.013920397
20	0x3b747c15	0.0037305404
21	0xbbc8c84e	-0.006127394
22	0x39f42aaa	0.00046571094
23	0x3c9423a2	0.018083397
24	0x3ce43483	0.02785707
25	0x3d2193ee	0.039447717
26	0x3cb6a6a7	0.022296263
27	0x3d2eef23	0.042708527
28	0x3a9576c0	0.0011403188
29	0x3cb7c2ab	0.022431692
30	0x3d6aef2d	0.057357002
31	0x3b440faa	0.0029916563
32	0x3c70ee5a	0.014705265
33	0xb9f46fda	-0.00046622643
34	0x3bbe259e	0.005802824
35	0x3b96d418	0.0046029203
36	0x3b843e1f	0.0040357257
37	0x3c9dfaca	0.019284625
38	0xba67ff7b	-0.000885002
39	0x3c1e6a7e	0.009668944
40	0x3b03d9d4	0.002011885
41	0x3bb7d682	0.005610288
42	0x3c5e1940	0.013555825
43	0x3cbe4ff6	0.023231488
44	0xbc94c2a4	-0.018159218
45	0x3ba0329d	0.004888846
46	0x284abaed	1.1253786e-14
47	0x3c073a07	0.008253581
48	0x3ce60b39	0.028081523
49	0x3c8b903a	0.017036546
50	0x3c141496	0.009038111
51	0x3a8ad0f2	0.0010590835
52	0xbc5d48d1	-0.01350613
53	0x3cbb6280	0.022874117
54	0x3b0e2359	0.002168855
55	0xbc7a4864	-0.015276048
56	0x3baa2824	0.0051927734
57	0x3c18a486	0.009316569
58	0x3ad14c9d	0.0015968267
59	0x3a1ae3eb	0.0005908596
60	0x3aac5e2f	0.0013150627
61	0x3c93b100	0.018028736
62	0x3c935155	0.017983118
63	0x3ce27014	0.027641334
64	0x3be7e4ca	0.0070768343
65	0x3be15c03	0.0068774237
66	0x3b252a97	0.0025202387
67	0x3d45fd43	0.048337232
68	0x3c184dba	0.009295875
69	0x3bdd9ee7	0.0067633274
70	0x3abde479	0.0014487646
71	0x3c445f46	0.011985606
72	0x3c0f49e8	0.008745648
73	0x3c4cfab8	0.012510948
74	0x3c4dc232	0.012558507
75	0x3c335044	0.01094443
76	0x3bdd861d	0.0067603723
77	0x25ee043b	4.1289285e-16
78	0x3c70e797	0.014703653
79	0x3c0d1f3f	0.008613407
80	0x3c6b64b5	0.014367272
81	0x3c7c7733	0.015409279
82	0x3c75f3ce	0.015011741
83	0x3c402033	0.011726427
84	0x3cb64a9f	0.022252379
85	0x3cc62b7b	0.024190655
86	0x3c61c068	0.013778783
87	0x3b909ac2	0.00441298
88	0x3caecbca	0.021337409
89	0x3c6b5981	0.014364601
90	0xb8f7a246	-0.000118081036
91	0x3bd89044	0.0066089947
92	0x3c368255	0.011139472
93	0x3cd35520	0.025797427
94	0x3cb27c2f	0.021787731
95	0x3c644273	0.013931858
96	0x3ca52afa	0.020162094
97	0x3c3df415	0.011593838
98	0x3caecec0	0.02133882
99	0x3abb192b	0.0014274468
100	0x3ba076b5	0.0048969635
101	0x3b41461f	0.0029491258
102	0x3c3ce4cf	0.011529162
103	0x3c7943e7	0.015213943
104	0x3b2efa0e	0.0026699337
105	0x3bf2d128	0.0074101873
106	0x3d193039	0.037399504
107	0x3c3608e8	0.011110522
108	0x3a18250f	0.0005803862
109	0x3bb0563c	0.0053813737
110	0x3cdd5e47	0.027022494
111	0x3cd2d4f2	0.025736306
112	0x3d0ac3e8	0.033878237
113	0x3b83493f	0.0040065343
114	0x3cebcd19	0.028784322
115	0x3c569faf	0.013099595
116	0x3cefe396	0.029283326
117	0x3c9564f0	0.018236607
118	0x3d22d235	0.03975125
119	0x3d39cec7	0.045363214
120	0x3cce2251	0.025162848
121	0x3c605e89	0.013694414
122	0x3b9985b6	0.004685129
123	0x3aab1a54	0.0013054111
124	0x3c50be13	0.01274063
125	0x3cd96386	0.026536714
126	0x3be50ba0	0.006989911
127	0x2929071d	3.7531708e-14
128	0x3cc856be	0.024455424
129	0x3ce81b94	0.028333463
130	0x3caff0bf	0.021477101
131	0x3bec72e4	0.0072158445
132	0xb9449195	-0.0001874625
133	0x3c5d715d	0.013515797
134	0xb79d330e	-1.8739633e-05
135	0x3d14d2b7	0.036333766
136	0x3c521f94	0.012824912
137	0x3bebda51	0.007197656
138	0x3cd5e4be	0.02611005
139	0x3cb46570	0.022021025
140	0x291283b4	3.2532747e-14
141	0x3cd26d78	0.025686964
142	0x3c267165	0.010158871
143	0x3c7109ed	0.014711839
144	0x3cad5695	0.02115945
145	0x3be1e449	0.006893669
146	0x3b6b1a2b	0.0035873752
147	0x3c0246d8	0.007951461
148	0x3ca603dc	0.020265512
149	0x3c86a2fe	0.016435143
150	0x3bc97dd5	0.0061490336
151	0x3cd26e5d	0.025687391
152	0x3b7b9433	0.0038387894
153	0xbae4a953	-0.0017445482
154	0x3ba817b5	0.005129779
155	0x3c6a10f5	0.014286269
156	0x3af7bc1e	0.0018900668
157	0x3ce428e2	0.027851526
158	0x3d3ab4db	0.045582633
159	0x3c281e97	0.010261199
160	0x3bac102a	0.0052509503
161	0x3b864167	0.004097152
162	0xba488de2	-0.0007650537
163	0x3c656c10	0.014002815
164	0x3bdf60a4	0.0068169404
165	0x3ca31eb4	0.019912101
166	0x3ca40e2a	0.020026285
167	0x3cc7073d	0.024295444
168	0xbb8d37e8	-0.004309643
169	0x3c5b08e7	0.013368822
170	0x3cf27f7d	0.029601807
171	0x3c87341a	0.016504336
172	0x3ceef84c	0.029171132
173	0x3bb6837a	0.0055698724
174	0x3c9539ca	0.018216033
175	0x3b84ace8	0.0040489323
176	0x3c4b4147	0.0124057
177	0xba0888b4	-0.00052083586
178	0x3be840cc	0.0070878025
179	0x3c6c78c9	0.014433094
180	0x3bd8c41a	0.006615174
181	0xbae7cddc	-0.0017685252
182	0x3bd1307b	0.006383953
183	0x3c5ca7eb	0.013467769
184	0x3bc39697	0.0059688794
185	0x3c98f579	0.018671738
186	0x3c12ce0e	0.00896026
187	0x3d74ba16	0.059747778
188	0x3d532e39	0.051557753
189	0x3d29f1c4	0.04149033
190	0x3c5844e7	0.013200021
191	0xba860576	-0.0010225016
192	0xbc0bc795	-0.008531471
193	0x3c2dad5b	0.010600413
194	0x3c4c60d8	0.012474261
195	0x3d16d0fe	0.036820404
196	0x3c06770c	0.008207094
197	0x3bd9dffe	0.0066490164
198	0x3bee9003	0.007280351
199	0x3c98d3c5	0.018655667
200	0xbbacc5fc	-0.005272625
201	0x3c8abe1f	0.01693636
202	0xbb8f7a40	-0.004378587
203	0x3d50bdb6	0.050962172
204	0x3cab0a18	0.020878837
205	0x3cd56b72	0.02605221
206	0xbbae2da0	-0.0053154975
207	0x3cd0e4c0	0.025499701
208	0x3c8f2b27	0.017476631
209	0x3c120382	0.008911969
210	0x3c4ab762	0.012372823
211	0xbbe5d007	-0.007013324
212	0x3d398575	0.04529329
213	0x3c1fdf96	0.009757897
214	0xbc0cf237	-0.00860267
215	0x3c023958	0.007948242
216	0x3b9daad6	0.004811625
217	0x3bdda83a	0.006764439
218	0x3c8c1d16	0.017103713
219	0x3bdc85c5	0.0067298138
220	0x3ce72cd2	0.028219614
221	0x39d2e671	0.00040226014
222	0x3d38dde9	0.045133505
223	0x3b761883	0.0037551231
224	0x3c1ba5a6	0.009499943
225	0x3c124606	0.008927828
226	0x3d0e32b1	0.03471631
227	0x3c5e67b0	0.013574526
228	0x3c0e0bb5	0.008669783
229	0x3c2ab6b7	0.010419539
230	0xbb067c88	-0.0020521004
231	0x3bdc3a0e	0.006720788
232	0x3be208ff	0.006898045
233	0x3c6772cb	0.01412649
234	0x3c71a043	0.014747682
235	0x3ca21c3e	0.019788858
236	0x3ca9c24c	0.02072253
237	0x3c4b9030	0.012424514
238	0x3c19a8b0	0.009378597
239	0x3baf615d	0.005352183
240	0x3c54d163	0.012989375
241	0x3cb0c29b	0.02157717
242	0x3c26ab95	0.010172744
243	0x3b54b760	0.0032457933
244	0x3c368851	0.011140899
245	0x3c9c8207	0.01910497
246	0x3cda453d	0.026644344
247	0x3c9c74e8	0.019098714
248	0x3d1ba951	0.03800327
249	0xbb1d4d3a	-0.002400233
250	0x3b8c8c0e	0.0042891568
251	0x3b8b3629	0.0042483998
252	0x3b86dc17	0.004115592
253	0x3c7853f6	0.015156737
254	0x3bd0799d	0.0063621537
255	0x3d78edce	0.060773663

linear2.weight f4 [59, 256]
0	0x3d5a2d3c	0.053265795
1	0x3d51a269	0.051180277
2	0x3da90572	0.08252992
3	0x3e08dfa4	0.13366562
4	0x3d30b557	0.04314169
5	0x3d8dfae6	0.06932621
6	0xbf0a3d21	-0.53999525
7	0x3d5830e1	0.05278099
8	0xbcb2ef49	-0.021842616
9	0x3d563062	0.052292235
10	0x3d6edf82	0.058318622
11	0x3dacc6a8	0.08436328
12	0xbefa1732	-0.48845822
13	0x3d0cbc38	0.034359187
14	0x3d4cf6a5	0.050039906
15	0x3d90b72c	0.07066187
16	0x3d521ee6	0.051299
17	0xbd178ce8	-0.036999613
18	0xbf10c581	-0.5655137
19	0x3d7786f1	0.060431425
20	0x3da85520	0.08219361
21	0xbea4fbcc	-0.32223356
22	0x3d3e8639	0.046514723
23	0x3d60ff34	0.05493088
24	0x3d65b7e3	0.05608357
25	0xbefd043c	-0.49417293
26	0x3dd5795b	0.10423537
27	0xbdae0624	-0.08497265
28	0xbee7ac2f	-0.45248553
29	0xbda4242a	-0.0801471
30	0xbeef946c	-0.46792924
31	0xbe7beaca	-0.24601284
32	0x3d69ae46	0.057050966
33	0xbdc0d2cc	-0.09415206
34	0xbe677495	-0.22603066
35	0x3d254c82	0.040356167
36	0x3db2c937	0.08729785
37	0x3dab95ff	0.08378219
38	0x3ca879d2	0.020565901
39	0xbea07e4d	-0.3134636
40	0xbe3459ce	-0.17612383
41	0xbef57541	-0.4794102
42	0xbe98f9e9	-0.29878166
43	0x3d70ab3b	0.058757048
44	0x3d693064	0.056930915
45	0x3d9964ff	0.074899666
46	0xaa554bd1	-1.8944504e-13
47	0x3d6f24c5	0.058384676
48	0x3e07edd4	0.13274318
49	0xbedda18f	-0.43287322
50	0x3d786c66	0.06065025
51	0x3d9782f3	0.073980235
52	0x3da0f8f8	0.07859987
53	0xbf146798	-0.5797057
54	0xbe344e0d	-0.17607899
55	0xbc641ef0	-0.013923392
56	0xbe19fa61	-0.15036918
57	0xbec118a7	-0.3771412
58	0xbef73945	-0.4828588
59	0xbee814c5	-0.45328346
60	0xbe715038	-0.23565757
61	0x3cc24c18	0.023717925
62	0x3d936d05	0.07198528
63	0x3d9d4cc2	0.07680656
64	0x3dc458c2	0.09587242
65	0x3dacbd6c	0.08434567
66	0x3d3c707f	0.046005722
67	0xbd6cbb9e	-0.057796113
68	0x3c3e2672	0.011605846
69	0x3d31540e	0.04329305
70	0xbd183070	-0.03715557
71	0x3d94897f	0.07252788
72	0x3d86a339	0.06574101
73	0xbe053ee8	-0.13012278
74	0xbcf35187	-0.029701961
75	0x3d943095	0.07235829
76	0x3d950c92	0.07277788
77	0xa75edebe	-3.0929438e-15
78	0x3df01e03	0.11724474
79	0x3d9d46f1	0.076795466
80	0xbe3a8d65	-0.18218
81	0x3cc97983	0.024594074
82	0x3d933303	0.07187464
83	0xbefad29a	-0.489888
84	0x3dfa7a94	0.12230411
85	0x3d6b907d	0.05751084
86	0x3d9d0dac	0.07668623
87	0xbed91f6d	-0.42406788
88	0xbcedf805	-0.029048929
89	0x3dc9c116	0.09851281
90	0x3ca4450c	0.020052455
91	0xbe908881	-0.28229144
92	0xbc4b19f8	-0.012396328
93	0xbeb1d425	-0.34732166
94	0xbe89f861	-0.2694731
95	0xbd8d69fb	-0.0690498
96	0x3d3b4424	0.04571928
97	0xbe9b645c	-0.30350006
98	0x3e00b938	0.12570655
99	0xbe6721b8	-0.22571456
100	0xbe8ada4a	-0.27119666
101	0x3d33376a	0.04375402
102	0xbeb12bd8	-0.34603763
103	0xbc8dff58	-0.017333671
104	0x3d83ebb4	0.06441441
105	0xbede1e4f	-0.433825
106	0x3d6a210b	0.05716042
107	0xbef085d8	-0.46977115
108	0x3ceb2a1d	0.028706605
109	0x3d4f8dd5	0.05067237
110	0x3cc075b2	0.023493621
111	0xbe11f993	-0.14255361
112	0xbd93217c	-0.07184121
113	0x3dcb4d7f	0.099268906
114	0x3d28e841	0.04123712
115	0x3c561b46	0.013068026
116	0x3d957813	0.07298293
117	0x3d29c164	0.041444197
118	0x3dbbf79a	0.091780856
119	0x3dc73b4e	0.09728108
120	0x3d950968	0.07277185
121	0xbe6c26a0	-0.2306161
122	0x3c916007	0.017745985
123	0xbd27bfbf	-0.040954348
124	0x3d6a8cc8	0.057263166
125	0x3db17c56	0.08666293
126	0xbebcb160	-0.36854076
127	0x299aad5b	6.869046e-14
128	0x3d7c16d5	0.06154521
129	0x3d8e56e5	0.069501676
130	0xbe897c93	-0.26852855
131	0xbdd92c15	-0.10604111
132	0xba0312a9	-0.0005000034
133	0x3d154fdb	0.03645311
134	0xbe599cb8	-0.2125119
135	0xbd30855a	-0.043095924
136	0x3da6cde6	0.08144741
137	0xbe4b2878	-0.19839656
138	0xbe08fc67	-0.13377534
139	0x3dc94403	0.09827425
140	0x2aabc525	3.0512498e-13
141	0xbec9126b	-0.39271864
142	0x3abb385f	0.0014283768
143	0xbb75a274	-0.0037480863
144	0x3da1c310	0.07898533
145	0x3ddfee7d	0.1093416
146	0x3cc3eaa9	0.023915606
147	0xbece083b	-0.40240654
148	0xbe21e78e	-0.15810987
149	0x3da60d9b	0.08108064
150	0xbefee0ab	-0.49780783
151	0xbe8146be	-0.25249285
152	0x3d377ca3	0.044796597
153	0x3dc87eef	0.09789836
154	0x3db660e6	0.08905201
155	0xbd1cc04e	-0.038269334
156	0xbf07be0f	-0.5302438
157	0xbe8913bd	-0.26772872
158	0xbef353a3	-0.47524747
159	0x3dc26d73	0.09493532
160	0x3dd2ac83	0.1028681
161	0xbe6b3bfd	-0.22972102
162	0x3da36802	0.07978822
163	0xbc395fab	-0.011314313
164	0x3d5bf408	0.053699523
165	0x3dfb2777	0.12263387
166	0xbc54c4d9	-0.012986385
167	0x3d8c86ea	0.0686167
168	0xbebeac3a	-0.37240773
169	0x3d472d01	0.048626903
170	0xbeffe5f7	-0.49980137
171	0x3dbdc646	0.09266333
172	0x3c4815f1	0.0122122625
173	0xbe9e262a	-0.30888492
174	0xbceb6cb9	-0.028738366
175	0xbe5dcd82	-0.21660426
176	0x3d5d7e64	0.054075614
177	0xbbd0ac6a	-0.0063682096
178	0x3dfd164b	0.12357768
179	0xbd3eb38a	-0.04655794
180	0x3d82bd7f	0.063838
181	0x3d1b8d06	0.037976287
182	0x3d163edb	0.036681037
183	0xbeaa5d67	-0.33274385
184	0x3d485667	0.048910525
185	0xbd336a6f	-0.043802675
186	0x3da24637	0.07923549
187	0xbeeac0ff	-0.4585037
188	0xbdf630f7	-0.12021058
189	0xbd199db7	-0.037503924
190	0x3dd068c3	0.10176232
191	0x3d8e9122	0.06961276
192	0xba97688b	-0.0011551542
193	0xbdda2688	-0.106518805
194	0x3d89d934	0.06730881
195	0xbd2708f0	-0.040780008
196	0xbdc833c4	-0.097754985
197	0xbe909083	-0.28235254
198	0xbdc4dbae	-0.09612213
199	0xbeaf6074	-0.34253275
200	0x3d260bd0	0.04053861
201	0xbe136967	-0.14395677
202	0xbef9b0fd	-0.48767844
203	0xbf15bbdc	-0.58489776
204	0xbd7cdb0a	-0.06173233
205	0x3d57e1e3	0.052705657
206	0x3c97db68	0.018537238
207	0x3d8c1139	0.068392225
208	0x3d4b4d46	0.04963424
209	0x3b841e74	0.0040319506
210	0x3dab8a27	0.0837596
211	0x3e3377c9	0.17526163
212	0x3dc74c64	0.09731367
213	0x3dda314b	0.10653933
214	0x3e2f6a36	0.1713036
215	0x3dabb4f3	0.08384123
216	0xbda424dd	-0.080148436
217	0x3d9717a8	0.07377559
218	0x3d800b03	0.062521
219	0xbe9082cc	-0.2822479
220	0x3d172075	0.036896188
221	0xbe57d28a	-0.21076408
222	0x3dc74c03	0.09731295
223	0xbd4424ee	-0.04788678
224	0x3d73b8d6	0.059502445
225	0xbe4bcfb1	-0.19903447
226	0x3daee95a	0.08540602
227	0x3db917eb	0.09037765
228	0x3dce8f4a	0.10085924
229	0x3cb15a1b	0.021649411
230	0x3d47fa83	0.04882289
231	0x3d5d63db	0.054050308
232	0xbee5226b	-0.4475282
233	0x3d8c5a65	0.06853179
234	0x3d5caf6e	0.05387824
235	0x3d7d06dc	0.06177412
236	0x3d8485b0	0.06470811
237	0x3d2a4d68	0.041577727
238	0x3d11319b	0.035447698
239	0x3d75540d	0.05989461
240	0x3d3e2bda	0.04642854
241	0x3d1b0972	0.037850805
242	0xbd42b7d3	-0.04753859
243	0x3bab4e97	0.0052278745
244	0xbeef5eb2	-0.46751934
245	0xbd8f6a8f	-0.07002746
246	0x3dbb8b8a	0.09157474
247	0x3dd190ad	0.10232673
248	0x3d935961	0.07194782
249	0xbe9cc64c	-0.30620039
250	0x3d5438a6	0.051811837
251	0xbf01ea89	-0.507485
252	0xbe08c43f	-0.13356112
253	0x3d5a575a	0.05330596
254	0xbe0765f2	-0.13222483
255	0x3d8be1fa	0.06830211

linear2.bias f4 [59]
0	0xbc884914	-0.016636409
1	0xbc9cc3f6	-0.01913641
2	0xbc81433e	-0.015779134
3	0xbc65decc	-0.01403017
4	0xbc5e9fb8	-0.013587885
5	0xbc9a253d	-0.018816585
6	0xbcaa6ed1	-0.020804795
7	0xbca3003b	-0.01989757
8	0xbc5fb272	-0.0136533845
9	0xbc3c5d55	-0.011496861
10	0xbc8b68f6	-0.017017823
11	0xbc93d786	-0.018047106
12	0xbc8c08eb	-0.017094096
13	0xbc94de57	-0.018172426
14	0xbc623039	-0.0138054425
15	0xbc270366	-0.010193681
16	0xbcaac4f9	-0.020845877
17	0xbc48699c	-0.0122322105
18	0xbcac8f5b	-0.021064451
19	0xbc8f60b0	-0.017502159
20	0xbc461e62	-0.012092205
21	0xbc19d452	-0.009389
22	0xbcaeeaf8	-0.021352276
23	0xbc889fa5	-0.016677687
24	0xbc50cf8f	-0.012744798
25	0xbcaa412b	-0.020783028
26	0xbc91ee03	-0.017813688
27	0xbc4079a9	-0.011747756
28	0xbc970b6e	-0.018438067
29	0xbc754b64	-0.014971588
30	0xbc96d565	-0.018412301
31	0xbc87a094	-0.016556062
32	0xbc25080a	-0.010072717
33	0xbc9a379a	-0.018825341
34	0xbc984398	-0.018586919
35	0xbc967e69	-0.018370824
36	0xbc56a2e9	-0.013100364
37	0xbc8b8880	-0.017032862
38	0xbc82a5c5	-0.015948186
39	0xbc30d022	-0.01079181
40	0xbc873f12	-0.016509566
41	0xbca14308	-0.019685283
42	0xbc83d7bf	-0.016094087
43	0xbc9b10d3	-0.01892892
44	0xbc6b418d	-0.01435889
45	0xbc94739a	-0.01812153
46	0xbc94bb62	-0.018155757
47	0xbc8bc5e7	-0.01706214
48	0xbcb6f132	-0.022331808
49	0xbc6be053	-0.014396745
50	0xbc148f11	-0.009067313
51	0xbca3dcb4	-0.0200027
52	0xbc31ea53	-0.01085909
53	0xbc94ab0b	-0.018147966
54	0xbc840ec5	-0.016120324
55	0xbc4d56bb	-0.012532885
56	0xbc449374	-0.011998046
57	0xbc8a899a	-0.016911317
58	0xbc93f7cd	-0.018062497
