intermediary/model_15750.pth (torch, 356400 bytes, 5 tensors)

embed.weight f4 [59, 128]
0	0xbeafb1bc	-0.34315288
1	0x3e6876c4	0.22701555
2	0xbeb8423f	-0.35988042
3	0xbeac7fc0	-0.33691216
4	0x3ebd6d0d	0.36997262
5	0x3ec99997	0.39374992
6	0xbdd1a88d	-0.10237227
7	0xbee26341	-0.4421635
8	0x3edaacca	0.42709953
9	0x3ea7c8c6	0.32770365
10	0xbe933f16	-0.28759068
11	0xbec6db28	-0.38839078
12	0x3c043921	0.008070261
13	0xbe61e832	-0.22061232
14	0xbeace951	-0.33771756
15	0x3ebc27ce	0.3674912
16	0xbe42ac59	-0.19011058
17	0xbede6b27	-0.43441126
18	0xbeb36453	-0.3503748
19	0x3ec8a8dd	0.39191332
20	0x3ecbe1bd	0.39820662
21	0x3e81cfd3	0.2535387
22	0x3e47772d	0.19479056
23	0x3e078d48	0.13237488
24	0x3ea71c62	0.32638842
25	0x3ed5953c	0.4171542
26	0xbeb4911e	-0.35266966
27	0x3e6eec80	0.23332405
28	0x3c95bf85	0.0182798
29	0x3ecfcda4	0.4058658
30	0x3ed40498	0.41409755
31	0xbe16d60d	-0.14730091
32	0xbed8334f	-0.42226645
33	0xbec379fd	-0.38179007
34	0xbe9a6574	-0.30155528
35	0xbe885101	-0.266243
36	0x3e9cfdf6	0.30662507
37	0x3ef9ba4a	0.4877494
38	0x3e477326	0.1947752
39	0xbda35203	-0.07974627
40	0xbdb4f21d	-0.08835242
41	0xbea34870	-0.31891203
42	0x3ee12579	0.43973902
43	0x3e8c0e93	0.2735487
44	0x3ecab3f1	0.3959041
45	0x3dc1b000	0.094573975
46	0x3ed55e48	0.41673493
47	0x3ef71493	0.48257884
48	0xbeba1ee7	-0.36351702
49	0xbe925438	-0.2857988
50	0x3ef9a36b	0.4875749
51	0x3ec69270	0.38783598
52	0xbeab0852	-0.33404785
53	0xbec718fe	-0.38886255
54	0x3ea9aea1	0.33141044
55	0x3e8975f9	0.26847818
56	0xbec0fb84	-0.3769189
57	0x3e48c01a	0.19604531
58	0xbe8fa448	-0.28055024
59	0x3ebdc2d4	0.37062705
60	0xbe9fb456	-0.31192273
61	0x3ebefed0	0.37303782
62	0xbee0aed0	-0.4388337
63	0xbec5ee99	-0.38658598
64	0xbead3f5a	-0.33837396
65	0x3e76ca4f	0.24100612
66	0xbe411dcd	-0.18859024
67	0x3ea4ad93	0.32163677
68	0x3ebcc093	0.36865672
69	0xbee64edf	-0.4498205
70	0xbe54c3fe	-0.2077789
71	0xbed1dccd	-0.4098877
72	0xbed682ef	-0.4189677
73	0xbed6831d	-0.41896906
74	0x3e6e9a5f	0.23301075
75	0xbe95bff8	-0.29248023
76	0x3ef06a3f	0.4695606
77	0x3ea4c131	0.32178643
78	0x3e68b7dd	0.22726388
79	0x3ed532d5	0.41640344
80	0x3eac71b8	0.3368051
81	0xbea4dbb9	-0.32198885
82	0xbe70b9d4	-0.23508388
83	0xbef8ec8a	-0.48617965
84	0x3ecf9a78	0.40547538
85	0xbea4bb7f	-0.32174298
86	0x3c87f0ba	0.01659428
87	0xbeb7758f	-0.35831878
88	0xbee0fa74	-0.4394108
89	0x3eca7570	0.39542723
90	0x3ea3aeac	0.31969202
91	0xbebf3734	-0.37346804
92	0x3ec7bced	0.39011326
93	0xbef5f39e	-0.48037428
94	0xbeb655b9	-0.35612276
95	0x3eb19a18	0.34687877
96	0x3e8c2215	0.27369753
97	0x3ee3dc3b	0.4450396
98	0xbe9343cf	-0.2876267
99	0x3eaaeae6	0.33382338
100	0x3e72ad19	0.23698844
101	0xbee2b77b	-0.4428061
102	0xbe8f47bd	-0.2798442
103	0x3e56a4db	0.20961325
104	0x3edc7939	0.43061236
105	0xbecdf6e8	-0.40227437
106	0x3ee0259d	0.43778697
107	0x3ee13466	0.4398529
108	0x3e9004d4	0.28128684
109	0xbe9ad2fb	-0.3023909
110	0xbed79e6c	-0.42113054
111	0xbe77da60	-0.24204397
112	0x3eaeb9fd	0.34126273
113	0xbe5d0ac6	-0.21586141
114	0xbee04ff8	-0.4381101
115	0xbed8562a	-0.42253238
116	0x3eb99ba8	0.3625157
117	0xbed1fe94	-0.4101454
118	0x3e01cbaf	0.12675355
119	0xbe92f122	-0.28699595
120	0x3eddcc28	0.4331982
121	0xbeac48bf	-0.3364925
122	0x3eb5a09a	0.35474092
123	0x3eb2012b	0.34766516
124	0xbed57097	-0.41687462
125	0x3e896165	0.2683212
126	0x3ee08aef	0.43855998
127	0x3ef54e64	0.4791137
128	0x3e479149	0.19489016
129	0x3ea845f1	0.3286586
130	0xbdded29f	-0.108800165
131	0xbeeb75f8	-0.4598844
132	0xbeba9230	-0.36439657
133	0xbe494a62	-0.19657281
134	0xbdfee43c	-0.12445876
135	0xbed52f8c	-0.41637838
136	0xbe2f84f6	-0.17140564
137	0x3ee31d29	0.44358185
138	0xbec66bc6	-0.387541
139	0x3e619adc	0.2203173
140	0x3ee135be	0.43986315
141	0x3f008317	0.5020003
142	0xbe996005	-0.2995607
143	0x3d923da5	0.07140664
144	0x3e773cfc	0.24144357
145	0x3d207c17	0.03918084
146	0x3ec3a076	0.3820836
147	0xbec71b6c	-0.3888811
148	0x3ec765dc	0.389449
149	0xbebfe5ab	-0.3747991
150	0xbed5cb73	-0.41756782
151	0xbeac3c56	-0.33639783
152	0xbe5ad389	-0.21369757
153	0xbd98b821	-0.07456995
154	0x3e9b6ffa	0.3035887
155	0xbef1198f	-0.47089812
156	0xbeeb6de9	-0.45982292
157	0xbe4959bb	-0.19663136
158	0xbe65b364	-0.22431713
159	0x3ec24069	0.37939766
160	0x3eb994cb	0.36246333
161	0xbeef39bf	-0.46723744
162	0x3efc7e2a	0.49315006
163	0x3ed23597	0.4105651
164	0xbec96397	-0.39333794
165	0xbeb15706	-0.34636706
166	0xbedfdd4a	-0.43723518
167	0x3ec3cbb4	0.3824135
168	0x3eec35d7	0.46134827
169	0x3ef72ab5	0.4827477
170	0xbeca0b93	-0.39461955
171	0x3ed01554	0.40641272
172	0xbe811bdb	-0.25216565
173	0xbed7885c	-0.4209622
174	0x3f023ee2	0.508772
175	0x3ebf3e03	0.37352
176	0xbdd91118	-0.105989635
177	0xbee20c8e	-0.44150203
178	0x3ed44c1d	0.4146432
179	0x3ec7bbb7	0.39010403
180	0xbed387f3	-0.4131466
181	0x3e67dc09	0.2264253
182	0xbe8ed5d2	-0.27897507
183	0x3e9eea1d	0.3103799
184	0xbeb552d2	-0.3541475
185	0xbca7c322	-0.020478789
186	0x3edc6da1	0.4305239
187	0x3daaa35b	0.08331939
188	0x3ec2bb08	0.3803332
189	0xbe9e4e2a	-0.3091901
190	0xbed57b51	-0.41695645
191	0xbea66a4b	-0.3250297
192	0xbdf8df10	-0.12151921
193	0x3e9b48f6	0.30329102
194	0x3edfef5d	0.43737307
195	0x3ee8c74d	0.45464554
196	0xbec7a0a8	-0.38989758
197	0xbed8125e	-0.42201513
198	0x3ee5821d	0.4482583
199	0x3ec62ac8	0.38704515
200	0x3ec3ac13	0.3821722
201	0x3dcc4f3c	0.0997605
202	0xbed55dfd	-0.4167327
203	0xbec4aa00	-0.3841095
204	0xbe551b23	-0.20811133
205	0x3e8dcbaa	0.27694446
206	0xbe9d8ec4	-0.30772984
207	0x3e298a56	0.16556677
208	0xbf0060e6	-0.50147855
209	0xbea0aecb	-0.31383356
210	0x3d1a1523	0.037617814
211	0xbed9620a	-0.4245761
212	0xbec1dd58	-0.37864184
213	0xbe823c20	-0.25436497
214	0xbeb09823	-0.3449107
215	0xbece9642	-0.40349013
216	0x3eb8f0bd	0.3612117
217	0xbed222ed	-0.4104227
218	0xbedfc5bb	-0.43705544
219	0xbda1dd3a	-0.07903524
220	0x3e707897	0.23483501
221	0xbee5ec50	-0.44906855
222	0x3ebf9e8b	0.37425646
223	0x3e7668d8	0.24063432
224	0xbdd06564	-0.10175589
225	0xbe6d8de6	-0.23198661
226	0x3e66625e	0.22498462
227	0xbe85ee37	-0.26158306
228	0xbebf22e2	-0.373313
229	0x3e85b66a	0.26115733
230	0xbe2c121a	-0.1680378
231	0xbec17a5c	-0.37788665
232	0xbe793b12	-0.2433894
233	0x3ebddd6f	0.37083003
234	0x3eeddb6b	0.46456465
235	0x3e8e86ee	0.27837318
236	0xbed7eba0	-0.42171955
237	0x3e9b02bc	0.30275524
238	0x3eb2d518	0.34928203
239	0xbef67ccb	-0.48142084
240	0xbed2c10b	-0.41162905
241	0x3edf0fac	0.43566644
242	0x3e5470e9	0.20746197
243	0x3ed22c35	0.41049352
244	0xbed35c99	-0.41281584
245	0xbe4324a2	-0.19056943
246	0x3eb28ac9	0.3487151
247	0xbeb6f5c3	-0.35734376
248	0xbe8d6c03	-0.2762147
249	0x3ed04ae5	0.4068214
250	0x3eea5ccf	0.45773932
251	0xbe69a119	-0.2281536
252	0xbe88a586	-0.26688784
253	0xbeb26ee3	-0.34850225
254	0x3edc3a4b	0.43013224
255	0xbec16892	-0.37775093

linear1.weight f4 [256, 256]
0	0xbe05152e	-0.1299636
1	0xbe111892	-0.14169529
2	0x3e1a2580	0.15053368
3	0x3e07db29	0.13267197
4	0xbe12e06b	-0.14343421
5	0x3d4ad370	0.04951805
6	0x3e2bc134	0.1677292
7	0x3af0dad0	0.0018375758
8	0xbe563013	-0.20916776
9	0xbd168851	-0.036751095
10	0x3e3d52ec	0.18488663
11	0xbe1ed74b	-0.15511815
12	0x3b82a9f0	0.0039875433
13	0x3c2d7f90	0.010589495
14	0xbe1fb881	-0.15597726
15	0x3e22fe8b	0.15917413
16	0x3d8e3a5f	0.06944727
17	0x3e139098	0.14410627
18	0x3e54ba76	0.20774254
19	0x3de26f7f	0.110564224
20	0xbda0a7d7	-0.07844513
21	0x3dc4e3bb	0.09613749
22	0x3d12e2d4	0.03586085
23	0x3e005e02	0.12535861
24	0xbc819fa9	-0.015823202
25	0xbe4454dc	-0.19172996
26	0xbe34b18b	-0.17645852
27	0xbda4d99f	-0.080493204
28	0x3de5e271	0.11224831
29	0x3c0e5549	0.008687326
30	0xbdcb2b49	-0.09920365
31	0xbb0859c6	-0.0020805462
32	0xbcc70cb7	-0.024298055
33	0xbc807000	-0.015678406
34	0x3c2c72a5	0.01052538
35	0x3e41a8a1	0.18911983
36	0x3dc771ac	0.09738478
37	0xbdf6b680	-0.12046528
38	0x3e566cca	0.20939937
39	0xbd610507	-0.054936435
40	0xbaacfba0	-0.0013197549
41	0x3c90c679	0.017672764
42	0xbe1b31f4	-0.15155774
43	0xbc841063	-0.016121095
44	0xbe0f567d	-0.13997836
45	0xbe0f0143	-0.13965325
46	0xbdea102c	-0.11428866
47	0x3cabb869	0.020961957
48	0xbe348719	-0.1762966
49	0xbdba89d2	-0.091083184
50	0xbd19db0f	-0.037562426
51	0xbe36f2be	-0.17866036
52	0x3d56a3c9	0.05240229
53	0xbe118b48	-0.14213288
54	0xbe25aeba	-0.16179934
55	0xbbb71eb0	-0.005588375
56	0x3d4c538d	0.049884368
57	0x3b2bc75f	0.0026211364
58	0x3e097ee2	0.13427308
59	0x3d9c2bf5	0.07625572
60	0x3e2b579d	0.1673264
61	0xbd3e6468	-0.046482474
62	0x3e18773f	0.14889239
63	0x3dac7185	0.0842009
64	0x3e266e7b	0.16253082
65	0xbdf126a3	-0.117749475
66	0xbe25b406	-0.16181955
67	0xbe4be2df	-0.19910763
68	0xbd41dbc6	-0.047328733
69	0xbd578725	-0.05261912
70	0xbc630ed3	-0.013858515
71	0xbdada3ed	-0.08478532
72	0xbde3ba99	-0.11119575
73	0xbe2bd4e4	-0.1678043
74	0x3e1318d2	0.14364937
75	0x3e4832e7	0.19550668
76	0xbe43fbcd	-0.19139023
77	0xbd4528f5	-0.048134763
78	0xbce95cc7	-0.028486622
79	0x3e07646e	0.13221905
80	0xbdf8bd1c	-0.12145445
81	0x3e141259	0.14460124
82	0x3e340433	0.17579727
83	0x3e3bf7b1	0.18356206
84	0xbd5e234c	-0.05423288
85	0x3d77e196	0.06051787
86	0x3d353dc2	0.04424835
87	0x3da52724	0.08064106
88	0x3e0610e0	0.13092375
89	0xbe1c7232	-0.15277937
90	0xbe27d7f6	-0.16390976
91	0x3e3290d1	0.17438056
92	0x3d6093b1	0.05482835
93	0x3dcdc188	0.10046679
94	0xbd707570	-0.058705747
95	0x3ca922fb	0.020646563
96	0x3ce6be3e	0.028166886
97	0xbd1bed38	-0.038068026
98	0xbc0eccad	-0.008715791
99	0x3d443afe	0.04790782
100	0xbe1d2cc5	-0.1534911
101	0x3d1f1797	0.038840856
102	0x3d369638	0.044576854
103	0xbe1e4e76	-0.15459618
104	0xbdca02b4	-0.09863797
105	0x3cbed54f	0.023295073
106	0xbd54bc38	-0.051937312
107	0xbd15fd30	-0.03661841
108	0xbe4db4f8	-0.20088565
109	0xbe6029cb	-0.21890943
110	0x3d0ca4d8	0.034336895
111	0x3e1082cd	0.14112397
112	0xbe5eee53	-0.21770601
113	0xbdab310f	-0.083589666
114	0x3e191009	0.14947523
115	0xbdbd54f7	-0.092447214
116	0x3e507106	0.20355615
117	0x3e599222	0.21247151
118	0xbcb4a98c	-0.022053503
119	0x3d161482	0.03664065
120	0x3db03bb5	0.08605138
121	0x3df428bb	0.11921831
122	0xbe3c7146	-0.18402585
123	0xbd2e604d	-0.04257231
124	0xbe0b4084	-0.1359883
125	0xbd8747c9	-0.06605489
126	0xbd268bfe	-0.04066085
127	0xbdf8979f	-0.121382944
128	0xbc0a562d	-0.0084433975
129	0x3b8e487b	0.0043421364
130	0xbdc6e07c	-0.09710786
131	0xbe2a8d53	-0.16655473
132	0x3e321f10	0.17394662
133	0xbe324c3f	-0.17411898
134	0xbe07214f	-0.131963
135	0xbc83fac7	-0.01611079
136	0x3db922b8	0.09039825
137	0x3e1723c0	0.14759731
138	0xbe1e74b5	-0.15474208
139	0xbda80a16	-0.08205049
140	0xbe604b44	-0.21903712
141	0xbe5e3bdb	-0.2170252
142	0x3e0e9f41	0.13927938
143	0x3ac22c2a	0.0014814187
144	0xbe5de5ea	-0.21669737
145	0xbdca11d2	-0.0986668
146	0xbd5c1828	-0.053733975
147	0x3db8c7d0	0.09022486
148	0xbe3ed756	-0.18636832
149	0xbce7f011	-0.028312715
150	0x3e219770	0.15780425
151	0x3d448273	0.04797597
152	0xbe356de5	-0.17717703
153	0x3dc49fb7	0.09600776
154	0xbc918753	-0.017764723
155	0x3ddf772a	0.109114006
156	0xbe1a594e	-0.1507313
157	0xbe3b9a6a	-0.18320623
158	0xbc86823a	-0.016419519
159	0x3e59e89d	0.21280141
160	0xbe4c34ac	-0.19941968
161	0x3e527b25	0.20554788
162	0xbdf5024d	-0.119633295
163	0xbbcad87e	-0.0061903587
164	0xbd9028be	-0.07039021
165	0x3df8118e	0.12112723
166	0xbd39c128	-0.045350224
167	0x3e54d063	0.20782618
168	0xbe57eac7	-0.21085654
169	0xbdcc966c	-0.09989628
170	0x3d9dc749	0.07704026
171	0xbe22f8ea	-0.15915266
172	0x3df74369	0.12073404
173	0xbccbc311	-0.024873288
174	0xbe2682f6	-0.16260895
175	0xbdd60517	-0.104501896
176	0x3e199998	0.14999998
177	0xbcf6f1f5	-0.030144671
178	0xbe380dcc	-0.17974013
179	0x3e00fbb5	0.12596019
180	0xbe0c87fc	-0.13723749
181	0xbdc3ac58	-0.09554356
182	0x3cebf947	0.028805388
183	0xbd1ccdb3	-0.038282108
184	0x3df433a7	0.119239144
185	0xbe20d95d	-0.15707918
186	0xbe468e5e	-0.19390246
187	0xbdb7ee54	-0.08981004
188	0x3c521934	0.012823392
189	0xbe096d7e	-0.13420674
190	0x3d4ce02e	0.050018482
191	0x3e348ccf	0.17631839
192	0x3d2facd5	0.042889435
193	0x3d59d6aa	0.053183235
194	0xbdc681b2	-0.09692706
195	0x3a9c6511	0.0011931976
196	0xbdfebe96	-0.12438695
197	0x3dc1655c	0.09443161
198	0x3d148cbd	0.03626703
199	0xbdd861a8	-0.105655015
200	0xbe085cec	-0.13316697
201	0x3e199359	0.14997615
202	0xbe09a781	-0.13442804
203	0x3ca17ec8	0.019713774
204	0xbd70ed02	-0.05881978
205	0xbe457ee9	-0.19286694
206	0xbe0d68ea	-0.13809553
207	0xbe4a9275	-0.19782431
208	0x3e2c1ded	0.16808291
209	0xbd04ceb5	-0.032423694
210	0xbd2e92cf	-0.042620476
211	0x3d9a2b96	0.075278446
212	0x3e5f4169	0.21802296
213	0x3abe8de3	0.0014538135
214	0x3e388af5	0.18021758
215	0x3db8d101	0.09024239
216	0xbe04cae7	-0.12968026
217	0xbd12484a	-0.03571347
218	0x3d693b6d	0.05694144
219	0xbbfbb46b	-0.0076814196
220	0xbe4e139a	-0.20124665
221	0xbcb0f7f1	-0.021602603
222	0xbdd75553	-0.10514321
223	0x3d972ccb	0.073815905
224	0x3cc8f973	0.02453301
225	0xbd234b2a	-0.039866604
226	0x3dc85dbf	0.09783506
227	0xbdcd0590	-0.100108266
228	0xbe0e036a	-0.1386849
229	0xbdc2a851	-0.0950476
230	0xbb26b8d6	-0.002543976
231	0xbd9b7fda	-0.07592745
232	0xbd0cfe25	-0.03442206
233	0xbe3af746	-0.1825839
234	0x3c2ea860	0.010660261
235	0xbe08f8a9	-0.13376106
236	0x3d2f35a7	0.042775776
237	0x3d5a2e59	0.053266857
238	0xbe28e104	-0.16492087
239	0x3d20d66a	0.03926698
240	0x3d475574	0.04866548
241	0xbd93d1cd	-0.07217751
242	0x3dda811c	0.10669157
243	0xbdd20205	-0.102542914
244	0x3cf15efc	0.029464237
245	0xb98357d8	-0.00025051716
246	0xbe5591c7	-0.20856391
247	0x3d155638	0.036459178
248	0xbd28e73c	-0.041236147
249	0xbe39e1f2	-0.18152598
250	0x3c373821	0.011182816
251	0xbe0257e6	-0.12728843
252	0x3b86f9e1	0.0041191434
253	0xbe25d694	-0.16195136
254	0x3cd0e6a2	0.0255006
255	0x3db98557	0.09058636

linear1.bias f4 [256]
0	0x3c943173	0.018089985
1	0x3cafbcb4	0.021452285
2	0x3af96574	0.0019027428
3	0x3c2c89a2	0.010530861
4	0x3c275150	0.0102122575
5	0x3a41a00c	0.00073862146
6	0x3c00262c	0.007821601
7	0xba2defec	-0.00066351774
8	0x3c310de6	0.010806536
9	0x3b8fd035	0.004388834
10	0x3c76c560	0.015061706
11	0x3c5e34c9	0.01356239
12	0x3c8b3a8d	0.016995693
13	0x3c1ba123	0.009498867
14	0x3c58b4b2	0.013226675
15	0x3c9f314a	0.019432683
16	0x3c1a20a7	0.009407199
17	0x38e46722	0.00010891097
18	0x3b41f8b6	0.0029597706
19	0xbc24b194	-0.010052104
20	0x3b4ecc1b	0.0031554762
21	0xbbf184de	-0.0073705753
22	0x38c261dc	9.2688686e-05
23	0x3c8faaae	0.017537441
24	0x3ce3dcf0	0.027815312
25	0x3d2796e9	0.040915404
26	0x3cb6abbe	0.02229869
27	0x3d220171	0.039552156
28	0x3a8a1fe4	0.0010538069
29	0x3cd711ad	0.026253546
30	0x3d7424e8	0.05960551
31	0x3b7bf563	0.0038445822
32	0x3c61699b	0.013758088
33	0x3ad79a80	0.0016449243
34	0x3ba4eaa9	0.0050328565
35	0x3baf8229	0.0053560925
36	0x3b6f7c06	0.003654243
37	0x3ca3395f	0.019924818
38	0xba27cbe4	-0.00064009265
39	0x3c83407c	0.01602196
40	0x3b1a9ff5	0.0023593877
41	0x3bbb3b29	0.0057138395
42	0x3c614e87	0.0137516325
43	0x3cb453a5	0.022012541
44	0xbc8bb475	-0.017053822
45	0x3ba36d1a	0.004987371
46	0x28b0c1bc	1.9623944e-14
47	0x3c19d161	0.009388299
48	0x3ce9921a	0.02851205
49	0x3c9a4f67	0.01883669
50	0x3c0e0dc4	0.008670274
51	0xba76189c	-0.00093878224
52	0xbc77c30a	-0.0151221845
53	0x3cb4acf4	0.022055127
54	0x3b1a3993	0.0023532852
55	0xbc429412	-0.011876123
56	0x3baeb895	0.0053320625
57	0x3c1285ee	0.008943064
58	0x3a2e77b9	0.00066554133
59	0x3b7bf2f0	0.0038444363
60	0x3aeafcd8	0.0017928137
61	0x3c8ef86a	0.017452437
62	0x3ca0ebbc	0.019643657
63	0x3cee871a	0.029117156
64	0x3bec52a7	0.0072120014
65	0x3bbfeb07	0.005856875
66	0x3b410ce2	0.0029457142
67	0x3d3d83ac	0.04626815
68	0x3bb091bf	0.005388468
69	0x3bf5e829	0.0075044823
70	0x3aa71e42	0.0012750106
71	0x3c4d33a5	0.01252452
72	0x3c0778c8	0.008268543
73	0x3c5c7fa9	0.013458171
74	0x3c6978ed	0.014250022
75	0x3c31b6df	0.0108468225
76	0x3bc306f8	0.0059517585
77	0x264c04a8	7.078303e-16
78	0x3c649b80	0.01395309
79	0x3c11fef4	0.008910883
80	0x3c5efcaa	0.0136100445
81	0x3c877b51	0.016538294
82	0x3c850d07	0.016241563
83	0x3c481bc4	0.012213651
84	0x3cb29ca0	0.0218032
85	0x3cd215ad	0.025645101
86	0x3c808048	0.01568617
87	0x3b9609cc	0.0045788046
88	0x3ca966fe	0.020678993
89	0x3c6c3911	0.014417903
90	0x3b1fc315	0.0024377753
91	0x3bc33ee2	0.005958424
92	0x3c5b1d40	0.013373673
93	0x3cc8a405	0.024492273
94	0x3ca8d7e9	0.020610766
95	0x3c77b51a	0.015118862
96	0x3cb06621	0.021533074
97	0x3c3493ed	0.011021596
98	0x3cb82459	0.02247827
99	0x3b5da519	0.003382033
100	0x3bb0b199	0.005392265
101	0x3b76d8f6	0.003766594
102	0x3c17964c	0.009252142
103	0x3c6fa92d	0.014627737
104	0x3ba7307c	0.0051022153
105	0x3bf3e705	0.007443311
106	0x3d1e9fef	0.038726743
107	0x3c43e84d	0.01195724
108	0x394906e5	0.00019171422
109	0x3b91471b	0.0044335253
110	0x3ce26592	0.027636323
111	0x3cd22556	0.025652569
112	0x3d08ea77	0.033426728
113	0x3b93fe78	0.004516419
114	0x3cdb6b60	0.026784599
115	0x3c4fa905	0.012674575
116	0x3cf4507f	0.02982354
117	0x3c89da1a	0.016827632
118	0x3d177eb6	0.036986075
119	0x3d37497d	0.04474782
120	0x3ccf895f	0.025334058
121	0x3c6540a7	0.013992465
122	0x3bbb06c1	0.0057075922
123	0x3afee642	0.0019447284
124	0x3c47f99c	0.012205508
125	0x3cd2db78	0.025739416
126	0x3babb5d4	0.0052401815
127	0x2948bb68	4.457147e-14
128	0x3cc0d7c5	0.023540387
129	0x3ce59121	0.028023304
130	0x3caffbfb	0.021482458
131	0x3bd34359	0.0064472375
132	0x3aadaf99	0.0013251185
133	0x3c6d71c8	0.01449246
134	0xba2b0db3	-0.00065251737
135	0x3d11b191	0.03556973
136	0x3c4ee804	0.012628559
137	0x3bea6785	0.007153454
138	0x3ce160af	0.027511923
139	0x3cc1b5b7	0.023646219
140	0x29387666	4.09589e-14
141	0x3cd62e3d	0.026145095
142	0x3c1effa6	0.009704506
143	0x3c81f572	0.015864108
144	0x3cab1f28	0.02088888
145	0x3bfd7dce	0.0077359444
146	0x3b8dbf57	0.004325788
147	0x3c076652	0.008264141
148	0x3c98f5e1	0.018671932
149	0x3c7a552f	0.015279098
150	0x3bcbc262	0.0062182406
151	0x3cdc3243	0.026879435
152	0x3b988235	0.0046541938
153	0xbac32ae8	-0.0014890106
154	0x3b95fd1f	0.0045772935
155	0x3c4f512a	0.012653628
156	0x3b09ff82	0.0021056836
157	0x3cdccdd4	0.026953615
158	0x3d3a7384	0.04552032
159	0x3c2f3e15	0.010695954
160	0x3b68dfbc	0.0035533747
161	0x3bb15ad3	0.0054124384
162	0xba4021f7	-0.000732928
163	0x3c770dea	0.015079001
164	0x3bd835cc	0.00659821
165	0x3ca35cb1	0.01994166
166	0x3c9ddab5	0.019269327
167	0x3ccc9f71	0.024978371
168	0xbba62fae	-0.005071602
169	0x3c5bdb71	0.013419018
170	0x3cfeceb6	0.031104427
171	0x3c875840	0.016521573
172	0x3cf0cc12	0.029394183
173	0x3bdb8bd1	0.006700017
174	0x3c8b6ca6	0.017019581
175	0x3b7cff05	0.0038604152
176	0x3c35122b	0.011051695
177	0xbb17a91a	-0.0023141564
178	0x3bdee662	0.006802366
179	0x3c601405	0.013676648
180	0x3bd5256e	0.006504706
181	0xbaa7fdf9	-0.0012816779
182	0x3b99ed51	0.00469748
183	0x3c61d32b	0.0137832565
184	0x3bdb7cde	0.006698235
185	0x3c96f4e5	0.018427322
186	0x3c273fad	0.010208053
187	0x3d78b51a	0.060719587
188	0x3d592b5b	0.053019863
189	0x3d300bec	0.04298012
190	0x3c7ebb13	0.015547532
191	0xbaafeaba	-0.0013421394
192	0xbc4bd99c	-0.012442019
193	0x3c291312	0.010319488
194	0x3c3d72e6	0.011563038
195	0x3d18c425	0.037296433
196	0x3bfa091d	0.007630481
197	0x3bc52da4	0.0060174037
198	0x3bf22c18	0.0073905103
199	0x3c9ca5c7	0.019122018
200	0xbb1b7e74	-0.0023726495
201	0x3c811d38	0.015761003
202	0xbbab7ab6	-0.005233134
203	0x3d50d070	0.05098003
204	0x3cc23488	0.02370669
205	0x3cccdf8b	0.025008937
206	0xbb94006e	-0.004516653
207	0x3cd2fb6f	0.025754659
208	0x3c9c22d7	0.019059582
209	0x3c01a0c5	0.007911866
210	0x3c58bde6	0.013228869
211	0xbbd07b9e	-0.0063623926
212	0x3d375627	0.044759896
213	0x3c0edbca	0.008719394
214	0xbbfbe47c	-0.0076871496
215	0x3beb2cd5	0.0071769753
216	0x3b9f9ae9	0.0048707617
217	0x3bc07cb6	0.0058742417
218	0x3c88213b	0.016617408
219	0x3bcb432a	0.006203075
220	0x3cef1af2	0.029187653
221	0x3a50254e	0.0007940129
222	0x3d37a3a4	0.044833794
223	0x3b410933	0.0029454946
224	0x3c1f71a6	0.009731686
225	0x3c028faa	0.0079688225
226	0x3d0d67ae	0.034522705
227	0x3c73593e	0.01485282
228	0x3c2503de	0.010071723
229	0x3c790fb5	0.015201499
230	0xbafa9ce1	-0.001912024
231	0x3bf25527	0.007395405
232	0x3bff5fd5	0.0077934065
233	0x3c80de4a	0.015730996
234	0x3c837750	0.016048104
235	0x3ca5a3be	0.02021968
236	0x3cb32d3d	0.021872157
237	0x3c342b3a	0.010996634
238	0x3c0d12f0	0.008610472
239	0x3bacdfab	0.0052756867
240	0x3c52a964	0.012857769
241	0x3ca603aa	0.020265419
242	0x3c227b37	0.009917072
243	0x3b8d3579	0.004309353
244	0x3c3c33eb	0.011486988
245	0x3c9c86c7	0.019107236
246	0x3cdd62e9	0.027024703
247	0x3c9f77d7	0.019466324
248	0x3d1812c1	0.03712726
249	0xbae36d2a	-0.0017351259
250	0x3b05fa16	0.0020443252
251	0x3b8bf93c	0.0042716544
252	0x3b9f72a0	0.0048659593
253	0x3c64eed3	0.013972956
254	0x3b95aefb	0.0045679784
255	0x3d779e30	0.060453594

linear2.weight f4 [59, 256]
0	0x3d5c7ac3	0.053828012
1	0x3d4d2aa1	0.050089482
2	0x3da9b5cb	0.082866274
3	0x3e07e5af	0.13271211
4	0x3d2edbec	0.042690203
5	0x3d8ed39e	0.069739565
6	0xbf08caa1	-0.5343419
7	0x3d533f64	0.051574126
8	0xbcae4b21	-0.021276059
9	0x3d55efb5	0.052230556
10	0x3d694be5	0.056957144
11	0x3dac043d	0.08399246
12	0xbefd3082	-0.4945107
13	0x3d0d8a64	0.034555808
14	0x3d4cccec	0.050000116
15	0x3d910411	0.07080854
16	0x3d51bd7c	0.051206097
17	0xbd0e99f7	-0.0348148
18	0xbf10c670	-0.5655279
19	0x3d791dc0	0.060819387
20	0x3da30793	0.07960429
21	0xbea33db6	-0.3188302
22	0x3d41f071	0.047348443
23	0x3d575eaf	0.05258053
24	0x3d628b02	0.05530835
25	0xbefdaa87	-0.49544165
26	0x3dd40a3a	0.10353513
27	0xbdaaa7e4	-0.08332804
28	0xbee7ee9a	-0.45299226
29	0xbd9f61ec	-0.07782349
30	0xbeee9037	-0.46594402
31	0xbe79082b	-0.24319522
32	0x3d699a58	0.05703196
33	0xbdbd5ee8	-0.092466176
34	0xbe68098b	-0.2265989
35	0x3d1de78a	0.03855089
36	0x3db42b92	0.08797373
37	0x3daa332d	0.08310542
38	0x3cb93fc9	0.022613423
39	0xbe9bc90a	-0.30426818
40	0xbe30a56d	-0.17250605
41	0xbef4e282	-0.47829062
42	0xbe978a6f	-0.29597804
43	0x3d731c76	0.059353314
44	0x3d6a5f41	0.057219747
45	0x3d9d2429	0.076729126
46	0xaa9eafb8	-2.8188367e-13
47	0x3d6fb7f5	0.058525044
48	0x3e0887fb	0.13333122
49	0xbedf03ed	-0.43557683
50	0x3d73a58d	0.059484053
51	0x3d9aed89	0.075648375
52	0x3da2cd86	0.07949357
53	0xbf1415f3	-0.5784599
54	0xbe30a972	-0.17252138
55	0xbc478c0e	-0.012179388
56	0xbe19aba1	-0.15006877
57	0xbebc9193	-0.36829814
58	0xbef77e8e	-0.4833874
59	0xbeea96f7	-0.45818302
60	0xbe6f77cf	-0.23385547
61	0x3cd5192c	0.02601298
62	0x3d928c5b	0.07155677
63	0x3d9ddc5c	0.07708046
64	0x3dc1f032	0.09469642
65	0x3dabf223	0.08395793
66	0x3d3674eb	0.044545095
67	0xbd6d1a41	-0.057886366
68	0x3c34202e	0.010994
69	0x3d309251	0.04310829
70	0xbd0908f5	-0.033455808
71	0x3d9080dd	0.07055829
72	0x3d89444d	0.067024805
73	0xbe04fb7f	-0.12986563
74	0xbce48fbe	-0.027900573
75	0x3d8fa4f1	0.07013882
76	0x3d91e289	0.07123286
77	0xa7b105e5	-4.913376e-15
78	0x3defe169	0.117129155
79	0x3d9c53e0	0.076331854
80	0xbe3f3867	-0.1867386
81	0x3cc8a4fe	0.024492737
82	0x3d92e240	0.0717206
83	0xbefb043c	-0.49026668
84	0x3df3df43	0.11907818
85	0x3d709812	0.058738776
86	0x3d9f137e	0.0776739
87	0xbed9c79b	-0.425351
88	0xbce12fe5	-0.027488658
89	0x3dc45da2	0.095881715
90	0x3cad383f	0.021144984
91	0xbe900bed	-0.281341
92	0xbc38aaec	-0.01127122
93	0xbeb195c1	-0.34684566
94	0xbe86eaea	-0.263511
95	0xbd8a707a	-0.067597345
96	0x3d357b85	0.04430725
97	0xbe98488d	-0.29742852
98	0x3e0188d9	0.1264986
99	0xbe64c218	-0.22339666
100	0xbe883827	-0.2660534
101	0x3d3329de	0.0437411
102	0xbeb0f5d7	-0.3456256
103	0xbc8cd35c	-0.017190628
104	0x3d858e73	0.06521311
105	0xbedcc5ab	-0.4311956
106	0x3d665735	0.05623551
107	0xbeef7c76	-0.46774644
108	0x3cebf2cf	0.028802304
109	0x3d4cbc53	0.049984287
110	0x3cc15050	0.023597866
111	0xbe188c60	-0.14897299
112	0xbd8b5dc0	-0.06804991
113	0x3dc74043	0.09729054
114	0x3d25bf33	0.040465545
115	0x3c54afd3	0.012981373
116	0x3d94c2dc	0.07263729
117	0x3d28eeb6	0.041243277
118	0x3db80573	0.08985414
119	0x3dc74b9f	0.097312205
120	0x3d977ef1	0.07397259
121	0xbe6a5554	-0.22884113
122	0x3c8be5a1	0.017077269
123	0xbd19347d	-0.037403572
124	0x3d649e73	0.05581517
125	0x3db02233	0.08600273
126	0xbebc17b6	-0.3673684
127	0x29e54a43	1.0182525e-13
128	0x3d80c408	0.0628739
129	0x3d8a8490	0.067635655
130	0xbe87d906	-0.26532763
131	0xbdd88f2e	-0.10574184
132	0xba66cd40	-0.00088043883
133	0x3d0dc34c	0.034610078
134	0xbe574a1a	-0.21024361
135	0xbd3551f7	-0.04426762
136	0x3da8e1fb	0.08246227
137	0xbe48dd06	-0.19615564
138	0xbe062bfe	-0.13102719
139	0x3dca2530	0.09870374
140	0x2af6508f	4.3754277e-13
141	0xbecdd614	-0.4020239
142	0x3a8a16cf	0.0010535362
143	0xbb507b73	-0.0031811863
144	0x3da47d39	0.08031697
145	0x3dd8c703	0.105848335
146	0x3cc6c1cc	0.024262331
147	0xbeccbe9d	-0.39989176
148	0xbe1f4496	-0.15553507
149	0x3da52229	0.08063156
150	0xbefd76e5	-0.49504772
151	0xbe815a46	-0.25264186
152	0x3d36c1fd	0.044618595
153	0x3dc39b1a	0.09551068
154	0x3dadee0d	0.0849267
155	0xbd17b60a	-0.03703884
156	0xbf07bd50	-0.5302324
157	0xbe86b186	-0.26307315
158	0xbef31797	-0.47478935
159	0x3dbf76c3	0.09348824
160	0x3dd28953	0.10280099
161	0xbe693b1c	-0.22776455
162	0x3da23428	0.07920104
163	0xbc403293	-0.011730808
164	0x3d5ad74e	0.053427987
165	0x3dfe51f7	0.12417977
166	0xbc538ecb	-0.012912462
167	0x3d8ae61d	0.06782172
168	0xbebea58c	-0.37235677
169	0x3d45a213	0.04825027
170	0xbeffcc48	-0.49960542
171	0x3dbe6d38	0.092981756
172	0x3c4b59b2	0.012411522
173	0xbe9ddda5	-0.30833164
174	0xbce465b6	-0.02788053
175	0xbe5f282f	-0.21792673
176	0x3d6469d1	0.055764977
177	0xbbe8a4fe	-0.0070997467
178	0x3dfcf235	0.12350885
179	0xbd3b2ed5	-0.04569896
180	0x3d7de831	0.061989013
181	0x3d184c8e	0.037182383
182	0x3d0fd446	0.03511455
183	0xbeab92fb	-0.33510575
184	0x3d486cb9	0.04893181
185	0xbd38f591	-0.045156065
186	0x3da31061	0.079621084
187	0xbee9eca0	-0.45688343
188	0xbdf09ccb	-0.11748656
189	0xbd1a12d6	-0.03761562
190	0x3dcc63b7	0.099799566
191	0x3d8dae5a	0.069180205
192	0xbb26963c	-0.0025419137
193	0xbdd14317	-0.102178745
194	0x3d897d34	0.06713334
195	0xbd1ef930	-0.038811862
196	0xbdc0e628	-0.09418899
197	0xbe9013f2	-0.28140217
198	0xbdc292d4	-0.095006615
199	0xbeaeb748	-0.34124207
200	0x3d21e8b3	0.03952856
201	0xbe101cd9	-0.14073505
202	0xbef98119	-0.48731306
203	0xbf156e9f	-0.5837192
204	0xbd774c8b	-0.06037573
205	0x3d59c322	0.05316461
206	0x3c8fcde5	0.017554233
207	0x3d8b38ec	0.06797966
208	0x3d462794	0.04837759
209	0x3ba94aad	0.0051663727
210	0x3dad9965	0.08476523
211	0x3e32ac10	0.17448449
212	0x3dc7560b	0.09733208
213	0x3dd2498b	0.102679335
214	0x3e2f084c	0.17093009
215	0x3dac6757	0.08418148
216	0xbda052dc	-0.07828304
217	0x3d91edfa	0.071254686
218	0x3d7dacc2	0.061932333
219	0xbe900b82	-0.2813378
220	0x3d1ac500	0.03778553
221	0xbe58cfd6	-0.21173033
222	0x3dc7675b	0.0973651
223	0xbd415b89	-0.047206435
224	0x3d738d3c	0.059460863
225	0xbe4a9160	-0.19782019
226	0x3daedd3c	0.08538291
227	0x3dba4a35	0.09096185
228	0x3dca33be	0.0987315
229	0x3cbc8f85	0.023017654
230	0x3d488c5b	0.04896198
231	0x3d53a006	0.051666282
232	0xbee1f074	-0.44128764
233	0x3d8b3ce3	0.067987226
234	0x3d5bf403	0.053699505
235	0x3d7ce03a	0.061737277
236	0x3d8218dc	0.06352398
237	0x3d25a6a9	0.040442143
238	0x3d0edba1	0.034877423
239	0x3d6e4b08	0.058177024
240	0x3d40feee	0.04711812
241	0x3d1881db	0.037233215
242	0xbd45beb5	-0.048277576
243	0x3ba5a252	0.0050547505
244	0xbeefb75f	-0.4681959
245	0xbd923c50	-0.0714041
246	0x3db73737	0.08946078
247	0x3dcd63a3	0.1002877
248	0x3d8f2693	0.06989779
249	0xbe995695	-0.2994887
250	0x3d57f239	0.052721236
251	0xbf016c79	-0.5055614
252	0xbe0832f1	-0.13300683
253	0x3d58f53e	0.052968256
254	0xbe0794ed	-0.13240404
255	0x3d8ae0ba	0.067811444

linear2.bias f4 [59]
0	0xbc83d5a2	-0.016093079
1	0xbc9f1e31	-0.019423576
2	0xbc6d52ff	-0.01448512
3	0xbc663acd	-0.014052105
4	0xbc663361	-0.014050336
5	0xbc9ed3a5	-0.01938803
6	0xbca9a111	-0.020706685
7	0xbca2867e	-0.019839521
8	0xbc64a4e1	-0.013955326
9	0xbc327cd3	-0.010894018
10	0xbc842a62	-0.016133491
11	0xbc94cdd4	-0.018164553
12	0xbc8c8448	-0.01715292
13	0xbc9a1bc4	-0.018812068
14	0xbc72182b	-0.01477627
15	0xbc2cf48a	-0.0105563495
16	0xbca8fc2e	-0.020628061
17	0xbc51d7b0	-0.012807772
18	0xbcabbe26	-0.020964693
19	0xbc8d3e73	-0.017241692
20	0xbc4e1219	-0.012577557
21	0xbc0d793e	-0.008634863
22	0xbcb9cc81	-0.022680523
23	0xbc8dfeff	-0.017333506
24	0xbc59fd9c	-0.013305094
25	0xbca8645e	-0.020555671
26	0xbc8f6511	-0.017504247
27	0xbc3f6939	-0.011682802
28	0xbc9642a0	-0.018342316
29	0xbc82ef7b	-0.015983334
30	0xbc8e98fd	-0.017406935
31	0xbc850ae7	-0.01624055
32	0xbc2e7e8d	-0.010650289
33	0xbc982c1b	-0.018575719
34	0xbc9bc229	-0.019013481
35	0xbc9a59e5	-0.018841693
36	0xbc651f5f	-0.01398453
37	0xbc90b90d	-0.017666364
38	0xbc84b029	-0.016197281
39	0xbc376f74	-0.011196006
40	0xbc86d3fc	-0.016458504
41	0xbca3fe58	-0.020018741
42	0xbc834ac3	-0.01602686
43	0xbc9b2d5e	-0.018942531
44	0xbc6071dc	-0.013699021
45	0xbc92e761	-0.017932596
46	0xbc8e1046	-0.017341744
47	0xbc947249	-0.018120902
48	0xbcbcc8c2	-0.023044948
49	0xbc7ac6d1	-0.015306191
50	0xbc193fc4	-0.009353582
51	0xbca8bcd7	-0.020597858
52	0xbc3ab6af	-0.011396094
53	0xbc88fbb8	-0.016721591
54	0xbc870fbc	-0.016486995
55	0xbc5042a9	-0.0127112055
56	0xbc4920c8	-0.012275882
57	0xbc9a2f01	-0.018821241
58	0xbc889cd7	-0.01667635
