intermediary/model_19100.pth (torch, 356400 bytes, 5 tensors)

embed.weight f4 [59, 128]
00000000: 02ba b0be 9874 613e 2ed1 9fbe 2cc9 afbe
00000010: fa55 b63e 12c4 c73e 159a babd 6636 e5be
00000020: 265d da3e 7ac7 ab3e 6740 5ebe 01bd c6be
00000030: 6823 8dbb 1b2f 72be c94f b2be 1364 b93e
00000040: 314e 3ebe e9de debe 50f3 b3be 9237 c73e
00000050: c32f ce3e 94c5 823e 3aac 6e3e 3d04 cd3d
00000060: 1b6a ac3e 465e d33e b1b9 b0be b58c 4b3e
00000070: 1582 58bb 5f5d d13e 0494 d43e 25f9 10be
00000080: 7c7d d7be 4c81 c6be d513 96be c6fd 84be
00000090: cde7 a93e 6fd1 f83e 1ed9 3f3e a1dc 8cbd
000000a0: 6e72 c5bd 0a29 a7be 7892 de3e 5ac6 8c3e
000000b0: 57db c53e 867a 8c3d 1f50 d93e 7c35 f63e
000000c0: c67a bcbe bbd2 8dbe 7013 fa3e 3b57 c43e
000000d0: 9a44 aebe 4624 c7be dcf1 a73e 29f4 963e
000000e0: 6536 c2be ae3b 473e 2536 75be acf9 b43e
000000f0: 0049 a4be 603c bc3e 244e e0be a690 c3be
00000100: bc8d abbe 5827 893e 4284 3cbe a905 b23e
00000110: 2505 ba3e 3f85 e7be 50c8 61be c935 cdbe
00000120: 97bf d7be 0322 d7be e838 5d3e 7d83 94be
00000130: ae62 f13e 66bd ac3e 56e2 6e3e 1860 d73e
00000140: fe0d aa3e 7870 acbe ad79 7ebe b15d f7be
00000150: a8fe ce3e 8d09 abbe 3099 33bc 218a c5be
00000160: 058a debe 3871 c43e f25b a73e b433 bdbe
00000170: 3710 c83e 6c6d f1be a046 b8be e1d5 af3e
00000180: 3856 833e f805 e43e d8a2 94be 25e0 a23e
00000190: ecb5 723e 7f82 e1be a892 93be fde9 583e
000001a0: ffab dd3e c97f ccbe efda df3e a790 e43e
000001b0: ccd4 933e e43b 98be 9064 d9be 7645 86be
000001c0: cca0 ae3e 5bb5 66be 2d14 dcbe 7296 d7be
000001d0: 1a4e b83e 64d0 cfbe 0537 083e c22e 97be
000001e0: ec42 dd3e e02e acbe dc77 b83e 825d b33e
000001f0: 490f d6be 41a7 893e dfe3 dd3e 26e8 f43e
00000200: aefc 383e 596c aa3e 467a 11be 3b5f e9be
00000210: 0b34 bcbe d494 50be ab36 f3bd de56 d5be
00000220: 5a3a 26be 9a88 e23e 8b17 c8be 9244 643e
00000230: a9d9 e13e b101 003f 6c86 a7be 3661 86bd
00000240: 22f9 763e 304a 603d 2108 c83e 1505 c4be
00000250: 9a71 c73e 2a70 c1be 3d05 d6be 8eca aabe
00000260: bdaa 56be 686c 08be c546 9d3e a0d9 ebbe
00000270: 8437 edbe 2adb 51be fff5 6ebe b3f2 c13e
00000280: 89c0 b83e aa2d e7be 789d f83e 498d d23e
00000290: 790a cebe e520 b1be e285 dfbe 9011 c43e
000002a0: 7a1c e93e de87 f33e f7e8 cabe 7069 cc3e
000002b0: 4e7a 91be 6693 d5be 7a7e 013f 3ac7 b63e
000002c0: cbbe edbd 79d0 e4be 3fd2 d13e 27ac c73e
000002d0: 2f80 d4be 5e79 673e 012c 90be 4563 9b3e
000002e0: 2517 afbe 6368 e9bd 6350 df3e a6bf f53d
000002f0: 17fa c23e 2294 a4be 846b d4be 0111 9fbe
00000300: 70ad b8bd 6e88 9d3e 80f4 df3e 42bd e23e
00000310: a44d cfbe aff1 d6be 2767 e73e ae73 c33e
00000320: c00e c63e 612f dd3d bee9 cabe ac70 c3be
00000330: f125 64be 9f7f 8d3e 9a19 a0be 1418 063e
00000340: d066 00bf e51d 9fbe 0bb4 563d f515 d9be
00000350: 3780 c4be 5bfe 8bbe 49f6 b3be 878c c2be
00000360: ae09 ba3e 9ff3 d3be 02d0 dfbe c89f 10be
00000370: 21f1 6e3e 1bce e5be 4586 bb3e 3da7 803e
00000380: 5270 e9bd bed8 65be c4cf 6e3e 6721 86be
00000390: 7571 c1be 31e3 813e 0eb9 49be 40b6 c4be
000003a0: 9604 68be 408f b83e 17be ed3e 8fa2 953e
000003b0: ee34 d8be c393 943e eaac af3e 6389 f2be
000003c0: 555f d3be cbbd db3e 6467 5f3e c3d8 d03e
000003d0: 006c d1be 8842 4ebe 0255 ab3e 78c0 b6be
000003e0: 0f0e 94be 28e8 d23e 3b19 ea3e f4e3 73be
000003f0: 9b25 7dbe ac48 b2be 0677 d83e cfef bdbe
-0.34516913 0.22017133 -0.3121428 -0.3433317 0.3561247 0.39016777 -0.0911142 -0.44768065
0.42649192 0.33550626 -0.21704255 -0.38816074 -0.0043071993 -0.23650782 -0.34826496 0.36209163
-0.18584515 -0.43529442 -0.3514657 0.38909584 0.40270814 0.25541365 0.23307887 0.10010574
0.33674702 0.41282862 -0.3451667 0.19877894 -0.003303652 0.4089155 0.41519177 -0.14157541
-0.42087924 -0.3877052 -0.29312006 -0.25974864 0.33184662 0.48597285 0.18735167 -0.06878019
-0.09640966 -0.32648498 0.43471122 0.2749508 0.38643906 0.06859307 0.4244394 0.4808768
-0.3681242 -0.27699837 0.48842955 0.38347802 -0.34036714 -0.38894862 0.32801712 0.29483154
-0.37932125 0.1945636 -0.23946436 0.35346735 -0.32086945 0.36764812 -0.43809617 -0.38196295
-0.33506572 0.2678783 -0.18409827 0.34769943 0.3633205 -0.45218846 -0.2204907 -0.40080097
-0.4213836 -0.42018136 0.2160374 -0.29006568 0.471456 0.3373825 0.23328528 0.420655
0.332138 -0.33679557 -0.24851103 -0.48313668 0.40428662 -0.33405724 -0.010961816 -0.38581946
-0.43464676 0.3836763 0.32687336 -0.3695351 0.3907487 -0.47153795 -0.35991383 0.34342864
0.25651717 0.44535804 -0.2903049 0.31811634 0.2370221 -0.44044873 -0.28822827 0.2118301
0.43295285 -0.39941242 0.4372172 0.4464161 0.2887329 -0.29733193 -0.42459536 -0.2622487
0.34107053 -0.22530119 -0.42984143 -0.42106968 0.35997087 -0.40588677 0.13302238 -0.2952786
0.4321512 -0.33629513 0.36028945 0.35032278 -0.41808537 0.26885417 0.43337914 0.47833365
0.1806514 0.33285788 -0.142068 -0.45580468 -0.36758456 -0.20369273 -0.118756615 -0.41667837
-0.16233197 0.44244844 -0.39080462 0.22291782 0.44111374 0.5000258 -0.32719743 -0.0656151
0.24118474 0.05475825 0.39068702 -0.38285127 0.3895386 -0.37780887 -0.41800871 -0.33357662
-0.20963569 -0.13322604 0.30718055 -0.46064472 -0.46331418 -0.2049376 -0.23336028 0.37880477
0.36084393 -0.45152026 0.4855764 0.41123417 -0.40242365 -0.3459541 -0.43656832 0.3829465
0.45529538 0.47564596 -0.39630863 0.39924192 -0.28413624 -0.4171402 0.5058361 0.35698873
-0.116086565 -0.44690302 0.40980718 0.3899853 -0.41504046 0.22604892 -0.28158572 0.30349174
-0.34197345 -0.11396863 0.43616018 0.11999445 0.38081428 -0.32144266 -0.41488278 -0.3106766
-0.090174556 0.3076815 0.43741226 0.44285017 -0.40488923 -0.41981265 0.45195886 0.38174194
0.38683128 0.108000524 -0.39631456 -0.381719 -0.22280098 0.2763643 -0.31269532 0.13095123
-0.5015688 -0.31077495 0.052417796 -0.42399564 -0.3837907 -0.27342495 -0.35148838 -0.3799784
0.3633551 -0.41396806 -0.43713385 -0.14123452 0.23334171 -0.44883808 0.36625877 0.25127593
-0.113983765 -0.22445962 0.23321444 -0.2619736 -0.37781873 0.25368646 -0.19699499 -0.38420296
-0.22658 0.3604679 0.4643409 0.29225585 -0.42227882 0.29018983 0.3431161 -0.47370443
-0.4128367 0.42918238 0.21816784 0.40790376 -0.4090271 -0.20142567 0.33463293 -0.35693717
-0.28916976 0.41192746 0.45722374 -0.23817426 -0.24721377 -0.3482107 0.42278308 -0.37097022

linear1.weight f4 [256, 256]
00000000: 4501 09be 9274 16be 8854 2b3e c078 ff3d
00000010: 8fa8 0cbe b83c 6d3d 5766 2c3e 5af3 383c
00000020: 5ca5 5cbe f87d 39bd e5a7 2d3e c42e 1ebe
00000030: 82d7 703c 1a27 65b9 d9f0 1dbe 0497 403e
00000040: b754 923d f8f3 133e 2083 5a3e 2c35 ec3d
00000050: 0ca4 a4bd 8668 c73d c2be e23c d3bf 0d3e
00000060: be59 11bd 9bb1 3ebe 2beb 36be c652 aebd
00000070: a8d8 e83d e02f 26bb bc44 d8bd dbd7 a8bb
00000080: dc81 fdbc a84f efbc d64b 47bb ff07 423e
00000090: 95af a73d 5379 fabd 74d8 5c3e dd75 55bd
000000a0: f3c7 b3ba 7563 883c 94bc 1bbe f501 85bc
000000b0: 6e7d 17be b746 12be a69d fcbd f75c 183d
000000c0: b5db 30be 32e0 a0bd 0b4d 46bd e342 36be
000000d0: 0f65 4e3d 077e 15be a515 27be 7925 17bd
000000e0: 0197 5a3d 12da 163b b888 fe3d 1b2b 713d
000000f0: f022 283e fec1 38bd 4962 243e 8b8e 9a3d
00000100: 1ae2 293e e86f edbd cd38 28be cf57 57be
00000110: 59c9 4bbd 3b87 4bbd 4435 03bc 3f88 afbd
00000120: f29f febd 300f 31be fecb 1f3e 28e9 463e
00000130: 3725 52be 69ed 44bd aef1 d4bc 75c7 0c3e
00000140: 04ed 01be 5d08 153e b4af 353e fb95 3e3e
00000150: 3c9c 6fbd f61d 883d f15e 643d f6cd cc3d
00000160: ea5b 053e a6eb 18be bb1c 27be efc3 333e
00000170: 75c9 813d f7a0 ac3d b984 4ebd 5381 e33c
00000180: 5feb 483c 2a9a 28bd f3d1 81bc 4e79 563d
00000190: 31cd 21be 3268 053d c7ae 583d 2cba 24be
000001a0: 6bfb c6bd 08fb af3c 887f 4fbd d530 42bd
000001b0: 5dd4 52be 9674 65be d098 053d 9d76 0f3e
000001c0: 78e7 5cbe 6654 a9bd 147c 1c3e 1280 bcbd
000001d0: 97fc 573e e7a7 5d3e 2d5b 82bc f27f d83c
000001e0: ba4f 913d 8cea eb3d cc43 43be 6bb4 35bd
000001f0: 42d2 0dbe d319 8abd 070a 0ebd bcd8 eebd
00000200: 39fa 07bc 2660 f43b 5507 e4bd 38c9 31be
00000210: ed54 393e e4cb 31be 97e3 0ebe 049b c3bc
00000220: 569e b33d 7b8a 1a3e e45d 13be 5a20 afbd
00000230: 2281 67be f338 5cbe 523c 213e 1d52 293c
00000240: e7c2 62be 172f cdbd 5505 75bd 55fa b83d
00000250: b9d1 40be 2ba8 d7bc 0df7 1b3e b59c 3c3d
00000260: 9cf9 34be ccf8 e33d 831c 06bc 92df e63d
00000270: d2fa 1cbe 9f2a 3dbe d427 5cbc 6091 5f3e
00000280: d143 54be f786 573e 4f2a f1bd c579 ddbb
00000290: db27 4abd 5d1f 033e 2a8a 4bbd 1e07 5a3e
000002a0: 19df 60be 838d bbbd 4043 a03d bb09 25be
000002b0: 5077 133e 12c0 cabc 0e89 25be 042e d7bd
000002c0: 29e8 223e 3643 b5bc cc9b 35be b6af 023e
000002d0: aab3 12be c3df bfbd 46f3 c83c 3645 35bd
000002e0: 8d02 ec3d 5c3a 18be 6737 55be be9e a6bd
000002f0: 56af 8d3c 5d86 0fbe 218a 523d bdaf 3d3e
00000300: 92c7 193d 0bcc 683d 434b c9bd 3964 d4bc
00000310: 6d5c d0bd 2293 bc3d dacf 0a3d 70fd dcbd
00000320: abf5 03be c20c 193e f4ae 1ebe 9e3c 983c
00000330: 029d 37bd d4cc 49be 5a48 14be de00 46be
00000340: 3f6c 303e 89f7 13bd 565c 3bbd 3814 983d
00000350: 43fe 663e b8db 2dbc 0bed 363e d79d b93d
00000360: c777 05be 628b ddbc bed9 673d 81da 743c
00000370: 32c8 54be 1bee 78bc b7bc e5bd 850b 8b3d
00000380: bd56 033d 9c1f 38bd 952e c43d f8c8 d3bd
00000390: 502b 0bbe b9ea c9bd 3cb2 5dbb 7ca3 85bd
000003a0: 65ae 4abd 3f9f 41be bc00 993c fb39 09be
000003b0: a19c 0f3d 5057 803d 3137 2dbe 73c5 213d
000003c0: 1000 2f3d 8bee a0bd 4a18 e03d 2fe5 d5bd
000003d0: 10c3 f33c 2103 db3b f1c5 5ebe 7c0b 1d3d
000003e0: dc0e f4bc 43ac 3bbe 131e bf3c 53cd 00be
000003f0: f8c3 28bc 413c 2abe 7222 083d 913d af3d
-0.1337939 -0.14692906 0.16731465 0.12474203 -0.13736175 0.057919234 0.16835915 0.011288488
-0.21547455 -0.04528615 0.16958578 -0.15447527 0.014699819 -0.00021853708 -0.15423907 0.18807608
0.07145064 0.14448535 0.21339083 0.11533579 -0.08039102 0.09736733 0.027678851 0.13842706
-0.035485975 -0.18622439 -0.17863147 -0.085118815 0.11369449 -0.0025358126 -0.10559985 -0.005152685
-0.03094571 -0.029212788 -0.0030410192 0.18948363 0.081877865 -0.12230172 0.21566945 -0.052114356
-0.0013716206 0.016648987 -0.15208656 -0.016236285 -0.14793941 -0.14284788 -0.123347566 0.037198033
-0.17271312 -0.07855262 -0.048413318 -0.17798953 0.050389346 -0.14598857 -0.1631685 -0.03690097
0.053366665 0.0023018164 0.12428421 0.058879 0.16419578 -0.04510688 0.16053118 0.07546719
0.16590157 -0.1159361 -0.16427918 -0.2102959 -0.049752567 -0.049689513 -0.008008305 -0.08570909
-0.12432851 -0.1729095 0.1560516 0.1942488 -0.20522009 -0.048077974 -0.025994148 0.13747962
-0.1268807 0.14553972 0.17742807 0.186119 -0.058498606 0.066463396 0.055754606 0.100002214
0.13023344 -0.14933643 -0.16319554 0.17555211 0.06337253 0.08429139 -0.050419543 0.027771628
0.012263148 -0.041162647 -0.015847182 0.05236178 -0.1580093 0.03257007 0.052901056 -0.16086644
-0.09715923 0.021482006 -0.050658733 -0.04740985 -0.20588823 -0.22407755 0.032616436 0.14010091
-0.21572673 -0.08268051 0.15281707 -0.09204115 0.21092449 0.21646081 -0.015912617 0.026428197
0.07095285 0.11519346 -0.19068831 -0.044361513 -0.13849738 -0.06743207 -0.03467753 -0.116624326
-0.008299404 0.007457751 -0.11134211 -0.17361915 0.18098803 -0.17362934 -0.13954006 -0.023877628
0.087704346 0.15091889 -0.14391285 -0.085510924 -0.22607854 -0.215061 0.15745667 0.010334519
-0.22144662 -0.10018747 -0.05981954 0.09032122 -0.18830003 -0.026325306 0.15230961 0.046047885
-0.17673343 0.111314386 -0.008185509 0.112731114 -0.15330055 -0.1847329 -0.01343723 0.218328
-0.20728995 0.21047579 -0.11775648 -0.006758901 -0.049354415 0.12804933 -0.04969231 0.21291777
-0.21960105 -0.091578506 0.07825327 -0.16116993 0.14400983 -0.02474979 -0.16165563 -0.10506824
0.15908875 -0.022126775 -0.17735213 0.12762341 -0.14326349 -0.09368851 0.024530064 -0.044255458
0.11523924 -0.14866012 -0.20821916 -0.081357464 0.01729552 -0.140161 0.05140126 0.1852407
0.03754384 0.056835216 -0.09828808 -0.025926696 -0.10173879 0.09207751 0.03388963 -0.10790527
-0.12886684 0.14946273 -0.15496427 0.018583592 -0.04482747 -0.19707042 -0.14480725 -0.19336268
0.17228793 -0.03612474 -0.045742355 0.074257314 0.2255793 -0.010611467 0.17863862 0.09063309
-0.13033973 -0.027044002 0.05660414 0.0149446735 -0.20779493 -0.0151934875 -0.11217635 0.067893066
0.032065142 -0.04495202 0.09579197 -0.10341066 -0.13590741 -0.09859223 -0.003382816 -0.06525323
-0.04948272 -0.18908404 0.018677108 -0.13401024 0.035061482 0.062666535 -0.16915585 0.039494943
0.04272467 -0.078579985 0.10942133 -0.10444104 0.029756099 0.0066837226 -0.21755196 0.03834103
-0.029792242 -0.18327431 0.02332977 -0.12578325 -0.010300629 -0.16624548 0.033235975 0.08556665

linear1.bias f4 [256]
00000000: 9f21 c83c b6c8 dc3c e06e 423b d85e 503b
00000010: b404 313c 1284 e63a bb4d 8c3b 0944 2d3c
00000020: baee 233c 1c71 b83b b141 963c a6b4 513c
00000030: dee2 8a3c 925b 203c 2be8 0c3d 682d 833c
00000040: 97e5 313c 8abc b3ba 3fd0 193b 692b 03bc
00000050: b9d6 873b 4825 aabb 31c0 863b 9773 c0bb
00000060: 00d5 df3c a9ed 253d 7a44 b23c 7f81 5c3c
00000070: 5831 083b a4c6 a13c 5868 673d 6b7c 9d3b
00000080: 0b6e 953c d18f 0d3c 5a67 c93b c053 973b
00000090: 36e2 b23b 9ce1 8e3c 4cd7 b2b9 6bf1 5a3c
000000a0: bc5b 473b 0a9d fc3b 3ec3 553c eb52 9b3c
000000b0: d0d6 3cbc 5e28 683b 06e3 d223 c608 cb3b
000000c0: 2b7a 013d 5e7c 943b f682 233c 8fe5 463a
000000d0: 76f9 71bc c3e7 c93c d4e5 4d3b f638 d9bb
000000e0: eebf c83b 33c6 2a3c 5263 173b c3e4 ef3a
000000f0: d143 593a 8013 123c e9cf 983c fdca e03c
00000100: d94b fa3b 128c fd3b c511 853b 2720 443d
00000110: 0215 0b3c 1486 ad3b 9aeb d43a d9cb 633c
00000120: eb3a 103c 1247 473c 1d26 433c ebe5 583c
00000130: f12b f13b ee9c 1121 4f51 7b3c fb37 1f3c
00000140: 2a8e b13c ab53 9d3c a964 8c3c 5922 1c3c
00000150: 6551 953b 5edd f33c 68af 833c 1c66 9d3b
00000160: 838e 8c3c b21c 543c 7686 9c3a d79d e23b
00000170: 8604 393c c24d cd3c 42f7 8d3c 63f1 423c
00000180: 99e7 973c 8c36 1f3c 1ce2 a13c b50e c13b
00000190: 4d67 243b b8dd 9d3b 0824 1d3c 6e28 803c
000001a0: 6188 9d3b 9c20 9f3b cdc8 173d 2fc0 623c
000001b0: ec1b f73a 3371 d03b f810 e03c 1802 fc3c
000001c0: a46a f73c 1d6d 8a3b 73c1 033d 651d 473c
000001d0: 1095 ea3c 0a6c 9b3c ac32 213d d6ca 343d
000001e0: 93dc a23c 4f91 6f3c af77 023c 7e17 513b
000001f0: 0aea 473c a1d9 d23c d7ec c93b 30b2 2425
00000200: a711 cc3c 60cc db3c 66aa c93c 5b78 da3b
00000210: ed0f e0ba 5542 a23c 7815 38b7 9a69 113d
00000220: f83c 3c3c bb59 553c a929 f53c c612 b33c
00000230: fd87 dd24 e8ca c13c a304 213c d831 823c
00000240: 7900 9e3c e1c1 e53b 4a3e 953b 2043 ef3b
00000250: 047d 973c 5d2f 823c 1c32 ea3b 99c2 d73c
00000260: 284f 823b 742c 1abb 5b8b 613b 79d3 a13c
00000270: e0ca 033b b5b2 cb3c b710 363d e5f0 2d3c
00000280: 0ce4 c43b 1cde 763b 8653 c0b7 9f88 6f3c
00000290: 3d1e df3b 43f9 873c ff2c a63c 878a af3c
000002a0: 3faa 45bb 75c1 423c 14f7 003d 94e6 9d3c
000002b0: b431 003d 193f d23b ac0c 783c ff65 aa3b
000002c0: da8a bcb9 5fcb 42bb f726 463c b292 653c
000002d0: 20aa f53b b8f6 05bb a154 c73b f0e3 a93c
000002e0: 8568 b93b 280d a63c 5631 2e3c 138d 633d
000002f0: 1826 6d3d f5ce 2f3d 18e6 573c 3398 abb9
00000300: 4553 81ba c36e 103c 39bc 023c a7a8 563d
00000310: 4604 033c dba8 d73b 7110 d13b 1717 8e3c
00000320: d106 fe3b 2d76 713c 62f3 133b 6ed9 233d
00000330: e4ab 913c 1c69 f03c 8f8a 843a 1a11 063d
00000340: d7a9 803c 9bb8 0f3c 2259 603c 6425 f4ba
00000350: c2d7 353d 6f31 203c da96 e8bb c25c f33b
00000360: a99f b13b d2d8 ce3b 1df8 7a3c fb48 d83b
00000370: b653 a93c ace1 beb9 4a1a 363d 5485 173b
00000380: b18b c93b 9dbe 393c f856 393d 7e1e 713c
00000390: 088f ef3b 5d7a 0a3c de51 b739 94f1 a03c
000003a0: dd1c 903b 7030 593c 1fe8 793c b250 a33c
000003b0: a3e2 983c 63ad 533c 3a25 a83b 8e51 cd3b
000003c0: 41e6 463c 6d33 a13c 9922 6dba cb19 913b
000003d0: 977d 3a3c 335b b83c ed59 b33c 26fd a13c
000003e0: 4c07 173d 4756 3eb8 b3c0 983b b894 a63b
000003f0: a361 5a3c c8f2 8b3c 3a67 7c3b 19ea 623d
0.024430094 0.026951175 0.0029668137 0.0031794813 0.010804344 0.0017586967 0.004281727 0.010575303
0.010005647 0.005628718 0.018341871 0.012799418 0.016953882 0.009787457 0.0344011 0.016012862
0.010857961 -0.0013712805 0.0023470072 -0.008005955 0.00414547 -0.0051924326 0.0041122665 -0.0058731544
0.027323246 0.040509854 0.021761168 0.013458609 0.0020781364 0.01974804 0.056495994 0.0048060915
0.01824095 0.008640246 0.0061463537 0.004618138 0.0054590954 0.017441563 -0.00034111214 0.013363223
0.0030419668 0.00770915 0.013047038 0.018960437 -0.011525825 0.0035424451 2.2864394e-17 0.0061961142
0.03161065 0.0045314273 0.009979954 0.00075873075 -0.014768949 0.024646645 0.0031417506 -0.0066291047
0.0061263954 0.010423231 0.002309997 0.0018302429 0.00082879985 0.008915782 0.018653827 0.027440542
0.0076384363 0.007737645 0.004060956 0.047882225 0.008488895 0.0052955244 0.0016244531 0.013903582
0.00880311 0.012162941 0.011910942 0.01323841 0.0073599746 4.9335606e-19 0.01533921 0.009717937
0.021674234 0.019204935 0.017137842 0.0095296735 0.004556822 0.029768642 0.016074851 0.004803432
0.017157799 0.012946295 0.0011941928 0.0069157886 0.011292582 0.025061492 0.017329816 0.011898371
0.018543052 0.009717595 0.019761138 0.005891646 0.0025085986 0.0048176907 0.00959111 0.015644278
0.0048075174 0.0048561823 0.037056733 0.013839765 0.0018852926 0.0063611506 0.027351841 0.030762717
0.030202217 0.004224433 0.03216691 0.012153004 0.028635532 0.018972415 0.039354965 0.044138752
0.019880569 0.014622047 0.007963105 0.0031904872 0.012201795 0.02573854 0.0061622667 1.4285105e-16
0.024910761 0.026830852 0.024617385 0.0066671795 -0.001709459 0.01980702 -1.0972253e-05 0.0355011
0.011489145 0.013021882 0.029927092 0.021859538 9.6073845e-17 0.023656324 0.009827766 0.015892908
0.019287335 0.0070116376 0.0045545446 0.007301703 0.01849223 0.015891725 0.007147087 0.026337909
0.0039767213 -0.0023525031 0.0034415338 0.019754158 0.0020109937 0.024865488 0.044449534 0.010616516
0.0060086306 0.0037669009 -2.2927077e-05 0.014619975 0.0068090246 0.01659835 0.020285128 0.02142836
-0.003016129 0.011886944 0.031485632 0.019274987 0.0312974 0.0064162132 0.01513974 0.005200147
-0.00035961607 -0.002972327 0.012094251 0.014012026 0.007497087 -0.0020441245 0.0060830866 0.020738572
0.0056582117 0.020269945 0.01063188 0.05555446 0.057897657 0.04292198 0.013177417 -0.0003272906
-0.0009866735 0.00881547 0.007979446 0.052406933 0.007996624 0.0065814084 0.006380134 0.017344994
0.0077522774 0.014737648 0.0022575487 0.04000228 0.01778216 0.029346995 0.0010112094 0.032731153
0.015705986 0.008772041 0.013693126 -0.0018626866 0.044395216 0.009777411 -0.007098061 0.007426829
0.0054206443 0.006312468 0.015317944 0.006600497 0.0206698 -0.00036407763 0.044458665 0.0023120241
0.0061506857 0.01133695 0.045248955 0.014716743 0.007310752 0.008452025 0.00034965476 0.019646443
0.004397972 0.013256177 0.015253096 0.01993594 0.018662756 0.012919757 0.005131391 0.0062658256
0.012139858 0.019677842 -0.0009045988 0.0044281236 0.011382482 0.022504425 0.021893466 0.01977403
0.036872193 -4.5379882e-05 0.0046616434 0.0050836466 0.0133289425 0.01708354 0.0038513676 0.055399034

linear2.weight f4 [59, 256]
00000000: e20d 613d 90cc 443d 1908 ac3d 2adc 0c3e
00000010: bef8 283d 62fd 963d dddb 09bf dc3b 5a3d
00000020: 9cb7 bbbc 2f97 563d 60d0 6c3d 538d b13d
00000030: 2796 f9be 84f5 0f3d 0574 643d 1f7c 8f3d
00000040: 6941 593d 7a9e 08bd 4202 12bf 2672 873d
00000050: 79fd 9c3d a111 a4be 1daa 353d e3f0 613d
00000060: 208d 653d 1348 fbbe 949d d63d 2814 49bd
00000070: 2fbe e7be 1bee a1bd eb4b f7be 1f47 76be
00000080: 5c3f 6d3d 7458 00be 26a0 62be b62e 213d
00000090: 9551 b43d 9cda ac3d 5560 a43c b4df 8cbe
000000a0: 1d10 2fbe e937 f3be bcd8 94be c8ed 653d
000000b0: 1413 643d 3d0e 9c3d 9295 d0a5 6a0a 713d
000000c0: 94a8 063e 1ffd e4be 0a96 733d e012 983d
000000d0: 1f15 923d 2484 14bf bb0f 2fbe 1d26 08bd
000000e0: 799b 1dbe 9386 bfbe 17ea f8be 334c e7be
000000f0: 3d64 6fbe 7a7f 6d3c a1df 963d ab5a 9b3d
00000100: 05c9 c03d fa58 ad3d 6d20 373d ccb4 5ebd
00000110: a4bb 633c b492 353d 6350 10bd 5c96 953d
00000120: a481 8e3d 0cd0 00be 2b20 ccbc f357 943d
00000130: 3937 943d 3570 85a2 4010 e83d ba1b 9c3d
00000140: 0348 43be 41d9 d63c 4a0e 943d f517 ebbe
00000150: bd80 ed3d 9ab8 6a3d 2661 a43d d28b d6be
00000160: f7af d0bc b7a5 c93d fb99 8c3c 8cb1 92be
00000170: ff2d 4dbc b2dc aebe 5898 89be 8280 68bd
00000180: 7f13 373d 7e13 98be c12f fa3d 1901 63be
00000190: d8ec 8cbe b9bd 393d 3b49 afbe fa92 43bc
000001a0: 35a7 863d 14d7 e1be d9cf 683d dc5d ecbe
000001b0: 1cf1 ef3c 635a 483d 4105 c03c f14e 00be
000001c0: 9ef2 95bd 9245 c93d 1ac5 2b3d 0048 7d3c
000001d0: 3fcc 933d 0abe 273d 4d2e bb3d b62a ca3d
000001e0: 78a7 8a3d d6da 67be 4458 9b3c fc16 3cbd
000001f0: fdfd 6a3d eb91 ab3d 56fc babe 65dc 9325
00000200: 76de 7b3d 2953 8b3d bf1f 86be bcb9 debd
00000210: f76c 87bb a73e 0a3d 63bd 57be 697b 20bd
00000220: 5dbe a43d fbeb 4abe 7f37 12be a121 c93d
00000230: 32ab 8d26 4196 b8be b49b 40ba 13b6 88bb
00000240: 5067 a33d 8859 d73d 9efa bd3c 2875 cdbe
00000250: 22a2 1bbe a6a4 a63d a516 febe cc3e 82be
00000260: d874 303d 1d92 c33d 6c51 af3d 3aaa 07bd
00000270: b0cc 07bf 93ee 86be 3ff3 f4be f7b7 bf3d
00000280: 6ae7 d33d 3a9f 6dbe bc21 a53d 2315 03bc
00000290: c468 683d ca03 f23d ef9b e6bb 8875 8c3d
000002a0: 5e32 bfbe eb03 423d 0153 00bf 6171 bd3d
000002b0: 6b31 683c 68cd 98be eff1 d3bc 3d99 5cbe
000002c0: 392b 543d ba01 15bb 419e f63d f205 34bd
000002d0: 7f40 803d b63f 1f3d 8ce4 203d 7c75 9ebe
000002e0: 7490 463d 898a 3ebd 7c84 9e3d d525 f1be
000002f0: 6318 fabd ee07 0dbd d411 d03d 09cb 8f3d
00000300: 2b37 31ba f2ce d7bd b87d 8c3d 320c 0ebd
00000310: cbef c0bd dda8 92be af14 c4bd 62a1 adbe
00000320: 8a5a 0f3d 46c6 13be bc9f f9be d003 18bf
00000330: f885 2fbd fcba 5a3d 4d4c 2b3c c107 8e3d
00000340: 4a0a 463d 5ede 203c c8fc a93d ffbd 303e
00000350: fb32 ca3d 6951 d23d 357a 2c3e 924d a73d
00000360: 830b 03be f9c1 913d 3743 803d feaf 92be
00000370: 02d0 233d 1d6c 53be 0c30 ca3d 8eae 36bd
00000380: 5440 703d 97df 5cbe 690a b63d 289f bb3d
00000390: a972 c93d 0404 ac3c 0464 4d3d 9a02 3b3d
000003a0: dd46 e3be 9098 893d cbbe 553d 9dc3 7c3d
000003b0: ceab 7e3d f438 2e3d 46bb 013d 4655 673d
000003c0: 9eff 3e3d 9138 133d c07e 3ebd 05c8 493b
000003d0: ae3b f4be 0b66 8dbd 1995 ba3d 6534 cf3d
000003e0: f10f 903d 700d 9abe 4bca 343d 345e 01bf
000003f0: b8e3 40be 18be 543d 726d 06be b123 883d
0.05494488 0.04804665 0.08399982 0.13755861 0.041252844 0.07372548 -0.5385111 0.053279743
-0.0229147 0.052390274 0.05781591 0.086695336 -0.4874737 0.03514625 0.055774707 0.07006096
0.053040896 -0.03335426 -0.57034695 0.06613569 0.076655336 -0.320447 0.044351686 0.055161368
0.05604279 -0.49078426 0.104792744 -0.049091488 -0.45262286 -0.07906743 -0.48300108 -0.24050568
0.057921752 -0.12533742 -0.22131404 0.039351188 0.08804623 0.08440134 0.020065466 -0.27514422
-0.1709599 -0.47503594 -0.29071605 0.05613497 0.055682257 0.07619903 -3.61836e-16 0.058847822
0.13150245 -0.44724366 0.05946926 0.07425475 0.07132935 -0.5801413 -0.17095844 -0.033239473
-0.1539134 -0.3740736 -0.48616096 -0.45175323 -0.23378082 0.014495725 0.073668726 0.07585653
0.094133414 0.084642366 0.044708658 -0.05437164 0.0138997175 0.04432936 -0.035232913 0.073040694
0.06958321 -0.12579364 -0.024917683 0.072433375 0.072370954 -3.6168526e-18 0.113312244 0.07622476
-0.19070439 0.026226642 0.07229288 -0.45916715 0.115968205 0.057304956 0.08026342 -0.4190355
-0.025474532 0.09846061 0.017163267 -0.28651083 -0.012523173 -0.34152752 -0.26874042 -0.05676318
0.044696327 -0.2970237 0.122161396 -0.22168387 -0.27524447 0.04534695 -0.34235558 -0.011936897
0.06574861 -0.44109404 0.056838844 -0.4616536 0.029289775 0.048914324 0.023440005 -0.12530114
-0.07321666 0.098277226 0.041936018 0.015459061 0.07216691 0.04095272 0.091396905 0.09871428
0.067702234 -0.22642073 0.018962987 -0.045920357 0.05737113 0.08377441 -0.36520642 2.564978e-16
0.061491452 0.06802971 -0.26196095 -0.1087527 -0.0041328627 0.033751156 -0.21068339 -0.039180193
0.080441214 -0.19816582 -0.14278983 0.09820867 9.830243e-16 -0.36052135 -0.00073474203 -0.0041720956
0.0797869 0.105151236 0.023190793 -0.40128446 -0.15198568 0.08136873 -0.4962665 -0.25438535
0.04308018 0.09549353 0.08560452 -0.033121325 -0.53046703 -0.26353893 -0.47841832 0.093612604
0.10346873 -0.23205271 0.08063075 -0.008000645 0.056740537 0.11817129 -0.0070376317 0.06858355
-0.37343115 0.047367018 -0.50126654 0.09250141 0.014171938 -0.29844213 -0.025872199 -0.21542831
0.051799033 -0.0022736625 0.12041903 -0.043950982 0.06262302 0.03887912 0.03928046 -0.30949008
0.048477605 -0.046518836 0.07740113 -0.47099176 -0.12211683 -0.03443139 0.101596504 0.07021148
-0.0006760235 -0.105375186 0.068599164 -0.0346796 -0.09420737 -0.28644457 -0.095742576 -0.33912188
0.034998454 -0.14431104 -0.4875468 -0.5938082 -0.042852372 0.05340098 0.010455203 0.06935073
0.048349656 0.0098186415 0.08300167 0.17259978 0.09873005 0.10269434 0.16843493 0.08169092
-0.1279736 0.071170755 0.0626282 -0.28649896 0.039993294 -0.2064671 0.098724455 -0.044600062
0.058655098 -0.21569668 0.08888704 0.09161216 0.09836323 0.020998009 0.05014421 0.045656778
-0.44390002 0.06718552 0.052183907 0.06170999 0.062175564 0.042534783 0.03167274 0.056477807
0.046630494 0.035942618 -0.046507597 0.0030789387 -0.47701782 -0.06904229 0.09110469 0.10117415
0.070342906 -0.30088377 0.044138234 -0.5053437 -0.18836868 0.0519391 -0.13127688 0.066474326

linear2.bias f4 [59]
00000000: 37a1 75bc 1b5b a2bc 2518 80bc e055 70bc
00000010: 8454 74bc 01d0 9abc bee9 aabc cd66 9cbc
00000020: cb92 62bc 641d 4cbc 3ffa 86bc baf9 83bc
00000030: 53ee 82bc b2e2 8fbc f9c9 56bc 6340 2cbc
00000040: e4cf 9ebc 243c 5cbc c7d9 9dbc dca2 81bc
00000050: c6fc 48bc 4f94 36bc 3099 b2bc 5d95 86bc
00000060: 1df8 4cbc 8c5c abbc f719 a1bc fb82 46bc
00000070: 64c3 8cbc a03b 74bc cac0 8abc 5898 83bc
00000080: 5049 1bbc b32c 8ebc f275 90bc ec9e 8dbc
00000090: 25ec 4bbc ef58 8bbc a0b3 91bc 7326 4bbc
000000a0: 1b35 92bc d06b a7bc 2aa3 8abc a24e a1bc
000000b0: 72a3 6abc 95cd 99bc aa8c 99bc 6398 8ebc
000000c0: 6ce2 afbc 3316 72bc 95e4 27bc 1389 a4bc
000000d0: 1f95 2ebc 3fdd 8abc f4db 7fbc b274 53bc
000000e0: d904 3cbc db78 94bc eacc 92bc
-0.01499205 -0.019818833 -0.015636513 -0.014668912 -0.014912728 -0.018898012 -0.02086341 -0.019091988
-0.0138289435 -0.012458179 -0.016476749 -0.01611029 -0.015982782 -0.017564151 -0.0131096775 -0.010513398
-0.01938624 -0.013442073 -0.019268883 -0.015824728 -0.012267297 -0.011143758 -0.021801561 -0.016428644
-0.012510327 -0.020918153 -0.019665701 -0.012116189 -0.017183013 -0.014906794 -0.016937632 -0.016063854
-0.009477928 -0.017355299 -0.017634366 -0.017287694 -0.012446438 -0.01701018 -0.017785847 -0.012399304
-0.017847588 -0.020437151 -0.016923506 -0.019690815 -0.014321195 -0.018774787 -0.018743832 -0.017406648
-0.021470271 -0.0147758005 -0.010247369 -0.020084893 -0.01065567 -0.016951201 -0.015616406 -0.01290624
-0.011475765 -0.018124035 -0.017919976
