intermediary/model_18550.pth (torch, 356400 bytes, 5 tensors)

embed.weight f4 [59, 128]
-0.3469816 0.21966189 -0.32232696 -0.34171158 0.35814604 0.39124018 -0.09112642 -0.44744563
0.42676613 0.3335239 -0.2286856 -0.3883703 -0.0022548265 -0.23490775 -0.3477598 0.36496186
-0.18734907 -0.4378694 -0.3507875 0.39035952 0.40172848 0.25069642 0.22791217 0.108479425
0.3334518 0.4159003 -0.3467261 0.20280719 0.0017690463 0.4090304 0.41397446 -0.13940261
-0.42262045 -0.3878741 -0.29430574 -0.25880584 0.3281925 0.48772687 0.18828209 -0.06898225
-0.09279137 -0.3239717 0.43668067 0.27313867 0.3903803 0.06988404 0.42405728 0.4812848
-0.36749226 -0.28104997 0.48958543 0.3855795 -0.3391585 -0.3892158 0.32829878 0.29619855
-0.37950483 0.19719294 -0.24483101 0.35495585 -0.31754744 0.36737528 -0.43827057 -0.38102552
-0.33554593 0.26079363 -0.18347807 0.347149 0.36367193 -0.4518353 -0.21550117 -0.40325773
-0.42214316 -0.4202303 0.21696815 -0.28855503 0.47263142 0.33245537 0.23080142 0.41985628
0.33384782 -0.33417016 -0.24613017 -0.4858136 0.40705314 -0.33116356 -0.006184366 -0.38420692
-0.43663338 0.3854085 0.32623464 -0.37295577 0.39016488 -0.47337294 -0.36014366 0.34517908
0.2615599 0.4479473 -0.289728 0.317542 0.23579556 -0.44240886 -0.285157 0.20873217
0.43369552 -0.3999838 0.43767715 0.4451383 0.28787634 -0.2973074 -0.4259074 -0.25516212
0.34144163 -0.22684643 -0.43155712 -0.42201057 0.36136696 -0.40532917 0.13049024 -0.29307505
0.4343732 -0.3378606 0.35751158 0.34975824 -0.4177511 0.2665202 0.4352443 0.4800386
0.1791612 0.3310654 -0.13416396 -0.45556587 -0.37043765 -0.20120366 -0.119709894 -0.4156354
-0.16713057 0.44261461 -0.39011535 0.22238678 0.44093055 0.5014078 -0.3224238 -0.034359705
0.24083625 0.05045228 0.38773108 -0.383301 0.3896561 -0.3776685 -0.41785288 -0.3324252
-0.2113931 -0.12472108 0.30259255 -0.46435028 -0.46247527 -0.20278503 -0.23116805 0.3794939
0.36245388 -0.45438462 0.48888648 0.41131398 -0.39824802 -0.34700316 -0.4352542 0.38316888
0.4554684 0.47669053 -0.3967755 0.40022042 -0.27773762 -0.4182593 0.5060908 0.35861227
-0.11577632 -0.44576347 0.4101525 0.38939592 -0.41341597 0.22605191 -0.2802259 0.30478275
-0.34305164 -0.10443064 0.43479362 0.1110979 0.38126624 -0.31965542 -0.41528228 -0.31360662
-0.09447102 0.30821818 0.43627727 0.44610682 -0.40131333 -0.4180913 0.45114467 0.3826151
0.38620138 0.10789225 -0.39726487 -0.3821514 -0.22006766 0.27720168 -0.31316596 0.13261162
-0.50234145 -0.31123066 0.052346867 -0.42448348 -0.38233042 -0.2715783 -0.34850535 -0.3840311
0.36453253 -0.41237566 -0.43746528 -0.13635422 0.23474294 -0.44790068 0.36636624 0.24924327
-0.10702685 -0.22502574 0.23007488 -0.26327327 -0.37733224 0.25203824 -0.19506884 -0.38319287
-0.22942571 0.36375633 0.46255243 0.28821582 -0.42282248 0.28996977 0.34414244 -0.47572497
-0.41277567 0.43107292 0.217166 0.40818292 -0.40864852 -0.20346616 0.33785206 -0.35662767
-0.28598785 0.4106754 0.45760155 -0.23506042 -0.25107458 -0.34942114 0.4229909 -0.37361532
00000000: 93a7 b1be 0cef 603e 0a08 a5be d2f4 aebe
00000010: eb5e b73e a250 c83e 7da0 babd 9817 e5be
00000020: 1781 da3e a5c3 aa3e 8f2c 6abe 79d8 c6be
00000030: b6c5 13bb a88b 70be 930d b2be 48dc ba3e
00000040: 6fd8 3fbe 6b30 e0be 6b9a b3be 34dd c73e
00000050: 5baf cd3e 485b 803e cf61 693e 762a de3d
00000060: 32ba aa3e e2f0 d43e 1586 b1be b0ac 4f3e
00000070: 58df e73a 6f6c d13e 76f4 d33e 8fbf 0ebe
00000080: b561 d8be 6f97 c6be 3eaf 96be 3382 84be
00000090: d908 a83e 56b7 f93e 05cd 403e 9146 8dbd
000000a0: 6709 bebd 9edf a5be 9c94 df3e d5d8 8b3e
000000b0: eddf c73e 5d1f 8f3d 091e d93e f66a f63e
000000c0: f227 bcbe c8e5 8fbe f1aa fa3e ad6a c53e
000000d0: 2fa6 adbe 4b47 c7be c716 a83e 56a7 973e
000000e0: 754e c2be f2ec 493e fbb4 7abe c6bc b53e
000000f0: 9495 a2be 9d18 bc3e 0065 e0be c715 c3be
00000100: adcc abbe be86 853e ade1 3bbe 84bd b13e
00000110: 3533 ba3e f556 e7be 57ac 5cbe cc77 cebe
00000120: 2623 d8be 6d28 d7be e62c 5e3e 7cbd 93be
00000130: bffc f13e 9737 aa3e 3557 6c3e 67f7 d63e
00000140: 1aee aa3e 5a18 abbe 8c09 7cbe 8fbc f8be
00000150: 4569 d03e 458e a9be 39a6 cabb c5b6 c4be
00000160: 698e dfbe 4354 c53e 3a08 a73e 0ff4 bebe
00000170: b1c3 c73e f05d f2be c064 b8be 50bb b03e
00000180: 2eeb 853e 5959 e53e 3a57 94be dd94 a23e
00000190: 6474 713e 6a83 e2be 1900 92be e3bd 553e
000001a0: 570d de3e adca ccbe 3817 e03e 2be9 e33e
000001b0: 8764 933e ad38 98be 8910 dabe 9ca4 82be
000001c0: 70d1 ae3e 6e4a 68be 0ef5 dcbe c511 d8be
000001d0: 1705 b93e 4e87 cfbe 3c9f 053e ef0d 96be
000001e0: 2a66 de3e 11fc acbe c20b b73e 8313 b33e
000001f0: 79e3 d5be 5675 883e 57d8 de3e 9fc7 f53e
00000200: 0976 373e 6781 a93e 4762 09be ee3f e9be
00000210: 01aa bdbe 5508 4ebe 762a f5bd 2ace d4be
00000220: 4724 2bbe 629e e23e 33bd c7be 5cb9 633e
00000230: a6c1 e13e 435c 003f bb14 a5be c3bc 0cbd
00000240: c79d 763e 0da7 4e3d b084 c63e 0740 c4be
00000250: 0181 c73e c45d c1be d0f0 d5be a333 aabe
00000260: 6f77 58be c46d ffbd 69ed 9a3e 52bf edbe
00000270: 8fc9 ecbe e1a6 4fbe 51b7 6cbe 064d c23e
00000280: 8e93 b93e 1aa5 e8be 544f fa3e bf97 d23e
00000290: 2ae7 cbbe 66aa b1be a3d9 debe b62e c43e
000002a0: 2733 e93e c810 f43e 2926 cbbe b1e9 cc3e
000002b0: a033 8ebe 1526 d6be 2b8f 013f 079c b73e
000002c0: 231c edbd 1c3b e4be 82ff d13e e75e c73e
000002d0: 42ab d3be 277a 673e c579 8fbe 7c0c 9c3e
000002e0: 77a4 afbe bbdf d5bd 459d de3e 4c87 e33d
000002f0: 5435 c33e e0a9 a3be e19f d4be 0c91 a0be
00000300: 067a c1bd c6ce 9d3e bc5f df3e 1d68 e43e
00000310: f178 cdbe 1010 d6be 6ffc e63e 20e6 c33e
00000320: 30bc c53e 9df6 dc3d 4d66 cbbe 59a9 c3be
00000330: 6b59 61be 61ed 8d3e 4a57 a0be 57cb 073e
00000340: 7399 00bf a059 9fbe ab69 563d e655 d9be
00000350: d0c0 c3be 500c 8bbe 4b6f b2be b99f c4be
00000360: 02a4 ba3e e722 d3be 73fb dfbe 71a0 0bbe
00000370: 7460 703e 3d53 e5be 5b94 bb3e a139 7f3e
00000380: e530 dbbd 266d 66be c098 6b3e c1cb 86be
00000390: b131 c1be 280b 813e 20c0 47be db31 c4be
000003a0: 93ee 6abe 453e ba3e acd3 ec3e 0691 933e
000003b0: 307c d8be eb76 943e 7033 b03e 3992 f3be
000003c0: 5557 d3be 97b5 dc3e c460 5e3e 5afd d03e
000003d0: 613a d1be 6f59 50be f2fa ac3e e797 b6be
000003e0: 006d 92be 0c44 d23e c04a ea3e aeb3 70be
000003f0: d98c 80be 54e7 b2be 4392 d83e 824a bfbe

linear1.weight f4 [256, 256]
-0.13299653 -0.14475833 0.16491207 0.12802666 -0.13925248 0.055454295 0.16932572 0.009884188
-0.2148151 -0.043110624 0.17295483 -0.15505415 0.014545212 0.0027055421 -0.15452653 0.18347639
0.07133238 0.14448577 0.21115956 0.114263706 -0.08126104 0.09894981 0.028911633 0.13510366
-0.030035159 -0.18751119 -0.17910871 -0.085546196 0.11317207 -0.0025950668 -0.105543405 -0.0055344575
-0.02906299 -0.028748158 0.00011190299 0.18793766 0.08349011 -0.123941325 0.21499899 -0.05410561
0.0009667042 0.017573668 -0.15446538 -0.015294141 -0.14674588 -0.14232579 -0.120050244 0.035100758
-0.17525621 -0.081099086 -0.047522645 -0.17979953 0.05114311 -0.1458484 -0.163387 -0.031826798
0.05231346 0.0033561313 0.12600142 0.061417338 0.16461077 -0.045207586 0.15946324 0.07744689
0.16797112 -0.11709872 -0.16512278 -0.21188594 -0.049363103 -0.050325014 -0.008325474 -0.08462902
-0.12281435 -0.17338304 0.15598045 0.19522151 -0.20207569 -0.04821237 -0.026564538 0.1375665
-0.12777062 0.14739123 0.1794773 0.18699674 -0.059394564 0.06536353 0.052650724 0.09874237
0.13001661 -0.1507604 -0.16364942 0.17508297 0.06278618 0.086297035 -0.050175026 0.024786986
0.015066985 -0.04084811 -0.014553946 0.0531854 -0.15824986 0.034267295 0.05141846 -0.15812229
-0.09805389 0.02173652 -0.04991469 -0.04521674 -0.20599627 -0.22288033 0.03403763 0.13850811
-0.2184086 -0.081901625 0.15046278 -0.09282984 0.20982066 0.21597584 -0.017238628 0.030081816
0.073377065 0.11685597 -0.1895225 -0.044155683 -0.138616 -0.06750863 -0.035797257 -0.11734934
-0.00870746 0.0067132087 -0.10821046 -0.17171183 0.18024474 -0.1741992 -0.13913482 -0.02283068
0.087277316 0.14891423 -0.14662553 -0.08541945 -0.22663069 -0.21431787 0.15423824 0.008808392
-0.2209034 -0.09874849 -0.058206793 0.09146433 -0.18955912 -0.026854197 0.1548449 0.04575317
-0.17730208 0.108892046 -0.010666449 0.113819204 -0.15364075 -0.18567517 -0.0146014 0.2180114
-0.20578532 0.20999864 -0.11923696 -0.0068154973 -0.053924408 0.12758696 -0.04901954 0.21291542
-0.21901721 -0.09122021 0.07826184 -0.16246316 0.14111191 -0.024611501 -0.16319844 -0.10580967
0.1575269 -0.02372631 -0.18014137 0.12608722 -0.14200841 -0.094216175 0.025017364 -0.046561062
0.1171094 -0.14937311 -0.20747182 -0.08242035 0.017235236 -0.14053823 0.054574825 0.18580037
0.038797125 0.05406771 -0.098265365 -0.023198627 -0.10683473 0.09328166 0.03499943 -0.10830307
-0.13058448 0.15018772 -0.1544961 0.020012192 -0.04771981 -0.19799605 -0.14316946 -0.19506855
0.16868442 -0.035340685 -0.045311272 0.076492526 0.2246827 -0.0070562074 0.18058614 0.09254836
-0.1316093 -0.029947193 0.056168616 0.012940578 -0.2079163 -0.014624334 -0.11140935 0.068997495
0.03125361 -0.045144927 0.09705991 -0.102103956 -0.13679704 -0.09830384 -0.0017655074 -0.06716379
-0.04864467 -0.18739465 0.016520178 -0.13638613 0.035941336 0.059341718 -0.16787042 0.040726744
0.04350603 -0.08065913 0.10916961 -0.105108924 0.029936641 0.008507701 -0.21955109 0.03862898
-0.03144151 -0.18421194 0.020875348 -0.12697834 -0.00861543 -0.16478492 0.031732783 0.08646733
00000000: 3e30 08be 873b 14be b6de 283e 6c19 033e
00000010: 3498 0ebe 0b24 633d b963 2d3e 4af1 213c
00000020: 7df8 5bbe c494 30bd 121b 313e 84c6 1ebe
00000030: 0a4f 6e3c 774f 313b 343c 1ebe 3ce1 3b3e
00000040: b616 923d 14f4 133e 363a 583e 1703 ea3d
00000050: 306c a6bd 33a6 ca3d 17d8 ec3c 9d58 0a3e
00000060: 4b0c f6bc ef02 40be 4668 37be d832 afbd
00000070: c2c6 e73d ff11 2abb 2427 d8bd 655a b5bb
00000080: 8215 eebc 4281 ebbc 76ad ea38 bb72 403e
00000090: ddfc aa3d f3d4 fdbd b228 5c3e d89d 5dbd
000000a0: 6c6a 7d3a a7f6 8f3c 2c2c 1ebe 4794 7abc
000000b0: 8d44 16be dabd 11be e7dc f5bd d0c5 0f3d
000000c0: 5d76 33be 4717 a6bd 1ba7 42bd 5e1d 38be
000000d0: 707b 513d 4859 15be ec4e 27be d15c 02bd
000000e0: a346 563d 8af2 5b3b 8406 013e bf90 7b3d
000000f0: ba8f 283e 972b 39bd 554a 233e 7a9c 9e3d
00000100: 9f00 2c3e 74d1 efbd f215 29be a1f8 58be
00000110: f730 4abd 9a21 4ebd 9267 08bc fb51 adbd
00000120: 1786 fbbd 538b 31be 57b9 1f3e 26e8 473e
00000130: eeec 4ebe 567a 45bd e09d d9bc 3cde 0c3e
00000140: 4dd6 02be baed 163e e6c8 373e 137c 3f3e
00000150: b747 73bd 50dd 853d 49a8 573d 7139 ca3d
00000160: 1323 053e ef60 1abe b793 27be f348 333e
00000170: 0a96 803d 80bc b03d 5484 4dbd 140e cb3c
00000180: 84db 763c 5950 27bd ad73 6ebc efd8 593d
00000190: 400c 22be dd5b 0c3d 2a9c 523d cfea 21be
000001a0: 7ad0 c8bd c910 b23c 5973 4cbd 3035 39bd
000001b0: b0f0 52be be3a 64be 0b6b 0b3d 12d5 0d3e
000001c0: 81a6 5fbe 0abc a7bd ea12 1a3e 921d bebd
000001d0: 3adb 563e c528 5d3e 0638 8dbc 246e f63c
000001e0: b746 963d 2f52 ef3d 3012 42be 97dc 34bd
000001f0: 5af1 0dbe f741 8abd 25a0 12bd da54 f0bd
00000200: bca9 0ebc 7afa db3b 729d ddbd 3ad5 2fbe
00000210: 1492 383e 4661 32be 5c79 0ebe 6807 bbbc
00000220: 73be b23d f97c 183e 0125 16be 65f0 aebd
00000230: e011 68be 2576 5bbe a1f0 1d3e 1351 103c
00000240: 8034 62be a63c cabd 3f6a 6ebd a751 bb3d
00000250: c91b 42be 55fd dbbc a98f 1e3e ad67 3b3d
00000260: ad8e 35be cb02 df3d 54c2 2ebc 0b1a e93d
00000270: 0054 1dbe a221 3ebe b63a 6fbc 613e 5f3e
00000280: 63b9 52be e209 573e 8232 f4bd 8954 dfbb
00000290: d7df 5cbd 28a6 023e b7c8 48bd 8006 5a3e
000002a0: 0c46 60be a9d1 babd be47 a03d be5c 26be
000002b0: a47f 103e 0f9e c9bc 7e1d 27be beb2 d8bd
000002c0: bb4e 213e ae5d c2bc fb76 38be 021d 013e
000002d0: a76a 11be 69f4 c0bd 37f1 cc3c d0b6 3ebd
000002e0: 0ed7 ef3d 44f5 18be 7e73 54be 00cc a8bd
000002f0: e930 8d3c 41e9 0fbe da89 5f3d 7442 3e3e
00000300: bce9 1e3d 1a76 5d3d 5a3f c9bd 0c0b bebc
00000310: 2bcc dabd 740a bf3d 905b 0f3d 00ce ddbd
00000320: f0b7 05be cfca 193e 3a34 1ebe 9cf0 a33c
00000330: d975 43bd 7abf 4abe 049b 12be 0dc0 47be
00000340: 9cbb 2c3e 65c1 10bd 5098 39bd 1da8 9c3d
00000350: 3913 663e c237 e7bb 93eb 383e ff89 bd3d
00000360: 97c4 06be d153 f5bc 1011 663d b804 543c
00000370: 03e8 54be e79a 6fbc 962a e4bd 8f4e 8d3d
00000380: c903 003d e3e9 38bd 59c7 c63d e11b d1bd
00000390: 8614 0cbe 8653 c9bd 9968 e7ba 2b8d 89bd
000003a0: a23f 47bd 62e4 3fbe 5355 873c cea8 0bbe
000003b0: 3937 133d 4d10 733d 39e6 2bbe 16d1 263d
000003c0: 6133 323d 9d30 a5bd 5194 df3d 5943 d7bd
000003d0: b03d f53c e263 0b3c 00d2 60be 6c39 1e3d
000003e0: d0c8 00bd 0ea2 3cbe c702 ab3c 9c06 02be
000003f0: bc27 0dbc 61bd 28be 3cfa 013d c915 b13d

linear1.bias f4 [256]
0.021866743 0.028271846 0.004275181 0.002229095 0.010012401 0.0012079814 0.0067765173 0.022580435
0.012602146 0.004773683 0.017060315 0.013328533 0.01624947 0.008262445 0.031261247 0.012937853
0.009236096 -0.0003015576 0.0024487118 -0.006523199 0.0030547315 -0.004188416 0.0039517987 -0.0028887896
0.02799107 0.038892806 0.022586877 0.019786986 0.0031336413 0.019959329 0.053941943 0.0051553706
0.015882311 0.008845745 0.004924731 0.0049251076 0.0002679628 0.018959302 -0.0020212622 0.009330206
0.003074488 0.0077088177 0.012181945 0.019116877 -0.014700824 0.0046067513 8.156062e-17 0.00771214
0.031851925 0.0029024032 0.008226472 -0.00089963624 -0.015863797 0.024329638 0.002946382 -0.00770437
0.006139609 0.009018013 0.0021208 0.00048525917 0.0019867895 0.013134744 0.020740826 0.029685086
0.006537493 0.007662638 0.003844691 0.047698874 0.0090299025 0.0058312663 0.00022508085 0.013909135
0.008790641 0.012052132 0.011446291 0.013354792 0.0077353274 1.8270674e-18 0.014339145 0.010333092
0.022367213 0.017677363 0.0151596125 0.0099388715 0.009662025 0.02841334 0.01342126 0.0047736745
0.019170135 0.0129533475 0.0011934399 0.0067081014 0.012928133 0.025784602 0.020918576 0.013113349
0.020660022 0.009738449 0.01902836 0.0066432552 0.00057869096 0.0022168548 0.011844472 0.013399582
0.0038446398 0.004060574 0.037622068 0.014934201 0.0015801117 0.006267458 0.029063357 0.03161717
0.030644353 0.004653476 0.031404153 0.012312609 0.029165426 0.019618819 0.039603226 0.046392135
0.022559894 0.013210514 0.005666783 0.0020045736 0.012950578 0.027434511 0.0063422155 3.9488448e-16
0.026402732 0.02940519 0.02326352 0.007825562 -0.0026940887 0.019847339 0.000533991 0.03664019
0.012853406 0.013406235 0.0297382 0.023742566 2.3023428e-16 0.021305762 0.009214472 0.016251596
0.019644206 0.0076513644 0.0036254323 0.009002762 0.016662851 0.01582252 0.006491651 0.025938082
0.0053037615 -0.0013848845 0.0046292227 0.018682053 0.0028808168 0.027383495 0.044466183 0.008001055
0.0064610504 0.0035742447 1.0594391e-05 0.015277235 0.0057582464 0.017365223 0.019932784 0.023699185
-0.0037152835 0.013896947 0.030649483 0.019404106 0.031182567 0.005236501 0.016049236 0.0040533873
-0.000795308 -0.0006690556 0.011411231 0.012521358 0.006808762 -0.001667111 0.006583917 0.019596191
0.0054229056 0.018268468 0.009055215 0.049526315 0.05649779 0.042515546 0.013598107 -0.00036712803
-0.0041973405 0.008691756 0.006834678 0.045759212 0.0073174546 0.0065913913 0.006849602 0.019112077
0.009951547 0.014837319 0.00094487367 0.04029405 0.019299762 0.027712919 -0.00237969 0.03892086
0.017582163 0.0081002535 0.013312763 -0.0030689945 0.04656162 0.010940193 -0.007864077 0.008154576
0.0028121104 0.0073130643 0.015557357 0.006667539 0.023514945 0.00055654795 0.04657639 0.0070796153
0.007612792 0.009108087 0.042038374 0.014932154 0.008297105 0.009926885 -0.00018728714 0.011087298
0.0048743794 0.013587216 0.015152532 0.02086508 0.018984472 0.012562726 0.0035909482 0.0036446508
0.013353795 0.01947301 -0.00047165388 0.0032245046 0.010374375 0.023243895 0.026907038 0.019476142
0.037176773 -0.0003437383 0.004105802 0.0042906604 0.017990887 0.01763033 0.005879205 0.05466182
00000000: e221 b33c 5c9a e73c d116 8c3b 0216 123b
00000010: 0e0b 243c 2155 9e3a 8c0d de3b 9bfa b83c
00000020: 3b79 4e3c 8e6c 9c3b 13c2 8b3c eb5f 5a3c
00000030: 9c1d 853c 355f 073c cb0b 003d 4af9 533c
00000040: ff52 173c 601a 9eb9 917a 203b 8fc0 d5bb
00000050: e431 483b fb3e 89bb 177e 813b d951 3dbb
00000060: 874d e53c 104e 1f3d 1d08 b93c 5118 a23c
00000070: c75d 4d3b bf81 a33c 3af2 5c3d 62ee a83b
00000080: 9f1b 823c beed 103c a35f a13b cc62 a13b
00000090: 5c7d 8c39 8a50 9b3c 2777 04bb b8dd 183c
000000a0: 597d 493b 409a fc3b c896 473c ff9a 9c3c
000000b0: badb 70bc 3bf4 963b e410 bc24 1fb6 fc3b
000000c0: 2a77 023d 3f36 3e3b 53c8 063c 91d5 6bba
000000d0: cbf4 81bc f34e c73c 1618 413b f174 fcbb
000000e0: c62e c93b 4ac0 133c 1ffd 0a3b 626a fe39
000000f0: cc34 023b 1c33 573c aae8 a93c 232e f33c
00000100: 7738 d63b de16 fb3b 36f7 7b3b e55f 433d
00000110: 28f2 133c 3514 bf3b ae03 6c39 24e3 633c
00000120: 9f06 103c 4e76 453c 3989 3b3c 0fce 5a3c
00000130: a178 fd3b 54d0 0622 bcee 6a3c 214c 293c
00000140: 723b b73c 1ed0 903c 0660 783c a6d6 223c
00000150: 784d 1e3c 18c3 e83c d8e4 5b3c 7c6c 9c3b
00000160: b00a 9d3c 473a 543c 336d 9c3a a2cf db3b
00000170: 85d0 533c 3b3a d33c 6f5d ab3c 5fd9 563c
00000180: 353f a93c 048e 1f3c 5de1 9b3c aaaf d93b
00000190: 4bb3 173a a748 113b 510f 423c ec89 5b3c
000001a0: 5af6 7b3b 900e 853b 9919 1a3d 94ae 743c
000001b0: c01b cf3a 405f cd3b 4716 ee3c 0181 013d
000001c0: de09 fb3c 307c 983b a4a1 003d d3ba 493c
000001d0: 55ec ee3c a5b7 a03c fe36 223d ae05 3e3d
000001e0: 87cf b83c e970 583c 6cb0 b93b 2a5f 033b
000001f0: a92e 543c 57be e03c 5cd2 cf3b aaa2 e325
00000200: 8b4a d83c 27e3 f03c 2393 be3c c936 003c
00000210: 4f8f 30bb e396 a23c 88fb 0b3a 0614 163d
00000220: 1897 523c d3a5 5b3c 879d f33c c57f c23c
00000230: 95b8 8425 6c89 ae3c 4cf8 163c 1122 853c
00000240: e3ec a03c 4cb8 fa3b a998 6d3b 5280 133c
00000250: 8880 883c 3b9e 813c eab7 d43b 1a7c d43c
00000260: 2dcb ad3b 0385 b5ba bcb0 973b 1b0b 993c
00000270: 16cc 3c3b 5a53 e03c 2c22 363d db16 033c
00000280: 38b7 d33b e03d 6a3b 90be 3137 5e4d 7a3c
00000290: acaf bc3b 8341 8e3c 144a a33c cb24 c23c
000002a0: 1d7c 73bb 05b0 633c a014 fb3c 5cf5 9e3c
000002b0: 9572 ff3c f496 ab3b b079 833c 47d2 843b
000002c0: 377c 50ba 9063 2fba 2cf6 3a3c 6226 4d3c
000002d0: 091c df3b f682 daba e6bd d73b 3188 a03c
000002e0: a1b2 b13b c1a7 953c 535c 143c 1bdc 4a3d
000002f0: 3a6a 673d c824 2e3d 98ca 5e3c 177b c0b9
00000300: d889 89bb de67 0e3c 6ff5 df3b 036e 3b3d
00000310: 42c7 ef3b 99fc d73b a072 e03b ee90 9c3c
00000320: d00b 233c 3a18 733c 66b1 773a 600b 253d
00000330: 891a 9e3c 3406 e33c 93f4 1bbb 7b6b 1f3d
00000340: 7808 903c edb6 043c c61d 5a3c 2f21 49bb
00000350: 66b7 3e3d 7f3e 333c 54d8 00bc c59a 053c
00000360: 624b 383b 6ea2 ef3b 49e4 7e3c 5f7b da3b
00000370: 6aa2 c03c 4de5 113a e2c6 3e3d 1efc e73b
00000380: ba74 f93b 163a 153c 6e30 2c3d fea5 743c
00000390: 95f0 073c 60a4 223c 8262 44b9 80a7 353c
000003a0: 42b9 9f3b ea9c 5e3c 5342 783c 3fed aa3c
000003b0: 5385 9b3c e4d3 4d3c 1d56 6b3b 18db 6e3b
000003c0: e0c9 5a3c dd85 9f3c 5048 f7b9 3652 533b
000003d0: 48f9 293c fb69 be3c 266c dc3c 6e8c 9f3c
000003e0: ac46 183d c637 b4b9 f789 863b ab98 8c3b
000003f0: a061 933c 7b6d 903c 59a6 c03b 13e5 5f3d

linear2.weight f4 [59, 256]
0.055518124 0.048304114 0.08631298 0.13847204 0.041150283 0.0740615 -0.53828764 0.0533844
-0.022800457 0.05130392 0.05726259 0.088086165 -0.49006432 0.035044327 0.0532407 0.07123265
0.05470455 -0.037524205 -0.5678348 0.06566847 0.078119785 -0.32866913 0.044487964 0.056578312
0.056796268 -0.49508655 0.10705748 -0.059562795 -0.44800726 -0.081288606 -0.4792154 -0.24429993
0.058769893 -0.11752483 -0.22275126 0.037787095 0.08772471 0.08459762 0.020972662 -0.27955323
-0.1720971 -0.4759978 -0.2942558 0.056488905 0.05790876 0.07667569 -1.0572771e-15 0.058840215
0.13186978 -0.4491591 0.059820108 0.07458794 0.071515 -0.5785196 -0.17209908 -0.033584487
-0.15639418 -0.37354046 -0.4832086 -0.45297718 -0.23264545 0.014685922 0.072564505 0.07726772
0.0952947 0.086319946 0.04692694 -0.056598518 0.013316372 0.042420484 -0.035923123 0.072709955
0.069118984 -0.12860113 -0.027985282 0.074011855 0.0732947 -1.2025549e-17 0.11620887 0.07827517
-0.19206427 0.025757018 0.072818235 -0.46197012 0.11759358 0.058182124 0.0800854 -0.42263764
-0.028033035 0.09964184 0.01822422 -0.2837642 -0.013174709 -0.34238276 -0.26995593 -0.059548218
0.044715453 -0.29832208 0.12575433 -0.22376338 -0.2798759 0.04595764 -0.3442952 -0.013322621
0.06459388 -0.43640643 0.0570137 -0.4647601 0.030574521 0.04903394 0.02325857 -0.12723395
-0.07170612 0.09956747 0.041280415 0.015113097 0.072910845 0.039838042 0.09228657 0.09751746
0.07127579 -0.22885467 0.019848557 -0.045838792 0.056314964 0.08371877 -0.3675403 6.8702027e-16
0.061470907 0.06817666 -0.26243213 -0.10839655 -0.006798652 0.033143166 -0.2105594 -0.041571394
0.08126461 -0.19781645 -0.14087506 0.10016027 2.616046e-15 -0.3670386 -0.0022269587 -0.004417948
0.08115805 0.106795065 0.02308104 -0.40371728 -0.15436453 0.08195147 -0.49818984 -0.25348818
0.043884184 0.09445005 0.08588976 -0.03464955 -0.5330479 -0.26870564 -0.47617775 0.09463068
0.10544378 -0.23558009 0.08049802 -0.009396176 0.056585807 0.12232722 -0.008944028 0.070812054
-0.37598255 0.046856005 -0.50387156 0.09388914 0.013727938 -0.3049884 -0.027256543 -0.21509989
0.053266402 -0.0029795181 0.12223376 -0.044669367 0.062159255 0.036980677 0.039244693 -0.31530723
0.048596375 -0.04560758 0.07733289 -0.4674819 -0.12532276 -0.037338812 0.1036173 0.071271636
-0.002078533 -0.10524301 0.06791597 -0.03878267 -0.09639424 -0.2837545 -0.10025457 -0.34344867
0.034695778 -0.14359878 -0.48808005 -0.59162825 -0.048445594 0.05378684 0.013102695 0.06784998
0.048017032 0.007917543 0.08398362 0.17274794 0.09751892 0.10413642 0.16874403 0.08217012
-0.12653239 0.072996505 0.060416516 -0.28378433 0.03887517 -0.20940182 0.097497135 -0.046313934
0.058662023 -0.22025004 0.08826488 0.09274057 0.09841306 0.02269577 0.051921632 0.048905678
-0.44089213 0.0655226 0.051918007 0.062584996 0.06260187 0.042641073 0.0333127 0.05885631
0.04512735 0.036322463 -0.047616057 0.0046759695 -0.47401348 -0.07226819 0.09168282 0.101675235
0.070566975 -0.30021736 0.045812335 -0.501608 -0.1694123 0.053182762 -0.13504809 0.06706297
00000000: f966 633d 89da 453d dcc4 b03d 9dcb 0d3e
00000010: 338d 283d 8ead 973d 38cd 09bf 9aa9 5a3d
00000020: 06c8 babc 0f24 523d 2d8c 6a3d 8566 b43d
00000030: b6e9 fabe a48a 0f3d ec12 5a3d 6ce2 913d
00000040: e111 603d fbb2 19bd 9f5d 11bf 317d 863d
00000050: 44fd 9f3d 5247 a8be 0339 363d a9be 673d
00000060: 34a3 683d fc7b fdbe f440 db3d 1ef8 73bd
00000070: 3561 e5be a47a a6bd b95b f5be c329 7abe
00000080: b3b8 703d dcb0 f0bd e818 64be a4c6 1a3d
00000090: 03a9 b33d 8441 ad3d dcce ab3c 9a21 8fbe
000000a0: 393a 30be fcb5 f3be b2a8 96be e960 673d
000000b0: bc31 6d3d 2508 9d3d a45e 98a6 7002 713d
000000c0: df08 073e 2ef8 e5be ee05 753d 90c1 983d
000000d0: 7576 923d dc19 14bf be3a 30be e38f 09bd
000000e0: cc25 20be b240 bfbe 1e67 f7be a0ec e7be
000000f0: 9c3a 6ebe 399d 703c b39c 943d 8a3e 9e3d
00000100: de29 c33d 83c8 b03d 7736 403d d9d3 67bd
00000110: ea2c 5a3c 1ac1 2d3d 2024 13bd f5e8 943d
00000120: 418e 8d3d 04b0 03be 6441 e5bc 8793 973d
00000130: 881b 963d 0dd5 5da3 ebfe ed3d bb4e a03d
00000140: 7fac 44be 6200 d33c ba21 953d 5987 ecbe
00000150: e7d4 f03d 6150 6e3d d003 a43d f663 d8be
00000160: 89a5 e5bc 0511 cc3d f64a 953c 8b49 91be
00000170: bcda 57bc cb4c afbe aa37 8abe d5e8 73bd
00000180: 8d27 373d acbd 98be bec5 003e 3a22 65be
00000190: e54b 8fbe 143e 3c3d 7647 b0be 1f47 5abc
000001a0: cc49 843d aa70 dfbe 3387 693d 09f5 edbe
000001b0: 6b77 fa3c d0d7 483d c288 be3c 9e49 02be
000001c0: a9da 92bd 08ea cb3d a715 293d ec9c 773c
000001d0: 4852 953d 372d 233d be00 bd3d 3cb7 c73d
000001e0: 0bf9 913d e158 6abe 7199 a23c 75c1 3bbd
000001f0: 85aa 663d bf74 ab3d 3e2e bcbe 2605 4626
00000200: ebc8 7b3d 34a0 8b3d 815d 86be 03ff ddbd
00000210: 3ac7 debb 21c1 073d e29c 57be c446 2abd
00000220: 0f6e a63d 6590 4abe 8d41 10be d420 cd3d
00000230: 8881 3c27 7cec bbbe 2bf2 11bb 6fc4 90bb
00000240: 3136 a63d 5fb7 da3d 7314 bd3c 08b4 cebe
00000250: bc11 1ebe 2cd6 a73d bd12 ffbe 34c9 81be
00000260: e7bf 333d 076f c13d f8e6 af3d b0ec 0dbd
00000270: d475 08bf c993 89be 92cd f3be bbcd c13d
00000280: e9f2 d73d e83b 71be 25dc a43d 6bf2 19bc
00000290: 85c6 673d b286 fa3d f989 12bc e905 913d
000002a0: c980 c0be 15ec 3f3d bafd 00bf f348 c03d
000002b0: 25eb 603c 7127 9cbe 1d49 dfbc 2543 5cbe
000002c0: df2d 5a3d 0544 43bb b255 fa3d 3af7 36bd
000002d0: b49a 7e3d 0d79 173d 0bbf 203d f36f a1be
000002e0: fe0c 473d 04cf 3abd b560 9e3d ca59 efbe
000002f0: 9c54 00be 95f0 18bd 4f35 d43d ddf6 913d
00000300: ff37 08bb a689 d7bd 8717 8b3d 94da 1ebd
00000310: 586a c5bd 4548 91be 4552 cdbd 81d8 afbe
00000320: 291d 0e3d 8f0b 13be a1e5 f9be f374 17bf
00000330: e36e 46bd 974f 5c3d b0ac 563c eef4 8a3d
00000340: 82ad 443d 95b8 013c 9bff ab3d d6e4 303e
00000350: 00b8 c73d 7a45 d53d 3ccb 2c3e cf48 a83d
00000360: b591 01be 317f 953d 4f77 773d 2e4c 91be
00000370: 923b 1f3d 6e6d 56be 94ac c73d aeb3 3dbd
00000380: 9747 703d 3a89 61be 38c4 b43d c5ee bd3d
00000390: c98c c93d 7bec b93c c7ab 543d 5251 483d
000003a0: 9dbc e1be b730 863d faa7 543d 902c 803d
000003b0: 6935 803d 68a8 2e3d e672 083d 5013 713d
000003c0: 75d7 383d ddc6 143d 0e09 43bd e038 993b
000003d0: e5b1 f2be 5801 94bd 34c4 bb3d 1b3b d03d
000003e0: 6b85 903d 17b6 99be b7a5 3b3d 6269 00bf
000003f0: 6b7a 2dbe 2bd6 593d 0c4a 0abe 4f58 893d

linear2.bias f4 [59]
-0.01632667 -0.019455802 -0.015816106 -0.014812444 -0.0135671245 -0.019421374 -0.02087085 -0.019308679
-0.014518836 -0.012818466 -0.016998759 -0.0175252 -0.015433587 -0.017937042 -0.014174125 -0.010475875
-0.020027341 -0.013039691 -0.019292017 -0.016906949 -0.012631405 -0.010957678 -0.022564882 -0.017843187
-0.014198018 -0.020879097 -0.019540796 -0.012734727 -0.01856061 -0.015295983 -0.017777165 -0.01638547
-0.009338394 -0.018000992 -0.01785165 -0.018611908 -0.014465867 -0.017923014 -0.016645595 -0.011663741
-0.015855528 -0.019187642 -0.015430679 -0.019659745 -0.013858681 -0.018796507 -0.01870632 -0.016267294
-0.021887658 -0.015360572 -0.009087514 -0.018738404 -0.010538423 -0.017202552 -0.015095209 -0.014427768
-0.010838282 -0.018424438 -0.017253362
00000000: 82bf 85bc c661 9fbc c790 81bc e5af 72bc
00000010: a548 5ebc 9319 9fbc 58f9 aabc 3c2d 9ebc
00000020: 69e0 6dbc 8b04 52bc fb40 8bbc 0291 8fbc
00000030: 28dd 7cbc b4f0 92bc 973a 68bc 01a3 2bbc
00000040: 6110 a4bc 6ea4 55bc 4b0a 9ebc 7180 8abc
00000050: f4f3 4ebc d587 33bc fdd9 b8bc e02b 92bc
00000060: ce9e 68bc a40a abbc 0514 a0bc 51a5 50bc
00000070: 6c0c 98bc 019c 7abc 6ba1 91bc d23a 86bc
00000080: 1000 19bc d176 93bc a03d 92bc 0078 98bc
00000090: 3e02 6dbc 49d3 92bc 585c 88bc 4719 3fbc
000000a0: 74e3 81bc 672f 9dbc f5d0 7cbc 790d a1bc
000000b0: 850f 63bc 22fb 99bc ff3d 99bc fd42 85bc
000000c0: bf4d b3bc e9aa 7bbc cce3 14bc 4881 99bc
000000d0: 5aa9 2cbc 5eec 8cbc e551 77bc 7262 6cbc
000000e0: 0d93 31bc d9ee 96bc ec56 8dbc
