intermediary/model_12600.pth (torch, 356400 bytes, 5 tensors)

embed.weight f4 [59, 128]
-0.33893502 0.22919777 -0.38501906 -0.33546835 0.388437 0.39904392 -0.13766983 -0.43918893
0.43399486 0.32484654 -0.3409285 -0.3845422 0.026627505 -0.22217715 -0.34130412 0.3703396
-0.22158097 -0.43007937 -0.34161478 0.39381894 0.40222982 0.24922943 0.14535238 0.15892467
0.3158828 0.42028245 -0.3575206 0.25987703 0.024140859 0.40281823 0.41220114 -0.15168019
-0.41946062 -0.39601687 -0.30844948 -0.26966637 0.27515674 0.48674333 0.2236461 -0.10644574
-0.09778098 -0.30399555 0.44147766 0.25111115 0.42033353 0.106891945 0.41955104 0.48358294
-0.37126213 -0.28949282 0.48244882 0.39289775 -0.33704892 -0.38360006 0.34114525 0.21274732
-0.38293853 0.18339302 -0.3166965 0.38871354 -0.28858602 0.37482715 -0.436408 -0.39670518
-0.34058118 0.20691215 -0.19203475 0.1563631 0.37435222 -0.44651937 -0.17957509 -0.4129678
-0.40334848 -0.420319 0.2581575 -0.29209784 0.46546236 0.3138042 0.23531684 0.41616496
0.35049984 -0.30327663 -0.19015716 -0.4858712 0.40672782 -0.32435212 0.033325065 -0.33002934
-0.44327173 0.39876023 0.32863605 -0.34540588 0.40631926 -0.4921122 -0.34961656 0.3496367
0.28014597 0.44269615 -0.28796962 0.3428663 0.24178354 -0.44310737 -0.28458235 0.19783741
0.42946753 -0.40440324 0.438834 0.43385053 0.27627167 -0.3172407 -0.41738924 -0.2488305
0.33138868 -0.2031121 -0.44110018 -0.42064506 0.3598137 -0.42296162 0.0908214 -0.28679642
0.4321017 -0.34154096 0.37092516 0.333514 -0.42188233 0.28038812 0.44045758 0.47161224
0.2087941 0.3341695 -0.108670495 -0.45618343 -0.3499835 -0.18646851 -0.13789697 -0.40899807
-0.16245793 0.44061482 -0.3928673 0.2122087 0.4445593 0.50295126 -0.2543326 0.12169998
0.24015455 0.02364038 0.36428383 -0.3888702 0.38478112 -0.3722939 -0.42424598 -0.3488771
-0.21260245 -0.015419416 0.30403456 -0.47967526 -0.45500326 -0.1854455 -0.22602066 0.37295568
0.36578843 -0.47639635 0.49674135 0.40661913 -0.39106685 -0.34640527 -0.42889568 0.37641138
0.4761953 0.4955529 -0.39238864 0.41826808 -0.22350521 -0.42061928 0.5067723 0.3854516
-0.052390415 -0.43060043 0.42008156 0.39302123 -0.412507 0.22410871 -0.2768634 0.3061917
-0.40026292 0.103871465 0.42925468 0.095331155 0.37604776 -0.2927865 -0.41464278 -0.33844632
-0.14703174 0.3090479 0.43838722 0.4439585 -0.37542748 -0.42148936 0.4362531 0.386502
0.3732366 0.088486105 -0.42865598 -0.3815275 -0.20049314 0.2831408 -0.3052787 0.2234335
-0.49998248 -0.31777084 0.021329248 -0.424844 -0.37772912 -0.2598999 -0.34890786 -0.4189575
0.3505661 -0.41139975 -0.4324331 0.050539386 0.23557799 -0.4404538 0.37929648 0.27151155
-0.10581977 -0.23361248 0.2213259 -0.25130168 -0.3667128 0.24301672 -0.11944908 -0.3634229
-0.23175775 0.37509906 0.4651567 0.26298672 -0.42031166 0.3193702 0.3458185 -0.48642707
-0.41354513 0.438449 0.2055558 0.41765493 -0.41252127 -0.12112504 0.37225363 -0.35760078
-0.2628506 0.4033399 0.45363384 -0.22295704 -0.28226045 -0.35164604 0.4402534 -0.38815877
00000000: e488 adbe d2b2 6a3e 3821 c5be 82c2 abbe
00000010: 37e1 c63e 7c4f cc3e 52f9 0cbe 5fdd e0be
00000020: 9334 de3e 4952 a63e 2e8e aebe b7e2 c4be
00000030: ed21 da3c 6882 63be 6abf aebe 279d bd3e
00000040: 1fe6 62be 5d33 dcbe 22e8 aebe a3a2 c93e
00000050: 11f1 cd3e 0036 7f3e 41d7 143e 26bd 223e
00000060: 64bb a13e 432f d73e f10c b7be 9a0e 853e
00000070: 0dc3 c53c 313e ce3e 070c d33e 0d52 1bbe
00000080: 8bc3 d6be b9c2 cabe 17ed 9dbe b611 8abe
00000090: 58e1 8c3e 6c36 f93e 7c03 653e 3900 dabd
000000a0: 6541 c8bd 4ea5 9bbe 5c09 e23e a491 803e
000000b0: f535 d73e 2aea da3d 65cf d63e 2f98 f73e
000000c0: 1216 bebe 6738 94be 8803 f73e e529 c93e
000000d0: ad91 acbe 3a67 c4be 97aa ae3e 6fda 593e
000000e0: 8510 c4be 61cb 3b3e 0b26 a2be 7605 c73e
000000f0: 8cc1 93be 58e9 bf3e df70 dfbe f11c cbbe
00000100: a860 aebe c7e0 533e c2a4 44be a61d 203e
00000110: 18ab bf3e 309e e4be 88e2 37be 8470 d3be
00000120: b183 cebe 0d34 d7be 382d 843e d98d 95be
00000130: 1551 ee3e f2aa a03e e6f6 703e 9313 d53e
00000140: b774 b33e 1347 9bbe 8fb8 42be 1cc4 f8be
00000150: a13e d03e 7b11 a6be dd7f 083d 9bf9 a8be
00000160: 83f4 e2be 4d2a cc3e fc42 a83e 0ad9 b0be
00000170: 1409 d03e 21f6 fbbe f100 b3be 9503 b33e
00000180: 4b6f 8f3e 12a9 e23e c170 93be 2c8c af3e
00000190: 1b96 773e f8de e2be c7b4 91be e495 4a3e
000001a0: 2be3 db3e f10d cfbe daae e03e a821 de3e
000001b0: 7b73 8d3e 5f6d a2be 0bb4 d5be 6ccd 7ebe
000001c0: c7ab a93e 9efc 4fbe e2d7 e1be ca5e d7be
000001d0: 8039 b83e 6d8e d8be 9200 ba3d fbd6 92be
000001e0: 6f3c dd3e 75de aebe e7e9 bd3e 59c2 aa3e
000001f0: f600 d8be 088f 8f3e a883 e13e 2977 f13e
00000200: 1fce 553e 4418 ab3e a38e debd e090 e9be
00000210: 0a31 b3be 9af1 3ebe dd34 0dbe 3268 d1be
00000220: 5f5b 26be 4498 e13e e725 c9be 3d4d 593e
00000230: 479d e33e 6ac1 003f e237 82be d73d f93d
00000240: 13eb 753e 78a9 c13c 6983 ba3e ff19 c7be
00000250: 0802 c53e 4e9d bebe c536 d9be 05a0 b2be
00000260: 75b4 59be b8a1 7cbc 6baa 9b3e ff97 f5be
00000270: 30f6 e8be 6de5 3dbe f671 67be 0cf4 be3e
00000280: 9f48 bb3e 39ea f3be e254 fe3e 6230 d03e
00000290: ea39 c8be 085c b1be 3798 dbbe feb8 c03e
000002a0: dfcf f33e 1cb9 fd3e 2ae7 c8be 3c27 d63e
000002b0: 8dde 64be 695b d7be d4bb 013f ea59 c53e
000002c0: 5597 56bd a977 dcbe ee14 d73e 143a c93e
000002d0: 1e34 d3be c17c 653e 0ac1 8dbe 29c5 9c3e
000002e0: 43ef ccbe 90ba d43d 45c7 db3e fb3c c33d
000002f0: 5589 c03e 1de8 95be 0f4c d4be d648 adbe
00000300: 7d8f 16be 873b 9e3e 4a74 e03e 874e e33e
00000310: 0838 c0be 74cd d7be 915c df3e 97e3 c53e
00000320: de18 bf3e 3438 b53d cc78 dbbe 9357 c3be
00000330: 134e 4dbe d5f7 903e 7d4d 9cbe c0cb 643e
00000340: b4fd ffbe dcb2 a2be adba ae3c 2785 d9be
00000350: b665 c1be 9a11 85be 0da4 b2be 9981 d6be
00000360: 667d b33e fda2 d2be df67 ddbe 6302 4f3d
00000370: 5b3b 713e 2983 e1be 2633 c23e 9003 8b3e
00000380: 09b8 d8bd 1c38 6fbe 42a3 623e 9daa 80be
00000390: c8c1 bbbe 60d9 783e b8a1 f4bd 9112 babe
000003a0: e751 6dbe fc0c c03e 0529 ee3e 32a6 863e
000003b0: 1733 d7be 7e84 a33e 1f0f b13e f80c f9be
000003c0: 30bc d3be 637c e03e 387d 523e ded6 d53e
000003d0: fd35 d3be 6810 f8bd 0798 be3e 7317 b7be
000003e0: 5b94 86be 9182 ce3e b242 e83e da4e 64be
000003f0: 7184 90be f30a b4be e568 e13e bfbc c6be

linear1.weight f4 [256, 256]
-0.1306264 -0.1408284 0.14546113 0.13319704 -0.15203096 0.0402054 0.17336929 -0.0117820725
-0.21421409 -0.03439624 0.18944237 -0.1556434 -0.013702108 0.011747909 -0.15970913 0.14360458
0.070763946 0.14586633 0.2113557 0.107706554 -0.06504337 0.09632534 0.041509263 0.11884816
-0.004992119 -0.19778463 -0.18879049 -0.076918215 0.10725779 0.01581578 -0.100118175 0.008317837
-0.027226524 0.0088884765 0.027502181 0.19094582 0.10265769 -0.11889373 0.2059414 -0.0449685
-0.013854409 0.018574007 -0.155108 -0.020486375 -0.1331851 -0.14016068 -0.116840325 0.0020528517
-0.18097147 -0.098994076 -0.024242325 -0.17525132 0.056415685 -0.13712864 -0.16334261 0.014994306
0.05472405 -0.0013782567 0.15063663 0.094010346 0.18222788 -0.051792447 0.14809357 0.10380001
0.16086476 -0.12375337 -0.16575664 -0.1441589 -0.04546557 -0.05088207 -0.022192927 -0.0842962
-0.1075094 -0.16190624 0.12159673 0.19912387 -0.19120526 -0.060586486 -0.036019336 0.12457745
-0.101310395 0.14260879 0.17032439 0.18039612 -0.046603475 0.06695175 0.045417443 0.06759761
0.13377221 -0.15852083 -0.1666734 0.15514201 0.036544368 0.124848165 -0.07381437 0.020561306
0.03761923 -0.037628252 0.0036045497 0.041518457 -0.15476383 0.036156293 0.03602136 -0.14843479
-0.10831562 0.018894648 -0.05029317 -0.030619174 -0.19678812 -0.2118713 0.028975949 0.15577292
-0.21446769 -0.09451262 0.15879996 -0.09649751 0.20621456 0.21741845 -0.03629283 0.04566592
0.099232875 0.1159217 -0.18518457 -0.041304447 -0.13680816 -0.06762131 -0.04474543 -0.12341979
-0.009866415 0.00058349705 -0.0960894 -0.17333144 0.16643068 -0.1813698 -0.13182808 -0.013769189
0.0932329 0.14735597 -0.15793554 -0.07703035 -0.21235457 -0.22051433 0.11708918 0.0014670776
-0.22740331 -0.10490317 -0.054409374 0.08575024 -0.19120099 -0.035320833 0.15440294 0.057874676
-0.17753167 0.086133644 -0.014693084 0.112363294 -0.15869015 -0.18834597 -0.019877126 0.21140787
-0.20075272 0.19789356 -0.12952495 -0.011588034 -0.08596056 0.1136543 -0.0456253 0.20053336
-0.19842778 -0.11767928 0.07068603 -0.16856849 0.09410635 -0.024632877 -0.15921392 -0.100803964
0.13951997 -0.04060828 -0.17643183 0.12633245 -0.13626418 -0.10015236 0.035385244 -0.027722448
0.13495131 -0.17575288 -0.18159711 -0.10428172 0.0047169104 -0.12805691 0.045828383 0.16990529
0.044308774 0.04857774 -0.085946955 0.022966113 -0.13843934 0.10202054 0.04945803 -0.105545565
-0.14304924 0.15509178 -0.11586332 0.006316318 -0.06656864 -0.19105972 -0.13173173 -0.20775168
0.16726066 -0.03453032 -0.04931966 0.07609967 0.21383806 0.0140849035 0.18778019 0.08036759
-0.13418138 -0.03862803 0.06386382 -0.035229374 -0.1969528 -0.028069735 -0.09530796 0.075390875
0.013801374 -0.033208624 0.1014654 -0.10480732 -0.14675698 -0.08853382 -0.007722681 -0.085792296
-0.021408722 -0.17840552 0.0041379677 -0.12690307 0.05790576 0.046736717 -0.15800782 0.030605743
0.056970507 -0.05451241 0.101776466 -0.1071105 0.025422422 -0.026603546 -0.19511445 0.03383437
-0.05658784 -0.18651935 -0.0066528115 -0.13406985 0.01730634 -0.16503765 0.016861372 0.09397821
00000000: edc2 05be 5235 10be c3f3 143e ce64 083e
00000010: 01ae 1bbe 6bae 243d b887 313e 9809 41bc
00000020: f05a 5bbe 12e3 0cbd 2efd 413e fc60 1fbe
00000030: ce7e 60bc 4d7a 403c ca8a 23be 140d 133e
00000040: b0ec 903d fc5d 153e a16d 583e 4195 dc3d
00000050: 7535 85bd 3846 c53d 9e05 2a3d aa66 f33d
00000060: ee94 a3bb 0e88 4abe 4b52 41be 4c87 9dbd
00000070: f9a9 db3d 1890 813c c20a cdbd 8947 083c
00000080: 290a dfbc f9a0 113c 414c e13c 4d87 433e
00000090: 323e d23d 8e7e f3bd 4de2 523e e430 38bd
000000a0: 9afd 62bc 8428 983c a2d4 1ebe 0bd3 a7bc
000000b0: ad61 08be 4886 0fbe fb49 efbd 2389 063b
000000c0: 9650 39be 68bd cabd d797 c6bc 1575 33be
000000d0: 2214 673d 736b 0cbe 4943 27be adaa 753c
000000e0: 5326 603d 9fa6 b4ba 7d40 1a3e 7f88 c03d
000000f0: f299 3a3e 5124 54bd d7a5 173e 1a95 d43d
00000100: bbb9 243e 6872 fdbd 1cbc 29be 649e 13be
00000110: 1b3a 3abd b869 50bd f1cd b5bc 7ca3 acbd
00000120: e32d dcbd c0ca 25be b507 f93d 21e7 4b3e
00000130: 50cb 43be 8929 78bd 0389 13bd 7622 ff3d
00000140: d37b cfbd 0a08 123e 8469 2e3e c3b9 383e
00000150: 49e3 3ebd 001e 893d a407 3a3d 9e70 8a3d
00000160: 95fb 083e 4953 22be 6fac 2abe 8cdd 1e3e
00000170: 8caf 153d 65b0 ff3d fd2b 97bd 2f70 a83c
00000180: 9f16 1a3d 1520 1abd 4f3a 6c3b 420f 2a3d
00000190: 697a 1ebe 9f18 143d 228b 133d 4aff 17be
000001a0: 94d4 ddbd f3c8 9a3c 3600 4ebd 10d5 fabc
000001b0: d382 49be caf4 58be f85e ed3c f082 1f3e
000001c0: 6b9d 5bbe d58f c1bd 759c 223e 7da0 c5bd
000001d0: e929 533e f1a2 5e3e caa7 14bd 300c 3b3d
000001e0: 9b3a cb3d 5b68 ed3d 06a1 3dbe da2e 29bd
000001f0: 7017 0cbe 0b7d 8abd fc46 37bd 84c3 fcbd
00000200: bea6 21bc d3f5 183a 85ca c4bd cc7d 31be
00000210: ce6c 2a3e 01b9 39be f1fd 06be 2a98 61bc
00000220: e4f0 be3d 7ce4 163e dbb9 21be 17c2 9dbd
00000230: 7a73 59be 82ce 61be 74cc ef3d f54a c03a
00000240: 6adc 68be 79d7 d6bd 5ddc 5ebd d29d af3d
00000250: 31ca 43be 94ac 10bd ce1b 1e3e ff0d 6d3d
00000260: ddca 35be d666 b03d 43bb 70bc ba1e e63d
00000270: ac7f 22be c4dd 40be 5bd5 a2bc 4e7b 583e
00000280: 1f92 4dbe 9ca4 4a3e 30a2 04be bddb 3dbc
00000290: 170c b0bd 96c3 e83d 98e1 3abd 9e58 4d3e
000002a0: a730 4bbe d601 f1bd d6c3 903d 389d 2cbe
000002b0: d4ba c03d e3ca c9bc f908 23be 4f72 cebd
000002c0: 53de 0e3e de54 26bd 8caa 34be 4b5d 013e
000002d0: d688 0bbe ae1c cdbd 1ef0 103d 301a e3bc
000002e0: ad30 0a3e 90f8 33be 98f4 39be a891 d5bd
000002f0: 5090 9a3b 5a21 03be 8bb6 3b3d a7fb 2d3e
00000300: 1e7d 353d 74f9 463d f504 b0bd 6e23 bc3c
00000310: 0bc3 0dbe 25f0 d03d 8194 4a3d 4628 d8bd
00000320: 807b 12be 61d0 1e3e c049 edbd 1ef9 ce3b
00000330: 2455 88bd 29a5 43be afe4 06be dbbc 54be
00000340: 6146 2b3e aa6f 0dbd 6903 4abd 25da 9b3d
00000350: 5df8 5a3e 5ec4 663c 7349 403e c397 a43d
00000360: d866 09be 6d38 1ebd 09cb 823d ad4c 10bd
00000370: ffad 49be 80f2 e5bc d230 c3bd 8866 9a3d
00000380: 281f 623c c405 08bd 17cd cf3d 38a5 d6bd
00000390: 7647 16be 3851 b5bd 8b0e fdbb dfb3 afbd
000003a0: 5861 afbc f0af 36be ca97 873b e1f2 01be
000003b0: 972e 6d3d 006f 3f3d cdcc 21be e5b8 fa3c
000003c0: e859 693d 6848 5fbd 2e70 d03d c05c dbbd
000003d0: af42 d03c aeef d9bc 15cc 47be e995 0a3d
000003e0: a7c8 67bd eefe 3ebe d4ff d9bb 9b49 09be
000003f0: 07c6 8d3c a1ff 28be dc20 8a3c a677 c03d

linear1.bias f4 [256]
0.019189358 0.019490901 0.00087976555 -0.002180709 0.015888054 0.0019552414 0.014766437 0.014898752
0.016964458 0.0096220905 0.016962986 0.016591953 0.0162386 0.00974909 0.025623089 0.034799322
0.0031487325 -0.00316122 -0.012314229 0.008062689 -0.00531094 -0.0092368275 0.004266162 0.016478794
0.026561726 0.03926619 0.023697276 0.03407823 0.00015045077 0.04783244 0.058758717 0.0037301932
0.013882726 -0.003239503 0.006638853 0.0061145867 0.009900752 0.023433527 -0.00086081214 0.023242442
0.0024514955 0.011051912 0.021033347 0.021191118 -0.017067958 0.0046205404 1.11426155e-11 0.011397472
0.029305013 0.014629573 0.015355985 0.0025689441 -0.0053705084 0.020901874 0.0023648401 0.021307124
0.0048600193 0.007266703 -0.002999598 -0.0014255287 0.0010147757 0.01887908 0.019765964 0.027217193
0.0054648547 0.0065345266 0.0030487708 0.044814277 -0.009079443 0.01148161 0.0006325678 0.009803106
0.009834887 0.009728823 0.01810184 0.0073914696 0.0051935427 5.8324553e-13 0.012361906 0.0124903675
0.012887088 0.006283737 0.0056637735 0.008609169 0.0027304355 0.02496443 0.028056424 0.0045185173
0.0175221 0.014185056 0.0053190514 0.0065546334 0.010882084 0.024248345 0.028252281 0.014609297
0.025710031 0.008738733 0.027964942 0.0068785874 0.0021059762 -0.0068140244 0.0105380975 0.017128997
0.0039356844 0.00720584 0.038390137 0.0026379332 0.001288709 0.009084885 0.028190022 0.019794155
0.037901487 0.0015307579 0.013878472 0.011099314 0.028649123 0.01697104 0.03743743 0.04675653
0.018508615 0.015101989 -0.0018003797 -7.2212744e-05 0.011117311 0.02735011 0.004631467 1.052127e-11
0.024087874 0.020508742 0.02131857 0.007115334 0.0013930075 -0.007867659 0.00012620354 0.015475124
0.01532704 0.003817076 0.023570754 0.021519627 1.03608615e-11 0.01895105 0.009291184 0.015497845
0.022186188 0.00618645 -0.0020834776 0.00854287 0.018162694 0.016203571 0.006804145 0.022394156
0.0042228377 -0.0016796218 0.0037434069 0.007636649 0.0034353414 0.027104696 0.007402226 0.0029901785
0.003993342 0.0035153085 -3.0355832e-05 0.014656109 0.008429184 0.024363415 0.024576467 0.024280794
-0.00090324925 0.00923332 0.031841464 0.013687361 0.028250176 0.004996897 0.018367313 0.0036203424
0.01593034 -0.002389056 0.022564758 0.014551061 0.005795592 0.00056364556 0.003795899 0.004828938
0.0048112664 0.01942631 0.009982023 0.06246757 0.049204078 0.039890923 0.011603344 -0.0033757102
0.01449301 0.010613985 0.011066142 0.03800069 0.008448908 0.0066502998 0.008896743 0.019158894
0.0064694826 0.02950529 -0.0051986114 0.023126163 0.02655567 0.020989528 -0.0019364151 0.026504597
0.02042356 0.0066251676 0.014405426 -0.0073176743 0.04653551 0.005700487 -0.007457366 0.009770918
0.00044624394 0.0047463947 0.019563364 0.0065017454 0.019710692 0.0005801155 0.04645974 0.017405696
0.008155455 0.0031460125 0.028440678 0.015080089 0.007880593 0.0071129305 -9.465797e-05 0.013648708
0.00019647679 0.016539415 0.013101391 0.022358771 0.015708186 0.015147886 0.010765627 0.0021765358
0.0148330685 0.02462509 0.01063092 0.004139239 0.011205467 0.023155183 0.024667427 0.019270513
0.059186704 -0.0013148763 0.0010976251 0.007868654 0.02364867 0.015037448 -0.00082698156 0.062037747
00000000: 0033 9d3c 62ab 9f3c 11a0 663a 3aea 0ebb
00000010: aa27 823c 8223 003b edee 713c e519 743c
00000020: 0cf9 8a3c f9a5 1d3c f6f5 8a3c d9eb 873c
00000030: d006 853c a6ba 1f3c 83e7 d13c bc89 0e3d
00000040: f75a 4e3b 792c 4fbb 9fc1 49bc 5e19 043c
00000050: 6507 aebb 1056 17bc 29cb 8b3b 89fe 863c
00000060: fa97 d93c 96d5 203d ca20 c23c 9d95 0b3d
00000070: 52c2 1d39 f3eb 433d fbac 703d 4276 743b
00000080: 6074 633c d74d 54bb bc8a d93b df5c c83b
00000090: c436 223c abf7 bf3c 20a8 61ba ef66 be3c
000000a0: 45a9 203b 1413 353c 204e ac3c ff98 ad3c
000000b0: 1ad2 8bbc e767 973b e105 442d 76bc 3a3c
000000c0: 1111 f03c e0b0 6f3c ab97 7b3c bb5b 283b
000000d0: 17fb afbb 683a ab3c 6ffb 1a3b 478c ae3c
000000e0: cc40 9f3b 861d ee3b e794 44bb ced8 baba
000000f0: 3902 853a 4da8 9a3c 3bec a13c 97f6 de3c
00000100: 8612 b33b 951f d63b e3cd 473b 2d8f 373d
00000110: f2c1 14bc 5d1d 3c3c e8d2 253a 359d 203c
00000120: 8222 213c a465 1f3c 4f4a 943c 2434 f23b
00000130: 982e aa3b 452b 242b 9789 4a3c 66a4 4c3c
00000140: 5d24 533c cee7 cd3b 2d97 b93b 790d 0d3c
00000150: 1bf1 323b 3482 cc3c 96d6 e53c 1210 943b
00000160: 828a 8f3c 7068 683c 704b ae3b 40c8 d63b
00000170: c54a 323c 77a4 c63c 5471 e73c d55b 6f3c
00000180: d89d d23c e72c 0f3c bc16 e53c c665 e13b
00000190: 6b04 0a3b 2e48 dfbb fca7 2c3c 1c52 8c3c
000001a0: eaf6 803b f81e ec3b fa3e 1d3d 2de1 2c3b
000001b0: e6e9 a83a c5d8 143c c3ee e63c 5a27 a23c
000001c0: 973e 1b3d b6a3 c83a 8862 633c e6d9 353c
000001d0: 91b1 ea3c da06 8b3c fe57 193d c683 3f3d
000001e0: 619f 973c 556e 773c b8fa ebba ec70 97b8
000001f0: 6225 363c 560d e03c 90c3 973b 9617 392d
00000200: ef53 c53c f301 a83c 48a4 ae3c bf27 e93b
00000210: 9395 b63a 5be7 00bc 8155 0439 608b 7d3c
00000220: 441e 7b3c e927 7a3b 7417 c13c ee49 b03c
00000230: 2c45 362d 3b3f 9b3c 0d3a 183c acea 7d3c
00000240: cfbf b53c b4b7 ca3b f48a 08bb 65f7 0b3c
00000250: eec9 943c 5abd 843c 4ef5 de3b f373 b73c
00000260: bb5f 8a3b c126 dcba f253 753b db3c fa3b
00000270: 7723 613b ab0a de3c 5f8e f23b dff6 433b
00000280: 95da 823b 1761 663b a7a4 feb7 2d20 703c
00000290: 8f1a 0a3c c995 c73c 9654 c93c 84e8 c63c
000002a0: 08c8 6cba 5a47 173c 326c 023d f440 603c
000002b0: ea6c e73c 03bd a33b 0c77 963c 4443 6d3b
000002c0: 5880 823c b591 1cbb bad9 b83c 9367 6e3c
000002d0: f3e8 bd3b 9dc1 133a 9ec4 783b 113c 9e3b
000002e0: d4a7 9d3b ed23 9f3c a48b 233c ffdd 7f3d
000002f0: 378a 493d aa64 233d f41b 3e3c 053b 5dbb
00000300: 1774 6d3c 48e6 2d3c c34e 353c 9da6 1b3d
00000310: 4a6d 0a3c c2ea d93b a5c3 113c 1df3 9c3c
00000320: f4fd d33b 14b5 f13c 1d59 aabb 1473 bd3c
00000330: 478b d93c 3bf2 ab3c 4fcf fdba 2b20 d93c
00000340: 4f4f a73c ef17 d93b bc04 6c3c 1ac9 efbb
00000350: 059c 3e3d 27cb ba3b ec5c f4bb 3316 203c
00000360: d9f5 e939 a587 9b3b 5943 a03c 980c d53b
00000370: 5178 a13c e412 183a 914c 3e3d 6496 8e3c
00000380: 759e 053c 552d 4e3b 6dfc e83c 7a12 773c
00000390: 9a1d 013c 9613 e93b 1c83 c6b8 d59e 5f3c
000003a0: 5605 4e39 ab7d 873c 37a7 563c be29 b73c
000003b0: 74ae 803c d72e 783c 5062 303c 36a4 0e3b
000003c0: 6606 733c 8fba c93c 4f2d 2e3c 74a2 873b
000003d0: 2397 373c f0af bd3c 5813 ca3c 32dd 9d3c
000003e0: c26d 723d ed57 acba 30de 8f3a 87eb 003c
000003f0: dbba c13c a15f 763c cbc9 58ba 4b1b 7e3d

linear2.weight f4 [59, 256]
0.04676005 0.052180797 0.0808594 0.1293544 0.03766539 0.06692438 -0.52443576 0.04423294
-0.025073191 0.054055702 0.060326856 0.087504745 -0.49697483 0.033595927 0.052325908 0.07064484
0.05402976 -0.035887647 -0.55568296 0.05639639 0.07798837 -0.31293648 0.046045475 0.05204611
0.054440662 -0.49272054 0.101868786 -0.08762441 -0.45351997 -0.06406485 -0.45108438 -0.24156345
0.060307253 -0.059640482 -0.21740408 0.038190283 0.08731287 0.08028032 0.020184109 -0.3220252
-0.16894731 -0.47924107 -0.29998338 0.058858577 0.058778975 0.08083246 -1.3974996e-10 0.059343923
0.1296267 -0.43233874 0.061996184 0.07566442 0.076868355 -0.57890373 -0.16897608 0.0057889423
-0.15283506 -0.3741098 -0.486086 -0.46369576 -0.23479894 0.03514516 0.07160878 0.07629332
0.09488876 0.081595145 0.04525795 -0.054179005 0.0099442955 0.044580694 -0.039276704 0.07313482
0.06868174 -0.13235638 -0.02031382 0.07470434 0.074141376 -4.7198747e-12 0.11686942 0.07347333
-0.18176952 0.023118028 0.068851225 -0.511571 0.12192587 0.05820771 0.08081209 -0.42427757
-0.022379767 0.09982671 0.027927227 -0.28280756 -0.014779786 -0.34553912 -0.26230633 -0.06943191
0.043465387 -0.29777902 0.12601106 -0.2352216 -0.26578856 0.045882028 -0.34109262 -0.03747994
0.06329489 -0.43177792 0.06534083 -0.47088882 0.030910937 0.05175866 0.021230986 -0.13815953
-0.07701225 0.09964323 0.031995967 0.009813875 0.07179489 0.039337523 0.09159535 0.098557726
0.07628693 -0.23141433 0.016337499 -0.039674856 0.057608966 0.08556349 -0.36935106 5.826194e-11
0.0630783 0.07167968 -0.2752063 -0.10457626 -0.015813177 0.010579007 -0.21022283 -0.048145037
0.08308659 -0.18713552 -0.12082862 0.09850296 1.3873618e-10 -0.38215193 -0.062323753 -0.0004887505
0.07752849 0.10773125 0.025108084 -0.40075475 -0.16491942 0.08098558 -0.5001598 -0.25420836
0.045551047 0.09684423 0.08740018 -0.039020732 -0.52858806 -0.26934266 -0.5043382 0.08988426
0.10409366 -0.13559014 0.07603103 -0.0149630895 0.05649727 0.12390771 -0.013435576 0.06826421
-0.3696952 0.047927164 -0.4956581 0.09169358 0.011514548 -0.31415257 -0.026083555 -0.2174924
0.060125757 0.001762307 0.12621191 -0.042443104 0.06357329 0.036597658 0.035150357 -0.36161375
0.05047224 -0.048331268 0.07896682 -0.4551843 -0.114775926 -0.040412735 0.106121995 0.07203167
-0.065387234 -0.10740007 0.0672268 -0.03725202 -0.081946574 -0.28280318 -0.09738987 -0.3353838
0.037279096 -0.13682802 -0.48656416 -0.5322677 -0.046422813 0.049293835 0.04358016 0.0712557
0.043319568 0.0012407652 0.08422514 0.17444001 0.09853416 0.10142516 0.17201498 0.08473682
-0.034397177 0.07394707 0.06430706 -0.2827692 0.04800359 -0.2144291 0.098544456 -0.06900573
0.060832266 -0.19135648 0.08186203 0.09233677 0.098875485 0.02731586 0.047626518 0.056923468
-0.5117666 0.068309784 0.051137887 0.06529086 0.065192156 0.038692664 0.03337132 0.05547157
0.048552286 0.038666416 -0.041854512 0.0053437697 -0.4864636 -0.06891138 0.09042041 0.101484984
0.07149719 -0.3041054 0.055100176 -0.5072034 -0.11506308 0.053437322 -0.12634547 0.06880659
00000000: 7787 3f3d 88bb 553d 9d99 a53d 7b75 043e
00000010: 0647 1a3d a60f 893d 6c41 06bf 992d 353d
00000020: 4b66 cdbc 8369 5d3d 4b19 773d b035 b33d
00000030: 7c73 febe e29b 093d b153 563d 3eae 903d
00000040: 4f4e 5d3d edfe 12bd 3d41 0ebf e7ff 663d
00000050: 5eb8 9f3d 3639 a0be 2e9a 3c3d 4d2e 553d
00000060: 2cfd 5e3d de45 fcbe 95a0 d03d 6d74 b3bd
00000070: c533 e8be 6f34 83bd 88f4 e6be 695c 77be
00000080: bd04 773d 9449 74bd 2d9f 5ebe 6a6d 1c3d
00000090: 17d1 b23d 026a a43d 2559 a53c 7de0 a4be
000000a0: 8600 2dbe 165f f5be 6c97 99be b115 713d
000000b0: 39c2 703d 7d8b a53d 1ea8 19af 9d12 733d
000000c0: ddbc 043e 815b ddbe b6ef 7d3d f3f5 9a3d
000000d0: 286d 9d3d 0933 14bf 1108 2dbe 2bb1 bd3b
000000e0: cb80 1cbe 528b bfbe 44e0 f8be 8869 edbe
000000f0: 226f 70be 5ff4 0f3d a0a7 923d ac3f 9c3d
00000100: 0a55 c23d 5b1b a73d 6660 393d ceea 5dbd
00000110: 66ed 223c 3f9a 363d 9ce0 20bd b5c7 953d
00000120: 03a9 8c3d 6e88 07be 2b69 a6bc 97fe 983d
00000130: 6fd7 973d da10 a6ac 3c59 ef3d 2f79 963d
00000140: ca21 3abe 0562 bd3c df01 8d3d 51f6 02bf
00000150: 45b4 f93d 356b 6e3d cf80 a53d e93a d9be
00000160: c655 b7bc f271 cc3d a4c7 e43c 27cc 90be
00000170: ea26 72bc 81ea b0be 044d 86be 5132 8ebd
00000180: c308 323d 7e76 98be 0b09 013e eedd 70be
00000190: 7015 88be cbee 3b3d b1a3 aebe 9184 19bd
000001a0: c0a0 813d ff11 ddbe 6ad1 853d 5718 f1be
000001b0: ef38 fd3c e300 543d 9bec ad3c b179 0dbe
000001c0: 99b8 9dbd c011 cc3d 340e 033d 60ca 203c
000001d0: 3309 933d 6220 213d 5896 bb3d a2d8 c93d
000001e0: 523c 9c3d e1f7 6cbe 38d6 853c 1a82 22bd
000001f0: 61f7 6b3d e93b af3d 951b bdbe 8e1e 802e
00000200: 322f 813d cccc 923d d7e7 8cbe 142c d6bd
00000210: a38a 81bc 9253 2d3c a744 57be bb33 45bd
00000220: 4d29 aa3d 74a0 3fbe ff74 f7bd ebbb c93d
00000230: c38a 182f 6ba9 c3be 3147 7fbd 7e1f 00ba
00000240: 42c7 9e3d 34a2 dc3d 78af cd3c ba2f cdbe
00000250: a3e0 28be c5db a53d 790a 00bf 9927 82be
00000260: bc93 3a3d 4556 c63d defe b23d 34d4 1fbd
00000270: 8c51 07bf 48e7 89be 4f1c 01bf 3d15 b83d
00000280: 0f2f d53d 24d8 0abe 28b6 9b3d bf27 75bc
00000290: ae69 673d 53c3 fd3d e420 5cbc 1bce 8b3d
000002a0: b048 bdbe 464f 443d e6c6 fdbe d8c9 bb3d
000002b0: 84a7 3c3c 9bd8 a0be 2ead d5bc 54b6 5ebe
000002c0: 6d46 763d 36fd e63a b23d 013e d2d8 2dbd
000002d0: b732 823d 6de7 153d d2f9 0f3d 7025 b9be
000002e0: fbbb 4e3d 02f7 45bd 5bb9 a13d eb0d e9be
000002f0: a40f ebbd d387 25bd 7d56 d93d 5785 933d
00000300: bee9 85bd 91f4 dbbd 34ae 893d 9395 18bd
00000310: 9bd3 a7bd 94cb 90be 5774 c7bd 6db7 abbe
00000320: f7b1 183d a51c 0cbe f01e f9be b242 08bf
00000330: d925 3ebd 55e8 493d 1c81 323d 82ee 913d
00000340: dc6f 313d 2ca1 a23a 3b7e ac3d 67a0 323e
00000350: 47cc c93d ffb7 cf3d b224 303e 7f8a ad3d
00000360: 0ee4 0cbd 9071 973d 6bb3 833d 20c7 90be
00000370: 6a9f 443d 4d93 5bbe add1 c93d e052 8dbd
00000380: 412b 793d f4f2 43be 48a7 a73d 0f1b bd3d
00000390: 3b7f ca3d 83c5 df3c 0614 433d 9528 693d
000003a0: 2303 03bf 00e6 8b3d f675 513d 37b7 853d
000003b0: 7783 853d 337c 1e3d 5eb0 083d 2836 633d
000003c0: c3de 463d ad60 1e3d a36f 2bbd ca1a af3b
000003d0: c211 f9be 6921 8dbd 562e b93d 5cd7 cf3d
000003e0: 1e6d 923d b4b3 9bbe b9b0 613d 15d8 01bf
000003f0: 31a6 ebbd 18e1 5a3d b560 01be 78ea 8c3d

linear2.bias f4 [59]
-0.016241401 -0.018686377 -0.014773691 -0.012474032 -0.010982554 -0.020207793 -0.021438975 -0.019447135
-0.01457762 -0.012036847 -0.01595547 -0.019833053 -0.01629476 -0.019378731 -0.013842341 -0.010017185
-0.019085031 -0.01327368 -0.020445859 -0.015684929 -0.011080333 -0.008772238 -0.022120211 -0.016239084
-0.01318783 -0.01875153 -0.016843064 -0.010021254 -0.017005898 -0.016945774 -0.01762424 -0.015704388
-0.010588398 -0.018578447 -0.01968387 -0.018761203 -0.013189954 -0.016065747 -0.01600612 -0.009498736
-0.015422207 -0.018774314 -0.01683934 -0.0187195 -0.012023992 -0.016678005 -0.018512081 -0.01760809
-0.021984654 -0.015923366 -0.008997963 -0.019532753 -0.011553867 -0.01995597 -0.01748843 -0.012719495
-0.011152835 -0.01607241 -0.01839787
00000000: b00c 85bc 2c14 99bc 5a0d 72bc e25f 4cbc
00000010: 2cf0 33bc d08a a5bc caa0 afbc 994f 9fbc
00000020: f8d6 6ebc 3236 45bc 0cb5 82bc ed78 a2bc
00000030: 977c 85bc 25c0 9ebc fcca 62bc 1e1f 24bc
00000040: 3658 9cbc d979 59bc 137e a7bc ae7d 80bc
00000050: 498a 35bc 6fb9 0fbc 7235 b5bc d407 85bc
00000060: c511 58bc cf9c 99bc 77fa 89bc 3030 24bc
00000070: f44f 8bbc ddd1 8abc b660 90bc 7da6 80bc
00000080: f67a 2dbc d431 98bc 1140 a1bc 18b1 99bc
00000090: ad1a 58bc 509c 83bc 441f 83bc 96a0 1bbc
000000a0: 6dad 7cbc 97cc 99bc a8f2 89bc a359 99bc
000000b0: 4700 45bc 50a0 88bc a6a6 97bc d73e 90bc
000000c0: 2919 b4bc b871 82bc 316c 13bc 2703 a0bc
000000d0: 6e4c 3dbc b47a a3bc e543 8fbc 6e65 50bc
000000e0: 61ba 36bc 49aa 83bc 21b7 96bc
