intermediary/model_15850.pth (torch, 356400 bytes, 5 tensors)

embed.weight f4 [59, 128]
000000 8a 29 af be ed ba 69 3e 30 b1 b7 be 45 b4 ac be
       -0.3421138 0.22825213 -0.3587737 -0.33731285
000010 a4 a2 bd 3e fa 29 c9 3e 90 91 d0 bd 96 9a e2 be
       0.37038147 0.39289838 -0.10184014 -0.44258565
000020 37 d5 da 3e a3 f6 a7 3e a8 f9 92 be 23 89 c7 be
       0.42740795 0.32805356 -0.28706098 -0.38971815
000030 ab d6 2b 3c 99 5f 64 be 53 88 ac be e2 42 bc 3e
       0.010488193 -0.22302093 -0.33697757 0.36769778
000040 9a 07 43 be 78 8d de be d9 51 b3 be 8c 9f c8 3e
       -0.19045869 -0.43467307 -0.35023382 0.39184225
000050 c5 61 cc 3e 9c 6a 82 3e cf 25 48 3e 8c b4 03 3e
       0.39918342 0.25471961 0.19545673 0.12861842
000060 e7 0f a8 3e ec c6 d5 3e 45 fb b3 be 7f ce 6e 3e
       0.32824633 0.41753328 -0.3515264 0.2332096
000070 af d9 9d 3c e8 6f cf 3e 80 64 d4 3e 3c 28 19 be
       0.019268839 0.40515065 0.41482925 -0.14956754
000080 94 68 d8 be 3a 8a c3 be 21 d0 9a be f5 66 89 be
       -0.42267287 -0.38191396 -0.30236915 -0.26836362
000090 e4 2b 9d 3e b2 06 fa 3e 56 d6 46 3e d1 a3 a6 bd
       0.30697548 0.48833233 0.194177 -0.08136714
0000a0 06 b2 b7 bd 68 e1 a3 be af 42 e1 3e 86 7a 8c 3e
       -0.08969502 -0.3200791 0.43996188 0.27437228
0000b0 66 6f c9 3e 72 9a c2 3d b2 b3 d5 3e 77 72 f7 3e
       0.39342803 0.09502114 0.4173866 0.48329517
0000c0 cb 66 ba be ee b4 92 be 36 c8 f9 3e bc 43 c6 3e
       -0.3640655 -0.28653663 0.4878556 0.38723552
0000d0 b6 7f ab be d9 cd c7 be 4f a3 a9 3e e7 61 89 3e
       -0.33495873 -0.39024237 0.33132407 0.26832506
0000e0 12 28 c1 be bd 89 47 3e d5 b6 8e be e9 f5 bd 3e
       -0.37725884 0.19486137 -0.27873865 0.37101677
0000f0 50 c7 a0 be 8a de be 3e a4 14 e1 be cd a1 c6 be
       -0.31402063 0.3727916 -0.4396106 -0.3879532
000100 54 c8 ad be a1 a4 78 3e e6 4b 42 be 9a 68 a6 3e
       -0.339419 0.24281551 -0.18974265 0.3250168
000110 dc ca bc 3e 7d c4 e6 be c7 ad 56 be a7 eb d1 be
       0.3687352 -0.45071784 -0.20964728 -0.410001
000120 dd a0 d6 be 76 1f d7 be 43 d4 6d 3e a3 2a 96 be
       -0.41919604 -0.4201619 0.23225503 -0.29329404
000130 f9 55 f0 3e 9a aa a5 3e 44 48 69 3e 14 04 d6 3e
       0.46940592 0.3235672 0.22781473 0.41799986
000140 70 89 ac 3e d1 68 a5 be 83 85 73 be f7 ab f8 be
       0.33698606 -0.3230653 -0.237814 -0.485687
000150 d6 a2 cf 3e 01 50 a5 be d1 9e 8f 3c 39 b3 b8 be
       0.4055392 -0.322876 0.017531784 -0.36074236
000160 9f 34 e1 be 2e 62 ca 3e 94 5e a3 3e 73 7d bf be
       -0.4398546 0.3952803 0.31908095 -0.37400398
000170 35 da c7 3e c9 e6 f5 be d5 27 b6 be 64 f9 b1 3e
       0.39033666 -0.48027638 -0.35577264 0.34760582
000180 c4 fa 8b 3e a1 b9 e2 3e 62 e7 92 be 2e 19 ab 3e
       0.27339756 0.4428225 -0.28692156 0.33417648
000190 cc be 72 3e 6d c1 e2 be cf c0 8f be 5e 38 59 3e
       0.23705596 -0.44288197 -0.2807679 0.21212909
0001a0 f7 3b dc 3e 6a 79 ce be e1 16 e0 3e 9d 88 e1 3e
       0.430145 -0.40327007 0.43767455 0.4404954
0001b0 74 34 90 3e d7 f6 9a be 4d 4c d7 be 57 dc 78 be
       0.2816502 -0.3026645 -0.420504 -0.24302803
0001c0 21 2e af 3e c7 49 5f be 30 52 e0 be 06 4a d8 be
       0.3421488 -0.21805488 -0.43812704 -0.42243975
0001d0 9f cc b9 3e 63 fe d1 be 7f a7 01 3e e1 56 93 be
       0.36288926 -0.41014394 0.12661551 -0.2877722
0001e0 91 2e dd 3e 3d af ab be 17 35 b6 3e 36 13 b2 3e
       0.4319959 -0.33532134 0.3558738 0.34780282
0001f0 03 6f d5 be 7b 71 89 3e 8f 36 e0 3e c7 f6 f4 3e
       -0.41686258 0.2684439 0.43791625 0.47844526
000200 5c 92 45 3e b6 5a a8 3e e3 f8 de bd e2 94 eb be
       0.19294113 0.32881707 -0.10887315 -0.46012026
000210 bb 5c ba be d9 5b 47 be 4c 35 fe bd f2 1a d5 be
       -0.36398873 -0.19468631 -0.12412509 -0.4162212
000220 32 f6 2e be 5a 4a e3 3e e4 dc c6 be bf 28 61 3e
       -0.17086104 0.44392663 -0.388404 0.219882
000230 37 5d e1 3e c0 95 00 3f a3 84 99 be 02 f5 8b 3d
       0.4401643 0.502285 -0.29984006 0.06833841
000240 14 0a 76 3e 82 b9 22 3d 82 09 c4 3e 0c 5f c7 be
       0.24027282 0.039727695 0.38288504 -0.38939703
000250 f8 d0 c6 3e 26 06 c0 be fa 86 d5 be bb 8f ab be
       0.38831306 -0.3750469 -0.4170454 -0.33508095
000260 d6 61 5a be 9d 4b 9f bd 51 7b 9a 3e f3 fa f0 be
       -0.21326384 -0.07778094 0.30172208 -0.4706646
000270 f6 ed eb be b4 5e 47 be 01 9f 64 be b7 29 c2 3e
       -0.46079987 -0.1946972 -0.2232628 0.3792245
000280 a6 d9 b8 3e 61 c6 ee be 89 57 fc 3e 74 73 d2 3e
       0.36103553 -0.46635726 0.49285534 0.4110371
000290 c7 a4 c9 be b1 4b b1 be 37 1e e0 be 96 da c3 3e
       -0.39383528 -0.3462806 -0.43773052 0.38252705
0002a0 83 37 ec 3e 11 22 f7 3e 1a ce c9 be 0b 2e d0 3e
       0.46136102 0.48268178 -0.39415056 0.40660128
0002b0 02 6f 81 be 41 a4 d7 be 48 45 02 3f 18 fb be 3e
       -0.25280005 -0.42117503 0.50886965 0.37300944
0002c0 2a 12 dc bd b5 66 e2 be 56 30 d4 3e 45 d1 c7 3e
       -0.10745652 -0.44218984 0.41443127 0.39026847
0002d0 d1 63 d3 be 4f 47 67 3e aa de 8e be bc 9d 9e 3e
       -0.4128709 0.22585796 -0.27904254 0.30979717
0002e0 3a 55 b4 be 4f 52 c8 bc 09 a7 dc 3e 23 88 a8 3d
       -0.35221273 -0.02445331 0.43096188 0.08229091
0002f0 d7 8d c2 3e fd b3 9e be 3b 08 d6 be f4 a9 a6 be
       0.3799884 -0.30996695 -0.41803154 -0.3255154
000300 ff 5c f7 bd 91 72 9b 3e 89 1c e0 3e 20 c8 e8 3e
       -0.120782845 0.30360845 0.4377177 0.45465183
000310 dc eb c7 be 41 19 d8 be 71 fa e5 3e 61 24 c6 3e
       -0.39047134 -0.42206767 0.44917634 0.3869963
000320 35 ff c2 3e bf d6 ca 3d ca 37 d5 be 45 9e c4 be
       0.38085333 0.09904241 -0.41644126 -0.38402
000330 cb f2 55 be 86 42 8e 3e 7d 82 9d be 73 20 26 3e
       -0.208934 0.27785128 -0.30763617 0.16223316
000340 50 80 00 bf eb a5 a0 be e0 26 1d 3d d8 a7 d9 be
       -0.5019579 -0.31376585 0.038367152 -0.42510867
000350 b5 2c c2 be 12 31 82 be ea 00 b0 be d4 85 ce be
       -0.37924734 -0.25428063 -0.34375697 -0.40336478
000360 31 21 b9 3e bb aa d2 be 07 f7 df be 1c aa a6 bd
       0.36158136 -0.41145882 -0.43743154 -0.081379145
000370 78 3b 6f 3e 3a 47 e6 be f6 22 bf 3e 55 cd 75 3e
       0.2336253 -0.44976217 0.3733136 0.24004109
000380 43 ee cf bd 05 81 6c be 75 2a 65 3e 4f c4 85 be
       -0.10152867 -0.23096092 0.22379477 -0.26126334
000390 14 e9 be be cc ba 85 3e 05 43 2c be 4a d4 c1 be
       -0.372872 0.26119077 -0.16822441 -0.37857276
0003a0 15 3d 78 be 9a 3a bd 3e 92 d9 ed 3e 0a fc 8d 3e
       -0.24242051 0.36958772 0.46455055 0.27731353
0003b0 f5 11 d8 be 0c a0 9a 3e 85 43 b2 3e a8 b7 f6 be
       -0.422012 0.3020023 0.34817138 -0.48186994
0003c0 b7 8f d2 be 4a ab df 3e cb 38 55 3e 70 a1 d1 3e
       -0.4112527 0.4368537 0.20822446 0.4094348
0003d0 70 22 d3 be 05 a9 44 be d4 e0 b2 3e c2 ee b6 be
       -0.4123721 -0.19205101 0.34937155 -0.35729033
0003e0 cc 6b 8d be 9e 5c d0 3e 04 73 ea 3e 8d f4 69 be
       -0.27621305 0.4069566 0.45790875 -0.22847195
0003f0 6b 11 88 be 0c 68 b2 be 7b 71 dc 3e 99 0b c1 be
       -0.2657579 -0.34845006 0.4305533 -0.3770416

linear1.weight f4 [256, 256]
000000 6e fb 04 be 85 90 10 be db 26 1a 3e b8 58 07 3e
       -0.12986538 -0.1411763 0.15053885 0.13217437
000010 d9 26 13 be 03 24 4d 3d 75 cb 2b 3e 9e 66 c3 3a
       -0.14370288 0.05008317 0.16776831 0.0014907902
000020 7b 41 56 be 15 10 15 bd 94 3b 3b 3e 4b 07 1f be
       -0.20923416 -0.03639229 0.18284446 -0.15530126
000030 e5 60 99 3b 04 2d 1a 3c 0b eb 1f be 38 aa 24 3e
       0.00468074 0.009410147 -0.15617006 0.16080558
000040 91 a1 8d 3d eb 53 13 3e 50 77 55 3e 64 0a e3 3d
       0.06915582 0.14387481 0.20846295 0.11085966
000050 8a db 9f bd 2c 80 c5 3d 2e ec 12 3d cb 7d 00 3e
       -0.07805546 0.096435875 0.03586977 0.12547986
000060 7c 7c 7d bc 77 ea 43 be 27 df 35 be ef 42 a5 bd
       -0.015471574 -0.1913241 -0.17760907 -0.08069407
000070 b2 d9 e6 3d 25 6b 0d 3c 7d 83 cb bd 31 19 e4 ba
       0.11271991 0.008631502 -0.09937189 -0.0017402527
000080 51 41 c9 bc 0d af 83 bc 17 88 27 3c e8 c9 40 3e
       -0.024567278 -0.016074682 0.010225317 0.18827021
000090 4e 80 c8 3d 47 62 f6 bd 4a 1a 58 3e cb 58 5d bd
       0.09790097 -0.12030464 0.21103778 -0.054039758
0000a0 59 d7 a6 ba e0 29 90 3c a8 27 1a be 68 36 7c bc
       -0.0012728974 0.017598093 -0.1505419 -0.015393831
0000b0 4c db 0e be e1 7f 0f be 58 ae eb bd cc 00 b8 3c
       -0.13950843 -0.14013626 -0.11507863 0.022461317
0000c0 f7 5c 34 be a1 52 b9 bd 97 ea 16 bd ed 8a 36 be
       -0.17613588 -0.09048963 -0.036844816 -0.17826433
0000d0 7a 6c 54 3d 4c c7 11 be d1 2d 26 be 15 0b e2 bb
       0.051861264 -0.14236182 -0.16228415 -0.0068982937
0000e0 be 56 4d 3d c0 d7 25 3b 48 3e 0a 3e 37 d3 9b 3d
       0.050131552 0.00253056 0.13500321 0.076086454
0000f0 e0 94 2a 3e a0 e1 3d bd 4c e7 19 3e 33 52 ad 3d
       0.16658354 -0.04635775 0.15029639 0.08462944
000100 2f 23 26 3e d1 37 f2 bd e1 78 26 be 15 d1 4c be
       0.16224359 -0.118270524 -0.16257049 -0.20001633
000110 06 91 42 bd fe 53 57 bd eb 22 5b bc e7 42 ae bd
       -0.047501586 -0.052570336 -0.013375024 -0.08508854
000120 6b bc e6 bd 46 08 2c be 8d 67 14 3e cb 9a 48 3e
       -0.112664066 -0.16800031 0.14492626 0.19590299
000130 94 e7 43 be 1e 6b 47 bd 94 35 eb bc 7c 9d 07 3e
       -0.19131309 -0.04868614 -0.028712071 0.1324367
000140 8c fc f7 bd 13 06 14 3e 65 eb 33 3e 8a 98 3a 3e
       -0.12108716 0.14455442 0.17570265 0.18222252
000150 a2 e9 5c bd 2d 9b 77 3d 3b 8a 38 3d e9 5e a5 3d
       -0.053933747 0.06045072 0.0450537 0.08074743
000160 33 a0 05 3e 87 9f 1b be 58 ab 27 be d6 b4 32 3e
       0.13049392 -0.15197574 -0.16373956 0.17451796
000170 50 21 62 3d 43 31 cb 3d 9c 0d 75 bd bb 55 aa 3c
       0.05520755 0.09921505 -0.059827432 0.020792833
000180 98 14 e2 3c a3 24 1c bd 1d 1a 04 bc 51 23 4a 3d
       0.02759771 -0.038120877 -0.0080628665 0.049350087
000190 3f 8c 1c be e5 ac 1e 3d cc 1a 37 3d 14 47 1e be
       -0.15287875 0.038739104 0.04470329 -0.15456802
0001a0 9a 51 c9 bd 73 0b c0 3c 23 6d 54 bd a8 6e 16 bd
       -0.098300174 0.02344296 -0.051861893 -0.036726624
0001b0 9a df 4d be 8a 0b 61 be a1 e0 0a 3d 89 10 11 3e
       -0.20104828 -0.21977058 0.03390563 0.14166464
0001c0 d2 0e 5e be 8f a9 aa bd a6 c0 18 3e 84 49 bf bd
       -0.21685341 -0.08333122 0.1491724 -0.09340194
0001d0 cf 3e 50 3e a7 cd 58 3e df 1b ad bc 51 de 18 3d
       0.2033646 0.211722 -0.021131454 0.037321392
0001e0 12 85 af 3d 42 31 f3 3d b6 45 3c be 3c dd 2e bd
       0.08570303 0.118746296 -0.18385968 -0.042691454
0001f0 92 73 0b be 0a 44 88 bd 6c 73 22 bd c1 ca f6 bd
       -0.13618305 -0.066536024 -0.039660856 -0.12050391
000200 e3 92 10 bc 0d e4 9a 3b 28 d1 c6 bd 7b 21 2b be
       -0.008824083 0.004726893 -0.09707862 -0.1671199
000210 d2 7c 32 3e 75 1e 33 be 98 dc 07 be b2 df 89 bc
       0.17430428 -0.17492087 -0.13267744 -0.016830299
000220 cc 54 b8 3d 33 15 16 3e 17 c4 1d be d7 e3 a8 bd
       0.09000549 0.14656524 -0.15406834 -0.08246582
000230 a8 19 60 be 85 88 5d be 5f dc 0e 3e 75 b7 08 3b
       -0.21884787 -0.2163411 0.13951252 0.0020861302
000240 31 5a 5e be e4 90 c9 bd 08 e9 59 bd 19 f9 b7 3d
       -0.21714093 -0.09842089 -0.05320075 0.089830585
000250 d3 23 3f be 40 57 e7 bc 3a b4 21 3e 78 ba 44 3d
       -0.1866601 -0.028239846 0.15791407 0.048029393
000260 a7 d0 36 be 8f 10 c6 3d 7c 28 8d bc ed 93 df 3d
       -0.17853032 0.09671127 -0.017231219 0.109168865
000270 a4 6b 1a be de 7d 3c be d3 31 88 bc 2a 31 5a 3e
       -0.15080124 -0.1840739 -0.01662532 0.21307817
000280 80 90 4c be b8 33 52 3e 0a 83 f5 bd 28 db d8 bb
       -0.19976997 0.20527542 -0.11987884 -0.0066179223
000290 11 19 91 bd 1c c2 f9 3d 9e 84 3e bd 45 ec 54 3e
       -0.07084859 0.121952266 -0.046513192 0.20793255
0002a0 46 17 57 be f9 c6 cb bd 7e f1 9d 3d 2f a7 22 be
       -0.21004972 -0.099500604 0.077120766 -0.15884088
0002b0 23 ca f6 3d 73 dd c9 bc b4 1e 26 be 08 8b d6 bd
       0.12050273 -0.024641728 -0.1622265 -0.10475737
0002c0 95 7e 1a 3e b2 d5 f5 bc 54 a9 38 be 14 ac 00 3e
       0.1508735 -0.030009124 -0.18033344 0.12565643
0002d0 fd 42 0d be 7d 15 c4 bd 1b 11 ea 3c 11 41 1a bd
       -0.13795085 -0.09574411 0.02857261 -0.03765971
0002e0 c1 8f f3 3d a8 4a 20 be 9f 1a 46 be b6 21 b6 bd
       0.11892653 -0.15653479 -0.19346093 -0.088931486
0002f0 bd 5c 5a 3c dd f5 08 be 1e 34 4f 3d d7 42 35 3e
       0.013327775 -0.1337504 0.050586812 0.17701279
000300 58 a6 30 3d e3 c6 59 3d 52 a9 c5 bd 07 13 d1 b9
       0.043127388 0.05316819 -0.09651436 -0.00039877763
000310 ee 9b fd bd 6d 2f c1 3d af f7 14 3d be 25 d9 bd
       -0.12383257 0.09432874 0.036369022 -0.10602902
000320 97 a0 08 be 8a 0c 1a 3e 29 df 0a be c1 93 a1 3c
       -0.1334251 0.15043846 -0.13561691 0.019723775
000330 f4 d3 73 bd 18 c1 45 be 3d 25 0e be 39 29 4b be
       -0.059528306 -0.1931194 -0.13881393 -0.19839944
000340 5f a0 2b 3e b9 89 06 bd 75 84 30 bd 68 e2 9b 3d
       0.16760395 -0.032846186 -0.04309507 0.07611543
000350 15 29 5e 3e 23 df 67 3a 38 f2 38 3e e5 57 b9 3d
       0.21695359 0.00088452006 0.18061149 0.09049968
000360 87 f7 04 be 4c 50 10 bd f0 8b 63 3d 17 df f7 bb
       -0.12985049 -0.035232827 0.055553377 -0.007564436
000370 c0 6c 4e be 2c 87 a8 bc 3b e8 d6 bd 25 9d 98 3d
       -0.20158672 -0.020572267 -0.10493513 0.07451848
000380 a8 9a d0 3c 2c 5f 27 bd 89 6c c8 3d b8 89 ce bd
       0.02546437 -0.040862247 0.097863264 -0.100848615
000390 19 9e 0d be 24 a6 c3 bd 55 3e 36 bb 22 ab 99 bd
       -0.1382984 -0.09553173 -0.002780815 -0.07503344
0003a0 40 6e 11 bd 98 d7 3b be 0a c3 39 3c 42 7c 08 be
       -0.035505533 -0.18343961 0.011338005 -0.1332865
0003b0 40 b1 2c 3d 9f 2b 5d 3d 56 b9 28 be 58 ec 22 3d
       0.042161226 0.05399668 -0.1647695 0.039776176
0003c0 1e ec 43 3d 73 37 95 bd 07 5f dd 3d c1 40 d2 bd
       0.0478326 -0.07285967 0.10809141 -0.10266257
0003d0 06 86 f8 3c 69 c7 2b 3a f7 51 57 be af 1a 14 3d
       0.030337345 0.0006552847 -0.21027361 0.03615826
0003e0 19 d9 27 bd ec 52 39 be d9 d6 33 3c ea b9 01 be
       -0.040978525 -0.18098038 0.010976517 -0.12668577
0003f0 40 a8 74 3b 71 83 26 be 2c 31 d5 3c fc eb b8 3d
       0.003733173 -0.16261078 0.026024424 0.090293854

linear1.bias f4 [256]
000000 43 3e 9f 3c 34 f1 b7 3c 08 bf 69 3b 9a b3 31 3c
       0.019438868 0.022453882 0.0035666842 0.010846043
000010 ea 37 37 3c 33 e8 70 3a 6b a8 08 3c ee 68 82 3a
       0.011182765 0.0009189874 0.008340935 0.0009949484
000020 8d 11 41 3c 2c 63 8a 3b c4 a9 69 3c ea 4a 66 3c
       0.01178397 0.004223248 0.014261667 0.014055947
000030 0c 82 88 3c d6 f0 24 3c e1 d7 77 3c 11 3b 95 3c
       0.016663574 0.010067185 0.015127153 0.018216642
000040 97 bc 09 3c 20 0e 1e 3a 27 c7 c4 3a cf 31 5d bc
       0.00840678 0.00060293265 0.0015012965 -0.013500645
000050 d4 7d 73 3b ec 86 f2 bb c5 52 9f 39 c4 22 8d 3c
       0.0037153857 -0.007401338 0.0003038851 0.017228492
000060 d7 2a e1 3c 56 dc 20 3d da a0 af 3c c6 21 28 3d
       0.027486248 0.03927263 0.021439005 0.041047834
000070 94 b8 90 3a c7 a8 c8 3c 0e 8d 6e 3d a5 49 58 3b
       0.0011041337 0.024494542 0.05823999 0.003300288
000080 17 d0 5b 3c 3d 0e c1 39 fe 4c a3 3b b1 dc a3 3b
       0.013416312 0.00036822437 0.0049835434 0.0050006737
000090 cc d5 f8 3a 82 99 a2 3c 2b 73 1d ba c7 57 46 3c
       0.0018984615 0.019848589 -0.0006006236 0.012105889
0000a0 49 99 36 3b 96 e6 d6 3b d0 c3 5a 3c d2 00 b1 3c
       0.0027862361 0.0065582497 0.013352349 0.021606836
0000b0 46 f3 9a bc e5 7d b9 3b 71 4a 86 28 74 68 14 3c
       -0.01891483 0.0056607598 1.4909272e-14 0.009058107
0000c0 00 4d f4 3c 40 72 91 3c d2 54 0d 3c 0c ea c9 38
       0.029821873 0.017754674 0.00862618 9.6280215e-05
0000d0 e3 05 58 bc da 5f b7 3c 35 ff 2f 3b a1 84 58 bc
       -0.013184997 0.022384573 0.0026854996 -0.013215215
0000e0 97 a0 8c 3b 0e 06 32 3c e7 af ca 3a f9 98 eb 3a
       0.0042916047 0.010865701 0.00154638 0.0017974667
0000f0 92 d6 4b 3a 79 07 87 3c ee 90 97 3c 24 89 f0 3c
       0.0007775809 0.016483055 0.018501725 0.029362269
000100 9d 0e e0 3b 5e 8c f9 3b 4e c9 3d 3b 02 b4 3f 3d
       0.0068376795 0.00761561 0.0028959098 0.04680253
000110 e0 86 05 3c 43 20 09 3c 7f 57 ac 3a b0 f4 47 3c
       0.0081498325 0.008369508 0.0013148634 0.012204334
000120 c5 2e 20 3c 11 d2 55 3c 3e cc 51 3c ca a6 46 3c
       0.009776776 0.013050572 0.012805043 0.012124727
000130 bc c3 dd 3b 97 6b fd 25 5e 12 5b 3c 36 fb 0b 3c
       0.006767718 4.396141e-16 0.013371078 0.00854378
000140 aa 75 80 3c 47 01 8b 3c 76 0b 75 3c f6 e0 4d 3c
       0.015681107 0.016968383 0.014956346 0.012565842
000150 d1 23 b6 3c 4e 2b cb 3c d1 69 77 3c cb b7 a0 3b
       0.022233875 0.024800923 0.015100912 0.0049047223
000160 aa 43 c2 3c 54 d1 58 3c a2 51 ed b7 d6 d8 dd 3b
       0.023713905 0.013233501 -2.8290615e-05 0.0067702336
000170 b7 18 48 3c b0 c5 cf 3c 73 25 ae 3c 28 0a 65 3c
       0.012212924 0.02536282 0.021258092 0.013979472
000180 c9 b6 b0 3c 51 9f 1d 3c 71 0d bb 3c 82 d2 75 3b
       0.021571534 0.0096205035 0.022833558 0.0037509506
000190 76 14 93 3b f6 ad 92 3b ea 7c 1c 3c d6 5a 6e 3c
       0.004488523 0.004476304 0.009551266 0.014548024
0001a0 b6 94 1b 3b 1c 48 02 3c fd 55 1d 3d 40 60 44 3c
       0.0023739762 0.0079517625 0.038412083 0.011985838
0001b0 38 b1 01 3a aa ee 6f 3b 66 b4 d7 3c cc e5 d4 3c
       0.0004947367 0.003661076 0.026331138 0.025988482
0001c0 dc 0a 09 3d 67 57 99 3b 05 3c e5 3c c8 68 4a 3c
       0.033457622 0.0046796086 0.027982721 0.012354083
0001d0 51 36 ff 3c 67 b4 8e 3c c9 30 1b 3d 13 87 3a 3d
       0.03115383 0.017420007 0.037888322 0.045538973
0001e0 34 92 ce 3c 52 25 5e 3c 1f 3c 92 3b 1f 82 ec 3a
       0.0252162 0.013558703 0.0044627334 0.001804415
0001f0 bd e5 4f 3c a6 c0 d5 3c 3b 9e ae 3b 55 dd 39 29
       0.012689051 0.026092838 0.005328921 4.1270227e-14
000200 49 e5 ce 3c ac 2c d8 3c ca 4f a4 3c 39 b8 02 3c
       0.025255816 0.026388489 0.020057578 0.007978492
000210 36 7b c2 ba e6 37 7e 3c 61 e6 82 ba 99 80 0d 3d
       -0.0014837745 0.015516257 -0.0009986871 0.03454647
000220 9c 46 51 3c d3 b1 0a 3c 9b 6f dd 3c 9d 97 b1 3c
       0.012773182 0.008465248 0.027030757 0.02167874
000230 43 09 24 29 c5 6d d6 3c 59 f3 13 3c 70 7d 79 3c
       3.642335e-14 0.026175389 0.009030187 0.015227661
000240 1a db b2 3c b8 2c 07 3c 20 79 63 3b 68 e5 06 3c
       0.021832991 0.008250408 0.0034709647 0.008233406
000250 5b 17 9b 3c 70 1b 72 3c 1f 55 df 3b 81 1f cf 3c
       0.018932035 0.014777049 0.006815567 0.025283577
000260 d5 f2 a0 3b be 62 20 bb 3a 41 88 3b 4f 6d 67 3c
       0.0049117603 -0.0024472917 0.0041581662 0.014125182
000270 51 f2 7a 3a 2c b4 de 3c 6c b7 3b 3d 87 b6 29 3c
       0.0009572851 0.027185522 0.04582922 0.010358459
000280 0d 9a 8b 3b e1 b9 b5 3b 57 58 a5 ba 88 6d 70 3c
       0.0042603076 0.00554584 -0.0012614828 0.014674552
000290 33 0a ca 3b a1 86 9b 3c 15 ea 9b 3c 5d 62 bd 3c
       0.0061657666 0.018985095 0.019032517 0.023118192
0002a0 a5 3c b6 bb e2 58 62 3c 37 69 00 3d 48 bc 82 3c
       -0.0055614286 0.013815137 0.03135034 0.01595892
0002b0 7c 3e f1 3c b6 87 b2 3b 53 d5 8d 3c 6d 8a fc 3a
       0.02944874 0.005448307 0.017313635 0.0019267328
0002c0 84 29 44 3c a5 c7 0b bb af e9 c4 3b 8f 91 57 3c
       0.011972789 -0.0021328714 0.0060093026 0.0131572625
0002d0 a0 34 ed 3b 29 09 9e ba 93 bc b7 3b f5 77 59 3c
       0.0072389394 -0.0012057173 0.0056071966 0.013273229
0002e0 95 34 de 3b df 08 9e 3c 4b 44 25 3c 00 45 78 3d
       0.0067811706 0.01929134 0.010087083 0.06061268
0002f0 7a ee 58 3d f1 d2 2a 3d 4e 69 7d 3c 6f b6 1a ba
       0.052961804 0.041705076 0.015467001 -0.00059018185
000300 a3 e4 43 bc 3f 6a 2d 3c 8c 02 47 3c 5d 4a 1b 3d
       -0.011956367 0.010584413 0.012146603 0.037912715
000310 7a cb 01 3c f8 86 de 3b 48 57 f6 3b 0a 74 9b 3c
       0.007922048 0.006790992 0.007517729 0.01897623
000320 7e 07 56 bb de 11 8d 3c 36 5d 68 bb 9f 6d 4d 3d
       -0.0032658274 0.017220434 -0.0035455949 0.05015337
000330 e6 4a af 3c 31 c0 c9 3c b5 55 90 bb 0f 1f d9 3c
       0.021398019 0.024627777 -0.0044047483 0.026504068
000340 33 5c 8c 3c 0e a4 0b 3c 0a 96 48 3c 2f 71 a8 bb
       0.017133808 0.008523 0.012242803 -0.0051404457
000350 91 fe 39 3d 13 43 2a 3c 30 b4 ff bb 89 13 f9 3b
       0.04540879 0.010391968 -0.0078034624 0.0076012057
000360 b6 a9 b0 3b ce 9d d0 3b e2 fd 80 3c a3 18 d9 3b
       0.005391325 0.006366468 0.01574606 0.0066252514
000370 41 d4 ea 3c 6c 91 78 3a 85 40 39 3d b0 24 86 3b
       0.028665664 0.0009482119 0.045227546 0.004093729
000380 3a 55 2a 3c 4f 8a 01 3c b8 b9 0e 3d 79 64 67 3c
       0.010396296 0.0079065105 0.034845084 0.014123076
000390 e0 cd 12 3c d3 df 37 3c 72 8d 93 ba 3f 2b 04 3c
       0.008960217 0.011222797 -0.0011257364 0.008066951
0003a0 c5 e1 e3 3b 3a 33 6e 3c 85 4e 73 3c 5b ad a6 3c
       0.006954404 0.014538581 0.0148502635 0.020346334
0003b0 de 2a b4 3c 22 a3 31 3c 47 ce f4 3b ca 64 cc 3b
       0.021993097 0.010842117 0.0074708792 0.006237601
0003c0 d8 1f 5f 3c 63 34 a6 3c 35 3b 26 3c 0c e5 43 3b
       0.013618432 0.020288652 0.010145952 0.0029891161
0003d0 d8 58 36 3c e0 d2 a1 3c b3 c0 e0 3c cc 98 9f 3c
       0.01112958 0.019753873 0.027435636 0.019482039
0003e0 e1 55 15 3d cf 0c bc ba 08 5d 89 3b d7 0b a9 3b
       0.036458854 -0.0014347079 0.0041919984 0.005158882
0003f0 a0 b9 73 3b d1 02 76 3c e6 57 94 3b 61 f9 78 3d
       0.0037189499 0.01501532 0.00452708 0.0607847

linear2.weight f4 [59, 256]
000000 c2 e5 5c 3d 49 d3 4e 3d d2 9f ad 3d 0a 6f 08 3e
       0.05393005 0.050494466 0.08477749 0.13323608
000010 51 18 2b 3d 87 ee 90 3d f1 cd 09 bf da 64 53 3d
       0.041771237 0.070767455 -0.53829867 0.05160985
000020 47 f4 a9 bc 6f 72 5c 3d 8e a7 69 3d 15 17 ab 3d
       -0.020746363 0.05382007 0.05704456 0.08354012
000030 df 4d fb be 9a 84 0e 3d c3 a6 48 3d de 56 91 3d
       -0.49082848 0.034794427 0.04898716 0.07096647
000040 e1 88 52 3d b5 58 12 bd 6d 7f 11 bf df 4b 7a 3d
       0.05140007 -0.03572913 -0.5683506 0.061107513
000050 7f 8a a5 3d 33 93 a3 be 02 cf 44 3d b4 03 5d 3d
       0.08083057 -0.31948242 0.04804898 0.05395861
000060 04 3f 61 3d 79 fe fd be 71 94 d7 3d 0f 42 ab bd
       0.054991737 -0.4960821 0.1052636 -0.08362209
000070 b1 ed e7 be a5 5e a5 bd f4 d3 f0 be 8f 2e 7a be
       -0.45298532 -0.08074693 -0.47036707 -0.24431823
000080 d5 72 6c 3d 91 2a be bd 65 a6 67 be 3e e0 1b 3d
       0.0577267 -0.09285463 -0.22622068 0.03805565
000090 cd d6 b3 3d a3 2f ad 3d 56 ee ac 3c 04 11 9e be
       0.087812044 0.084563516 0.021109741 -0.30872357
0000a0 3f 29 33 be 4a 90 f5 be ce 77 99 be 04 08 70 3d
       -0.17496203 -0.47961646 -0.29974216 0.058601394
0000b0 fa e0 67 3d 72 70 9c 3d 9e 57 82 aa 6a 49 6c 3d
       0.05661104 0.07638635 -2.3153436e-13 0.0576872
0000c0 a2 37 08 3e d8 25 de be 3e a0 77 3d da fa 9b 3d
       0.13302472 -0.43388247 0.060455553 0.076162055
0000d0 c4 9d a1 3d cc c8 14 bf 39 28 33 be 04 76 5e bc
       0.078914195 -0.5811889 -0.17495812 -0.013577942
0000e0 9b 5a 18 be 6b 8c c0 be f8 3f f8 be 27 08 e9 be
       -0.14878313 -0.3760713 -0.48486304 -0.45514032
0000f0 6c 40 70 be 5b bb d0 3c b9 07 93 3d 5f 17 a0 3d
       -0.23462075 0.025479963 0.07179207 0.07816958
000100 1a 40 c1 3d 83 92 b0 3d 89 c2 36 3d 6a 45 6c bd
       0.094360545 0.08621695 0.044619117 -0.057683386
000110 23 f1 49 3c c7 ae 2e 3d 52 d7 14 bd 6a cc 91 3d
       0.012325558 0.04264715 -0.036338158 0.07119067
000120 e8 be 88 3d 0b 86 05 be d4 49 e8 bc c8 cc 91 3d
       0.066770375 -0.13039415 -0.028355516 0.07119137
000130 a8 b8 93 3d d2 d2 8a a7 96 4e ee 3d 6f af 9c 3d
       0.07212955 -3.8531266e-15 0.11636083 0.07650649
000140 4d f4 3c be d7 84 cf 3c bf 53 95 3d 7f dc fb be
       -0.18452568 0.025331898 0.07291364 -0.49191663
000150 2f d3 f7 3d ce 97 74 3d 5a 3e 9e 3d 07 10 da be
       0.12100827 0.059715085 0.07726736 -0.42590353
000160 c2 d2 db bc a1 30 c6 3d f2 6b b3 3c a9 98 90 be
       -0.026833896 0.09677244 0.021902058 -0.2824147
000170 70 fc 31 bc 1c 5b b2 be 88 01 88 be 28 e7 8b bd
       -0.010863408 -0.34835136 -0.26563668 -0.06831199
000180 70 d4 37 3d 55 18 9b be 8f 6d 01 3e 8f 22 66 be
       0.04488033 -0.30292 0.1263945 -0.2247412
000190 0d 1c 8b be bc 5a 34 3d 0d 1b b1 be 15 be 93 bc
       -0.2716984 0.044031844 -0.3459095 -0.018034974
0001a0 16 62 86 3d 7e 4c df be 8a 18 64 3d c7 36 f0 be
       0.06561677 -0.43613046 0.055687465 -0.46916792
0001b0 5c cb f9 3c 14 96 50 3d 55 95 c3 3c e8 b3 14 be
       0.030492477 0.050924376 0.023874918 -0.14521754
0001c0 0e 8b 90 bd 2a 87 c8 3d b5 ce 28 3d 6a 17 5c 3c
       -0.070577726 0.097914055 0.041212756 0.013433317
0001d0 63 25 97 3d 24 54 26 3d 69 c8 b8 3d c3 82 cc 3d
       0.07380178 0.040607587 0.090226 0.09985878
0001e0 14 b3 96 3d 3e 06 6b be 59 de 88 3c e1 7e 24 bd
       0.07358375 -0.229516 0.016707586 -0.040160064
0001f0 b2 68 65 3d ef c3 af 3d a5 37 bc be cc 55 bc 29
       0.05600805 0.08582293 -0.36761203 8.3637605e-14
000200 19 e7 80 3d 53 f1 8b 3d ec 3d 88 be 8b bb d8 bd
       0.062940784 0.06833138 -0.26609743 -0.10582646
000210 a1 5d 56 ba 27 15 15 3d 1c b9 58 be 0c 89 30 bd
       -0.0008177404 0.036397126 -0.21164364 -0.043099448
000220 a9 f5 a9 3d 58 c0 49 be 70 f5 06 be 10 c5 cc 3d
       0.08298809 -0.1970228 -0.13179564 0.09998524
000230 9d e0 cc 2a 5d a4 cb be 1d 65 b8 3a ab 93 44 bb
       3.6393536e-13 -0.39773837 0.001406822 -0.0029995244
000240 d7 ee a3 3d 7f 6a da 3d 96 d5 cb 3c a3 1e cd be
       0.080045395 0.10664844 0.02488212 -0.40062436
000250 81 8e 21 be f4 4b a3 3d 02 68 fe be d9 7c 81 be
       -0.15777017 0.07973471 -0.49688727 -0.25290564
000260 66 36 39 3d 04 fd c2 3d 2a c7 b2 3d 26 50 1d bd
       0.045217894 0.09520915 0.08729394 -0.038406514
000270 f0 1a 08 bf 37 dc 87 be 04 f1 f2 be fd f9 be 3d
       -0.53166103 -0.26535198 -0.47449505 0.09325025
000280 29 f7 d5 3d d6 1c 68 be a1 4d a5 3d f3 e7 24 bc
       0.10447533 -0.2266725 0.08071447 -0.010065067
000290 b0 30 60 3d bb b8 fc 3d b2 3e 60 bc da eb 8b 3d
       0.054733932 0.12339922 -0.013686823 0.068320945
0002a0 e5 c1 be be 99 84 41 3d 4a 84 ff be 78 da c0 3d
       -0.37257305 0.047245596 -0.49905616 0.094166696
0002b0 fd 9f 4c 3c 4b 3d 9e be d1 c2 df bc 84 77 5f be
       0.012489316 -0.30906138 -0.027314575 -0.21822935
0002c0 4c 0b 63 3d b9 16 ef bb fc 7b fd 3d 7f c6 41 bd
       0.055430695 -0.00729641 0.12377164 -0.04730844
0002d0 5c 3e 7d 3d ee 81 11 3d 21 8d 13 3d cd 96 aa be
       0.06182705 0.0355243 0.036023263 -0.33318177
0002e0 1f d8 47 3d 48 e1 35 bd de 23 a3 3d 1b 0e ea be
       0.048790094 -0.044404298 0.079658255 -0.45713887
0002f0 9d e7 f1 bd 5b 12 14 bd 6e 12 ce 3d fe f9 8c 3d
       -0.11811755 -0.036150318 0.10062109 0.0688362
000300 7b 68 9a ba c3 5d d5 bd 69 ee 89 3d 4d 90 26 bd
       -0.0011780405 -0.10418274 0.06734926 -0.04066496
000310 06 0a c8 bd 0a a0 90 be d9 86 c5 bd 68 b3 ae be
       -0.09767537 -0.282471 -0.09644861 -0.3412125
000320 ee 93 25 3d af fd 10 be 32 5d f9 be 2c 8d 15 bf
       0.04042428 -0.14159273 -0.48703915 -0.58418536
000330 79 19 78 bd 9d dd 5b 3d b6 2a 93 3c fc 0b 8b 3d
       -0.060571168 0.053678144 0.017964702 0.06789395
000340 04 33 46 3d fd eb ca 3b a0 22 af 3d 05 aa 31 3e
       0.048388496 0.006192683 0.08551526 0.17350014
000350 3c 86 cc 3d dc 67 d6 3d a7 93 2d 3e 77 de ac 3d
       0.09986541 0.10469028 0.16950856 0.08440869
000360 73 c1 a3 bd 07 9e 93 3d 37 15 7d 3d b9 92 90 be
       -0.07995882 0.07207876 0.06178781 -0.2823694
000370 aa 9d 19 3d e6 cc 58 be 2b 92 cc 3d 12 a0 3f bd
       0.037503876 -0.21171913 0.09988817 -0.046783514
000380 56 f2 70 3d 94 39 4a be 7e 03 b0 3d 5e 4a bb 3d
       0.05882486 -0.19748527 0.08594416 0.09145044
000390 01 23 cb 3d e8 2d bf 3c 95 0c 51 3d 68 25 56 3d
       0.09918786 0.02333732 0.05103739 0.052281767
0003a0 33 27 e3 be 50 4b 8b 3d 27 a1 5a 3d 51 da 7e 3d
       -0.44365844 0.06801474 0.053376343 0.06221992
0003b0 dc 68 83 3d 52 57 2c 3d 4a fb 11 3d 48 79 6d 3d
       0.06416485 0.042075463 0.03564004 0.05797699
0003c0 dc b5 40 3d be d2 1d 3d 61 a2 47 bd 67 f3 8b 3b
       0.047048435 0.038531058 -0.04873884 0.004270959
0003d0 15 39 ef be 9e 40 93 bd 38 cc b8 3d b6 a3 ce 3d
       -0.46723238 -0.07190059 0.09023327 0.10089819
0003e0 3e e3 90 3d 81 a1 9a be 4f 70 55 3d f9 f7 00 bf
       0.07074593 -0.30201343 0.05210906 -0.50378376
0003f0 91 81 09 be c5 37 56 3d c7 93 06 be 62 f3 8c 3d
       -0.13428332 0.05229928 -0.1314231 0.06882359

linear2.bias f4 [59]
000000 4f 0b 84 bc 74 21 9d bc 11 da 73 bc 5d 35 63 bc
       -0.016118674 -0.01918099 -0.014883534 -0.013867703
000010 fc c4 5b bc 3c 03 9d bc 39 57 a7 bc 30 39 a6 bc
       -0.013413664 -0.019166581 -0.020427333 -0.020290941
000020 f3 69 53 bc 18 a2 42 bc 69 10 83 bc 6f 67 92 bc
       -0.012903678 -0.0118794665 -0.015999036 -0.017871587
000030 77 7b 89 bc c5 b5 9c bc 35 d2 5e bc 53 e7 28 bc
       -0.016782505 -0.019129643 -0.013599922 -0.010309058
000040 17 ec a9 bc 75 df 42 bc 4e 1e ab bc a9 28 90 bc
       -0.02074246 -0.011894097 -0.020888474 -0.017597513
000050 5b 6b 50 bc 9e c9 11 bc af c7 b3 bc 69 47 89 bc
       -0.012720908 -0.008898167 -0.021945802 -0.016757684
000060 e7 1c 55 bc af 88 a6 bc 06 c6 8f bc 6d 3b 44 bc
       -0.013007379 -0.020328848 -0.01755048 -0.011977059
000070 95 95 94 bc 78 07 7c bc 9f b1 93 bc 60 a0 86 bc
       -0.018137733 -0.01538264 -0.018029032 -0.016433895
000080 da c9 28 bc 02 29 94 bc 7b 1b 9b bc 8c 82 90 bc
       -0.010302031 -0.01808596 -0.018934002 -0.017640375
000090 22 9d 59 bc ce 06 8b bc 72 18 84 bc 3e ae 2d bc
       -0.013282092 -0.016971018 -0.016124938 -0.010600625
0000a0 5a ba 88 bc 9d f7 a3 bc 78 49 80 bc ee 65 9d bc
       -0.016690422 -0.020015532 -0.015660033 -0.019213643
0000b0 e8 1e 64 bc 90 fb 95 bc 1b d6 94 bc 84 53 96 bc
       -0.013923384 -0.01830843 -0.0181685 -0.01835037
0000c0 e3 3a ba bc 18 c8 72 bc f3 0e 0a bc 8a 80 a3 bc
       -0.022733158 -0.014818214 -0.008426416 -0.019958753
0000d0 69 2e 43 bc 80 c2 90 bc b8 ee 83 bc 52 2f 4f bc
       -0.0119129205 -0.01767087 -0.01610504 -0.012645559
0000e0 bd b9 4b bc 3c 82 90 bc 74 6b 92 bc
       -0.01243442 -0.017640226 -0.017873503
