intermediary/model_10200.pth (torch, 356400 bytes, 5 tensors)

embed.weight f4 [59, 128]
0	0xbeaefa3c	-0.3417529
1	0x3e72de72	0.23717669
2	0xbecf37b3	-0.40472183
3	0xbeb054b9	-0.34439638
4	0x3ecf6f17	0.40514442
5	0x3ed0646d	0.4070162
6	0xbe1fec79	-0.15617551
7	0xbee15322	-0.44008738
8	0x3ee3b2dc	0.44472396
9	0x3ea50dc4	0.32237065
10	0xbeb6a4b4	-0.35672534
11	0xbec4be5a	-0.38426477
12	0x3cd54576	0.026034098
13	0xbe556aa6	-0.20841464
14	0xbeae62b3	-0.34059677
15	0x3ebe14c9	0.37125233
16	0xbe8c03d0	-0.2734666
17	0xbede6abf	-0.43440816
18	0xbea54699	-0.32280424
19	0x3eca9b85	0.39571777
20	0x3ec87859	0.39154318
21	0x3e7a4eff	0.24444197
22	0x3e0edfe3	0.13952594
23	0x3e45a3d5	0.19300778
24	0x3e9ce6aa	0.30644733
25	0x3edcdedd	0.4313878
26	0xbeb4dab9	-0.35323122
27	0x3e906413	0.2820135
28	0x3d53fcbd	0.051754702
29	0x3ecb0f3b	0.39660057
30	0x3ed23e78	0.41063285
31	0xbe1dac78	-0.15397823
32	0xbed80ca9	-0.4219716
33	0xbed14a2d	-0.40876904
34	0xbe9f522b	-0.31117377
35	0xbe8678d6	-0.26264066
36	0x3e76ed0c	0.24113864
37	0x3ef905ab	0.48637137
38	0x3e819f66	0.25316924
39	0xbe2de6f9	-0.1698264
40	0xbdbd7ed7	-0.092527084
41	0xbe99c3c9	-0.30032185
42	0x3ee37b09	0.44429806
43	0x3e640233	0.22266464
44	0x3ee72f97	0.45153496
45	0x3def564d	0.116863824
46	0x3ed3f899	0.41400602
47	0x3efaae86	0.48961276
48	0xbebdb8e9	-0.37055138
49	0xbe8de244	-0.2771169
50	0x3ef5a183	0.47974786
51	0x3ece644f	0.40310904
52	0xbeb16814	-0.34649718
53	0xbec2229f	-0.3791704
54	0x3eb4c9b2	0.3531013
55	0x3e0536fb	0.13009255
56	0xbec40ab6	-0.38289422
57	0x3e434b34	0.19071656
58	0xbeb2dd3e	-0.3493442
59	0x3ecca90a	0.39972717
60	0xbe882144	-0.2658788
61	0x3ec43776	0.38323563
62	0xbee089a0	-0.43855
63	0xbed0a7b0	-0.40752935
64	0xbeb25587	-0.34830877
65	0x3e4692cc	0.19391936
66	0xbe429efc	-0.1900596
67	0xbc482abb	-0.012217219
68	0x3ebc5fcb	0.36791834
69	0xbee60d6c	-0.44932115
70	0xbdc2f802	-0.0951996
71	0xbed42273	-0.41432533
72	0xbec5ec84	-0.3865701
73	0xbed811e1	-0.4220114
74	0x3e824187	0.25440618
75	0xbe925dd2	-0.28587204
76	0x3eeb9447	0.46011564
77	0x3e9cd3d2	0.30630356
78	0x3e76c154	0.24097186
79	0x3ed35311	0.41274312
80	0x3eb6e731	0.3572326
81	0xbe9b937f	-0.30385968
82	0xbdf74f13	-0.12075629
83	0xbefac6ad	-0.48979703
84	0x3ed36e46	0.4129507
85	0xbea59c4a	-0.32345802
86	0x3cc7de2c	0.024397932
87	0xbea73da1	-0.32664207
88	0xbee20d2d	-0.44150677
89	0x3ed086a4	0.40727723
90	0x3eb1089f	0.3457689
91	0xbe6a04d1	-0.228534
92	0x3ed207c3	0.41021547
93	0xbf010952	-0.50404847
94	0xbeae676f	-0.3406329
95	0x3eb5349d	0.35391703
96	0x3e92e24b	0.28688273
97	0x3ee5964f	0.4484124
98	0xbe9356db	-0.28777203
99	0x3eb8d59e	0.36100477
100	0x3e86780e	0.2626347
101	0xbee56908	-0.44806695
102	0xbe88d7e4	-0.2672721
103	0x3e396092	0.18103245
104	0x3edd2ae7	0.43196794
105	0xbecf771e	-0.40520567
106	0x3ee2fe5b	0.44334683
107	0x3edeae7a	0.4349249
108	0x3e92ac06	0.28646868
109	0xbea51027	-0.32238886
110	0xbed68250	-0.41896296
111	0xbe8025e1	-0.250289
112	0x3ea974db	0.33096966
113	0xbe3ce55d	-0.1844687
114	0xbee038c2	-0.43793303
115	0xbed4f09a	-0.41589814
116	0x3eb820bd	0.35962477
117	0xbedb24c5	-0.4280149
118	0x3d50a478	0.0509381
119	0xbe91da24	-0.2848674
120	0x3edfe9d9	0.437331
121	0xbeb63822	-0.355897
122	0x3ec99c5d	0.39377108
123	0x3e9fd041	0.31213573
124	0xbed984a1	-0.42484
125	0x3e9750fa	0.29553968
126	0x3ede6add	0.43440905
127	0x3eed37fe	0.4633178
128	0x3e54671d	0.2074246
129	0x3eb34847	0.3501608
130	0xbdeb5205	-0.11490253
131	0xbee8cf85	-0.45470825
132	0xbeae7337	-0.34072277
133	0xbe1a9f0c	-0.15099734
134	0xbe1ab18a	-0.15106788
135	0xbed54307	-0.416527
136	0xbe2fa8f6	-0.17154297
137	0x3ee423be	0.4455852
138	0xbed5084a	-0.41607887
139	0x3e5840c8	0.21118462
140	0x3ee897c2	0.45428282
141	0x3f01a12f	0.5063657
142	0xbe4af977	-0.19821726
143	0x3defb3ab	0.11704191
144	0x3e6d3d23	0.23167853
145	0xbaa40cca	-0.0012516018
146	0x3eb06127	0.3444912
147	0xbec5e581	-0.3865166
148	0x3eb9c201	0.36280826
149	0xbebdb5c8	-0.3705275
150	0xbedbe35e	-0.42946905
151	0xbeb537fc	-0.35394275
152	0xbe37573c	-0.17904371
153	0x3d34080b	0.043952983
154	0x3ea107d9	0.314513
155	0xbef9e5bd	-0.4880809
156	0xbee6f389	-0.45107678
157	0xbe1b3af6	-0.1515921
158	0xbe627f10	-0.22118783
159	0x3ebe1eae	0.37132782
160	0x3ebc106a	0.36731273
161	0xbef6b05c	-0.48181427
162	0x3f008b06	0.5021213
163	0x3ec9e48a	0.39432174
164	0xbec9a651	-0.39384702
165	0xbeaed34a	-0.34145576
166	0xbed38296	-0.41310567
167	0x3ebeecd8	0.37290072
168	0x3efb7dc0	0.49119377
169	0x3f0182fe	0.50590503
170	0xbec9ab62	-0.39388567
171	0x3eda3519	0.42618635
172	0xbe73a4ce	-0.23793337
173	0xbed93c72	-0.4242893
174	0x3f016dc4	0.50558114
175	0x3ecf03f8	0.40432715
176	0x3c76720b	0.015041838
177	0xbed8dad5	-0.42354456
178	0x3eddc192	0.43311745
179	0x3ecc0718	0.39849162
180	0xbed57c04	-0.4169618
181	0x3e703e39	0.23461236
182	0xbe96113e	-0.2931003
183	0x3e9eb963	0.31000814
184	0xbee9a56d	-0.45634022
185	0x3e275379	0.16340436
186	0x3edd7fe1	0.43261626
187	0x3def416e	0.116824016
188	0x3ebcdcf7	0.36887333
189	0xbe82e04b	-0.25561747
190	0xbed7d251	-0.42152646
191	0xbeb29a2b	-0.34883246
192	0xbe204cb8	-0.15654266
193	0x3ea5ffbb	0.3242167
194	0x3ee7e0d9	0.45288733
195	0x3ee0da36	0.43916482
196	0xbeb92275	-0.361591
197	0xbedd9792	-0.432797
198	0x3ed80bdb	0.42196545
199	0x3ec6e109	0.38843563
200	0x3ebca6c1	0.36845973
201	0x3d93b12c	0.07211527
202	0xbedfa827	-0.43682978
203	0xbebe5846	-0.37176722
204	0xbe447f1b	-0.19189112
205	0x3e8dbf3a	0.27684957
206	0xbe9e7120	-0.30945683
207	0x3e8797f4	0.2648312
208	0xbefec0e3	-0.49756536
209	0xbea036a0	-0.31291676
210	0x3c8531f4	0.016259171
211	0xbedc7ad5	-0.43062463
212	0xbec7a856	-0.38995618
213	0xbe8b1dc7	-0.27171156
214	0xbeb59a19	-0.3546913
215	0xbed9b1c2	-0.4251843
216	0x3ea3b482	0.31973654
217	0xbecfb833	-0.4057022
218	0xbee0cc2a	-0.43905765
219	0x3e09d46a	0.13459936
220	0x3e840e4b	0.25792155
221	0xbee24155	-0.4419047
222	0x3ec2cd08	0.3804705
223	0x3ea98a5a	0.33113366
224	0xbdec1790	-0.11527932
225	0xbe7c7737	-0.24654852
226	0x3e5f1888	0.21786702
227	0xbe5cec95	-0.21574624
228	0xbebbce12	-0.36680657
229	0x3e43448e	0.1906912
230	0x3d08010d	0.033204127
231	0xbead346c	-0.33829057
232	0xbe777e02	-0.24169162
233	0x3ec4f529	0.38468292
234	0x3ef235f8	0.473068
235	0x3e609ef2	0.21935633
236	0xbed84a2b	-0.42244086
237	0x3ea5aef0	0.3236003
238	0x3ead61cc	0.33863676
239	0xbefd66f0	-0.49492598
240	0xbed5c804	-0.41754162
241	0x3ee5112f	0.44739673
242	0x3e4899e1	0.1958995
243	0x3eda7c8f	0.42673156
244	0xbed497ca	-0.41522056
245	0xbc951662	-0.01819915
246	0x3ecb61b2	0.39722973
247	0xbeb1cb4b	-0.34725413
248	0xbe7eae6c	-0.24871224
249	0x3ecde7a2	0.40215784
250	0x3ee6f47e	0.45108408
251	0xbe2ccb48	-0.1687442
252	0xbe92c929	-0.28669098
253	0xbebcd105	-0.3687822
254	0x3ee950c6	0.45569438
255	0xbecde6f7	-0.40215275

linear1.weight f4 [256, 256]
0	0xbe0b7b67	-0.13621293
1	0xbe0f02f3	-0.13965969
2	0x3e1d4966	0.1536003
3	0x3e0360ea	0.12829939
4	0xbe2778ef	-0.16354726
5	0x3cb5dd9a	0.022200394
6	0x3e325863	0.1741653
7	0xbc412fc8	-0.011791177
8	0xbe67f9b4	-0.22653848
9	0xbcffa759	-0.031207727
10	0x3e41d9e1	0.1893077
11	0xbe295448	-0.16536057
12	0xbd0fbc49	-0.035091672
13	0x3a118b29	0.00055520475
14	0xbe2944e5	-0.16530187
15	0x3e0ff11c	0.1405682
16	0x3dabbe3a	0.08385892
17	0x3e227a98	0.15867078
18	0x3e63101a	0.22174111
19	0x3ddc484a	0.107559755
20	0xbd211925	-0.03933062
21	0x3de0f31e	0.10983871
22	0x3d605450	0.054767907
23	0x3de79994	0.113085896
24	0xbc90b854	-0.01766602
25	0xbe58e195	-0.21179803
26	0xbe500cb1	-0.20317341
27	0xbda3af99	-0.07992477
28	0x3dbd722f	0.092502944
29	0x3c546de7	0.012965656
30	0xbdcdcedf	-0.10049223
31	0x3c1f5991	0.009725944
32	0xbcb5a8d7	-0.022175236
33	0x3d2d1416	0.042255484
34	0x3d28661c	0.041113004
35	0x3e4c533f	0.19953631
36	0x3dd1f169	0.102511235
37	0xbe004a83	-0.12528424
38	0x3e483aa6	0.19553623
39	0xbd137809	-0.036003146
40	0xbcda8700	-0.026675701
41	0x3c8b2a6c	0.016988002
42	0xbe28cda4	-0.16484696
43	0xbcd115d0	-0.025523096
44	0xbe06182b	-0.13095157
45	0xbe12f614	-0.14351684
46	0xbdff8f62	-0.1247852
47	0xbce77368	-0.028253272
48	0xbe380576	-0.17970833
49	0xbddbde45	-0.10735754
50	0xbcdfe504	-0.027330883
51	0xbe32e66c	-0.17470711
52	0x3d7c43c8	0.06158808
53	0xbe0e0b64	-0.13871533
54	0xbe2a1c26	-0.166123
55	0x3cff2f1d	0.031150395
56	0x3d9098af	0.07060372
57	0xbc019d4e	-0.0079110395
58	0x3e2600a5	0.16211183
59	0x3ddaabeb	0.10677322
60	0x3e4479e2	0.1918712
61	0xbd879e78	-0.066220224
62	0x3e1c3494	0.15254432
63	0x3e0519d5	0.12998135
64	0x3e2e7472	0.17036608
65	0xbe0ced7f	-0.13762473
66	0xbe3ac3a5	-0.18238695
67	0xbe04a803	-0.12954716
68	0xbd3c63af	-0.045993503
69	0xbd4af3fd	-0.04954909
70	0xbd3d8e63	-0.04627837
71	0xbdb0432a	-0.086065605
72	0xbddeade2	-0.10873009
73	0xbe1c90f6	-0.15289673
74	0x3ded1320	0.115759134
75	0x3e55851f	0.20851563
76	0xbe4fcd7e	-0.20293233
77	0xbd9cc26e	-0.07654272
78	0xbd36219f	-0.044465657
79	0x3de1e655	0.110302605
80	0xbd7860b4	-0.0606391
81	0x3e186792	0.14883259
82	0x3e225dec	0.15856141
83	0x3e3eae61	0.18621208
84	0xbd2150f7	-0.039383855
85	0x3d882308	0.06647307
86	0x3d431e19	0.047636125
87	0x3da451d0	0.08023417
88	0x3e1c738a	0.1527845
89	0xbe28e400	-0.16493225
90	0xbe326723	-0.17422156
91	0x3de584b7	0.11206954
92	0x3c30ad25	0.010783468
93	0x3e0faab5	0.14029963
94	0xbdad63c0	-0.084662914
95	0x3c7fd2e5	0.015614246
96	0x3d3c2d49	0.045941625
97	0xbd37a8fe	-0.044838898
98	0x3c5a8570	0.013337478
99	0x3cb7021f	0.022339879
100	0xbe293e26	-0.16527614
101	0x3cf007b2	0.029300544
102	0x3b326842	0.0027222787
103	0xbe1847e4	-0.14871174
104	0xbde1ac88	-0.11019236
105	0x3c66aeb5	0.014079739
106	0xbd6292a7	-0.05531564
107	0xbceaa70e	-0.028644111
108	0xbe523904	-0.20529562
109	0xbe5e848f	-0.21730255
110	0x3ccf7255	0.025323072
111	0x3e30352a	0.1720778
112	0xbe5e886e	-0.21731731
113	0xbde59694	-0.11210361
114	0x3e33f1ae	0.17572662
115	0xbddde255	-0.10834185
116	0x3e590f51	0.21197249
117	0x3e5f83a6	0.21827564
118	0xbd746625	-0.059667725
119	0x3d323cdf	0.043515082
120	0x3de2aba4	0.11067894
121	0x3de084a1	0.10962797
122	0xbe47e780	-0.19521904
123	0xbd413081	-0.047165398
124	0xbe118a8c	-0.14213008
125	0xbd6eba07	-0.05828288
126	0xbd5a035f	-0.05322587
127	0xbe053f4e	-0.1301243
128	0x3c3decb6	0.011592081
129	0xbb24ce03	-0.0025147207
130	0xbde0be84	-0.10973838
131	0xbe4235a4	-0.18965775
132	0x3e31bfaa	0.1735827
133	0xbe44b3a4	-0.19209152
134	0xbe15e2c2	-0.14637282
135	0xbc48d6c7	-0.012258238
136	0x3de8d86a	0.11369403
137	0x3e16ba2f	0.14719461
138	0xbe366c12	-0.17814663
139	0xbd80cf2d	-0.06289516
140	0xbe54ec44	-0.20793253
141	0xbe6b3a43	-0.22971444
142	0x3defdc2a	0.11711915
143	0xbb74e1cb	-0.0037366028
144	0xbe7d9422	-0.2476354
145	0xbdfe0b2e	-0.12404476
146	0xbd848e0f	-0.06472408
147	0x3d8c0bd3	0.06838193
148	0xbe43772d	-0.1908843
149	0xbd611178	-0.0549483
150	0x3e196279	0.1497897
151	0x3d593713	0.05303104
152	0xbe3ba77f	-0.18325613
153	0x3db8979f	0.090132944
154	0x3c08562e	0.008321328
155	0x3df6957d	0.120402314
156	0xbe3bc19b	-0.18335573
157	0xbe4dc0b7	-0.20093046
158	0xbc8280ee	-0.01593062
159	0x3e6488ed	0.22317858
160	0xbe4c8056	-0.19970831
161	0x3e492822	0.19644216
162	0xbe15f1c1	-0.14643003
163	0xbcfcd5cd	-0.030863667
164	0xbdd5f2df	-0.104467146
165	0x3ddef4e4	0.10886553
166	0xbd86a574	-0.065745264
167	0x3e36a1fa	0.17835227
168	0xbe458b5e	-0.19291446
169	0xbe08d099	-0.13360824
170	0x3da99d59	0.08281965
171	0xbe396364	-0.18104321
172	0x3db0ceea	0.08633216
173	0xbc8412d2	-0.016122255
174	0xbe1b4c32	-0.15165785
175	0xbdc67d1b	-0.09691831
176	0x3e105374	0.14094335
177	0xbd0dec6a	-0.03464929
178	0xbe35973f	-0.17733477
179	0x3e134912	0.14383343
180	0xbe0f8036	-0.14013752
181	0xbdcf4b2b	-0.10121759
182	0x3d510c34	0.05103703
183	0xbc9fd1bf	-0.019509194
184	0x3e1d11ce	0.15338823
185	0xbe3bcca2	-0.1833978
186	0xbe3c29b8	-0.1837529
187	0xbdf9679d	-0.12177966
188	0xbc5e4045	-0.013565128
189	0xbde6e670	-0.11274421
190	0x3d1c414a	0.038148202
191	0x3e1eb554	0.15498859
192	0x3d1826b9	0.037146304
193	0x3d55cf0d	0.052199412
194	0xbd99cbeb	-0.075095974
195	0x3d601446	0.054706834
196	0xbe163592	-0.14668873
197	0x3df7a5e4	0.12092188
198	0x3db74b10	0.08949864
199	0xbdcf8182	-0.101321235
200	0xbe200e87	-0.15630542
201	0x3e32a9f3	0.17447643
202	0xbde6c1c1	-0.112674244
203	0xbcdac9b8	-0.026707515
204	0xbd505fa6	-0.050872467
205	0xbe3b7a06	-0.18308267
206	0xbdfcbe29	-0.12340958
207	0xbe607a52	-0.21921661
208	0x3e2e8eed	0.1704671
209	0xbd6ad1ce	-0.05732899
210	0xbd6ef550	-0.058339417
211	0x3d8f3c20	0.0699389
212	0x3e631a0a	0.22177902
213	0x3c8b9889	0.017040508
214	0x3e4745c4	0.19460207
215	0x3d7f16e5	0.062277693
216	0xbe183a83	-0.1486607
217	0xbd19df72	-0.03756661
218	0x3dbfbfac	0.093627304
219	0xbd23da1d	-0.04000293
220	0xbe4e31a9	-0.20136131
221	0xbd17a243	-0.03701998
222	0xbdbe0df8	-0.09280008
223	0x3d859166	0.06521873
224	0x3bd942e4	0.0066302884
225	0xbcc5cf13	-0.024146592
226	0x3dda8f7b	0.10671898
227	0xbde19d46	-0.11016326
228	0xbe0892b0	-0.13337207
229	0xbd9d2e39	-0.07674832
230	0xbd02ea64	-0.031961814
231	0xbdae91a8	-0.085238755
232	0xbc262912	-0.010141628
233	0xbe2fd373	-0.17170505
234	0xbb5602a8	-0.0032655392
235	0xbde343b7	-0.110969
236	0x3d9db60d	0.07700739
237	0x3d80afa5	0.062835015
238	0xbe2ad0b1	-0.16681172
239	0x3be95b33	0.0071214675
240	0x3daee176	0.08539097
241	0xbcfa107a	-0.030525435
242	0x3dad3f81	0.08459378
243	0xbdd41792	-0.10356058
244	0x3aab8934	0.0013087154
245	0xbd8c6ff6	-0.06857292
246	0xbe360b23	-0.17777686
247	0x3d020c07	0.03174975
248	0xbdb493ba	-0.08817239
249	0xbe4bf201	-0.19916536
250	0xbc31810c	-0.01083399
251	0xbe10bbf1	-0.14134194
252	0x3d069f14	0.032866552
253	0xbe1d243a	-0.1534585
254	0xbb32b9dc	-0.0027271425
255	0x3dd6fd14	0.104974896

linear1.bias f4 [256]
0	0x3cb3225d	0.021866972
1	0x3cca2712	0.024676833
2	0x3ac64474	0.0015126602
3	0xbc42193c	-0.011846837
4	0x3ce43eee	0.027862038
5	0x3b12dc5c	0.0022409176
6	0x3bdb9848	0.006701503
7	0x3c445893	0.011984008
8	0x3c804496	0.015657704
9	0x3c14b6d8	0.0090767965
10	0x3c8b9af0	0.017041653
11	0x3c493431	0.01228051
12	0x3c849aa6	0.016187023
13	0xbbb08fed	-0.005388251
14	0x3cdce241	0.026963355
15	0x3d1e3de5	0.038633246
16	0xba663f4b	-0.0008783235
17	0xba4af624	-0.0007742366
18	0xbb8d9fa8	-0.004322011
19	0x3a1f49da	0.00060763734
20	0xb5476e23	-7.4293547e-07
21	0x3b548fb1	0.003243428
22	0x3bea699e	0.007153704
23	0x3c94df03	0.018172747
24	0x3cc011d3	0.023446
25	0x3d468db6	0.04847499
26	0x3ca59a93	0.020215308
27	0x3d29d22b	0.041460197
28	0xbaa7f016	-0.001281264
29	0x3d2a3791	0.0415569
30	0x3d789efb	0.06069849
31	0x3bd883ea	0.0066075223
32	0x3c408ef1	0.01175283
33	0xbc60ffd4	-0.013732869
34	0x3ce10a3c	0.0274707
35	0x3be2b32c	0.0069183316
36	0x3c85d536	0.016337018
37	0x3c983a0e	0.01858237
38	0x3b0bf414	0.0021355199
39	0x3c2a1121	0.01038006
40	0x3bc6f354	0.0060714874
41	0x3c924f65	0.017860124
42	0x3c50887f	0.012727856
43	0x3cdb1150	0.026741654
44	0xbcd4673a	-0.025928129
45	0x3bb2ec8d	0.005460328
46	0x30b92970	1.3472299e-09
47	0x3c2730d1	0.01020451
48	0x3cbdff2b	0.023192963
49	0x3b98fa59	0.0046685156
50	0x3c07c773	0.0082872985
51	0xbbc62bc7	-0.006047699
52	0x3d561ee3	0.05227555
53	0x3cde6cda	0.027151514
54	0x3bc3ce41	0.005975515
55	0x3c9a1a6b	0.018811425
56	0x3b705efd	0.0036677711
57	0x3bb9e236	0.0056727184
58	0xbb108f4f	-0.0022058075
59	0xb7aa9dfa	-2.0339143e-05
60	0xbb7342a8	-0.0037118588
61	0x3c13607a	0.00899517
62	0x3c8b0646	0.016970765
63	0x3c587a7b	0.013212795
64	0x3bca3871	0.006171279
65	0x3c180029	0.009277382
66	0x3b8475e0	0.004042372
67	0x3d21d4b6	0.039509498
68	0xbc5218ba	-0.012823278
69	0x3c36e02d	0.011161846
70	0x384808fd	4.7692087e-05
71	0x3c50d893	0.012746948
72	0x3c1f2979	0.009714478
73	0x3c098bdb	0.008395161
74	0x3a20d93b	0.00061358855
75	0x3c0fdafb	0.008780236
76	0x3c795530	0.015218064
77	0x2f1356eb	1.3400452e-10
78	0x3ca3cfb0	0.019996494
79	0x3bf63281	0.0075133448
80	0x3d0897b0	0.033347785
81	0xbc1807b1	-0.0092791775
82	0x3c621c87	0.013800747
83	0x3c6d093e	0.014467536
84	0xb4bc14a8	-3.5032758e-07
85	0x3c614286	0.013748771
86	0x3ceb9387	0.02875687
87	0x391045df	0.00013758939
88	0x3bd5576b	0.006510665
89	0x3c4389fa	0.011934752
90	0x3bc6289e	0.0060473224
91	0x3c8a628d	0.016892696
92	0x3c8348e2	0.016025964
93	0x3cdeaf1a	0.027183104
94	0x3cbbe753	0.022937452
95	0x3bf63f47	0.0075148675
96	0x3cd4349c	0.025903992
97	0x3c41eb58	0.0118358955
98	0x3cf6e5d2	0.030138884
99	0x3c916acd	0.017751122
100	0x3ac5f625	0.0015103264
101	0xbc832c7e	-0.016012426
102	0x3bbf7e8f	0.0058439444
103	0x3c899e00	0.016798973
104	0x3c177840	0.009244978
105	0x3bbd3488	0.0057740845
106	0x3d33f8d3	0.04393847
107	0x3bea78d6	0.007155518
108	0x3b0a30f2	0.0021086303
109	0x3c530cad	0.01288144
110	0x3d2edbd5	0.042690117
111	0x3c690fbe	0.014224945
112	0x3d2f2def	0.042768415
113	0x3b52bac0	0.0032154769
114	0x3c8273e5	0.015924403
115	0x3ccf35c1	0.025294187
116	0x3caed122	0.021339957
117	0x3d5b1ed5	0.0534962
118	0x3d12b03f	0.035812613
119	0x3d2e282a	0.042518772
120	0x3c8a5cfc	0.016890042
121	0x3c72abee	0.014811499
122	0xbaabfe03	-0.0013121966
123	0x38bd04f0	9.013142e-05
124	0x3c752279	0.014961832
125	0x3ce8504a	0.028358597
126	0x3b37a13a	0.0028019683
127	0x308ed598	1.0392567e-09
128	0x3cec1cec	0.028822385
129	0x3cae12f0	0.021249264
130	0x3d29caea	0.04145328
131	0x3c0f08f0	0.008730158
132	0x3ba27abe	0.0049584797
133	0xbc5161f1	-0.012779699
134	0xbb9a1098	-0.004701685
135	0x34ff40ce	4.7544603e-07
136	0x3c30a03e	0.010780392
137	0x3b81cdf0	0.0039613172
138	0x3cf115f4	0.029429413
139	0x3cafe29f	0.021470366
140	0x30346ad9	6.563546e-10
141	0x3356e378	5.003264e-08
142	0x3c123fdb	0.008926357
143	0x3c93e84d	0.018055106
144	0x3c8bcd69	0.01706572
145	0x3bd8556e	0.006601981
146	0x3c7c805c	0.015411463
147	0x3c257468	0.010098554
148	0x3ce6d416	0.028177302
149	0x3c77361a	0.015088582
150	0x3be11e35	0.006870056
151	0x3ce1176d	0.02747699
152	0x3a1a4aab	0.000588576
153	0x39b442c2	0.00034382014
154	0xbb945e99	-0.0045278785
155	0x3bb3a7e3	0.00548266
156	0x3ab23efb	0.0013599092
157	0x3d0c6dc1	0.034284357
158	0x3c08632a	0.008324424
159	0x348ea1fa	2.6567415e-07
160	0x3bb69df1	0.0055730273
161	0x3864a314	5.4511314e-05
162	0x3be47376	0.006971772
163	0x3c3ca85b	0.011514748
164	0x3b9a4c18	0.004708778
165	0x3c8d5f27	0.017257286
166	0x3cb2ac46	0.021810662
167	0x3ce02fc5	0.027366528
168	0xba966d42	-0.0011476653
169	0x3c580f0f	0.013187184
170	0x3cef33c1	0.029199483
171	0x3c499247	0.012302942
172	0x3d1749dc	0.036935672
173	0x3a8e06db	0.0010835783
174	0x3c6679b4	0.014067102
175	0x3a658533	0.0008755505
176	0x3ca7c367	0.020478917
177	0xbb0ed99c	-0.0021797186
178	0x3c6e1b8d	0.014532936
179	0x3c2bb839	0.010480934
180	0x3bec71ff	0.007215738
181	0xbb361af7	-0.0027787068
182	0x3baebbc9	0.0053324443
183	0xb7749f50	-1.4580626e-05
184	0x3c1edbc3	0.00969595
185	0x3c839ddc	0.016066484
186	0x3c315a36	0.010824731
187	0x3d61ad8e	0.055097155
188	0x3cf71e49	0.030165808
189	0x3d0acd7f	0.033887383
190	0x3c90def5	0.01768444
191	0xbb6313a2	-0.0034649153
192	0x34af1dc1	3.261794e-07
193	0x3c51fecf	0.012817099
194	0x3b7f7dca	0.0038984888
195	0x3cfed99c	0.031109624
196	0x3be466f8	0.0069702826
197	0x3c8a2635	0.016863922
198	0x3c16a888	0.009195454
199	0x3c8c2aeb	0.017110309
200	0x3c8a65fc	0.016894333
201	0x3c9df8fb	0.019283762
202	0xbb6921ac	-0.0035573049
203	0x3d2c73d0	0.042102635
204	0x3d07d693	0.03316362
205	0x3c916872	0.017749999
206	0x3327e1ed	3.9088196e-08
207	0x3c6f68b1	0.014612363
208	0x3c3be899	0.01146903
209	0x3bd4b1ba	0.006490913
210	0x3c2e9991	0.01065673
211	0x3935a5fe	0.00017323342
212	0x3d2d845b	0.042362552
213	0x3c435692	0.011922495
214	0xbc67247d	-0.014107821
215	0x3c459069	0.012058356
216	0x3c1cae7c	0.009563085
217	0x3b88d5f5	0.0041758963
218	0x3c7f744e	0.015591694
219	0x3c8bafd9	0.017051624
220	0x3c29a5b4	0.010354448
221	0x3b1289a7	0.002235988
222	0x3d2f22b3	0.0427577
223	0x3227d6a0	9.7694794e-09
224	0x3bcb3481	0.0062013273
225	0x392483e2	0.00015689389
226	0x3c764ba0	0.015032679
227	0x3ca0979c	0.019603543
228	0x3ba5fe93	0.005065748
229	0x3abaa746	0.0014240525
230	0x392c44de	0.00016428853
231	0x3b58ec6b	0.00330999
232	0xbb836ab1	-0.0040105213
233	0x3c36864a	0.011140415
234	0x3c797992	0.0152267385
235	0x3c83fce8	0.016111806
236	0x3be5dd95	0.00701494
237	0x3c843108	0.016136661
238	0x3c0d957b	0.008641596
239	0x3c029229	0.007969418
240	0x3c628009	0.013824471
241	0x3cc1be43	0.023650294
242	0x3c4fe57a	0.012688989
243	0x3b9a6268	0.004711438
244	0x3c801d0f	0.015638856
245	0x3c9d5106	0.019203674
246	0x3ccd422b	0.025055965
247	0x3c8aa65d	0.016925031
248	0x3d14d890	0.036339343
249	0xbb9d89b5	-0.0048076757
250	0x3ba01e97	0.004886459
251	0x3c4f8836	0.012666753
252	0x3cc19081	0.023628475
253	0x3c59b319	0.013287329
254	0x3bea350b	0.0071474365
255	0x3d7671bd	0.060167063

linear2.weight f4 [59, 256]
0	0x3d02ceea	0.03193561
1	0x3d6ec5d4	0.058294132
2	0x3da64f8f	0.08120643
3	0x3e08fa10	0.13376641
4	0x3d1f91a2	0.038957246
5	0x3d9090b5	0.07058851
6	0xbf0cbd62	-0.54976475
7	0x3d2a21cb	0.041536134
8	0xbcfb9497	-0.030710502
9	0x3d6c32dd	0.057665695
10	0x3d7abcc1	0.061215166
11	0x3db3598f	0.08757316
12	0xbefdf1c6	-0.4959852
13	0x3cab29e8	0.020894006
14	0x3d4a4378	0.04938075
15	0x3d9b3a70	0.075795054
16	0x3d4f6866	0.05063667
17	0xbd0a9bbb	-0.033839922
18	0xbf10d633	-0.5657684
19	0x3d3a1faf	0.045440372
20	0x37b7c082	2.1904943e-05
21	0xbe97a113	-0.29615077
22	0x3d35776c	0.044303343
23	0x3d64b184	0.055833355
24	0x3d570383	0.052493583
25	0xbefc6550	-0.49296045
26	0x3dd2bd24	0.10289982
27	0xbda7881c	-0.08180258
28	0xbee98c51	-0.45614865
29	0xbc134744	-0.008989159
30	0xbef3b6b8	-0.4760034
31	0xbe54a604	-0.20766455
32	0x3d5d8e39	0.054090712
33	0xbcba1b09	-0.02271797
34	0xbe7e12d1	-0.24811865
35	0x3d2fe2a0	0.042940736
36	0x3db9883c	0.09059188
37	0x3dab9232	0.08377494
38	0x3c8e89b8	0.017399654
39	0xbebb98bd	-0.36639968
40	0xbe3c8174	-0.18408757
41	0xbefdc2c4	-0.49562657
42	0xbec4d1a8	-0.38441205
43	0x3d611b8b	0.054957908
44	0x3d7b5e0d	0.06136899
45	0x3da01fb5	0.07818548
46	0xb2694a24	-1.3579243e-08
47	0x3d5d2ce6	0.053997897
48	0x3e0af42b	0.13569705
49	0xbeab00c6	-0.33399028
50	0x3d8300e0	0.06396651
51	0x3d8e8a44	0.06959966
52	0x3dbdbbc2	0.092643276
53	0xbf102914	-0.5631268
54	0xbe3c71e9	-0.18402828
55	0x3c1e0e93	0.009647029
56	0xbe0fe3e0	-0.14051771
57	0xbebe6e01	-0.371933
58	0xbef7f689	-0.4843028
59	0xbeec625b	-0.4616879
60	0xbe871a86	-0.26387423
61	0x3d44d56d	0.0480551
62	0x3d9109d9	0.070819564
63	0x3d90b9a0	0.07066655
64	0x3dba3d83	0.09093764
65	0x3da430fc	0.080171555
66	0x3d1d7756	0.038443886
67	0xbd607792	-0.05480153
68	0x3bb5316c	0.005529573
69	0x3d174270	0.036928594
70	0xb889ec61	-6.576698e-05
71	0x3d8d6453	0.06903901
72	0x3d89cde2	0.06728722
73	0xbe02f3c4	-0.12788302
74	0xbcfa9300	-0.030587673
75	0x3d8be80a	0.06831367
76	0x3d8e5d10	0.06951344
77	0xb0804de8	-9.335368e-10
78	0x3e039ab6	0.12851986
79	0x3d9d30c7	0.07675319
80	0xbe5205ed	-0.20510073
81	0x3c80d83b	0.015728107
82	0x3d886501	0.0665989
83	0xbf0701cd	-0.5273712
84	0x37f6a0c2	2.9400344e-05
85	0x3d7285b0	0.059209526
86	0x3da0b5fe	0.07847212
87	0xbeda3edf	-0.42626092
88	0xbc978e9d	-0.01850062
89	0x3dc5d7e2	0.09660317
90	0x3cf65eb6	0.030074459
91	0xbe988c17	-0.2979438
92	0xbcce3e27	-0.02517612
93	0xbeb20633	-0.34770355
94	0xbe95fdb2	-0.29295117
95	0xbdbf2fd4	-0.09335294
96	0x3d2e8093	0.042603087
97	0xbe9ab3e6	-0.30215377
98	0x3dfdee62	0.123989835
99	0xbe664b08	-0.2248956
100	0xbe8593e5	-0.26089397
101	0x3d24a3bd	0.040195215
102	0xbeb32b16	-0.3499381
103	0xbd370342	-0.04468084
104	0x3d9499b8	0.07255882
105	0xbed86e3d	-0.42271605
106	0x3d9189df	0.07106375
107	0xbef5b72f	-0.4799132
108	0x3d07e4cc	0.033177182
109	0x3d70ae99	0.05876026
110	0x3ca3213b	0.019913306
111	0xbe0229ff	-0.12711333
112	0xbda2f5c7	-0.079570346
113	0x3dc7f023	0.09762599
114	0x3cdc4288	0.026887193
115	0xbb9560a9	-0.004558642
116	0x3d8d4174	0.0689725
117	0x3d21687d	0.03940629
118	0x3db15606	0.08658986
119	0x3dd4e60e	0.10395442
120	0x3d917514	0.07102409
121	0xbe64cf7d	-0.22344775
122	0x3c6077b0	0.013700411
123	0xb906cd09	-0.00012855617
124	0x3d63e11d	0.055634607
125	0x3da62218	0.081119716
126	0xbebead41	-0.37241557
127	0x32034ea5	7.643085e-09
128	0x3d82789b	0.0637066
129	0x3d9872aa	0.074437454
130	0xbe8394a1	-0.25699332
131	0xbdd114eb	-0.10209068
132	0xbc8b175a	-0.016978908
133	0x3bb52463	0.0055280193
134	0xbe7217b1	-0.2364185
135	0xb6453e33	-2.9391492e-06
136	0x3dac1f9e	0.08404468
137	0xbe35fbea	-0.17771879
138	0xbdd56710	-0.10420048
139	0x3dc8db26	0.09807424
140	0x3259af16	1.2670872e-08
141	0xb4e5cd90	-4.280414e-07
142	0xbd8adb4b	-0.06780108
143	0x39ccda77	0.0003907268
144	0x3da393c8	0.079871714
145	0x3dd6f3c5	0.10495714
146	0x3d09acc8	0.033612043
147	0xbecf51be	-0.40492052
148	0xbe1b020f	-0.15137504
149	0x3dafa93a	0.08577199
150	0xbf0053df	-0.5012798
151	0xbe8bf206	-0.27333087
152	0x3d25bb80	0.040462017
153	0x3dc68e5c	0.09695122
154	0x3dd84d26	0.1056159
155	0xbd679b96	-0.056544863
156	0xbf087a39	-0.53311497
157	0xbe86c047	-0.2631857
158	0xbeebe216	-0.46070927
159	0x37095ba3	8.187172e-06
160	0x3dd21345	0.102575816
161	0xb88c6d74	-6.6961074e-05
162	0x3d9ba048	0.075989306
163	0xbc730122	-0.014831813
164	0x3d61ff91	0.055175368
165	0x3e0035b5	0.12520488
166	0xbc811ddb	-0.015761307
167	0x3d8ed5b3	0.06974354
168	0xbec01e76	-0.3752324
169	0x3d342b67	0.043986704
170	0xbf013ff6	-0.5048822
171	0x3dbd580e	0.09245311
172	0xbb02bae0	-0.0019947812
173	0xbebbb12c	-0.3665861
174	0xbce5933f	-0.028024314
175	0xbe6ea02f	-0.23303293
176	0x3d7983ad	0.06091659
177	0x3c48f90d	0.01226641
178	0x3e03d183	0.12872891
179	0xbd165893	-0.036705565
180	0x3d805594	0.06266323
181	0x3d28a18d	0.04116969
182	0x3d035c8c	0.03207068
183	0xbec1ac51	-0.3782678
184	0x3d4acde7	0.04951277
185	0xbd4dfa77	-0.05028769
186	0x3da857db	0.08219882
187	0xbee5826c	-0.44826066
188	0xbe050a17	-0.1299213
189	0xbd238f86	-0.039931796
190	0x3dd249ab	0.10267957
191	0x3d95e685	0.07319359
192	0xb60a5ddc	-2.0618236e-06
193	0xbde254ca	-0.110513285
194	0x3d8580d0	0.0651871
195	0xbd390a08	-0.045175582
196	0xbdadd261	-0.08487392
197	0xbe98a680	-0.2981453
198	0xbdc33137	-0.09530871
199	0xbeae9407	-0.3409731
200	0x3d2c6be2	0.042095073
201	0xbe02c675	-0.12771018
202	0xbf001518	-0.50032187
203	0xbecf73eb	-0.40518126
204	0xbd45086d	-0.04810374
205	0x3d4550ea	0.04817287
206	0x35a7924a	1.2485045e-06
207	0x3d88904d	0.06668148
208	0x3d33037f	0.043704506
209	0x3c10e89f	0.008844524
210	0x3daeb2f3	0.085302256
211	0x3e32f1a3	0.1747499
212	0x3dd4e4c0	0.10395193
213	0x3deb86ff	0.11500358
214	0x3e2f8b90	0.17143083
215	0x3daeb5e9	0.0853079
216	0xbccdc32b	-0.025117477
217	0x3d943d6c	0.07238278
218	0x3d7ee6e2	0.062231906
219	0xbe98a611	-0.298142
220	0x3d4a73ad	0.049426723
221	0xbe5d6372	-0.21619967
222	0x3dd4eaee	0.10396372
223	0xb1e39ab4	-6.6241572e-09
224	0x3d70232b	0.05862729
225	0xbe49676f	-0.19668363
226	0x3d978c67	0.073998265
227	0x3dbbfcfd	0.09179113
228	0x3dc22316	0.09479348
229	0x3c49e413	0.012322444
230	0x3d4b7fd4	0.049682453
231	0x3d89694e	0.067095384
232	0xbf01d49c	-0.5071504
233	0x3d854ec8	0.06509167
234	0x3d5c982a	0.053856052
235	0x3d758255	0.059938747
236	0x3d899ce0	0.06719375
237	0x3d2f0107	0.04272559
238	0x3cd5d67b	0.026103249
239	0x3d6777cd	0.056510735
240	0x3d3f94ae	0.04677265
241	0x3cfee4de	0.031114992
242	0xbd3ea1c6	-0.046540998
243	0x3bc46b7c	0.0059942584
244	0xbf016beb	-0.50555295
245	0xbd8ea33e	-0.0696473
246	0x3db11d96	0.08648221
247	0x3dc828e4	0.09773424
248	0x3d9799a2	0.0740235
249	0xbe9edea8	-0.31029248
250	0x3d50ca4f	0.050974187
251	0xbf041121	-0.51588637
252	0xbde80c87	-0.113305144
253	0x3d60c3f9	0.054874394
254	0xbe0bbba7	-0.13645802
255	0x3d8a1733	0.06742706

linear2.bias f4 [59]
0	0xbc8823ab	-0.01661857
1	0xbc9a4b82	-0.018834833
2	0xbc84b5b9	-0.016199933
3	0xbc627781	-0.013822437
4	0xbc24b724	-0.01005343
5	0xbc84bd7a	-0.01620363
6	0xbc9ef03e	-0.019401666
7	0xbc89e847	-0.016834391
8	0xbc620d75	-0.013797154
9	0xbc252468	-0.010079481
10	0xbc2beaab	-0.010492961
11	0xbc78dacf	-0.015188887
12	0xbc883c09	-0.01663019
13	0xbca0414b	-0.019562384
14	0xbc86f80a	-0.016475696
15	0xbc222d21	-0.009898455
16	0xbc93c6e7	-0.01803918
17	0xbc500417	-0.012696288
18	0xbcbb5898	-0.022869393
19	0xbca02ac3	-0.01955164
20	0xbc7806f5	-0.015138377
21	0xbc234ebb	-0.009967501
22	0xbca22495	-0.019792834
23	0xbc58742e	-0.013211293
24	0xbc4831e7	-0.012218929
25	0xbc937c78	-0.018003687
26	0xbc94607d	-0.018112415
27	0xbc2622e7	-0.010140157
28	0xbc4c4316	-0.012467166
29	0xbc5d381c	-0.013502147
30	0xbc6cae14	-0.0144458
31	0xbc815475	-0.015787343
32	0xbc2ae73f	-0.01043111
33	0xbca62fb3	-0.020286417
34	0xbc8e402f	-0.01736459
35	0xbc98ec58	-0.018667385
36	0xbc777f1c	-0.015105989
37	0xbca6c7eb	-0.020359
38	0xbcafc5f4	-0.021456696
39	0xbc4935a0	-0.012280852
40	0xbc661393	-0.014042753
41	0xbc9f551c	-0.019449763
42	0xbc750793	-0.014955419
43	0xbca73f27	-0.020415856
44	0xbc73dc09	-0.014884003
45	0xbc5cd50e	-0.013478531
46	0xbc56f141	-0.013119043
47	0xbc5f0f6f	-0.0136145195
48	0xbca148d8	-0.019688055
49	0xbc6b444a	-0.014359543
50	0xbc26797a	-0.010160798
51	0xbc7c3eb9	-0.015395814
52	0xbc14d700	-0.009084463
53	0xbc99212d	-0.018692577
54	0xbc957ba6	-0.018247437
55	0xbc807de5	-0.015685031
56	0xbc7bedc7	-0.015376515
57	0xbc9051c0	-0.017617106
58	0xbc8fa9c8	-0.017537013
