intermediary/model_15150.pth (torch, 356400 bytes, 5 tensors)

embed.weight f4 [59, 128]
0	0xbeaf576f	-0.34246394
1	0x3e67d092	0.22638157
2	0xbebad072	-0.36487156
3	0xbeaa97f6	-0.33319062
4	0x3ebf0dad	0.3731512
5	0x3eca1cb4	0.39475024
6	0xbde1ae5e	-0.11019586
7	0xbee28e1c	-0.44249046
8	0x3edb6b23	0.42855176
9	0x3ea6bfc1	0.32568172
10	0xbe989fd5	-0.29809442
11	0xbec6607a	-0.3874548
12	0x3c4c234d	0.012459588
13	0xbe64bd38	-0.22337806
14	0xbeae632e	-0.34060043
15	0x3ebd2b62	0.3694716
16	0xbe45a1f9	-0.19300069
17	0xbede1cd8	-0.4338138
18	0xbeb2084e	-0.3477196
19	0x3ec97ccb	0.39353022
20	0x3ecd73d0	0.4012742
21	0x3e81fc51	0.25387815
22	0x3e3f7453	0.18696718
23	0x3e097300	0.13422775
24	0x3ea5e3f6	0.32400483
25	0x3ed63625	0.41838184
26	0xbeb5375b	-0.35393795
27	0x3e73b050	0.23797727
28	0x3ca16e45	0.0197059
29	0x3ecfc151	0.40577176
30	0x3ed34450	0.41263056
31	0xbe19830d	-0.14991398
32	0xbed8beef	-0.4233317
33	0xbec54e01	-0.38536075
34	0xbe9ab395	-0.30215135
35	0xbe8afdb0	-0.27146673
36	0x3e98abaa	0.2981847
37	0x3efa3b28	0.48873258
38	0x3e4b9a94	0.19883186
39	0xbdacc3b9	-0.08435769
40	0xbdb49d91	-0.08819116
41	0xbea22546	-0.31669062
42	0x3ee12574	0.43973887
43	0x3e8a5420	0.27017307
44	0x3ecc9a2f	0.39961383
45	0x3dca75a7	0.09885722
46	0x3ed578cc	0.41693723
47	0x3ef7c6ad	0.48393765
48	0xbebb3097	-0.3656051
49	0xbe91bde3	-0.28465185
50	0x3efa356d	0.48868886
51	0x3ec687e9	0.38775566
52	0xbeaa3334	-0.3324219
53	0xbec6890b	-0.3877643
54	0x3ea8f999	0.33002928
55	0x3e858e6c	0.26085222
56	0xbec213c3	-0.37905702
57	0x3e4979f0	0.19675422
58	0xbe91d1af	-0.28480288
59	0x3ec02c45	0.37533775
60	0xbe9e6f17	-0.3094413
61	0x3ebf1e95	0.3732802
62	0xbee08591	-0.43851903
63	0xbec75bd1	-0.38937238
64	0xbeae0530	-0.33988333
65	0x3e704e5f	0.23467396
66	0xbe42a961	-0.19009925
67	0x3e999236	0.29994363
68	0x3ebd5917	0.36982033
69	0xbee62269	-0.44948128
70	0xbe53f9f3	-0.20700817
71	0xbed2e09a	-0.41186982
72	0xbed68273	-0.418964
73	0xbed7def9	-0.42162302
74	0x3e73adc6	0.23796758
75	0xbe95d9cb	-0.29267725
76	0x3ef0e2c6	0.47048014
77	0x3ea418ac	0.32050073
78	0x3e6812eb	0.22663467
79	0x3ed689c9	0.41901997
80	0x3eae9b40	0.3410282
81	0xbea490ff	-0.32141873
82	0xbe6d87d1	-0.23196341
83	0xbef9d2b0	-0.48793554
84	0x3ecf566f	0.4049563
85	0xbea45e59	-0.32103232
86	0x3c9d7de8	0.019225076
87	0xbeb3b25e	-0.3509702
88	0xbee1fe29	-0.4413922
89	0x3ecab40c	0.3959049
90	0x3ea4dbf0	0.3219905
91	0xbebf1ebd	-0.3732814
92	0x3ec95ddb	0.3932942
93	0xbef80f90	-0.48449373
94	0xbeb5860b	-0.3545383
95	0x3eb2e39e	0.34939283
96	0x3e8cd51b	0.27506337
97	0x3ee42377	0.44558308
98	0xbe935be4	-0.28781044
99	0x3eabfe24	0.3359233
100	0x3e6f2547	0.23354064
101	0xbee28b2c	-0.44246805
102	0xbe8f75e6	-0.28019637
103	0x3e5b79bc	0.21433157
104	0x3edc0aee	0.4297709
105	0xbece7319	-0.40322188
106	0x3edfb944	0.43696034
107	0x3ee11bcc	0.4396652
108	0x3e8f5aa2	0.27998835
109	0xbe9bf35b	-0.30459103
110	0xbed774e0	-0.42081356
111	0xbe761acb	-0.24033658
112	0x3eadcd66	0.3394577
113	0xbe5996f3	-0.21248989
114	0xbee19278	-0.4405706
115	0xbed90bc9	-0.42391804
116	0x3eb9a046	0.3625509
117	0xbed394ac	-0.41324365
118	0x3dfad035	0.122467436
119	0xbe926663	-0.2859374
120	0x3eddd70e	0.43328136
121	0xbeacaa8c	-0.33723867
122	0x3eb5bdd2	0.35496384
123	0x3eb1aa21	0.3470011
124	0xbed6cb0b	-0.41951784
125	0x3e89d9ea	0.26924068
126	0x3ee15843	0.4401265
127	0x3ef55dd9	0.47923163
128	0x3e4a891d	0.19778867
129	0x3ea9528f	0.330708
130	0xbddbe59e	-0.107371554
131	0xbeea9c5a	-0.45822412
132	0xbeb8f4fa	-0.36124402
133	0xbe470956	-0.19437155
134	0xbe00083e	-0.12503144
135	0xbed4dbd6	-0.41573972
136	0xbe2ce23c	-0.16883177
137	0x3ee29734	0.44255984
138	0xbec68218	-0.3877113
139	0x3e6070a6	0.21917972
140	0x3ee185b4	0.4404732
141	0x3f00fc6c	0.50385165
142	0xbe95588e	-0.29169124
143	0x3db3df3c	0.08782813
144	0x3e74ef92	0.23919514
145	0x3d16bc48	0.036800653
146	0x3ec18212	0.37794548
147	0xbec7e64b	-0.39042887
148	0x3ec7747c	0.38956058
149	0xbebf6dbe	-0.37388414
150	0xbed652b5	-0.41859975
151	0xbeace1ee	-0.3376612
152	0xbe5ae878	-0.21377742
153	0xbd8495d7	-0.06473892
154	0x3e9c760f	0.30558822
155	0xbef1b85e	-0.47210974
156	0xbeeaeca1	-0.4588366
157	0xbe46c5b6	-0.19411358
158	0xbe64aace	-0.22330782
159	0x3ec26e46	0.37974757
160	0x3eb9f220	0.3631754
161	0xbef055a7	-0.46940348
162	0x3efcca45	0.4937307
163	0x3ed1c913	0.4097372
164	0xbec88b3b	-0.39168724
165	0xbeb20670	-0.34770536
166	0xbedf8592	-0.43656594
167	0x3ec419b2	0.38300854
168	0x3eed16b9	0.463064
169	0x3ef89683	0.4855233
170	0xbec9be56	-0.39403027
171	0x3ed1085a	0.40826684
172	0xbe7bbeca	-0.24584499
173	0xbed6d9b4	-0.4196297
174	0x3f025596	0.50911844
175	0x3ec0c229	0.37648132
176	0xbdc724e4	-0.09723833
177	0xbee0bf38	-0.43895888
178	0x3ed51de1	0.41624358
179	0x3ec8c0f8	0.39209723
180	0xbed1fd44	-0.4101354
181	0x3e675a79	0.22593106
182	0xbe8e77fe	-0.27825922
183	0x3e9f315a	0.3109234
184	0xbeb7a9e7	-0.35871813
185	0x3a9b95a0	0.0011870153
186	0x3edba3f4	0.42898524
187	0x3da92a1a	0.08259983
188	0x3ec29ee8	0.3801186
189	0xbe9cf014	-0.30651915
190	0xbed534c9	-0.41641834
191	0xbea84888	-0.32867837
192	0xbe04d3a0	-0.12971354
193	0x3e9bed72	0.30454594
194	0x3ee14171	0.4399524
195	0x3ee8bd94	0.45457137
196	0xbec5ed9e	-0.3865785
197	0xbed80a07	-0.4219515
198	0x3ee5841c	0.44827354
199	0x3ec694d7	0.3878543
200	0x3ec37add	0.38179675
201	0x3dc25389	0.09488589
202	0xbed72b99	-0.4202545
203	0xbec5deac	-0.38646448
204	0xbe51e402	-0.20497134
205	0x3e8f76f6	0.28020447
206	0xbe9c2202	-0.30494696
207	0x3e30dd5e	0.17271945
208	0xbf0082be	-0.50199497
209	0xbea0700e	-0.3133549
210	0x3cfec5f9	0.03110026
211	0xbed9f6d4	-0.42571127
212	0xbec2649f	-0.37967393
213	0xbe82a583	-0.255169
214	0xbeb04c8f	-0.3443341
215	0xbed0bad4	-0.4076754
216	0x3eb83d3b	0.35984215
217	0xbed20474	-0.41019022
218	0xbedeae72	-0.43492466
219	0xbd679134	-0.05653496
220	0x3e6f6efa	0.23382178
221	0xbee570f2	-0.44812733
222	0x3ec05d32	0.37571102
223	0x3e7a7991	0.24460436
224	0xbdcecc8b	-0.10097607
225	0xbe6f0d35	-0.23344882
226	0x3e63e906	0.2225686
227	0xbe86134a	-0.2618659
228	0xbebd64c1	-0.36990932
229	0x3e85f067	0.26159975
230	0xbe29e69f	-0.16591881
231	0xbec0868d	-0.37602654
232	0xbe7a36ff	-0.24435042
233	0x3ebde976	0.3709218
234	0x3eed065d	0.46293917
235	0x3e8c8ee1	0.27452758
236	0xbed68e40	-0.41905403
237	0x3e9ccfe3	0.30627355
238	0x3eb30dda	0.34971505
239	0xbef6cc00	-0.48202515
240	0xbed1fc57	-0.41012833
241	0x3edf8d28	0.4366238
242	0x3e51c277	0.20484339
243	0x3ed38b72	0.41317326
244	0xbed3cbf7	-0.4136655
245	0xbe3c506e	-0.18390056
246	0x3eb44666	0.3520996
247	0xbeb77933	-0.35834655
248	0xbe8d6fd5	-0.27624384
249	0x3ecf28d3	0.40460834
250	0x3eea2e80	0.45738602
251	0xbe6a83fa	-0.22901908
252	0xbe89b21b	-0.26893696
253	0xbeb12d75	-0.34604993
254	0x3eddcd5f	0.43320748
255	0xbec2a5dd	-0.3801717

linear1.weight f4 [256, 256]
0	0xbe03fda3	-0.12889723
1	0xbe103e0f	-0.14086173
2	0x3e1a5330	0.15070796
3	0x3e075be9	0.13218655
4	0xbe146e20	-0.14495134
5	0x3d42bd7b	0.047543984
6	0x3e30c3d4	0.17262203
7	0xbb144026	-0.0022621243
8	0xbe54ec36	-0.20793232
9	0xbd134cd7	-0.035961952
10	0x3e3e2076	0.1856707
11	0xbe202f7f	-0.15643118
12	0x3b30ca96	0.002697622
13	0x3c39898a	0.011324296
14	0xbe210499	-0.1572441
15	0x3e1fb525	0.15596445
16	0x3d8e684e	0.06953488
17	0x3e13b368	0.14423907
18	0x3e577620	0.21041155
19	0x3ddfa789	0.10920627
20	0xbd9b1fc5	-0.07574419
21	0x3dc66925	0.096880235
22	0x3d120f65	0.035659213
23	0x3dfc9fa9	0.1233514
24	0xbc593022	-0.013256105
25	0xbe43c8b6	-0.19119534
26	0xbe35aae8	-0.17740977
27	0xbda169ca	-0.07881506
28	0x3de21716	0.110395595
29	0x3c24431f	0.010025769
30	0xbdc96319	-0.098333545
31	0x3a223b42	0.00061886397
32	0xbccb5c08	-0.024824157
33	0xbc54e64d	-0.012994361
34	0x3c5d9a4b	0.013525556
35	0x3e41ea8f	0.18937133
36	0x3dc94140	0.098268986
37	0xbdf6137e	-0.120154366
38	0x3e54f39e	0.20796058
39	0xbd5a0106	-0.053223632
40	0xbb48a185	-0.0030613851
41	0x3c938acb	0.018010518
42	0xbe19796b	-0.14987724
43	0xbc7efe84	-0.015563611
44	0xbe0e1ea2	-0.13878873
45	0xbe0ccca0	-0.13749933
46	0xbde4f233	-0.11179008
47	0x3c959d4f	0.018263487
48	0xbe35484f	-0.17703365
49	0xbdbc90a0	-0.092072725
50	0xbd0a5e2e	-0.033781223
51	0xbe35adfd	-0.17742153
52	0x3d53f231	0.051744644
53	0xbe11ef42	-0.14251426
54	0xbe29143b	-0.16511624
55	0x3a37d328	0.0007012361
56	0x3d4e9eb2	0.050444312
57	0x3b133a7e	0.0022465284
58	0x3e0ca814	0.13735992
59	0x3da601e3	0.081058286
60	0x3e2e2e31	0.17009808
61	0xbd4067e7	-0.04697409
62	0x3e16e366	0.14735183
63	0x3db32f5e	0.08749269
64	0x3e24bebb	0.16088383
65	0xbdf3249c	-0.11872217
66	0xbe2528a5	-0.16128786
67	0xbe4126c9	-0.18862452
68	0xbd4a8380	-0.049441814
69	0xbd5cfb56	-0.05395063
70	0xbc5b5d81	-0.013388992
71	0xbdafd955	-0.08586375
72	0xbde3cd61	-0.11123157
73	0xbe2c634d	-0.16834755
74	0x3e0d20a2	0.1378198
75	0x3e47c1ee	0.19507572
76	0xbe43c04d	-0.19116326
77	0xbd4c3e1b	-0.049863916
78	0xbceda7b7	-0.029010637
79	0x3e07f0ce	0.13275453
80	0xbdf123a2	-0.117743745
81	0x3e13ba87	0.14426623
82	0x3e32a70b	0.17446534
83	0x3e39b724	0.18136269
84	0xbd56f6e0	-0.052481532
85	0x3d7f9f22	0.06240762
86	0x3d3057f7	0.04305264
87	0x3d98c4ca	0.074594095
88	0x3e05eecd	0.13079377
89	0xbe1e65eb	-0.15468566
90	0xbe269b0c	-0.16270083
91	0x3e2f1912	0.17099407
92	0x3d52de86	0.051481746
93	0x3dd41a18	0.103565395
94	0xbd7a6810	-0.061134398
95	0x3cb0534e	0.021524098
96	0x3cfd8531	0.0309473
97	0xbd1bd50d	-0.038044978
98	0xbbd32853	-0.006444016
99	0x3d3d547c	0.04622315
100	0xbe1a01e2	-0.1503978
101	0x3d202bb5	0.039104182
102	0x3d37d211	0.04487807
103	0xbe1cfdf2	-0.15331247
104	0xbdd2a311	-0.10285009
105	0x3cbbf211	0.022942575
106	0xbd4f45eb	-0.05060379
107	0xbd0886ef	-0.033331808
108	0xbe4ad132	-0.19806364
109	0xbe5d594c	-0.21616095
110	0x3d09280c	0.033485457
111	0x3e12a820	0.14321947
112	0xbe5b7028	-0.21429503
113	0xbdad2a80	-0.08455372
114	0x3e1b1925	0.1514631
115	0xbdbf097c	-0.09327981
116	0x3e50d314	0.2039302
117	0x3e58a378	0.21156108
118	0xbcb1d447	-0.021707667
119	0x3d1875b4	0.037221625
120	0x3db54198	0.08850402
121	0x3df42c1e	0.11922477
122	0xbe3b7874	-0.18307668
123	0xbd2ba1d6	-0.041902386
124	0xbe0b5a3b	-0.13608639
125	0xbd86050e	-0.06543933
126	0xbd25f983	-0.040521156
127	0xbdf9611c	-0.12176725
128	0xbc0ffaeb	-0.008787851
129	0x3ba01b50	0.0048860684
130	0xbdc1d5b6	-0.0946459
131	0xbe29be46	-0.1657649
132	0x3e30520a	0.17218795
133	0xbe3249a6	-0.17410907
134	0xbe05b630	-0.1305778
135	0xbc793e2a	-0.015212575
136	0x3db94e13	0.090480946
137	0x3e1620e8	0.1466099
138	0xbe2163c3	-0.15760712
139	0xbda5f1b3	-0.08102741
140	0xbe5e6509	-0.2171823
141	0xbe5d6188	-0.21619236
142	0x3e08cc44	0.13359171
143	0x38d9de29	0.00010388747
144	0xbe5f455e	-0.21803805
145	0xbdc6b677	-0.09702771
146	0xbd5acd52	-0.053418465
147	0x3db842e4	0.089971334
148	0xbe3c9808	-0.1841737
149	0xbcf9d76d	-0.03049823
150	0x3e1f7fd0	0.155761
151	0x3d45b088	0.048264056
152	0xbe38144d	-0.17976494
153	0x3dbd9070	0.09256065
154	0xbc8bdd84	-0.0170734
155	0x3de2e9bf	0.1107974
156	0xbe1b6828	-0.15176451
157	0xbe3ac09c	-0.18237537
158	0xbc918f39	-0.01776849
159	0x3e598d02	0.21245196
160	0xbe4cc0fa	-0.1999549
161	0x3e508164	0.20361859
162	0xbdf89af2	-0.121389285
163	0xbbde6f62	-0.00678818
164	0xbd99d565	-0.07511405
165	0x3df56bb4	0.11983433
166	0xbd3e302b	-0.046432655
167	0x3e54afad	0.2077014
168	0xbe556185	-0.20837982
169	0xbdce34e4	-0.10068682
170	0x3d994fd4	0.07485929
171	0xbe23d61d	-0.15999646
172	0x3deb7df4	0.11498633
173	0xbcbca011	-0.023025544
174	0xbe25c0de	-0.16186854
175	0xbdd5ea1f	-0.10445046
176	0x3e18fddc	0.1494059
177	0xbd02928f	-0.03187805
178	0xbe37e759	-0.17959346
179	0x3e01763d	0.1264276
180	0xbe0bb736	-0.13644108
181	0xbdc44448	-0.09583336
182	0x3ceb6057	0.028732462
183	0xbd13ed9a	-0.036115266
184	0x3df7e0db	0.12103435
185	0xbe2452c9	-0.16047205
186	0xbe43bb62	-0.1911445
187	0xbdbe92ad	-0.0930532
188	0x3c41a1bc	0.011818346
189	0xbe08f4ee	-0.13374683
190	0x3d4ebc32	0.050472446
191	0x3e33434d	0.17506142
192	0x3d3399cd	0.043847848
193	0x3d558142	0.052125223
194	0xbdc1cb94	-0.094626576
195	0x3c0a6f51	0.008449391
196	0xbe030053	-0.12793092
197	0x3dc61258	0.096714675
198	0x3d200127	0.0390636
199	0xbdd85cea	-0.10564597
200	0xbe09fc0b	-0.13475053
201	0x3e1ade75	0.15123923
202	0xbe058164	-0.1303764
203	0x3c8ff593	0.017573154
204	0xbd7e7ef4	-0.06213279
205	0xbe45ae89	-0.19304861
206	0xbe0b5720	-0.13607454
207	0xbe4c0a8b	-0.19925897
208	0x3e299c09	0.16563429
209	0xbd06d4b6	-0.0329177
210	0xbd311bc2	-0.043239363
211	0x3d9a5bc9	0.07537038
212	0x3e5d4df7	0.21611772
213	0x3b3229d9	0.0027185588
214	0x3e3a2a76	0.1818026
215	0x3db40dbd	0.08791683
216	0xbe04bd25	-0.12962778
217	0xbd1d4fe1	-0.038406257
218	0x3d6730e1	0.0564431
219	0xbc57d342	-0.013172926
220	0xbe4dcf8d	-0.20098706
221	0xbcb09d69	-0.021559434
222	0xbdd0f596	-0.10203092
223	0x3d9a3365	0.07529334
224	0x3cb80b7a	0.02246641
225	0xbd249085	-0.040176887
226	0x3dca9981	0.0989256
227	0xbdce9451	-0.10086883
228	0xbe1096ef	-0.14120077
229	0xbdc148fe	-0.0943775
230	0xbb6644e3	-0.0035136275
231	0xbd9fa32f	-0.07794797
232	0xbd0826da	-0.033240177
233	0xbe395cf1	-0.1810186
234	0x3c14d04d	0.009082866
235	0xbe07b923	-0.13254218
236	0x3d392fa7	0.04521146
237	0x3d567b1d	0.052363504
238	0xbe268a71	-0.16263749
239	0x3d184217	0.037172403
240	0x3d4b2a38	0.04960081
241	0xbd8bd7dd	-0.06828282
242	0x3ddc13eb	0.107459866
243	0xbdd209d0	-0.10255778
244	0x3cef935a	0.029245067
245	0xbb6f427d	-0.0036508136
246	0xbe529bbb	-0.20567219
247	0x3d0d6dc3	0.034528505
248	0xbd35034f	-0.04419261
249	0xbe3a9a0b	-0.18222825
250	0x3c102c7d	0.008799669
251	0xbe03ccfc	-0.12871164
252	0x3bc9b08b	0.0061550788
253	0xbe249a6e	-0.16074535
254	0x3cbab8cd	0.022793198
255	0x3db9d34c	0.09073505

linear1.bias f4 [256]
0	0x3c8e948d	0.017404819
1	0x3cbf9f7d	0.02339148
2	0x3ada694a	0.0016663459
3	0x3c357b38	0.011076741
4	0x3c330166	0.010925626
5	0x3acc71e3	0.0015597906
6	0x3c1a617b	0.009422655
7	0xba98412b	-0.0011616101
8	0x3c40f449	0.011776992
9	0x3b55e621	0.0032638388
10	0x3c67d171	0.014149056
11	0x3c495691	0.012288705
12	0x3c9cafc6	0.019126784
13	0x3c388895	0.011263032
14	0x3c97dbfa	0.01853751
15	0x3cb58a71	0.02216074
16	0x3bdf1f46	0.006809148
17	0xbaccc2af	-0.0015621985
18	0x3b1a7b4c	0.0023572026
19	0xbaad0cf0	-0.0013202708
20	0x3b76038c	0.0037538735
21	0xbbd1f6a7	-0.006407577
22	0x392f19fe	0.00016698983
23	0x3ca0f846	0.019649636
24	0x3cf259bc	0.029583804
25	0x3d1bb934	0.03801842
26	0x3cb388b2	0.021915767
27	0x3d2b5e1a	0.04183779
28	0x3a5f3497	0.00085146114
29	0x3ce8f063	0.028434938
30	0x3d747e3a	0.05969069
31	0x3b772dc1	0.003771648
32	0x3c3a8e43	0.011386457
33	0x3aa65a9b	0.0012691797
34	0x3b8fc8ce	0.0043879515
35	0x3ba9e0ee	0.0051842844
36	0x3bd710f0	0.0065632984
37	0x3cabe637	0.020983798
38	0xb925a53d	-0.00015797182
39	0x3c3db60f	0.011579051
40	0x3b3fea26	0.002928385
41	0x3b8b6958	0.0042545013
42	0x3c72e5e4	0.014825318
43	0x3cbf40f9	0.023346411
44	0xbc9ad106	-0.018898498
45	0x3ba616fb	0.0050686575
46	0x29b6a842	8.111612e-14
47	0x3c243945	0.01002342
48	0x3ce75e8f	0.028243331
49	0x3c9fb484	0.019495256
50	0x3c3e916a	0.011631349
51	0x3ab0b8ba	0.0013482787
52	0xbc5bbf6b	-0.013412337
53	0x3cbad369	0.022805886
54	0x3b363333	0.0027801513
55	0x3c79e762	0.01525292
56	0x3bc3648c	0.005962914
57	0x3c160dd4	0.00915857
58	0x3a1ad2f4	0.0005906068
59	0x3b705de4	0.0036677057
60	0x3a808b17	0.0009807077
61	0x3c96bcc1	0.018400552
62	0x3c974557	0.018465681
63	0x3ceb67b1	0.028735967
64	0x3c09b5f4	0.008405197
65	0x3bf1a248	0.0073740818
66	0x3b80e66b	0.003933718
67	0x3d430c1d	0.047618974
68	0x3ba1a725	0.0049332553
69	0x3c018d56	0.007907232
70	0x3aef3297	0.001824933
71	0x3c427c07	0.011870391
72	0x3c1434ef	0.0090458235
73	0x3c3ddfcb	0.011589001
74	0x3c3b2f59	0.011424863
75	0x3c3201df	0.010864704
76	0x3bc93f9a	0.006141615
77	0x2746c24b	2.7583346e-15
78	0x3c600d4c	0.013675045
79	0x3c0dba55	0.008650382
80	0x3c8446ba	0.016147006
81	0x3c8b32d8	0.016992018
82	0x3c64f638	0.013974719
83	0x3c4bb902	0.012434246
84	0x3c8bc79a	0.01706295
85	0x3cc800df	0.024414478
86	0x3c6cc948	0.014452286
87	0x3b9cce4e	0.0047853356
88	0x3ca7b44e	0.020471718
89	0x3c70ec15	0.014704724
90	0xb8ed9cc8	-0.000113302434
91	0x3bcc5df1	0.0062367846
92	0x3c43b4f7	0.011945001
93	0x3cc55bf7	0.024091704
94	0x3ca872c5	0.020562539
95	0x3c89d9f2	0.016827557
96	0x3cc0ce0f	0.023535756
97	0x3c3077fc	0.010770794
98	0x3cb5cbb8	0.022191867
99	0xb8c5f3b4	-9.439085e-05
100	0x3beb325a	0.0071776332
101	0x3ac5631b	0.0015059443
102	0x3c06a42a	0.008217851
103	0x3c6dc8e2	0.014513226
104	0x3b504361	0.0031778442
105	0x3c0215ea	0.007939795
106	0x3d299fea	0.04141227
107	0x3c2d996b	0.01059566
108	0x3a8c7b4a	0.0010717895
109	0x3b90da56	0.004420559
110	0x3cda481c	0.026645713
111	0x3cbec291	0.023286136
112	0x3d02621c	0.031831846
113	0x3ba81a95	0.005130122
114	0x3cdcc598	0.026949689
115	0x3c86173e	0.016368505
116	0x3cff80f3	0.031189417
117	0x3c8dee5c	0.017325573
118	0x3d231436	0.039814197
119	0x3d3b3dc1	0.04571319
120	0x3cd1b1b2	0.025597427
121	0x3c6c369a	0.014417315
122	0x3b246970	0.002508726
123	0x3b05b7cd	0.0020403743
124	0x3c345954	0.011007626
125	0x3ce10c97	0.027471824
126	0x3b6af5b8	0.0035852026
127	0x2a0fac3d	1.2760709e-13
128	0x3cca87ce	0.02472296
129	0x3cc848e6	0.024448823
130	0x3cb7ef95	0.022453109
131	0x3ba32c94	0.0049796794
132	0xba0b8d48	-0.0005323482
133	0x3c82585c	0.015911274
134	0xb8f6ed57	-0.00011774402
135	0x3cfd3bda	0.030912329
136	0x3c50f434	0.012753535
137	0x3bd286e8	0.0064247735
138	0x3cdc7b67	0.026914312
139	0x3cb4c821	0.022068085
140	0x2a042dc4	1.1739833e-13
141	0x3cc79962	0.02436513
142	0x3c158d50	0.00912793
143	0x3c780852	0.0151387025
144	0x3cae31e3	0.021264022
145	0x3be3ca60	0.006951615
146	0x3b7a219a	0.0038167
147	0x3c0b453e	0.008500395
148	0x3c9c2a67	0.019063188
149	0x3c7cc11e	0.015426902
150	0x3bb26dd4	0.0054452214
151	0x3cbe7412	0.023248706
152	0x3b958e87	0.0045641097
153	0xba9ead03	-0.0012106005
154	0x3b8a4a6d	0.004220298
155	0x3c59baca	0.013289163
156	0x3ad2ac6d	0.0016073115
157	0x3cdb6e2a	0.026785929
158	0x3d340742	0.043952234
159	0x3c111513	0.008855122
160	0x3b861511	0.004091867
161	0x3bb80259	0.0056155142
162	0xbb03315d	-0.0020018436
163	0x3c7d019b	0.015442277
164	0x3baf73ab	0.005354365
165	0x3cbe49b1	0.023228498
166	0x3ca24f4a	0.019813199
167	0x3cc3e31c	0.023912005
168	0xbb9b40b5	-0.0047379383
169	0x3c3784a1	0.011201055
170	0x3cfa098c	0.03052213
171	0x3c82aa96	0.015950482
172	0x3cecdffd	0.0289154
173	0x3bd9472e	0.0066307997
174	0x3c9010c8	0.017586127
175	0x3b189908	0.0023284573
176	0x3c252330	0.01007919
177	0xbb19fade	-0.0023495476
178	0x3bfc3456	0.0076966686
179	0x3c57859b	0.013154413
180	0x3bdfb0d8	0.0068265013
181	0xbb232a70	-0.002489712
182	0x3bd0b708	0.0063694753
183	0x3c2d8355	0.010590394
184	0x3be0889a	0.0068522217
185	0x3c929069	0.017891126
186	0x3c0aa887	0.008463032
187	0x3d7de0ca	0.061981954
188	0x3d5a210f	0.053254183
189	0x3d350bd3	0.04420073
190	0x3c84da44	0.016217358
191	0xbafb6a48	-0.0019181455
192	0xbc9827cf	-0.01857367
193	0x3c3ffcc0	0.011717975
194	0x3c7b24ce	0.015328599
195	0x3d1fe5b9	0.03903744
196	0x3be6da43	0.007045062
197	0x3bcc9ebd	0.006244509
198	0x3be59916	0.0070067747
199	0x3c8faec1	0.017539384
200	0x3add83ea	0.0016900275
201	0x3ca80556	0.020510357
202	0xbb923f2f	-0.0044630985
203	0x3d35f7e6	0.044425867
204	0x3cd8a313	0.026444947
205	0x3cc48456	0.023988884
206	0xbba71797	-0.0050992477
207	0x3cceb847	0.025234355
208	0x3c8b5006	0.017005932
209	0x3bf73ec1	0.0075453226
210	0x3c657156	0.014004072
211	0xbbcba0f6	-0.0062142564
212	0x3d3a2d3f	0.045453306
213	0x3c154c73	0.009112465
214	0xbc13f1c1	-0.009029807
215	0x3c034905	0.008013015
216	0x3b5f71b9	0.0034094884
217	0x3bc35870	0.0059614703
218	0x3c9169aa	0.01775058
219	0x3bccb475	0.006247098
220	0x3ccef717	0.025264306
221	0x395503ba	0.00020314651
222	0x3d39de48	0.045378
223	0x3b173ae2	0.0023075868
224	0x3c21099e	0.009828953
225	0x3beda1df	0.0072519626
226	0x3d0a6706	0.033789657
227	0x3c7f84c0	0.015595615
228	0x3c176e91	0.00924267
229	0x3c1ef9ed	0.009703142
230	0xba02b07c	-0.00049854047
231	0x3ba9797e	0.0051719537
232	0x3c02fa4d	0.007994247
233	0x3c4eeaa8	0.012629189
234	0x3c772b2b	0.015085976
235	0x3c9fec06	0.019521724
236	0x3caae7b6	0.020862442
237	0x3c580ad3	0.013186174
238	0x3c0ff299	0.008785867
239	0x3bcb77be	0.0062093427
240	0x3c59ecd3	0.013301092
241	0x3ca5540b	0.020181676
242	0x3c22f514	0.0099461265
243	0x3b87d40e	0.004145152
244	0x3c5e8598	0.013581656
245	0x3ca57a62	0.020199958
246	0x3cec935b	0.028878858
247	0x3ca5e159	0.020249056
248	0x3d24f2c7	0.040270593
249	0xba4d3466	-0.00078279374
250	0x3b8dc7ad	0.0043267817
251	0x3bb3d471	0.0054879715
252	0x3c04f69a	0.008115435
253	0x3c914462	0.017732803
254	0x3b2b1983	0.0026107735
255	0x3d81c2d9	0.06335992

linear2.weight f4 [59, 256]
0	0x3d5a4692	0.053289957
1	0x3d5075b6	0.050893508
2	0x3dab10a8	0.08352786
3	0x3e03652c	0.12831563
4	0x3d2ae726	0.041724347
5	0x3d8e7369	0.069556065
6	0xbf0882f4	-0.5332482
7	0x3d4c94a6	0.04994645
8	0xbcb35971	-0.021893235
9	0x3d559201	0.052141193
10	0x3d71456c	0.058904096
11	0x3db29802	0.087203994
12	0xbefe51f3	-0.49671897
13	0x3d0f2c8a	0.034954585
14	0x3d4ef40c	0.05052571
15	0x3d904356	0.07044093
16	0x3d4cd0bd	0.050003756
17	0xbd1ac06a	-0.037781157
18	0xbf10f6a7	-0.5662636
19	0x3d729638	0.05922529
20	0x3da55ef9	0.08074755
21	0xbea57ecb	-0.32323298
22	0x3d407f27	0.046996262
23	0x3d5c88ef	0.053841528
24	0x3d62499b	0.055245977
25	0xbefc20ba	-0.49243718
26	0x3dd3e4f7	0.10346406
27	0xbdb0fd71	-0.0864209
28	0xbee8c423	-0.4546214
29	0xbd9d7047	-0.07687431
30	0xbef09d22	-0.46994883
31	0xbe716d4f	-0.23576854
32	0x3d73ce93	0.059523176
33	0xbdb5571e	-0.08854507
34	0xbe62af6f	-0.22137235
35	0x3d1e78f4	0.03868957
36	0x3db2e350	0.08734763
37	0x3daa9e59	0.08330984
38	0x3ca649cd	0.020298863
39	0xbe9e02a1	-0.3086138
40	0xbe2e027a	-0.16993132
41	0xbef613b5	-0.4806191
42	0xbe9c25a1	-0.3049746
43	0x3d77c0e6	0.060486697
44	0x3d6a3334	0.057177737
45	0x3da0a8a5	0.078446664
46	0xab84a633	-9.425294e-13
47	0x3d70f855	0.058830578
48	0x3e07d59c	0.1326508
49	0xbede6238	-0.4343431
50	0x3d6e67b8	0.058204383
51	0x3d9a3215	0.07529084
52	0x3da256f1	0.07926739
53	0xbf147d71	-0.5800391
54	0xbe2e064b	-0.16994588
55	0xbbb61848	-0.005557094
56	0xbe1951d1	-0.14972617
57	0xbec07290	-0.37587404
58	0xbef86444	-0.48513997
59	0xbeeb4515	-0.45951143
60	0xbe6fa314	-0.23402053
61	0x3ce40b4a	0.027837414
62	0x3d942fc6	0.072356746
63	0x3d9e5fc6	0.07733111
64	0x3dc11836	0.09428446
65	0x3dab59f2	0.08366765
66	0x3d3484d2	0.04407198
67	0xbd636064	-0.055511847
68	0x3c407ea8	0.011748947
69	0x3d346e04	0.04405023
70	0xbd0d3c37	-0.034481253
71	0x3d96e44e	0.073677644
72	0x3d8cbef8	0.06872362
73	0xbe029be1	-0.12754776
74	0xbcee0e52	-0.029059563
75	0x3d92ac79	0.07161803
76	0x3d999997	0.07499998
77	0xa8a56d1c	-1.8365999e-14
78	0x3df367c5	0.11885027
79	0x3d9d7589	0.07688434
80	0xbe3c320c	-0.18378466
81	0x3cc97465	0.024591634
82	0x3d92ff84	0.07177642
83	0xbefe048d	-0.49612847
84	0x3df7769a	0.12083168
85	0x3d754c17	0.059887018
86	0x3d9d68ba	0.07685991
87	0xbed8db30	-0.42354727
88	0xbccaed5a	-0.024771381
89	0x3dca0299	0.09863777
90	0x3cb846be	0.02249467
91	0xbe8fb0dd	-0.28064623
92	0xbc44d7bc	-0.012014326
93	0xbeb1203b	-0.34594902
94	0xbe86459c	-0.26224983
95	0xbd8674bc	-0.06565234
96	0x3d2f9ca0	0.04287398
97	0xbe978e01	-0.29600528
98	0x3dfdaccd	0.12386475
99	0xbe6f763e	-0.2338495
100	0xbe863cf8	-0.2621839
101	0x3d389723	0.04506601
102	0xbeb16012	-0.34643608
103	0xbc91dd47	-0.017805709
104	0x3d84c83c	0.06483504
105	0xbedc2736	-0.42998666
106	0x3d6acc91	0.057323996
107	0xbef12255	-0.47096506
108	0x3cf48c4e	0.029852059
109	0x3d483ea9	0.048887882
110	0x3cbca741	0.023028972
111	0xbe1e2cd1	-0.15446784
112	0xbd8a6f48	-0.067595065
113	0x3dc7ec36	0.097618505
114	0x3d2abce7	0.041684058
115	0x3c54dfa8	0.012992777
116	0x3d9458d7	0.07243507
117	0x3d295f66	0.041350745
118	0x3db9bf3d	0.09069679
119	0x3dc697d7	0.0969693
120	0x3d9b7c6a	0.075920895
121	0xbe6c10e0	-0.23053312
122	0x3c8177ed	0.015804255
123	0xbd182917	-0.03714856
124	0x3d697e3a	0.057005145
125	0x3db3866c	0.08765873
126	0xbeb99254	-0.36244452
127	0x2acb9281	3.61617e-13
128	0x3d7d98dc	0.061913356
129	0x3d8e8a12	0.069599286
130	0xbe857e6d	-0.26073018
131	0xbdd9f3cd	-0.106422044
132	0x3a2988f4	0.0006467246
133	0x3d0bc4b1	0.034123126
134	0xbe5716e4	-0.21004826
135	0xbd39baa9	-0.04534403
136	0x3da66cbc	0.08126208
137	0xbe44c019	-0.19213904
138	0xbe052345	-0.13001736
139	0x3dcb99e1	0.099414594
140	0x2bb97e99	1.3180179e-12
141	0xbed3e477	-0.41385242
142	0xbad63152	-0.0016341603
143	0xbb60bb4d	-0.0034291327
144	0x3da3f7cf	0.0800625
145	0x3ddb94d0	0.10721743
146	0x3cc7967c	0.024363749
147	0xbece29f5	-0.40266386
148	0xbe25927c	-0.1616916
149	0x3da397ff	0.07987975
150	0xbf0022a3	-0.5005285
151	0xbe8168db	-0.2527531
152	0x3d38f66f	0.045156892
153	0x3dc15947	0.094408564
154	0x3db0e092	0.086365834
155	0xbd2acb48	-0.04169777
156	0xbf07416b	-0.52834195
157	0xbe889095	-0.26672807
158	0xbef310f9	-0.47473887
159	0x3dc2cb64	0.0951145
160	0x3dd41bf0	0.10356891
161	0xbe6bef55	-0.23040517
162	0x3da37803	0.07981875
163	0xbc204acb	-0.009783457
164	0x3d614ea1	0.055006627
165	0x3dfaedab	0.12252363
166	0xbc5d8cc4	-0.013522331
167	0x3d90176e	0.07035719
168	0xbebfcd69	-0.37461403
169	0x3d418e2d	0.04725473
170	0xbefc45d5	-0.49272028
171	0x3dbf32b0	0.0933584
172	0x3c480a30	0.01220946
173	0xbe9d639f	-0.30740067
174	0xbcdb4300	-0.026765347
175	0xbe5f0c2f	-0.21781991
176	0x3d628249	0.05530003
177	0xbbe56549	-0.0070005995
178	0x3df6ecca	0.12056883
179	0xbd372105	-0.044709224
180	0x3d812986	0.06306748
181	0x3d166e1a	0.036726095
182	0x3d120390	0.03564793
183	0xbeb17e82	-0.3466683
184	0x3d48e6ab	0.049048107
185	0xbd37f04e	-0.044906907
186	0x3da457d0	0.080245614
187	0xbee7ac50	-0.45248652
188	0xbdec5f9d	-0.11541674
189	0xbd1af30f	-0.037829455
190	0x3dd102eb	0.10205635
191	0x3d8ef012	0.069793835
192	0xbb9529ac	-0.004552087
193	0xbdd6b841	-0.104843624
194	0x3d8b34ef	0.06797206
195	0xbd222717	-0.03958806
196	0xbdc016cb	-0.093793474
197	0xbe8fb0fb	-0.28064713
198	0xbdc2b58e	-0.09507285
199	0xbeb1558a	-0.34635574
200	0x3d273998	0.04082641
201	0xbe0b7867	-0.13620149
202	0xbef93305	-0.48671737
203	0xbf151766	-0.5823883
204	0xbd71bd2f	-0.05901831
205	0x3d5a6988	0.0533233
206	0x3c9ba419	0.018999146
207	0x3d8f0c9f	0.06984829
208	0x3d4524ab	0.048130672
209	0x3bc2d56d	0.0059458525
210	0x3dab66b9	0.08369202
211	0x3e31f2af	0.17377733
212	0x3dc69668	0.096966565
213	0x3dd56167	0.10418969
214	0x3e2d7627	0.16939603
215	0x3da93336	0.08261721
216	0xbd9332bb	-0.071874104
217	0x3d946b31	0.07247008
218	0x3d7f0a0a	0.062265433
219	0xbe8fa6b3	-0.2805687
220	0x3d1a59a6	0.03768315
221	0xbe5d7d94	-0.21629936
222	0x3dc69965	0.096972264
223	0xbd4f985e	-0.050682418
224	0x3d76f75d	0.060294498
225	0xbe494a31	-0.19657208
226	0x3da988fc	0.08278081
227	0x3dbb9f98	0.091612995
228	0x3dcabaa5	0.09898881
229	0x3cc49fb5	0.024001935
230	0x3d4b66bc	0.049658522
231	0x3d553a06	0.05205729
232	0xbee2e06e	-0.4431185
233	0x3d8cd794	0.06877056
234	0x3d57ab40	0.05265355
235	0x3d832384	0.064032584
236	0x3d8526c2	0.06501533
237	0x3d2f471c	0.042792425
238	0x3d0f45ae	0.03497856
239	0x3d6f0d78	0.058362454
240	0x3d420805	0.04737093
241	0x3d148bdf	0.036266204
242	0xbd54e9fc	-0.051980957
243	0x3ba59e3d	0.005054264
244	0xbeeedc03	-0.4665223
245	0xbd8d676e	-0.06904493
246	0x3db6a345	0.0891786
247	0x3dcd9c8d	0.10039625
248	0x3d93a8ef	0.07209956
249	0xbe9a9072	-0.30188328
250	0x3d5df1b0	0.05418557
251	0xbf00eebf	-0.503643
252	0xbe0a0a88	-0.1348058
253	0x3d58b3d5	0.052905876
254	0xbe03c576	-0.12868294
255	0x3d88e8be	0.06685017

linear2.bias f4 [59]
0	0xbc84ec73	-0.016226029
1	0xbc9e2e38	-0.019309148
2	0xbc6c8a51	-0.014437274
3	0xbc6b4b70	-0.014361247
4	0xbc62a11e	-0.013832359
5	0xbcaf0871	-0.02136633
6	0xbca2c472	-0.019869063
7	0xbc9dfe63	-0.01928634
8	0xbc6de3a5	-0.014519607
9	0xbc5833eb	-0.013195972
10	0xbc87626a	-0.01652642
11	0xbc91f9c8	-0.0178193
12	0xbc8c4d78	-0.017126784
13	0xbc9b22f3	-0.018937564
14	0xbc5c7fa8	-0.01345817
15	0xbc24b060	-0.010051817
16	0xbc9fd91a	-0.019512702
17	0xbc4a1fa9	-0.01233665
18	0xbcacccb5	-0.021093706
19	0xbc8f9c50	-0.01753059
20	0xbc591b0b	-0.013251076
21	0xbc0dae50	-0.008647516
22	0xbcb58853	-0.022159731
23	0xbc8978dd	-0.016781265
24	0xbc4f46bf	-0.0126511445
25	0xbca2febc	-0.019896857
26	0xbc901127	-0.017586304
27	0xbc2afee6	-0.010436749
28	0xbc913eba	-0.017730106
29	0xbc729f8c	-0.014808547
30	0xbc9783b3	-0.018495416
31	0xbc8a01f6	-0.016846638
32	0xbc1e8d9d	-0.009677318
33	0xbc9a41fa	-0.018830288
34	0xbc9cb8f9	-0.01913117
35	0xbc92e9ce	-0.017933752
36	0xbc5e5879	-0.013570898
37	0xbc80274a	-0.015643734
38	0xbc856f2e	-0.016288366
39	0xbc1f671b	-0.009729172
40	0xbc88a8bb	-0.01668202
41	0xbca275fb	-0.019831648
42	0xbc87b6a9	-0.016566591
43	0xbc9ab4aa	-0.018884975
44	0xbc5db7ca	-0.013532588
45	0xbc93b517	-0.018030686
46	0xbc8f7bc1	-0.017515065
47	0xbc961a9f	-0.01832324
48	0xbcb9cd0e	-0.022680786
49	0xbc84018e	-0.016114023
50	0xbc1f0481	-0.009705664
51	0xbca97ade	-0.02068847
52	0xbc310a91	-0.010805742
53	0xbc901b11	-0.017591031
54	0xbc927fbc	-0.017883174
55	0xbc5c6c6b	-0.013453583
56	0xbc3b8a32	-0.011446523
57	0xbc8f2ed5	-0.017478386
58	0xbc919482	-0.01777101
