intermediary/model_14300.pth (torch, 356400 bytes, 5 tensors)

embed.weight f4 [59, 128]
00000000: e07c aebe ab8f 683e 6ef6 bdbe 5d37 aabe
00000010: ce43 c23e 15db c93e 92df f0bd 70bc e0be
00000020: a22f dd3e 3af4 a73e 01f5 9fbe 527f c6be
00000030: a82c b03c 3edd 66be 8f62 aebe 2d1a bc3e
00000040: ec90 4cbe 14cc dcbe ca16 b1be 9e68 c93e
00000050: a78e cd3e e56c 803e 0fee 303e 9624 113e
00000060: 6993 a33e 35cd d53e b3ea b4be 2207 7b3e
00000070: 95b3 9d3c 3f9f ce3e 00a6 d33e b782 1abe
00000080: 2c86 d7be 8966 c6be b660 9bbe c70b 8bbe
00000090: 1f87 943e 296c f93e 82a0 4f3e 5b15 b5bd
000000a0: d88e c0bd 05b1 a0be 4d9a e13e fdff 883e
000000b0: 0570 ce3e 619b d03d 8351 d53e 852f f63e
000000c0: cc0d bcbe 57b9 93be c6ad f73e 69d7 c53e
000000d0: bc56 aabe 9d99 c6be 67f0 a93e 856b 783e
000000e0: 401d c1be f312 423e 5e14 97be 8b60 c13e
000000f0: 1820 9cbe 9cac be3e d351 e0be 1608 c8be
00000100: c7a9 aebe bc96 673e 6dc9 41be fa83 843e
00000110: 6830 be3e c3ba e4be eb15 4fbe b1da d2be
00000120: 869d d4be cca5 d6be 7512 7c3e 2a2b 96be
00000130: d250 ef3e 821d a23e 0d00 693e ab65 d53e
00000140: 22ad b13e 265b a1be ed01 62be 25f8 f7be
00000150: a39b ce3e a0ae a2be 94c3 d43c 1ff8 afbe
00000160: 4a22 e2be 6b99 cb3e ceca a53e 6635 bbbe
00000170: 32d2 ca3e d15c f8be c5d7 b4be ebe6 b13e
00000180: 684c 8b3e dfc8 e13e a86c 93be 775c ad3e
00000190: f1f6 733e 78b4 e1be 9dfb 8dbe ff94 573e
000001a0: e032 db3e fa37 cfbe 9887 df3e 0559 de3e
000001b0: cad0 8d3e bcf1 9ebe c2fe d5be 4a48 76be
000001c0: 5468 ad3e b674 56be ba4e e1be afcc d8be
000001d0: 1ffb b73e 9457 d6be 8593 ef3d 09a7 92be
000001e0: e63f dc3e a91f adbe f3b2 b63e eb9d af3e
000001f0: fe68 d6be 8b01 8b3e 6086 e03e bad1 f33e
00000200: ed02 4a3e a0f8 a83e 1501 e8bd 247d eabe
00000210: c9a6 b6be 2130 45be 3d86 06be 86c2 d4be
00000220: 4194 26be c2fc e13e 56b5 c5be d9aa 5f3e
00000230: cee0 e13e cf1c 003f cd8f 90be 8711 dc3d
00000240: fbb5 743e 975c fd3c ff12 c13e 43d9 c8be
00000250: 141d c73e e7a2 bdbe 77c9 d6be 3fba acbe
00000260: 8cee 59be 76c1 3ebd 6621 9d3e 0e10 f2be
00000270: e71f eabe 3e19 44be b261 62be 23d8 c03e
00000280: 2416 ba3e e92a f1be 55d4 fb3e fcd1 cf3e
00000290: eca3 c8be e696 b0be 0a45 dfbe 5399 c23e
000002a0: b71d ef3e df84 f83e 83ad c8be c28c d23e
000002b0: 3f29 75be 682c d7be 1bcc 013f b638 c23e
000002c0: a48e b9bd 3bd2 dfbe fcaf d53e c00a c73e
000002d0: da39 d3be 44e2 673e f429 8fbe e4eb 9f3e
000002e0: a67d bdbe c3e3 233d 7892 db3e 2176 b43d
000002f0: a333 c03e 9db7 9abe d42b d5be 8997 aabe
00000300: c838 0fbe 9b90 9d3e 8a72 df3e 2d4f e53e
00000310: 936d c4be a01b d8be 8545 e33e 50cc c63e
00000320: c54c c23e b937 bc3d a85a d9be 9da4 c4be
00000330: 5244 4bbe a094 903e 5a9a 9cbe d22a 413e
00000340: bc68 ffbe f1d6 a1be f59a d43c 9870 d9be
00000350: accd c0be e4ee 81be b05a b0be b48c d2be
00000360: 2377 b63e 3f0e d1be 3f30 debe 51e5 e7bc
00000370: 20dc 723e 8ac4 e3be 8e0a c23e c754 813e
00000380: d67d cebd cfba 70be fcd4 5f3e 87f7 84be
00000390: 8205 bdbe 5640 833e e7d8 1dbe d65a bdbe
000003a0: 7e94 78be c5bf bd3e f040 ed3e 79de 8b3e
000003b0: 5330 d7be 67f5 a03e b788 b33e fb62 f7be
000003c0: 481f d2be aecf df3e 149a 4d3e 784e d43e
000003d0: ce17 d2be 8429 2ebe 2a5b b73e 3c51 b7be
000003e0: 86c8 8cbe 7c26 cf3e 5a44 e93e f39a 68be
000003f0: d298 8bbe 5482 b2be ef67 de3e 0877 c3be
-0.34079647 0.22711055 -0.37102073 -0.33245364 0.37942356 0.3942496 -0.11761393 -0.43893766
0.43200403 0.32803518 -0.3124161 -0.38769013 0.021505669 -0.22545335 -0.3405957 0.3673872
-0.19977158 -0.4312445 -0.345877 0.3933763 0.40147898 0.2508308 0.17278312 0.14174113
0.31948403 0.41758123 -0.3533531 0.2451444 0.01925067 0.4035587 0.41337585 -0.15088926
-0.42094553 -0.38750103 -0.30347222 -0.27157423 0.2900934 0.48715332 0.20276073 -0.08841964
-0.09402245 -0.31385055 0.44063035 0.26757804 0.4031984 0.10185886 0.4166375 0.4808313
-0.36729276 -0.2885234 0.48374766 0.38640907 -0.33269298 -0.38789073 0.33191225 0.24259765
-0.37717628 0.18952541 -0.29507726 0.3776897 -0.30493236 0.37241066 -0.43812427 -0.3906867
-0.34113905 0.22616094 -0.18924494 0.2588194 0.37146306 -0.44673738 -0.20223205 -0.41182473
-0.4152643 -0.41923368 0.24616416 -0.29329807 0.46741349 0.31663138 0.22753926 0.4167913
0.34702402 -0.31514853 -0.22071047 -0.48431507 0.40353116 -0.31773853 0.025972165 -0.3436899
-0.44166785 0.39765486 0.3238129 -0.36564177 0.3961349 -0.48508313 -0.3532087 0.3474649
0.2720673 0.44098565 -0.28793836 0.33859608 0.2382467 -0.44083 -0.27731028 0.21052931
0.42812252 -0.40472394 0.43658137 0.43427292 0.27698356 -0.31043804 -0.41795927 -0.24051014
0.3386866 -0.20942959 -0.44005376 -0.4234366 0.35933778 -0.41863692 0.11698059 -0.28643063
0.430175 -0.33813217 0.35683402 0.3430017 -0.41876978 0.27149615 0.4385252 0.47620946
0.19727679 0.33002186 -0.113283314 -0.457986 -0.35674122 -0.19256641 -0.13137145 -0.4155466
-0.16267492 0.4413815 -0.3861491 0.21842517 0.44116825 0.5004396 -0.2823471 0.107455306
0.23897545 0.03092794 0.37709805 -0.39228258 0.38889372 -0.37038347 -0.4195058 -0.33735844
-0.21282405 -0.046571217 0.30689543 -0.47277874 -0.45727465 -0.19150254 -0.2210758 0.376649
0.36345017 -0.4710305 0.49185434 0.40589893 -0.39187562 -0.34490126 -0.4360736 0.38007602
0.46702358 0.48538873 -0.3919488 0.41123015 -0.23941515 -0.42026067 0.50702065 0.37933892
-0.0906041 -0.4371508 0.41735828 0.3887539 -0.41255075 0.22644907 -0.27961695 0.31234658
-0.37009925 0.040012132 0.42885184 0.08811594 0.37539396 -0.3021821 -0.41635 -0.33318737
-0.13986504 0.30774388 0.43642074 0.4478697 -0.38364848 -0.42208576 0.44388977 0.38827753
0.37949196 0.09190316 -0.42451978 -0.3840684 -0.19850281 0.28238392 -0.3058651 0.18863991
-0.49884593 -0.316093 0.025952796 -0.42468715 -0.37656915 -0.25377572 -0.3444419 -0.41122973
0.3563777 -0.4083118 -0.43396184 -0.028307589 0.23716784 -0.44485885 0.37898678 0.25259992
-0.10082595 -0.23508762 0.21858591 -0.25970098 -0.36918265 0.25635022 -0.15414773 -0.36983365
-0.24275395 0.3706037 0.46338606 0.2731817 -0.42029056 0.31437227 0.35065243 -0.48317704
-0.4103949 0.43713135 0.20078307 0.41466117 -0.41033787 -0.17008024 0.3581174 -0.35804164
-0.27496737 0.4045905 0.4555996 -0.22715358 -0.2726503 -0.34865057 0.4343867 -0.3817675

linear1.weight f4 [256, 256]
00000000: 1164 03be 9a9b 0dbe b32f 1b3e 462e 093e
00000010: ca4a 17be ffb1 363d c4a7 343e 66cd b9bb
00000020: 31e2 56be eb52 0ebd 425e 423e 74ea 21be
00000030: 34dd 033a 1bd8 903c 4103 21be dba1 1b3e
00000040: ea13 923d 9f33 163e 19d1 563e ab6f dc3d
00000050: ae95 9cbd ac83 ca3d 7482 113d d704 f53d
00000060: 9189 f9bb 189f 47be 7295 39be 5527 a3bd
00000070: 9651 de3d 674a 363c 5f56 cabd 4150 ae3a
00000080: 2e7d d2bc 01ca 13bc 79e3 8f3c 56e5 413e
00000090: c606 cc3d 54eb f7bd 4901 543e 43bb 5abd
000000a0: 41a8 4bbb 5fd0 aa3c 1d4c 1abe 32f2 63bc
000000b0: 18b5 0ebe 0f6a 0dbe 53cd dfbd 2aed 573c
000000c0: 34b0 38be 48b6 c1bd e728 03bd 1394 34be
000000d0: 8154 5d3d 3324 12be cc99 2abe 2fd8 0a3c
000000e0: 22e3 4b3d cfd2 323b da83 113e 1ba5 af3d
000000f0: 9933 333e 9d72 3fbd aed2 143e 44d4 b93d
00000100: 4c88 253e 9582 f7bd 6de3 26be 2715 2fbe
00000110: afbc 48bd 1134 5fbd 58af 6bbc 4475 adbd
00000120: c0dd debd fb0e 2dbe f32f 063e b338 493e
00000130: 2d28 43be b0fe 50bd 7abb f2bc 3bad 073e
00000140: c880 f2bd cc51 153e 96cb 323e 9232 393e
00000150: 9987 5cbd b706 843d a5c6 253d 476b 913d
00000160: 5fac 073e 086a 20be 6409 2abe 1fba 2b3e
00000170: f60f 433d 0792 e13d 1fb9 82bd c72c af3c
00000180: c638 173d 1e47 1bbd eb34 b5bb 9d95 3e3d
00000190: aa95 19be 417a 273d c141 323d 2f0f 1abe
000001a0: 2c29 dbbd 9603 bb3c e309 4ebd 71f1 febc
000001b0: 69ce 4abe b0e9 5bbe 97e4 073d 974c 143e
000001c0: d79f 5bbe 9816 b0bd 1604 1d3e 9d3f bebd
000001d0: e5b0 523e f480 5c3e 516b c2bc dbd2 283d
000001e0: fef1 be3d 2354 fa3d d23a 3abe 25aa 1ebd
000001f0: f4dd 0abe 74ae 84bd 2084 29bd 128d fbbd
00000200: 7412 19bc 387c 773b 2d09 bcbd 6d75 2bbe
00000210: 3526 2e3e 7b98 32be e0a1 02be dacb 73bc
00000220: 7185 b93d 59b1 173e 9715 23be f759 a5bd
00000230: 70d3 5bbe bfd9 5ebe 8acd 043e 54a5 323a
00000240: 69ef 60be 9d2e c7bd b86a 59bd 7113 b93d
00000250: 2bc4 3fbe 6380 00bd 5983 1e3e 3cb2 4f3d
00000260: e59c 37be b5fb b43d e6cd 9cbc 5156 e53d
00000270: c942 1ebe 91de 3abe 5c1a 9dbc c2e1 593e
00000280: b22e 4cbe ea08 523e 134f febd 74d5 03bc
00000290: d0e6 a1bd da0c f03d 81ab 37bd 9ec7 543e
000002a0: bd9f 50be ca0d d5bd aad0 913d 316f 25be
000002b0: 49c4 de3d b157 b4bc fbd9 27be 5434 d6bd
000002c0: c6e7 173e 7cc2 11bd 9a0a 3abe 12dd 023e
000002d0: 9eda 0abe da83 c7bd 7366 f03c adf9 11bd
000002e0: 9b79 fe3d 17cf 27be e7dd 3dbe f91e c3bd
000002f0: 5f0b 103c 917e 09be 38a8 573d 8318 343e
00000300: 54f5 3c3d cc9a 4d3d bb91 c4bd 9cc0 863c
00000310: e42e 09be bd7f ca3d 7b4f 323d 0358 d9bd
00000320: aeb2 0cbe 2178 1b3e 0fdc 00be c566 853c
00000330: 48a1 84bd 2f32 47be 7a3e 0bbe 6bb2 4fbe
00000340: e7aa 293e f45a 00bd d630 35bd b975 9d3d
00000350: 26b8 5b3e e805 a83b 86cb 3b3e 1a9a b13d
00000360: d50e 05be b1ae 2bbd ce30 753d 11d5 97bc
00000370: ff95 4fbe 9d18 cebc b619 ccbd 33b7 9a3d
00000380: 168c a83c a082 18bd 73a7 ce3d 3ead cebd
00000390: 6003 14be 18cf bdbd 0b9e b8bb 0638 a5bd
000003a0: 72e2 f4bc bc7e 38be c2e8 f33b f990 05be
000003b0: 027b 4a3d 62b4 3f3d 7b2c 23be 8919 093d
000003c0: 8d20 473d e3a9 87bd e256 d83d 572f d3bd
000003d0: aea0 003d 0963 05bc ba97 52be 7778 113d
000003e0: e27a 39bd 1650 3bbe b892 863b cd55 07be
000003f0: 1212 0c3c 1b42 27be 23fa ad3c b41b b73d
-0.12831141 -0.13828889 0.15154915 0.13396558 -0.14774624 0.044603344 0.17642123 -0.0056702374
-0.20984723 -0.034747045 0.18981269 -0.15812093 0.0005030215 0.017681172 -0.15723898 0.15198462
0.071327046 0.1466813 0.20978202 0.107634865 -0.07645737 0.09888396 0.0355248 0.11963814
-0.007615276 -0.19494283 -0.18123415 -0.07966486 0.10855405 0.011126137 -0.09879755 0.0013299064
-0.025694456 -0.009020329 0.017564522 0.18935141 0.099622294 -0.12105432 0.20703615 -0.053401243
-0.003107563 0.020851312 -0.15068097 -0.013912724 -0.1393627 -0.1380999 -0.10927834 0.013179103
-0.18035966 -0.094585955 -0.03202143 -0.17634611 0.054035667 -0.14271621 -0.16660231 0.008474394
0.049777158 0.0027286296 0.14210454 0.08576413 0.17500152 -0.046740163 0.14533493 0.090736896
0.16165274 -0.120854534 -0.16297694 -0.17097913 -0.049008068 -0.054493014 -0.014385067 -0.08469632
-0.10882139 -0.16900246 0.13104229 0.19650535 -0.19058295 -0.05102414 -0.029630411 0.13249676
-0.11840969 0.14581984 0.17460474 0.18085697 -0.053840254 0.06446593 0.040472645 0.0710054
0.13249348 -0.15665448 -0.16605145 0.16770218 0.047622643 0.11014181 -0.06382965 0.021383656
0.036919378 -0.03790962 -0.00552999 0.0465294 -0.14998499 0.040888075 0.04351974 -0.15044855
-0.10701212 0.022828858 -0.050302397 -0.031120988 -0.19805302 -0.21475863 0.033176985 0.14482342
-0.21447693 -0.085980594 0.1533359 -0.09289477 0.20575292 0.21533567 -0.023732813 0.041216712
0.093235 0.12223079 -0.181865 -0.03873648 -0.13561231 -0.06478587 -0.04138577 -0.122827664
-0.0093427785 0.003776325 -0.09181438 -0.16744013 0.17006762 -0.17440979 -0.12757063 -0.014880145
0.09058655 0.14813747 -0.15926205 -0.080738 -0.21467376 -0.21762751 0.12969032 0.0006814797
-0.21966328 -0.09725688 -0.05308029 0.09036911 -0.18727176 -0.03137244 0.15479793 0.050707087
-0.17930944 0.08837072 -0.019141149 0.11198104 -0.15455164 -0.18248965 -0.019177608 0.21277526
-0.19939688 0.20511213 -0.12417426 -0.008046497 -0.07905352 0.11721201 -0.044841293 0.20779273
-0.20373435 -0.10403021 0.07119878 -0.16155697 0.10877282 -0.02201447 -0.16391747 -0.104591995
0.14834508 -0.035585865 -0.18168107 0.12779644 -0.13559958 -0.097419456 0.029345727 -0.0356385
0.12425538 -0.16387592 -0.1854168 -0.09527392 0.008791774 -0.13427188 0.05265066 0.17587475
0.0461324 0.050196454 -0.095981084 0.016449265 -0.13396794 0.098876454 0.04353283 -0.1061249
-0.13740036 0.15182544 -0.12583946 0.016284356 -0.064760745 -0.19452737 -0.13598052 -0.20282905
0.165691 -0.03133674 -0.044236027 0.076884694 0.21456966 0.005127657 0.18339357 0.08671971
-0.12993939 -0.041914646 0.059860997 -0.018534215 -0.20272063 -0.02515822 -0.099658415 0.07554474
0.02057461 -0.03723395 0.10090532 -0.10091637 -0.14454412 -0.092680156 -0.0056340746 -0.08067326
-0.029893134 -0.18017095 0.0074435184 -0.13043584 0.049433716 0.046802886 -0.15934937 0.033471618
0.048615027 -0.066242 0.105634466 -0.10311764 0.031403236 -0.008141288 -0.20565692 0.035515275
-0.045283206 -0.18292269 0.0041068457 -0.13216324 0.00854923 -0.16333811 0.021237439 0.08940831

linear1.bias f4 [256]
00000000: f77f 883c bc85 8f3c 9720 cb3a ef0f 033c
00000010: 6e6e 263c bd9a 243b 4c0e 343c 0fd6 0dbc
00000020: b724 493c 598b b93b 57db 903c e60a 5b3c
00000030: 01d1 923c a642 1b3c 27a7 a73c 2a96 cc3c
00000040: d45d b93b bb80 92ba 126a 35bb 3a91 903b
00000050: e5c3 7d3b 6551 f1bb 8a24 283a 632c 9d3c
00000060: b1ed e83c 00d5 1e3d 3f47 ad3c 020d 193d
00000070: e7d6 cb3a 4b2f 0f3d 1810 823d 37ad 8b3b
00000080: 0ea8 763c 6b6c 2d3b 10f5 c53b 1276 a83b
00000090: 26b2 0d3c 4047 b03c 34ab 9ab9 8a4a 833c
000000a0: bc22 e33a 69cc a93b 731e 8f3c 2a5e b03c
000000b0: 340e 8ebc 53f3 a63b 8500 ea2a d7a9 253c
000000c0: 2de7 ef3c 41f3 a93c 541e 293c 0496 41b9
000000d0: b5be 6abc c21b b83c e7d5 c03a a82a ac3c
000000e0: 2b6c 9e3b 1e4a 133c b85b 37ba 4e8f 063b
000000f0: 558b 713a 4eff 893c c98b a13c 4cb6 db3c
00000100: 8a8e bb3b 3805 063c 2b49 823b b28a 483d
00000110: 5744 e23b 08fc 1d3c f224 f23a d8b8 523c
00000120: 98a1 403c ea97 3a3c de39 673c 32ad 123c
00000130: 5599 de3b f562 9828 14fe 713c e508 173c
00000140: dff8 3a3c caf3 823c ffd9 843c db02 643c
00000150: dd57 803c d10a c03c 9d6e 633c c60e 953b
00000160: 66a5 993c b0ec 5a3c 7912 ab39 693f d33b
00000170: 128c 503c 722e cc3c e455 a63c 058b 8b3c
00000180: aba2 a63c f0f7 0c3c 3f1d bf3c b4c0 d73a
00000190: 0b0d 653b d68b 2cbb b8ec 1c3c d7a3 743c
000001a0: 7740 fd3a a33d 0c3c d915 393d 2729 223c
000001b0: aeab 633a b676 7b3b 954d d73c 566b b73c
000001c0: c02b ff3c 4b14 9e3b 5e99 e53c e694 3b3c
000001d0: 5fb2 f83c 6578 883c 4f93 193d 0032 383d
000001e0: 5504 c03c 072e 803c b315 26bb 41f2 0c3b
000001f0: 3cd1 573c 507a d33c 466d 9a3b 04e5 0f2b
00000200: 9856 af3c ffba cc3c b626 993c 9b42 043c
00000210: a351 a63a a617 993c 49b8 d9b9 92c8 9d3c
00000220: 3507 4b3c 3844 9e3b e3bf c63c c7ab af3c
00000230: 8a40 202b ebbf d33c 1778 233c edbd 8b3c
00000240: 7e4a ae3c 271c 173c 80f6 5a3a 455b 103c
00000250: 6e06 9d3c 2235 853c b90d ee3b 85d9 bc3c
00000260: edc6 8b3b 0594 ccba c770 963b fed8 2f3c
00000270: 3ee7 cb3a d576 da3c b01d 3c3d f140 f53b
00000280: 0ca9 563b 587d c43b 377b b0b9 5dad 6f3c
00000290: 25a3 cf3b cc36 c63c 91a4 b03c 76b7 c43c
000002a0: dee2 94bb 293a 753c 1705 033d 6c83 763c
000002b0: 36ed f03c 4b24 e03b 503a 963c da71 3f3b
000002c0: 3647 203c d3a7 fdba 29c7 db3b c4a3 643c
000002d0: bd81 af3b 6946 0cbb 9724 8b3b 0530 1c3c
000002e0: ec79 d43b 9f2c 9c3c 0b59 f23b 1764 7b3d
000002f0: db6b 503d 192a 283d e0b8 8a3c 38c8 41bb
00000300: e69f 233c 7917 433c 365c 5e3c 1b25 283d
00000310: 7abf be3b 09b9 ca3b 00e8 013c 876e 963c
00000320: b2c9 d43a d2b6 a73c e75f 7fbb a592 403d
00000330: 291d ca3c 32a9 b13c 45b5 1cbb 5f86 d23c
00000340: e78a 823c 4b57 de3b 19ad 6d3c c417 fdbb
00000350: f6cc 373d 0249 0a3c d8ec f4bb 7936 153c
00000360: fe3e 143c d9e2 9a3b 5fd8 9b3c 6989 c73b
00000370: 40b0 f83c 54a2 54b7 ebaa 373d 954e 343c
00000380: ee62 123c f1ef e83b c457 063d b286 773c
00000390: eacd 0a3c d085 5d3c cbd1 00bb fe3e 8d3b
000003a0: f4f9 e53b 7e14 733c 9dd5 6a3c 5865 a33c
000003b0: 6ade b63c 3e9e 433c f889 2d3c eb5c 763b
000003c0: bba4 653c 6c37 ae3c 6db7 dc3b 5757 9c3b
000003d0: 0bcf 613c 82fe 9e3c e2ff de3c f09e 8f3c
000003e0: 5878 673d 6424 b039 8d2a 9d3b 8852 003c
000003f0: 7b1c 613c 5843 7b3c 09cb ab3a c14e 853d
0.01666258 0.017519824 0.0015497383 0.007999404 0.010158164 0.0025116645 0.010989737 -0.008656993
0.01227682 0.0056623635 0.017682714 0.013369298 0.017921926 0.009476339 0.020465447 0.024973948
0.005656937 -0.0011177281 -0.002768163 0.0044118436 0.0038721499 -0.0073644393 0.0006414136 0.019186204
0.028433653 0.03877735 0.021152137 0.03736592 0.0015551717 0.03495721 0.06350726 0.004262592
0.015054716 0.0026462327 0.0060411766 0.005141028 0.008648431 0.02151835 -0.00029500725 0.016026754
0.0017329077 0.0051818383 0.017470574 0.021529276 -0.017340757 0.0050949245 4.156711e-13 0.010111294
0.029285038 0.020745875 0.010322172 -0.000184618 -0.014327695 0.022474173 0.0014712185 0.021016434
0.004834672 0.008989839 -0.0006994563 0.0020532194 0.00092141825 0.016845372 0.019719975 0.026820324
0.005723779 0.008179955 0.0039760075 0.048960395 0.0069051194 0.009642608 0.0018474145 0.012861453
0.011757277 0.011388758 0.014112918 0.008952426 0.006793181 1.6918306e-14 0.01477005 0.009218429
0.011411875 0.015985388 0.01621723 0.013916696 0.015666896 0.023442658 0.013881353 0.0045488803
0.018755626 0.013362095 0.00032629425 0.006446768 0.012728708 0.02492449 0.020304628 0.017034063
0.020341238 0.008604035 0.023329375 0.0016460628 0.0034950401 -0.0026328466 0.0095779225 0.014931641
0.001932158 0.008559617 0.04518685 0.009897507 0.0008684945 0.0038370318 0.026282111 0.022390049
0.031148791 0.0048241965 0.028027233 0.011449074 0.030358491 0.016658971 0.037494 0.04496956
0.023439566 0.015646948 -0.0025342524 0.00215067 0.013172444 0.02581516 0.0047127334 5.112163e-13
0.021403596 0.02499151 0.018695217 0.008072521 0.0012689125 0.018688034 -0.00041526768 0.019260678
0.012391855 0.0048299097 0.02426142 0.021444215 5.6932985e-13 0.02584835 0.009977362 0.017058337
0.021275755 0.009223021 0.00083527714 0.008810823 0.019168105 0.016260687 0.0072648195 0.02305294
0.004265657 -0.0015608078 0.004591081 0.010732887 0.0015556586 0.026667992 0.04592675 0.0074845483
0.0032754568 0.0059963875 -0.00033661138 0.014628735 0.006336587 0.024196051 0.021562846 0.024013262
-0.0045436462 0.01496748 0.031987276 0.015045982 0.029409986 0.006840264 0.018338352 0.0029212148
0.009782603 -0.0019352384 0.0067070914 0.01395506 0.005356042 -0.0021404272 0.004246305 0.009532933
0.006484261 0.019064246 0.0073958687 0.06137475 0.05088411 0.041055772 0.016933858 -0.0029568803
0.009986853 0.011907452 0.0135717895 0.04105101 0.0058211656 0.0061866087 0.007928848 0.01836325
0.0016234426 0.020472918 -0.0038967074 0.04701485 0.024672108 0.021687124 -0.0023911756 0.025698839
0.015935374 0.0067853085 0.014506602 -0.0077237803 0.0448732 0.008440258 -0.007474523 0.009107226
0.009048222 0.0047267494 0.019024072 0.0060893786 0.03035748 -1.267398e-05 0.044840734 0.011005064
0.0089347195 0.0071086814 0.032798544 0.015107797 0.008471945 0.013520673 -0.0019656296 0.004310488
0.007018322 0.014836429 0.014333156 0.019945785 0.022322852 0.011939583 0.010591976 0.0037592005
0.014016326 0.021266662 0.0067357332 0.004771154 0.013782273 0.019408468 0.027221624 0.017531842
0.056511253 0.0003359645 0.004796332 0.007832177 0.0137397 0.01533588 0.0013106774 0.06509162

linear2.weight f4 [59, 256]
00000000: bc01 593d da81 563d ece8 a93d 15e8 053e
00000010: 56d9 2b3d 08db 8d3d 6108 08bf 06b6 4a3d
00000020: d38a a9bc 6d30 593d f807 733d 3037 b33d
00000030: 2f1f fdbe c261 133d 57c4 563d 530d 923d
00000040: 7cef 513d 4de6 0fbd 4b48 0fbf 5d5d 753d
00000050: 710d a53d 1d66 a5be 5fc5 453d 9e5a 563d
00000060: ce90 643d 46af fbbe 9b90 d83d 7c4e b5bd
00000070: 224c e7be 95d2 9abd 055d edbe b6be 71be
00000080: b202 763d 9522 b0bd ccb6 66be 5b7a 1d3d
00000090: 680b b23d 3539 a83d d83f aa3c d055 a1be
000000a0: fb2e 2ebe 16ca f4be a013 9bbe 74bd 733d
000000b0: 17e0 6c3d 28f1 a23d cbff b0ac c02d 7a3d
000000c0: 5d6f 093e c74e e0be eceb 6a3d ee1e 9b3d
000000d0: 2c63 a33d df79 13bf 532f 2ebe 4da2 95b9
000000e0: 8853 1bbe 8f92 c0be 5ab5 f8be 0bcb ecbe
000000f0: a312 6ebe 3b8e f23c 9f45 903d 3ec1 9a3d
00000100: 5093 bd3d d033 aa3d 9499 2d3d 08a1 70bd
00000110: fd8e 263c c899 3a3d 5192 0bbd 4b26 963d
00000120: 81c6 8b3d 6983 03be 9a3e e7bc 0ae8 953d
00000130: 4a55 983d 8d87 01aa 0839 f13d 3b86 9f3d
00000140: cb53 38be 04cd cc3c 7034 923d 79a9 febe
00000150: 2101 ff3d 32be 703d 0ae6 9e3d d3ac d9be
00000160: 6536 cdbc f432 c73d 2c1a c83c 7fa5 8fbe
00000170: da12 64bc 629a b1be 335f 86be ebc0 89bd
00000180: 338c 343d 093e 96be ff21 003e 5be9 71be
00000190: d777 86be 6314 393d 8a65 b3be d9a4 97bc
000001a0: e108 823d 10f2 ddbe c172 713d cfe9 efbe
000001b0: 705f fb3c 2107 453d e3d0 c53c 16ca 20be
000001c0: f17b 8dbd 0bf9 c63d 2311 233d 4815 513c
000001d0: 41b5 903d 1caa 2d3d d9ac b73d a2b2 c83d
000001e0: 82f4 9e3d 6e25 6fbe e145 873c afda 10bd
000001f0: 3e5c 6b3d 23e5 b33d 8a6f bdbe 9aa6 0f2c
00000200: b3a3 7d3d f96b 8e3d c330 84be cbde d9bd
00000210: d3e9 863b 5fe1 f93c 0953 57be 3b23 22bd
00000220: 342b a73d a324 49be 4adf 07be 63ff cd3d
00000230: 14a1 d52c 8709 d0be 341f b8bc 8173 6dba
00000240: 57a7 a03d 6e6d d93d 8ae8 c23c b0b0 cfbe
00000250: 4c57 27be 416c a53d 3420 00bf 4327 81be
00000260: cf7d 3c3d 4662 c03d 96df af3d a1f4 1ebd
00000270: 4f8a 07bf 5072 85be e82e f7be f9f1 be3d
00000280: fcf9 d93d c610 6cbe 666b 9f3d ab77 5bbc
00000290: e9da 6a3d 8016 fe3d 43d0 5bbc 046b 8f3d
000002a0: b9e3 bcbe 59a3 4b3d c6f4 febe 0cd7 bf3d
000002b0: 52ac 573c 10c5 9ebe 6576 e3bc 7314 5ebe
000002c0: dcb5 6c3d c130 dabb 1d0c fa3d 6f99 32bd
000002d0: b667 803d 499b 153d fc62 0f3d cf5c b3be
000002e0: 7bba 4b3d 84db 43bd ca9f a23d 41a0 e6be
000002f0: 813e edbd 0af4 2cbd 5619 d03d b25e 913d
00000300: 94d5 07bd 408e d1bd b81e 873d 22aa 11bd
00000310: ee23 b0bd 2ca5 8fbe d266 c5bd a9e7 b2be
00000320: fd47 223d e381 07be f01d f9be 9d59 12bf
00000330: de14 63bd 3536 5b3d c7b0 963c 94e5 903d
00000340: f92f 443d a938 523b f790 aa3d c8f7 323e
00000350: 80cd c83d d329 d63d 718a 2e3e 8556 a73d
00000360: 8511 5cbd 7a4f 963d 20b2 833d d5a8 8fbe
00000370: c60b 243d a867 5fbe f8b4 c83d 8fbb 84bd
00000380: 328b 813d e35c 4dbe 4de6 ab3d 4b29 bd3d
00000390: 84b0 cc3d 4bb8 de3c 3807 4b3d dba3 553d
000003a0: 4e70 e6be a915 8b3d 057d 583d bb4a 843d
000003b0: 12de 823d e6c0 283d f8b8 093d 8edc 643d
000003c0: 3001 453d 0cc6 153d 99f2 46bd dd88 623b
000003d0: 8092 f0be d963 92bd 184e ba3d 324a d13d
000003e0: 81ba 913d a0f3 98be f3ed 5c3d e634 01bf
000003f0: 7611 00be 8b14 5e3d 84d0 02be 4749 883d
0.05298017 0.05236993 0.082963794 0.13076814 0.041955315 0.069265425 -0.53137785 0.049489997
-0.02069608 0.053024698 0.05933377 0.087507606 -0.49437854 0.0359819 0.052433338 0.07131448
0.05125378 -0.03513174 -0.55969685 0.05990349 0.08059204 -0.3230447 0.04828393 0.052332513
0.05580216 -0.4915716 0.10574456 -0.0885286 -0.45175272 -0.075596966 -0.4636003 -0.23607907
0.060061164 -0.08600346 -0.22530669 0.038446765 0.08693582 0.082140364 0.020782396 -0.31510782
-0.17010109 -0.4781043 -0.3028841 0.05950685 0.057830896 0.07956153 -5.0306196e-12 0.061078787
0.13421388 -0.43810102 0.0573539 0.07574259 0.079779 -0.57607836 -0.1701024 -0.00028540418
-0.15168583 -0.37611815 -0.4857586 -0.4624866 -0.23249297 0.029608836 0.07044529 0.07556389
0.09256613 0.08310664 0.04238279 -0.05874732 0.010165927 0.045556813 -0.034075085 0.073315226
0.06824971 -0.12843098 -0.028228093 0.073196486 0.074381426 -1.150453e-13 0.11778456 0.07789274
-0.18000714 0.025000103 0.07138908 -0.49738672 0.12451387 0.058775134 0.0775872 -0.42514667
-0.025050351 0.097265154 0.024426542 -0.2805595 -0.01392051 -0.34688097 -0.26244506 -0.06726249
0.044079017 -0.29344204 0.12512968 -0.23624174 -0.26263306 0.045185458 -0.35038406 -0.018511223
0.0634935 -0.43348742 0.05894733 -0.4685807 0.030685157 0.0481025 0.024147457 -0.1570209
-0.069084056 0.0971547 0.039811265 0.0127614215 0.070658214 0.042398557 0.08968515 0.097996965
0.0776148 -0.23354122 0.016512813 -0.035364803 0.057461016 0.08783939 -0.3699916 2.0414005e-12
0.061923694 0.06954188 -0.25818452 -0.106381975 0.0041172295 0.030502973 -0.21027769 -0.03958438
0.08162537 -0.19642882 -0.13268772 0.10058477 6.0717074e-12 -0.4063227 -0.022475816 -0.0009058044
0.078444175 0.10616575 0.023792524 -0.4056449 -0.16341895 0.080772884 -0.5004914 -0.25225267
0.046018418 0.09393744 0.085875675 -0.038807515 -0.5294542 -0.26063776 -0.48277974 0.09323496
0.10643384 -0.23053274 0.077841565 -0.01339523 0.057337675 0.12406635 -0.013416353 0.070028335
-0.3689249 0.049716327 -0.49796122 0.09367189 0.013163643 -0.31009722 -0.027766416 -0.21687488
0.057790622 -0.006658644 0.12209342 -0.043603357 0.06269781 0.036525045 0.03500651 -0.35031745
0.04973839 -0.04781677 0.079406336 -0.4504414 -0.11584187 -0.04222492 0.101610824 0.0709814
-0.03316267 -0.1023221 0.06597656 -0.035562642 -0.08600603 -0.28055704 -0.09638752 -0.34942368
0.039619435 -0.13233142 -0.48655653 -0.5716799 -0.055439822 0.053518493 0.01839484 0.070750386
0.047897313 0.003207723 0.08328431 0.17477334 0.09804821 0.10457196 0.17044999 0.08170799
-0.053727645 0.07339378 0.06430459 -0.28058496 0.04005029 -0.21816885 0.09800142 -0.064810865
0.063253775 -0.20054965 0.08393536 0.09236392 0.09994605 0.027187487 0.04956743 0.052158218
-0.45007557 0.06791241 0.052853603 0.06459566 0.06390013 0.041199587 0.033623666 0.0558744
0.048096836 0.036565825 -0.048571203 0.003456644 -0.4698677 -0.07147951 0.090969265 0.1021923
0.07115651 -0.2987337 0.053937864 -0.5047134 -0.12506661 0.05421881 -0.12774855 0.066546015

linear2.bias f4 [59]
00000000: f5cc 87bc aff9 96bc 3f78 57bc 56c4 4ebc
00000010: 5945 4cbc 1b65 9ebc e937 9cbc 68e3 96bc
00000020: a422 68bc 2375 4cbc 1493 86bc d40c 8fbc
00000030: 1e9f 87bc 8aaf a1bc 4e71 5cbc cc0e 27bc
00000040: 8632 a1bc ff97 4dbc 81ed a0bc efc4 86bc
00000050: a084 45bc 4e78 03bc d1a1 acbc c641 82bc
00000060: 9d1a 51bc 3bb4 a3bc bb5f 89bc 6910 1fbc
00000070: 6653 98bc c2a2 70bc 2171 95bc 2e17 87bc
00000080: 1f33 35bc 2d5a 9ebc 8461 98bc a622 97bc
00000090: 80d7 5ebc 5034 83bc be77 82bc 2b72 33bc
000000a0: c807 7ebc 3a76 9dbc 0103 89bc 541e 9cbc
000000b0: ca4a 52bc aca7 93bc 798a 92bc e73b 8dbc
000000c0: 8cc5 babc 7da8 7abc d305 28bc 3ae7 a2bc
000000d0: 6f88 37bc 4754 97bc 0540 8cbc dfc5 40bc
000000e0: 80d1 38bc 5a36 8bbc dae5 8fbc
-0.016577223 -0.018429605 -0.0131512275 -0.012620052 -0.012467706 -0.01933532 -0.019069629 -0.018418983
-0.014168415 -0.012479099 -0.016427554 -0.017462172 -0.016555365 -0.019737024 -0.013454748 -0.010196399
-0.019677412 -0.012548446 -0.0196445 -0.016451327 -0.012055546 -0.008024288 -0.021073254 -0.015900504
-0.012762693 -0.019983402 -0.01676928 -0.009708502 -0.018594455 -0.014687242 -0.01824242 -0.016490545
-0.0110595515 -0.019330109 -0.018601187 -0.018449139 -0.013601184 -0.016016155 -0.015926238 -0.010952513
-0.015504785 -0.019221414 -0.016725065 -0.01905743 -0.012835214 -0.018024288 -0.017888295 -0.017240478
-0.022799276 -0.01529896 -0.010255295 -0.019885648 -0.011201962 -0.018472804 -0.01712037 -0.011765926
-0.011280417 -0.01699369 -0.017565656
