intermediary/model_15200.pth (torch, 356400 bytes, 5 tensors)

embed.weight f4 [59, 128]
0	0xbeaf4677	-0.34233448
1	0x3e67f819	0.22653235
2	0xbebab5b6	-0.3646676
3	0xbeaaedcc	-0.3338455
4	0x3ebf1bb5	0.37325826
5	0x3eca06f0	0.39458418
6	0xbde06464	-0.10956648
7	0xbee2c0a5	-0.442876
8	0x3edb8907	0.4287798
9	0x3ea7286d	0.3264803
10	0xbe986e99	-0.2977188
11	0xbec63a00	-0.38716125
12	0x3c5c3a73	0.01344167
13	0xbe64c3e0	-0.22340345
14	0xbeae0840	-0.3399067
15	0x3ebd50cc	0.36975706
16	0xbe45a63b	-0.19301693
17	0xbede2e76	-0.43394822
18	0xbeb2552b	-0.34830603
19	0x3ec96726	0.3933651
20	0x3ecd88c8	0.40143418
21	0x3e823273	0.25429115
22	0x3e4013b2	0.18757513
23	0x3e08722c	0.13324803
24	0x3ea5ecc5	0.32407203
25	0x3ed63bef	0.418426
26	0xbeb5606a	-0.3542512
27	0x3e735952	0.23764542
28	0x3c9993ab	0.018747171
29	0x3ecfc11f	0.40577027
30	0x3ed33f31	0.4125915
31	0xbe19575d	-0.14974733
32	0xbed90184	-0.4238397
33	0xbec5060d	-0.3848118
34	0xbe9ad4be	-0.30240434
35	0xbe8aef64	-0.27135766
36	0x3e98f82b	0.29876837
37	0x3efa8a2c	0.48933542
38	0x3e4ac8cd	0.19803162
39	0xbdabd81f	-0.08390831
40	0xbdb3e399	-0.08783645
41	0xbea269c2	-0.31721312
42	0x3ee151ee	0.4400782
43	0x3e8ab381	0.27090076
44	0x3eccbe0d	0.39988747
45	0x3dca01da	0.098636344
46	0x3ed58163	0.41700277
47	0x3ef7d7e3	0.48406896
48	0xbebb371c	-0.36565483
49	0xbe91c9b1	-0.2847419
50	0x3efa711c	0.4891442
51	0x3ec70e4a	0.3887809
52	0xbeaa5755	-0.33269754
53	0xbec66649	-0.38749912
54	0x3ea94575	0.33060804
55	0x3e85e3a5	0.26150241
56	0xbec1e72e	-0.3787169
57	0x3e4959e0	0.19663191
58	0xbe919795	-0.2843596
59	0x3ebff8e7	0.37494585
60	0xbe9e6cd2	-0.30942398
61	0x3ebf4f2d	0.37365094
62	0xbee0d2a9	-0.4391072
63	0xbec76891	-0.38946965
64	0xbeae0973	-0.33991584
65	0x3e7145da	0.23561803
66	0xbe42f779	-0.19039716
67	0x3e9ade6a	0.30247813
68	0x3ebd7974	0.37006724
69	0xbee63fc1	-0.44970515
70	0xbe545145	-0.20734127
71	0xbed2da11	-0.41181996
72	0xbed6d2f2	-0.41957814
73	0xbed7d2bf	-0.42152974
74	0x3e72c2d2	0.2370713
75	0xbe961e5b	-0.29320034
76	0x3ef0e9f4	0.47053492
77	0x3ea449c8	0.3208754
78	0x3e67b874	0.22628957
79	0x3ed67f38	0.41893935
80	0x3eae9978	0.34101462
81	0xbea4e0ad	-0.32202664
82	0xbe6dbbfb	-0.2321624
83	0xbefa15a3	-0.48844633
84	0x3ecfc3f7	0.40579197
85	0xbea424df	-0.3205938
86	0x3c9a3104	0.0188222
87	0xbeb41f05	-0.35179916
88	0xbee1e8ca	-0.44122916
89	0x3ecaeaf9	0.39632395
90	0x3ea4d850	0.32196283
91	0xbebf40bd	-0.3735408
92	0x3ec9688f	0.39337584
93	0xbef84d45	-0.48496452
94	0xbeb5bdba	-0.35496312
95	0x3eb32ce3	0.34995183
96	0x3e8c8f30	0.27452993
97	0x3ee440c7	0.4458067
98	0xbe932ee3	-0.2874671
99	0x3eabd088	0.33557534
100	0x3e6f2816	0.23355135
101	0xbee2f2c9	-0.44325855
102	0xbe8f42aa	-0.27980548
103	0x3e5bb8ff	0.21457289
104	0x3edc5a8a	0.43037826
105	0xbece46bf	-0.4028835
106	0x3edffc1c	0.43747032
107	0x3ee1452b	0.43998083
108	0x3e8f4c4a	0.2798789
109	0xbe9ba018	-0.3039558
110	0xbed7d30c	-0.42153203
111	0xbe762686	-0.24038133
112	0x3eadf872	0.3397861
113	0xbe59c585	-0.21266754
114	0xbee18009	-0.44042996
115	0xbed92c0b	-0.42416415
116	0x3eb9b75b	0.36272702
117	0xbed3b0a7	-0.41345713
118	0x3dfa9581	0.12235547
119	0xbe928b72	-0.28622013
120	0x3eddd58f	0.43326995
121	0xbeacf85d	-0.33783236
122	0x3eb5eafd	0.35530844
123	0x3eb1cf7a	0.34728605
124	0xbed6f6a7	-0.41985056
125	0x3e89b82e	0.2689833
126	0x3ee19043	0.44055375
127	0x3ef59823	0.47967634
128	0x3e4980cb	0.19678037
129	0x3ea91587	0.33024237
130	0xbddb1eca	-0.10699232
131	0xbeeaeeb7	-0.4588525
132	0xbeb91848	-0.36151338
133	0xbe47968b	-0.19491021
134	0xbdffa763	-0.12483098
135	0xbed54524	-0.41654313
136	0xbe2cd9e0	-0.16879988
137	0x3ee2c44c	0.44290388
138	0xbec6552a	-0.3873685
139	0x3e60e241	0.21961309
140	0x3ee1b225	0.44081226
141	0x3f011792	0.5042659
142	0xbe9640af	-0.29346225
143	0x3db107d1	0.08644069
144	0x3e75b42f	0.23994516
145	0x3d191f5c	0.037383422
146	0x3ec20b53	0.37899265
147	0xbec78fd0	-0.38976908
148	0x3ec75902	0.38935095
149	0xbebfa3ec	-0.3742975
150	0xbed62fc3	-0.41833314
151	0xbeac818b	-0.33692583
152	0xbe5a9953	-0.21347551
153	0xbd853830	-0.065048575
154	0x3e9bfd94	0.30466902
155	0xbef1b8ee	-0.47211403
156	0xbeeb231d	-0.45925227
157	0xbe473a54	-0.19455844
158	0xbe648061	-0.22314598
159	0x3ec24747	0.37945005
160	0x3eb9c9c3	0.36286744
161	0xbef0be47	-0.4702017
162	0x3efcd030	0.49377584
163	0x3ed1fd67	0.41013643
164	0xbec8776e	-0.39153618
165	0xbeb21107	-0.34778616
166	0xbedfb731	-0.4369445
167	0x3ec3e210	0.3825841
168	0x3eed2a04	0.46321118
169	0x3ef8a6e9	0.48564842
170	0xbec9acc5	-0.39389625
171	0x3ed11ea4	0.4084369
172	0xbe7d02c9	-0.24708094
173	0xbed6e75a	-0.41973382
174	0x3f028ef4	0.5099938
175	0x3ec0ce77	0.3765752
176	0xbdca573e	-0.098799214
177	0xbee12e83	-0.43980798
178	0x3ed53ff7	0.41650364
179	0x3ec8639a	0.3913849
180	0xbed23a81	-0.4106026
181	0x3e67a98a	0.22623268
182	0xbe8e7b25	-0.27828327
183	0x3e9f7824	0.31146348
184	0xbeb79c13	-0.35861263
185	0xb9978741	-0.00028901736
186	0x3edc1320	0.4298334
187	0x3da6dbb7	0.08147376
188	0x3ec2c472	0.380405
189	0xbe9d1b55	-0.30684915
190	0xbed56215	-0.41676393
191	0xbea8535f	-0.32876107
192	0xbe03f7c0	-0.12887478
193	0x3e9be67f	0.30449292
194	0x3ee15761	0.44011977
195	0x3ee8d9c5	0.45478645
196	0xbec62e83	-0.3870736
197	0xbed86abb	-0.4226893
198	0x3ee5933f	0.44838902
199	0x3ec66b77	0.38753864
200	0x3ec32da1	0.3812075
201	0x3dc44f75	0.09585468
202	0xbed710dd	-0.42005053
203	0xbec5990d	-0.3859333
204	0xbe52234e	-0.2052128
205	0x3e8f7718	0.2802055
206	0xbe9bfc32	-0.30465847
207	0x3e306652	0.17226532
208	0xbf00a75f	-0.5025539
209	0xbea0bdd6	-0.31394833
210	0x3d01a229	0.03164879
211	0xbed9ef60	-0.4256544
212	0xbec2cb6d	-0.38045827
213	0xbe8296a3	-0.25505552
214	0xbeb09de2	-0.34495455
215	0xbed0ae96	-0.40758198
216	0x3eb7e970	0.35920286
217	0xbed2655f	-0.41092965
218	0xbededa8e	-0.4352612
219	0xbd7056db	-0.05867658
220	0x3e701daa	0.23448816
221	0xbee5b671	-0.44865754
222	0x3ec071fb	0.3758696
223	0x3e7a1997	0.24423824
224	0xbdce4296	-0.10071294
225	0xbe6f4594	-0.23366386
226	0x3e639399	0.22224273
227	0xbe8569dc	-0.26057327
228	0xbebd6646	-0.3699209
229	0x3e8602f4	0.26174128
230	0xbe2a59f8	-0.16635883
231	0xbec0bc40	-0.37643623
232	0xbe795270	-0.24347854
233	0x3ebddcc4	0.37082493
234	0x3eed80d2	0.46387345
235	0x3e8cb948	0.27485108
236	0xbed6c549	-0.41947392
237	0x3e9c7c44	0.30563557
238	0x3eb321d6	0.34986752
239	0xbef72ab6	-0.48274773
240	0xbed21dd5	-0.41038385
241	0x3edf439a	0.43606263
242	0x3e521135	0.20514376
243	0x3ed330e6	0.41248244
244	0xbed3cf7b	-0.41369233
245	0xbe3cfc1b	-0.18455546
246	0x3eb40283	0.35158166
247	0xbeb75eec	-0.35814607
248	0xbe8d7324	-0.27626908
249	0x3ecf6d67	0.40513155
250	0x3eea903d	0.4581317
251	0xbe6a32d0	-0.22870946
252	0xbe89fded	-0.26951542
253	0xbeb114d7	-0.34586212
254	0x3ede1c85	0.43381134
255	0xbec25d3c	-0.37961757

linear1.weight f4 [256, 256]
0	0xbe037400	-0.12837219
1	0xbe10b938	-0.14133155
2	0x3e1b3359	0.15156306
3	0x3e0724fd	0.13197704
4	0xbe143544	-0.14473444
5	0x3d44e9c5	0.048074502
6	0x3e316509	0.17323698
7	0xbac863de	-0.0015288552
8	0xbe5499b9	-0.20761766
9	0xbd162d27	-0.036664154
10	0x3e3da6a1	0.18520595
11	0xbe201e90	-0.15636659
12	0x3b43fab6	0.0029904074
13	0x3c276cb8	0.010218792
14	0xbe20aef7	-0.15691744
15	0x3e1fae1d	0.15593763
16	0x3d8d278e	0.0689231
17	0x3e1415ef	0.14461492
18	0x3e571743	0.21004967
19	0x3ddf3803	0.10899355
20	0xbd9a2c4f	-0.075279824
21	0x3dc7508f	0.09732162
22	0x3d0fac9d	0.035076726
23	0x3dfca615	0.12336365
24	0xbc5be308	-0.013420828
25	0xbe43e3a1	-0.19129802
26	0xbe35fc9b	-0.17772143
27	0xbda10033	-0.07861366
28	0x3de392dc	0.111119956
29	0x3c26efd5	0.010189016
30	0xbdcad4df	-0.09903883
31	0x399123f2	0.00027683337
32	0xbccc4888	-0.02493693
33	0xbc4e964b	-0.012609075
34	0x3c5603b2	0.0130624045
35	0x3e421f90	0.18957353
36	0x3dc96d44	0.09835294
37	0xbdf6b76c	-0.12046704
38	0x3e554a42	0.20829108
39	0xbd59ae81	-0.053144936
40	0xbb686739	-0.0035461916
41	0x3c922f6f	0.017844884
42	0xbe19d5bf	-0.15022944
43	0xbc848bdd	-0.016179973
44	0xbe0e2619	-0.1388172
45	0xbe0d615e	-0.13806674
46	0xbde6a2a6	-0.112614915
47	0x3c992bed	0.018697703
48	0xbe3508e7	-0.17679177
49	0xbdbc39f1	-0.09190739
50	0xbd0a4908	-0.033761054
51	0xbe359bc2	-0.17735198
52	0x3d53eefb	0.05174158
53	0xbe11f0cc	-0.14252013
54	0xbe292af5	-0.16520293
55	0xb91f7614	-0.00015207409
56	0x3d52c2a1	0.051455144
57	0x3ae9b7bc	0.0017831246
58	0x3e0bff3d	0.13671584
59	0x3da55ba3	0.08074119
60	0x3e2e25c6	0.17006597
61	0xbd4200f7	-0.0473642
62	0x3e177448	0.14790452
63	0x3db30e7d	0.08742998
64	0x3e24b6e5	0.16085394
65	0xbdf27170	-0.11838043
66	0xbe261e61	-0.16222526
67	0xbe416304	-0.18885428
68	0xbd47f90b	-0.04882149
69	0xbd5bceb7	-0.053663936
70	0xbc61870b	-0.013765107
71	0xbdaf6c1d	-0.08565543
72	0xbde379ce	-0.11107217
73	0xbe2d18a9	-0.16903938
74	0x3e0ddfd3	0.13854913
75	0x3e46a78e	0.19399855
76	0xbe433af7	-0.19065462
77	0xbd4c2a8c	-0.049845263
78	0xbceb2341	-0.028703334
79	0x3e08917c	0.13336748
80	0xbdf10681	-0.11768819
81	0x3e144611	0.14479853
82	0x3e32bef7	0.1745566
83	0x3e39be90	0.181391
84	0xbd55d7c8	-0.05220774
85	0x3d7ede74	0.062223867
86	0x3d33f2b4	0.04393263
87	0x3d9928d4	0.074784905
88	0x3e068255	0.13135655
89	0xbe1dd1f1	-0.15412118
90	0xbe2756d4	-0.16341716
91	0x3e2fbb4e	0.17161295
92	0x3d51fc3c	0.05126594
93	0x3dd3f56b	0.10349544
94	0xbd7a965e	-0.061178558
95	0x3caf3679	0.02138828
96	0x3cf75a57	0.030194445
97	0xbd1b8b14	-0.037974432
98	0xbbcd91ed	-0.006273499
99	0x3d3a29c0	0.045449972
100	0xbe1aa6b7	-0.15102659
101	0x3d2014a5	0.03908219
102	0x3d374c52	0.04475052
103	0xbe1d5e5c	-0.15368026
104	0xbdd2fdbb	-0.103023015
105	0x3cbc1618	0.022959754
106	0xbd4fd090	-0.05073601
107	0xbd0ad6ad	-0.033896137
108	0xbe4b42eb	-0.19849746
109	0xbe5d06fb	-0.21584694
110	0x3d09caf2	0.03364081
111	0x3e12db8b	0.14341561
112	0xbe5b2e71	-0.21404435
113	0xbdacbb12	-0.08434118
114	0x3e1a7426	0.1508337
115	0xbdbdc9c3	-0.092669986
116	0x3e51168c	0.20418757
117	0x3e584ade	0.2112231
118	0xbcb034bd	-0.021509523
119	0x3d17d399	0.03706703
120	0x3db41fc4	0.08795121
121	0x3df30500	0.11866188
122	0xbe3c08e9	-0.18362774
123	0xbd2df75f	-0.04247224
124	0xbe0b6194	-0.13611442
125	0xbd85e366	-0.065375134
126	0xbd271756	-0.04079374
127	0xbdfa89f4	-0.12233344
128	0xbc0ebd4c	-0.008712124
129	0x3ba990e6	0.005174744
130	0xbdc2d868	-0.095139325
131	0xbe29c1c6	-0.16577825
132	0x3e30df10	0.17272592
133	0xbe31dd82	-0.17369655
134	0xbe061338	-0.13093269
135	0xbc7d583b	-0.01546293
136	0x3dba8132	0.09106673
137	0x3e1674e7	0.14693032
138	0xbe210baa	-0.15727106
139	0xbda6249e	-0.08112453
140	0xbe5e110f	-0.21686195
141	0xbe5d6607	-0.21620952
142	0x3e09dcf2	0.1346319
143	0x39acc57f	0.00032953543
144	0xbe5f5822	-0.21810964
145	0xbdc765ee	-0.097362384
146	0xbd5a2522	-0.05325807
147	0x3db8b9c8	0.0901981
148	0xbe3c4e3b	-0.18389218
149	0xbcf9268c	-0.030413888
150	0x3e1eff58	0.15527093
151	0x3d42e0af	0.047577556
152	0xbe376c1e	-0.17912337
153	0x3dbdf734	0.09275666
154	0xbc89fb5e	-0.016843494
155	0x3de2ae74	0.110684305
156	0xbe1a62ee	-0.15076801
157	0xbe3a78e5	-0.1821018
158	0xbc8f033a	-0.017457593
159	0x3e594ff1	0.21221901
160	0xbe4d190b	-0.20029084
161	0x3e51d658	0.20491922
162	0xbdf8abba	-0.12142129
163	0xbbdfd1e7	-0.006830442
164	0xbd9888fa	-0.07448001
165	0x3df6d948	0.12053162
166	0xbd3c181a	-0.045921423
167	0x3e5496e4	0.20760685
168	0xbe556d41	-0.20842458
169	0xbdcd2748	-0.10017258
170	0x3d9974b8	0.074929655
171	0xbe237d64	-0.15965801
172	0x3ded0590	0.115733266
173	0xbcbf8f12	-0.02338365
174	0xbe25e9c8	-0.16202462
175	0xbdd46034	-0.10369912
176	0x3e1994a1	0.14998104
177	0xbd04169f	-0.032248136
178	0xbe3767a4	-0.1791063
179	0x3e01e512	0.1268504
180	0xbe0be284	-0.13660628
181	0xbdc43839	-0.09581036
182	0x3ceaa741	0.028644206
183	0xbd13215e	-0.035920493
184	0x3df7bf36	0.120970175
185	0xbe2452dc	-0.16047233
186	0xbe43b38a	-0.19111457
187	0xbdbd737a	-0.09250541
188	0x3c3cacf3	0.011515844
189	0xbe0880cd	-0.13330384
190	0x3d4d241e	0.050083272
191	0x3e330b09	0.17484678
192	0x3d30bdb1	0.043149654
193	0x3d5517a4	0.0520245
194	0xbdc12957	-0.09431713
195	0x3c036590	0.00801982
196	0xbe0202bc	-0.12696356
197	0x3dc46348	0.09589249
198	0x3d1e8a04	0.03870584
199	0xbdd84e64	-0.10561827
200	0xbe08f932	-0.1337631
201	0x3e1ad552	0.15120438
202	0xbe04dc10	-0.12974572
203	0x3c8fa3e6	0.017534208
204	0xbd7a5003	-0.06111146
205	0xbe45567c	-0.19271272
206	0xbe0afba7	-0.1357256
207	0xbe4bddd3	-0.19908838
208	0x3e2a19e8	0.16611445
209	0xbd09423e	-0.03351044
210	0xbd332a59	-0.043741558
211	0x3d98dea1	0.07464338
212	0x3e5dadab	0.2164828
213	0x3b1d33fe	0.0023987289
214	0x3e397ff7	0.18115221
215	0x3db3428e	0.08752929
216	0xbe04f23e	-0.12983033
217	0xbd1b0a38	-0.037851542
218	0x3d693cde	0.056942813
219	0xbc4f7c6a	-0.01266394
220	0xbe4e746a	-0.20161596
221	0xbcb55e12	-0.022139583
222	0xbdd0fef5	-0.10204879
223	0x3d9a831c	0.075445384
224	0x3cb8ef47	0.022575034
225	0xbd235fb9	-0.03988621
226	0x3dca131c	0.09866926
227	0xbdcf1250	-0.10110915
228	0xbe10674c	-0.14101905
229	0xbdc24a56	-0.09486835
230	0xbb67a455	-0.0035345752
231	0xbd9ec633	-0.07752647
232	0xbd0a1b47	-0.03371742
233	0xbe3919be	-0.18076226
234	0x3c24b8d0	0.010053828
235	0xbe0734c9	-0.1320373
236	0x3d382589	0.04495767
237	0x3d55980b	0.052146953
238	0xbe270abe	-0.16312692
239	0x3d16c58c	0.03680949
240	0x3d47cca0	0.04877913
241	0xbd8b9573	-0.068156146
242	0x3dda1d5e	0.106501326
243	0xbdd12c2d	-0.10213504
244	0x3cef1183	0.029183155
245	0xbb7bf316	-0.003844445
246	0xbe52c855	-0.20584233
247	0x3d0bc8d5	0.034127075
248	0xbd32ca14	-0.043649748
249	0xbe3a5a74	-0.18198568
250	0x3c165de5	0.00917766
251	0xbe0335ad	-0.12813444
252	0x3baf6207	0.005352262
253	0xbe242121	-0.16028263
254	0x3cbf6515	0.02336363
255	0x3db9cb60	0.09071994

linear1.bias f4 [256]
0	0x3c9081ac	0.017639957
1	0x3cc3a52b	0.02388247
2	0x3ae3dca7	0.0017384485
3	0x3c18f81e	0.0093364995
4	0x3c32a0fc	0.0109026395
5	0x3b12583d	0.0022330426
6	0x3bf48d1f	0.007463112
7	0xb95d5888	-0.00021109183
8	0x3c4fc911	0.012682215
9	0x3b9f8c52	0.0048690224
10	0x3c5e1ad3	0.0135562
11	0x3c5ff616	0.013669511
12	0x3c92900e	0.017890956
13	0x3c4aa384	0.012368087
14	0x3c8c93f3	0.017160391
15	0x3cba0d1e	0.022711333
16	0x3bcfaa02	0.006337405
17	0xbb1ba659	-0.0023750274
18	0x3b1c3076	0.0023832596
19	0xbab82945	-0.0014050385
20	0x3b9502ba	0.004547444
21	0xbbda6f38	-0.0066660903
22	0x3952d00a	0.00020104661
23	0x3c973278	0.018456683
24	0x3ce85bd9	0.028364109
25	0x3d1d727e	0.038439266
26	0x3caf534d	0.021402026
27	0x3d2c5306	0.042071365
28	0xb96c9ed9	-0.00022565889
29	0x3cf49d89	0.029860275
30	0x3d6f6b1b	0.058451753
31	0x3b7d3cae	0.0038640904
32	0x3c517ec0	0.012786567
33	0x3aaa7a11	0.0013006349
34	0x3ba09005	0.004899981
35	0x3b882112	0.004154333
36	0x3bd19615	0.006396065
37	0x3caae25e	0.020859893
38	0x3a891f44	0.0010461588
39	0x3c4b1d2e	0.012397094
40	0x3b37acfa	0.0028026686
41	0x3bb85578	0.005625423
42	0x3c6be140	0.0143969655
43	0x3cb7ab51	0.022420557
44	0xbc98fa1b	-0.018673947
45	0x3bc7840d	0.0060887397
46	0x2985b5cf	5.937925e-14
47	0x3c2d62fa	0.01058268
48	0x3ceab6eb	0.028651675
49	0x3ca23f91	0.019805701
50	0x3c3159b9	0.010824614
51	0x3a9f9a31	0.001217669
52	0xbc57a38b	-0.01316155
53	0x3cc83e89	0.024443882
54	0x3b36c593	0.002788876
55	0x3c600ee2	0.013675423
56	0x3bcf7d8f	0.0063321064
57	0x3c150173	0.009094584
58	0x3a29dd48	0.0006479812
59	0x3b10a24b	0.002206939
60	0x397c65f5	0.00024070575
61	0x3c8789d6	0.016545217
62	0x3c922bcf	0.017843155
63	0x3cf3136a	0.029672343
64	0x3be129a5	0.0068714195
65	0x3bfda066	0.0077400682
66	0x3b94c79d	0.0045403973
67	0x3d43c10e	0.047791533
68	0x3b8197c4	0.0039548595
69	0x3bf22dba	0.007390705
70	0x3b1fa3ea	0.0024359175
71	0x3c4ec511	0.0126202265
72	0x3c00a94b	0.007852863
73	0x3c49edc3	0.012324753
74	0x3c5396e3	0.012914392
75	0x3c2733e2	0.010205241
76	0x3bb11a07	0.005404714
77	0x2716e94b	2.094315e-15
78	0x3c78b289	0.015179285
79	0x3c0b3cfe	0.008498428
80	0x3c8dabb1	0.017293783
81	0x3c82b20c	0.01595404
82	0x3c810d32	0.015753362
83	0x3c5405c3	0.012940827
84	0x3c8900c6	0.016724002
85	0x3ccac4dc	0.024752073
86	0x3c6a1042	0.014286103
87	0x3ba83f6e	0.0051345145
88	0x3ca7c37d	0.020478958
89	0x3c6a7cd9	0.014311993
90	0x3a8a59ea	0.0010555361
91	0x3bd92291	0.006626435
92	0x3c469d03	0.012122395
93	0x3cc8a041	0.024490478
94	0x3cad40f9	0.021149145
95	0x3c8638eb	0.016384562
96	0x3cb7e962	0.022450153
97	0x3c236b32	0.009974288
98	0x3cc1c8c2	0.0236553
99	0x38acc9b8	8.239172e-05
100	0x3be5213c	0.0069924872
101	0x3a93bc86	0.0011271394
102	0x3c1f2e2a	0.009715596
103	0x3c7055e2	0.014668914
104	0x3b874ac5	0.0041287863
105	0x3bf4d281	0.007471383
106	0x3d21a501	0.039464
107	0x3c2e8a64	0.010653112
108	0x3a635f7a	0.000867359
109	0x3b80dd8a	0.0039326595
110	0x3cdc1661	0.02686614
111	0x3cc06632	0.02348623
112	0x3d094344	0.033511415
113	0x3b9e8d8f	0.0048386524
114	0x3cdbeb36	0.026845556
115	0x3c84c73f	0.01620829
116	0x3d0195a8	0.031636864
117	0x3c8f6984	0.017506368
118	0x3d263214	0.040575102
119	0x3d3c55b0	0.045980155
120	0x3cdf95da	0.027293134
121	0x3c7e3363	0.015515181
122	0x3aea2f1b	0.0017866822
123	0x3b114113	0.0022164031
124	0x3c3216e5	0.010869716
125	0x3cd4d9ef	0.025982825
126	0x3b901fed	0.004398337
127	0x2a0d5620	1.2553196e-13
128	0x3cb934d3	0.022608196
129	0x3ccc8d87	0.02496983
130	0x3cb01732	0.021495435
131	0x3bf59ee5	0.0074957483
132	0x3a73ea8e	0.0009304666
133	0x3c7937ba	0.01521104
134	0x3996f1a1	0.00028790257
135	0x3cf977f3	0.030452704
136	0x3c74a40c	0.01493169
137	0x3bf9ad29	0.0076195193
138	0x3cd33190	0.02578047
139	0x3cabd0c2	0.020973567
140	0x29f260a6	1.0763725e-13
141	0x3ccce91b	0.025013497
142	0x3c1ca084	0.009559754
143	0x3c7d4d2a	0.015460292
144	0x3cb9d71a	0.022685576
145	0x3bec086b	0.007203152
146	0x3b8df5e3	0.0043322905
147	0x3bfe6bf5	0.0077643343
148	0x3c914892	0.0177348
149	0x3c83c1ed	0.016083682
150	0x3bcb85a0	0.0062109977
151	0x3cb55aa5	0.02213795
152	0x3b9f55be	0.004862516
153	0xbb1b1073	-0.0023660928
154	0x3b956b9b	0.0045599467
155	0x3c7c4301	0.015396834
156	0x3acfb98c	0.0015848144
157	0x3cd8c997	0.026463313
158	0x3d3403c6	0.04394891
159	0x3c243dc6	0.010024494
160	0x3baba568	0.005238224
161	0x3bb1f6b3	0.00543102
162	0xbadb8b6a	-0.0016749923
163	0x3c632526	0.013863837
164	0x3ba2d794	0.0049695466
165	0x3cb79c28	0.022413328
166	0x3c9b2b4c	0.018941544
167	0x3cb7c72f	0.022433845
168	0xbb85c331	-0.0040821065
169	0x3c5f03a8	0.013611712
170	0x3cfdfd0b	0.03100445
171	0x3c82e0b6	0.015976291
172	0x3cefe01a	0.029281665
173	0x3bc0622a	0.005871077
174	0x3c917df8	0.017760262
175	0x3b2070c5	0.0024481278
176	0x3c2eb6f7	0.010663739
177	0xbb1975f3	-0.002341625
178	0x3bfd7526	0.0077349124
179	0x3c5e6dc0	0.013575971
180	0x3bc626d5	0.0060471096
181	0xbb4309ca	-0.0029760473
182	0x3b8d8c42	0.0043196985
183	0x3c374500	0.0111858845
184	0x3bd86f48	0.0066050626
185	0x3c9c6841	0.01909268
186	0x3c2116a9	0.009832063
187	0x3d7999d8	0.060937732
188	0x3d559429	0.05214325
189	0x3d2c28de	0.04203116
190	0x3c78d812	0.015188234
191	0xbaecd388	-0.0018068412
192	0xbc91bc1e	-0.017789897
193	0x3c3672c9	0.011135765
194	0x3c5bd232	0.013416814
195	0x3d1fb3b0	0.038989723
196	0x3beaf4c9	0.007170294
197	0x3bdf6978	0.006817993
198	0x3bd2ddeb	0.006435146
199	0x3c908af4	0.017644383
200	0x3b47700d	0.0030431778
201	0x3cb02a8d	0.021504665
202	0xbb9183d0	-0.004440762
203	0x3d3a845d	0.045536388
204	0x3cd478c2	0.025936488
205	0x3cb94ff4	0.022621132
206	0xbb98e042	-0.0046654055
207	0x3cca2e6b	0.024680337
208	0x3c8937df	0.016750274
209	0x3bf95c82	0.0076099047
210	0x3c485aa8	0.012228645
211	0xbbb3bc1d	-0.0054850713
212	0x3d3bc19d	0.04583894
213	0x3c167c33	0.009184885
214	0xbc06e8bf	-0.008234202
215	0x3c069e04	0.008216385
216	0x3af44afd	0.0018638071
217	0x3bca4a18	0.0061733834
218	0x3c91b09c	0.01778441
219	0x3bdeecb4	0.0068031196
220	0x3cdaea79	0.026723133
221	0xb80ef650	-3.4084835e-05
222	0x3d3c51bf	0.045976397
223	0x3b7b0f50	0.0038308688
224	0x3c15c729	0.009141722
225	0x3c00092b	0.007814686
226	0x3d0871e0	0.033311725
227	0x3c69bbb9	0.014265948
228	0x3c134a11	0.008989827
229	0x3c380293	0.0112310825
230	0xbafbe198	-0.0019217012
231	0x3bca6439	0.0061764983
232	0x3bff5e7d	0.0077932463
233	0x3c5e1d5f	0.013556807
234	0x3c70feb5	0.014709164
235	0x3c9a9f7e	0.01887488
236	0x3cbb52ee	0.022866692
237	0x3c4ba9f9	0.012430661
238	0x3c116158	0.008873306
239	0x3bd431a6	0.006475645
240	0x3c5aa9f0	0.01334618
241	0x3ca78f6c	0.020454131
242	0x3c379bd5	0.011206587
243	0x3b9892ff	0.004656195
244	0x3c6ae4ce	0.014336778
245	0x3c9741b4	0.018463947
246	0x3cdb4072	0.026764128
247	0x3c9e88fa	0.019352425
248	0x3d25642f	0.040378746
249	0xbae0271d	-0.00171015
250	0x3b5c137e	0.0033580954
251	0x3ba05ae6	0.0048936484
252	0x3bde9776	0.006792958
253	0x3c8b8041	0.01702893
254	0x3b43e406	0.0029890551
255	0x3d806865	0.06269912

linear2.weight f4 [59, 256]
0	0x3d5967c5	0.053077478
1	0x3d4d5d4b	0.0501378
2	0x3dabd2d4	0.08389822
3	0x3e02c75c	0.12771362
4	0x3d28b73f	0.041190382
5	0x3d8faec3	0.07015755
6	0xbf081598	-0.5315795
7	0x3d500dd5	0.05079444
8	0xbcb324f8	-0.021868214
9	0x3d5a680b	0.05332188
10	0x3d70db18	0.058802694
11	0x3db2dec1	0.08733893
12	0xbefd863c	-0.49516475
13	0x3d11fab1	0.03563947
14	0x3d52a753	0.051429104
15	0x3d8f0fd8	0.06985444
16	0x3d4fcece	0.050734334
17	0xbd15d40d	-0.03657918
18	0xbf10f829	-0.5662866
19	0x3d6f0a1d	0.058359254
20	0x3da62e8c	0.08114347
21	0xbea6d778	-0.32586265
22	0x3d468d61	0.048474673
23	0x3d5a2641	0.053259138
24	0x3d5b9fb9	0.05361912
25	0xbefc5c23	-0.49289045
26	0x3dd6d55d	0.104899146
27	0xbdb3214f	-0.087465875
28	0xbee8c340	-0.45461464
29	0xbd9a7b9f	-0.0754311
30	0xbeefae1f	-0.4681253
31	0xbe74f0cc	-0.23919982
32	0x3d7778ad	0.06041782
33	0xbdb17bb8	-0.086661756
34	0xbe60399a	-0.21896973
35	0x3d2162df	0.03940093
36	0x3db0a63f	0.08625459
37	0x3dabbe02	0.083858505
38	0x3ca24bfb	0.019811621
39	0xbe9e8400	-0.30960083
40	0xbe2f6c73	-0.17131214
41	0xbef600af	-0.48047397
42	0xbe9ba37b	-0.30398163
43	0x3d789d2d	0.06069677
44	0x3d6a90c5	0.05726697
45	0x3da164be	0.07880543
46	0xab70f993	-8.561148e-13
47	0x3d70634b	0.058688443
48	0x3e06c13c	0.1315965
49	0xbede6a8b	-0.4344066
50	0x3d6a0374	0.0571322
51	0x3d9a7f71	0.07543839
52	0x3da17c9a	0.07885094
53	0xbf14cb2b	-0.5812251
54	0xbe2f754e	-0.17134592
55	0xbb84866c	-0.0040443446
56	0xbe1c69a6	-0.15274677
57	0xbebf7fd2	-0.37402207
58	0xbef936fb	-0.4867476
59	0xbeec11b0	-0.46107244
60	0xbe70989b	-0.23495714
61	0x3ce3a655	0.027789274
62	0x3d91b7da	0.07115145
63	0x3d9cf008	0.0766297
64	0x3dc00428	0.09375793
65	0x3dac13c3	0.08402207
66	0x3d372336	0.044711314
67	0xbd6330b4	-0.05546637
68	0x3c2f603f	0.010704099
69	0x3d2ef412	0.042713232
70	0xbd03704a	-0.03208951
71	0x3d97c9c8	0.074115336
72	0x3d8de3a6	0.06928186
73	0xbe03d746	-0.12875089
74	0xbcd6dbd5	-0.026227871
75	0x3d92ef48	0.071745455
76	0x3d9ab08e	0.075532064
77	0xa8913717	-1.6122125e-14
78	0x3df255f3	0.118328
79	0x3d9cab8a	0.07649906
80	0xbe3e37cb	-0.18575971
81	0x3cc44bac	0.023961864
82	0x3d944daa	0.07241376
83	0xbefe3e8d	-0.49657097
84	0x3df63745	0.120222606
85	0x3d75fb9b	0.060054403
86	0x3d9bd908	0.07609755
87	0xbed91d36	-0.424051
88	0xbcc7b239	-0.024376975
89	0x3dc927c7	0.0982204
90	0x3cb30ee9	0.021857696
91	0xbe8fdcda	-0.28098184
92	0xbc291600	-0.010320187
93	0xbeb0f147	-0.3455908
94	0xbe84e65f	-0.2595701
95	0xbd86407c	-0.06555268
96	0x3d306e10	0.043073714
97	0xbe959109	-0.29212216
98	0x3e006eb8	0.12542236
99	0xbe6dd7d5	-0.23226865
100	0xbe85b287	-0.26112768
101	0x3d3cf588	0.046132594
102	0xbeafa717	-0.34307167
103	0xbc8fc18a	-0.017548341
104	0x3d87d818	0.066330135
105	0xbedb8aed	-0.4287943
106	0x3d6b686d	0.057472635
107	0xbef1c9f4	-0.4722439
108	0x3cf2eef2	0.029654954
109	0x3d45d584	0.048299327
110	0x3cbdc961	0.023167314
111	0xbe208f72	-0.1567972
112	0xbd8355f5	-0.064128794
113	0x3dc6e257	0.0971114
114	0x3d254b56	0.04035505
115	0x3c383386	0.011242753
116	0x3d927786	0.071517035
117	0x3d2560f8	0.04037568
118	0x3dba1384	0.090857536
119	0x3dc8543b	0.09781691
120	0x3d9bbd84	0.076045066
121	0xbe6e1097	-0.23248516
122	0x3c83bf89	0.016082542
123	0xbd0f7336	-0.035021983
124	0x3d6883af	0.05676621
125	0x3db2eb69	0.08736307
126	0xbebad731	-0.36492303
127	0x2abbfcd7	3.3393316e-13
128	0x3d7db1c4	0.06193711
129	0x3d903ad8	0.070424736
130	0xbe840c88	-0.2579081
131	0xbddd34b9	-0.10801072
132	0x3a18cc2d	0.00058287644
133	0x3d09d133	0.033646774
134	0xbe581492	-0.21101597
135	0xbd46cb54	-0.048533753
136	0x3da5a714	0.08088508
137	0xbe3f430a	-0.18677917
138	0xbe04a7f0	-0.12954688
139	0x3dcef691	0.101056226
140	0x2ba96c6b	1.2038264e-12
141	0xbed4b5ff	-0.41545102
142	0xba85fa12	-0.0010221621
143	0xbb8a67aa	-0.0042237835
144	0x3da4cc6c	0.08046803
145	0x3ddcfa01	0.10789872
146	0x3cd20950	0.025639206
147	0xbece3f8c	-0.40282857
148	0xbe23c140	-0.15991688
149	0x3da22f5a	0.07919188
150	0xbeffdd59	-0.49973562
151	0xbe819622	-0.25309855
152	0x3d3d3562	0.046193488
153	0x3dc02854	0.09382692
154	0x3db16ea4	0.08663681
155	0xbd2b8a83	-0.041880142
156	0xbf07b36d	-0.53008157
157	0xbe89672b	-0.26836523
158	0xbef396e5	-0.4757606
159	0x3dc29c83	0.095025085
160	0x3dd78b15	0.10524575
161	0xbe69a0f7	-0.2281531
162	0x3da490f6	0.080354616
163	0xbc2abedb	-0.01042148
164	0x3d67848b	0.056522887
165	0x3dfe0cd5	0.12404791
166	0xbc5a8bb6	-0.013338974
167	0x3d9171f5	0.07101814
168	0xbec02690	-0.3752942
169	0x3d45669b	0.048193555
170	0xbefd2f8f	-0.49450347
171	0x3dc286da	0.09498377
172	0x3c59565b	0.013265218
173	0xbe9e8ea0	-0.3096819
174	0xbcd286ce	-0.025699046
175	0xbe5febbc	-0.2186727
176	0x3d648ee7	0.055800345
177	0xbbcf2e71	-0.006322675
178	0x3df74baa	0.12074979
179	0xbd32ea6d	-0.043680597
180	0x3d8308e5	0.06398181
181	0x3d13c555	0.036076862
182	0x3d141edd	0.036162246
183	0xbeb1500b	-0.3463138
184	0x3d46309b	0.048386198
185	0xbd35ccab	-0.04438464
186	0x3da0ea6d	0.07857213
187	0xbee7914f	-0.4522805
188	0xbdec41b1	-0.11535967
189	0xbd0dc7d4	-0.0346144
190	0x3dce8557	0.10084026
191	0x3d8de29d	0.06927989
192	0xbbd01aac	-0.006350836
193	0xbdd4d63b	-0.10392424
194	0x3d886214	0.06659332
195	0xbd1e5d8b	-0.03866343
196	0xbdbd62db	-0.09247371
197	0xbe8fdfef	-0.28100535
198	0xbdc2ab16	-0.09505288
199	0xbeb0c75a	-0.34527093
200	0x3d220e62	0.039564498
201	0xbe09e82c	-0.13467473
202	0xbef9a8b2	-0.48761517
203	0xbf153470	-0.5828314
204	0xbd732a95	-0.05936678
205	0x3d5e93e9	0.054340277
206	0x3ca2d8f0	0.019878834
207	0x3d8fa027	0.070129685
208	0x3d48e7fa	0.049049355
209	0x3bab5165	0.005228209
210	0x3daa7c4d	0.0832449
211	0x3e31aa50	0.17350125
212	0x3dc84ced	0.097802974
213	0x3dd595d4	0.10428968
214	0x3e2d9869	0.16952671
215	0x3da82347	0.082098536
216	0xbd9276f4	-0.07151595
217	0x3d96bb74	0.073599726
218	0x3d80b523	0.06284549
219	0xbe8fd441	-0.28091624
220	0x3d1eb3f2	0.038745828
221	0xbe5cdfbf	-0.21569727
222	0x3dc8454f	0.097788446
223	0xbd54a153	-0.051911663
224	0x3d7577bd	0.059928644
225	0xbe47bd0a	-0.19505706
226	0x3da9694a	0.082720354
227	0x3dbe5c86	0.09294991
228	0x3dc89f63	0.097960256
229	0x3cbfd16e	0.023415294
230	0x3d4a67cc	0.049415395
231	0x3d58fe58	0.052976936
232	0xbee07e48	-0.43846345
233	0x3d8d8bf3	0.06911459
234	0x3d56cea3	0.052443158
235	0x3d84f268	0.06491548
236	0x3d8727d9	0.06599397
237	0x3d2a7810	0.041618407
238	0x3d105509	0.035237346
239	0x3d734dd0	0.05940038
240	0x3d4008d5	0.046883423
241	0x3d11002d	0.03540056
242	0xbd4ccd1c	-0.050000295
243	0x3bce244c	0.006290948
244	0xbeeef7fa	-0.46673566
245	0xbd8d67a8	-0.069045365
246	0x3db578f7	0.08860963
247	0x3dcc0a7e	0.09962939
248	0x3d95317b	0.07284828
249	0xbe9ae1b7	-0.30250332
250	0x3d6100c6	0.05493238
251	0xbf00a283	-0.50247973
252	0xbe083d77	-0.13304697
253	0x3d5c4757	0.053778972
254	0xbe0445bd	-0.12917228
255	0x3d87605e	0.066101775

linear2.bias f4 [59]
0	0xbc80a1fd	-0.015702242
1	0xbc9cea78	-0.019154772
2	0xbc6bd9c2	-0.014395179
3	0xbc6bacbc	-0.014384445
4	0xbc5f774d	-0.013639283
5	0xbca6a1dd	-0.020340854
6	0xbca53c01	-0.020170214
7	0xbc995aa1	-0.018719973
8	0xbc6a35ea	-0.014295081
9	0xbc54705a	-0.01296624
10	0xbc883ac2	-0.01662958
11	0xbc943780	-0.01809287
12	0xbc8ff276	-0.01757167
13	0xbc9acddc	-0.01889699
14	0xbc5fdd44	-0.013663594
15	0xbc1954c1	-0.009358586
16	0xbca52128	-0.020157412
17	0xbc571b0d	-0.013129008
18	0xbca96439	-0.020677673
19	0xbc8e57fe	-0.017375942
20	0xbc5d7348	-0.013516255
21	0xbc0c7a0f	-0.008574023
22	0xbcb6eb5c	-0.022329025
23	0xbc8b1a4f	-0.016980318
24	0xbc4ed023	-0.012622866
25	0xbca20847	-0.019779338
26	0xbc917195	-0.017754355
27	0xbc2d8fca	-0.010593364
28	0xbc8be852	-0.017078552
29	0xbc7751d1	-0.01509519
30	0xbc9bc9d7	-0.019017143
31	0xbc8cd2bd	-0.017190332
32	0xbc1c065c	-0.009523001
33	0xbc9b6085	-0.018966923
34	0xbc98ab0c	-0.018636249
35	0xbc97ffe1	-0.01855463
36	0xbc600226	-0.013672387
37	0xbc85beb8	-0.016326293
38	0xbc860831	-0.016361328
39	0xbc1fda90	-0.009756699
40	0xbc8909ee	-0.016728368
41	0xbca1527c	-0.019692652
42	0xbc8934db	-0.016748836
43	0xbc9a0827	-0.018802715
44	0xbc5a9d06	-0.013343101
45	0xbc93b142	-0.018028859
46	0xbc92e1d7	-0.017929954
47	0xbc8fb41b	-0.017541936
48	0xbcb9b521	-0.022669377
49	0xbc7dd9e4	-0.015493844
50	0xbc257606	-0.01009894
51	0xbca21d8a	-0.019789476
52	0xbc34eacd	-0.011042309
53	0xbc8deb29	-0.017324047
54	0xbc8e309a	-0.01735716
55	0xbc59fbe1	-0.0133046815
56	0xbc4253ec	-0.011860829
57	0xbc91c267	-0.017792894
58	0xbc93fcce	-0.018064883
