intermediary/model_12950.pth (torch, 356400 bytes, 5 tensors)

embed.weight f4 [59, 128]
00000000: bc50 adbe d957 6a3e 1c86 c3be eefc aabe
00000010: aa3c c53e e936 cb3e 77e1 05be ffa5 e0be
00000020: 9950 dd3e 07fb a53e 9d24 abbe 78b6 c5be
00000030: 0959 e13c 1dcf 64be fb8d aebe 4a3e bd3e
00000040: 0305 5cbe 142b dcbe a9dd aebe cd45 ca3e
00000050: 78d7 cd3e 9334 803e da34 1a3e 250d 203e
00000060: 3ee5 a13e d36e d63e a130 b7be 8a23 833e
00000070: 2c52 bc3c 19ba cd3e ed0b d33e e544 1abe
00000080: 2be8 d6be ed9e c9be 1663 9dbe 7c4c 8abe
00000090: 13ef 8d3e dbf0 f83e 357e 603e 5547 d1bd
000000a0: 3781 c7bd 1d20 9dbe c900 e23e ef81 823e
000000b0: b6f7 d43e ce6b d93d 6537 d63e 7398 f73e
000000c0: 4c92 bdbe 0b07 95be 9217 f73e c76a c83e
000000d0: 9f34 acbe 2162 c5be 212e ad3e b99c 613e
000000e0: 6378 c3be a51d 403e bca5 9fbe f3c8 c53e
000000f0: 5e7e 94be 76c2 be3e 2370 dfbe 536d cabe
00000100: 34ba adbe 1808 563e bab2 44be 206a 333e
00000110: 2c19 be3e e994 e4be fd82 3ebe d1e8 d3be
00000120: f1c8 cfbe 90f7 d6be 1712 823e 7710 96be
00000130: a89a ee3e 06d1 a03e 30c8 703e 748b d43e
00000140: f357 b33e 2023 9cbe afc4 47be 32e8 f8be
00000150: aa98 cf3e 9890 a5be 51b8 033d 8fc8 a9be
00000160: 3dba e2be 38b9 cb3e 681e a73e 083b b4be
00000170: 4371 ce3e 1b6f fbbe 29a7 b3be 1479 b23e
00000180: ff9f 8f3e 636e e23e 4f02 94be ee9f af3e
00000190: cbd3 743e 1839 e2be 856e 91be b6da 4c3e
000001a0: 4872 db3e eb16 cfbe 3321 e03e 83ca dd3e
000001b0: 8203 8d3e 9f94 a1be b5d0 d5be a295 78be
000001c0: f182 aa3e 1ecd 53be 79f3 e1be 55d2 d7be
000001d0: 8ee3 b83e 3f94 d7be 7217 c23d c54c 93be
000001e0: 8d2f dd3e 8132 aebe 8b72 bb3e 7eaa ab3e
000001f0: b843 d7be 1700 8f3e f9a9 e13e 9743 f23e
00000200: a0fd 543e da40 a93e 0bca e0bd 892b eabe
00000210: cc4e b5be 43cb 3fbe 1e85 0cbe 4636 d3be
00000220: 6242 28be 64a9 e13e 4987 c7be 326d 5d3e
00000230: 1804 e33e d991 003f 7596 85be bfcd f83d
00000240: 0b03 773e 0ac8 d83c 72fe bc3e 4517 c7be
00000250: c811 c63e 8f5d bebe f40d d8be 5db6 b0be
00000260: d78c 5abe 90d8 aebc c7fe 9c3e ae98 f4be
00000270: df34 e9be 1b19 3fbe e52b 65be ea4b bf3e
00000280: e96d bb3e 5b05 f4be fd58 fd3e f9c8 cf3e
00000290: fb5f c8be a85d b1be a495 dcbe 89be c03e
000002a0: adbd f23e 576f fc3e 443e c8be f161 d53e
000002b0: 8698 68be 221f d7be fcea 013f 26d8 c43e
000002c0: 4f13 7cbd 6b72 ddbe 9add d63e 8de3 c73e
000002d0: b9aa d3be 7ac9 683e 3c0f 8fbe 8b5a 9d3e
000002e0: fc33 c9be 8e2d c23d fb32 dc3e 02a4 c23d
000002f0: 06b8 c03e aa03 97be 7ee9 d3be cc15 acbe
00000300: 7535 15be e977 9d3e 8bda df3e 5dde e33e
00000310: 4fd9 c0be 6512 d8be fb18 e03e f8d3 c53e
00000320: 6dc6 bf3e a511 b73d 0fd8 dabe 9226 c4be
00000330: eb1e 4bbe 26a0 903e 45ee 9bbe 2174 5e3e
00000340: d606 00bf 6b3f a3be e546 bf3c 4b08 d9be
00000350: 41ab c0be 1f6e 84be 5f78 b2be 5f66 d5be
00000360: da2d b43e a9b9 d1be 19b1 ddbe 6ab2 073d
00000370: 56ef 723e e9b5 e1be aff3 c23e ac1d 893e
00000380: 7329 d4bd 1762 6fbe 47a8 603e c84f 82be
00000390: f3d2 bbbe 8792 7d3e 154f 06be 2782 babe
000003a0: 8de9 70be dcf2 bf3e 6445 ee3e 8d8b 883e
000003b0: e230 d7be a86f a23e 23c8 b23e acef f8be
000003c0: 07ed d2be ab06 e03e d611 503e 6b4d d53e
000003d0: b12e d3be 0ae1 09be 06aa bc3e 9d62 b7be
000003e0: 8180 87be eb81 cf3e 58b9 e83e 5713 66be
000003f0: 39a4 8fbe 7e52 b3be 324f e13e 73e5 c5be
-0.33850658 0.22885074 -0.38188255 -0.33396095 0.38522846 0.3969033 -0.1307429 -0.43876645
0.43225554 0.3241808 -0.3342637 -0.38615775 0.027508276 -0.22344632 -0.34092698 0.36961585
-0.21486287 -0.43001616 -0.34153488 0.3950638 0.40203452 0.2504011 0.15059224 0.15630014
0.3162021 0.41881427 -0.35779288 0.25613052 0.022988401 0.40181044 0.41220036 -0.15065344
-0.41974005 -0.39379063 -0.3073966 -0.27011478 0.27721462 0.48621258 0.21923144 -0.10218684
-0.09741443 -0.30688563 0.44141224 0.25489756 0.41595238 0.10616265 0.41839138 0.48358497
-0.37025678 -0.29106936 0.4826017 0.39143965 -0.33633897 -0.3855143 0.33824256 0.22032441
-0.38177785 0.18761308 -0.31181133 0.38629875 -0.2900266 0.37257737 -0.4364024 -0.39536533
-0.33931124 0.20901525 -0.19208804 0.17520952 0.3712858 -0.4464486 -0.18604656 -0.41388562
-0.40582994 -0.4198575 0.25404426 -0.29309437 0.46602368 0.31409472 0.23513865 0.41512644
0.35028037 -0.30495548 -0.19508623 -0.4861465 0.4054616 -0.3233688 0.0321582 -0.33160827
-0.44282714 0.39789748 0.32640386 -0.35201287 0.40320787 -0.49108204 -0.3508847 0.34858
0.28051755 0.44224843 -0.2890801 0.34301704 0.23908918 -0.44184184 -0.28404632 0.20005307
0.42860627 -0.40447173 0.4377533 0.43318567 0.2754174 -0.315587 -0.41760793 -0.2427583
0.33303025 -0.20683715 -0.44131067 -0.42152658 0.3611111 -0.4210529 0.09477128 -0.28769508
0.4320034 -0.34022906 0.36610827 0.33528513 -0.42043853 0.27929756 0.4407499 0.47317192
0.20799875 0.3305729 -0.10976037 -0.4573634 -0.3541168 -0.18729882 -0.13722655 -0.41252345
-0.16431573 0.44074547 -0.38970402 0.21623686 0.4433906 0.50222546 -0.26091352 0.12148618
0.24122255 0.026462574 0.36912876 -0.3888494 0.3868544 -0.37180755 -0.42198145 -0.34514132
-0.21342789 -0.0213435 0.3066313 -0.47772735 -0.4554815 -0.1866192 -0.22380026 0.37362605
0.36607292 -0.47660336 0.49481955 0.40583017 -0.39135727 -0.34641767 -0.43082917 0.37645367
0.47410336 0.49303696 -0.39110005 0.41676286 -0.22714433 -0.4201594 0.5074918 0.38446158
-0.06154185 -0.43251356 0.41965944 0.39040795 -0.4134119 0.22733107 -0.2794131 0.3073314
-0.39297473 0.09481345 0.43007645 0.09503938 0.376404 -0.29494983 -0.41389078 -0.3361038
-0.14571173 0.30755547 0.43721423 0.44505587 -0.37665793 -0.42201534 0.4376906 0.38638282
0.37456074 0.08938912 -0.42742965 -0.38310677 -0.19836013 0.28247184 -0.30455223 0.21723987
-0.5001043 -0.31884322 0.023349235 -0.4238914 -0.37630656 -0.25865266 -0.3485746 -0.41679665
0.35191232 -0.4096196 -0.43299177 0.033129133 0.23724112 -0.440841 0.3807654 0.2678045
-0.10359468 -0.23377262 0.21939193 -0.25451493 -0.3668438 0.24762927 -0.13116105 -0.36427423
-0.23526593 0.37489974 0.46537316 0.2666897 -0.42029482 0.31725812 0.34918317 -0.48620355
-0.41196463 0.43755087 0.20319304 0.41660628 -0.4124656 -0.13464752 0.36848468 -0.35817423
-0.26465228 0.40528807 0.45453906 -0.22468315 -0.2805498 -0.35023874 0.44005734 -0.38651618

linear1.weight f4 [256, 256]
00000000: 8ce5 05be 48a4 10be fb58 163e 1ba9 083e
00000010: fa64 1bbe 966e 293d f485 323e c90a 28bc
00000020: 9dd4 5abe 8900 10bd d3c7 423e 75f7 20be
00000030: 25d1 30bc ccc7 4f3c e089 24be 38a3 143e
00000040: fa51 923d 1891 153e 3806 583e d25e dd3d
00000050: 90ad 8bbd 4006 c83d 805b 203d 8eb5 f43d
00000060: 226a 9bbb bbe8 49be a5aa 3ebe b62c 9dbd
00000070: 9541 dc3d e73b 763c fd1b cdbd 5858 003c
00000080: 8341 d8bc 1f84 c23b e5a6 d23c 5e65 453e
00000090: edb9 d33d 1596 f6bd 9735 543e dc03 3abd
000000a0: 388e 50bc a82d a53c 4ddb 1dbe 236e 9ebc
000000b0: 2bf3 0abe 0316 10be 0618 edbd 5e38 653b
000000c0: b6e1 38be fa58 c7bd 1613 d7bc eb62 34be
000000d0: 4d53 673d 4b85 0ebe 083a 28be 1cb5 6f3c
000000e0: 0e54 5f3d d0e9 7f39 456e 173e 19cc bc3d
000000f0: 69fb 383e 42e0 49bd cf62 193e ccdb cf3d
00000100: bd99 213e 3eed fdbd 7716 2abe 22af 18be
00000110: c77a 3fbd 3795 4ebd e792 a0bc d0ca acbd
00000120: 72cd dbbd 2b6d 27be d9f1 fd3d e469 4c3e
00000130: 4b7e 43be dec6 6fbd 79f2 10bd 1055 023e
00000140: 1f02 dabd 27f9 133e bfbb 2d3e 8cb6 393e
00000150: 2b31 47bd de1c 8b3d f8e4 343d d8ff 873d
00000160: bf20 0b3e 35c3 21be 8b7c 29be 78d8 213e
00000170: e5b7 183d 59ac fd3d 2493 92bd e414 ab3c
00000180: 899e 1b3d 4bf4 20bd bd38 c33a 2c17 313d
00000190: 348b 1cbe b43b 1a3d 4632 1f3d 8425 19be
000001a0: f960 e0bd 81dd aa3c d545 54bd ab3e 04bd
000001b0: 56a2 49be 0d50 59be afef fd3c ff7b 1d3e
000001c0: d11e 5cbe 6504 babd 8ffa 203e 11cb c3bd
000001d0: bf75 533e 8597 5e3e 474d 01bd 9a0a 3d3d
000001e0: cb39 c43d 6360 ee3d 3d63 3dbe 9d4a 1fbd
000001f0: 9e9d 0bbe dfc2 8abd c3d8 38bd c2a4 ffbd
00000200: c579 36bc 699d 3c3a b4ab babd 6d71 2dbe
00000210: c919 2c3e dbdc 37be f811 04be a6dd 46bc
00000220: 5a07 be3d 6469 183e f55a 21be d916 a0bd
00000230: 9716 5bbe bb75 5fbe c6a7 f33d 8653 c63a
00000240: 636f 67be 995f cdbd e1cf 5fbd 5ffa b03d
00000250: 11a5 42be 8092 05bd 9a41 1d3e 76ee 6b3d
00000260: 14d3 37be b8f3 ac3d e2eb 85bc ea24 e53d
00000270: 1c1a 21be cff6 3ebe f74f a1bc 117d 583e
00000280: 355a 4dbe 476b 4b3e 09d7 01be 3a46 25bc
00000290: de0c aebd 03a3 ec3d 6227 3dbd 2de3 4e3e
000002a0: 7e16 4bbe bcbf ecbd 6ad2 923d b989 2abe
000002b0: b686 c33d 0ea1 c5bc b4ee 23be e0d1 d0bd
000002c0: f990 103e 6987 20bd 9982 37be 8d7a 013e
000002d0: daf5 09be e451 ccbd f7e0 0d3d 9088 eebc
000002e0: dc5e 083e 1389 30be 0dfa 3bbe 4e5a d6bd
000002f0: 99f0 ca3b 5c5c 05be e590 3a3d 3be5 2c3e
00000300: 8d16 433d fe9e 4d3d b67d b4bd 25ea b03c
00000310: 5c89 0ebe 81ad cd3d 7c49 473d e25a d6bd
00000320: e584 10be 911d 1d3e aebd f1bd 8b69 253c
00000330: 4b98 8cbd 4bcb 42be 244f 08be 468c 52be
00000340: 5856 2a3e 0b7f 05bd bcca 40bd 6db2 9f3d
00000350: a7c5 5b3e aaf4 3a3c 4e41 3f3e 9190 a83d
00000360: 2751 07be 3c59 22bd 412c 7b3d 3b87 febc
00000370: 0db6 4abe 44a0 ddbc 3994 c4bd 3cee 9a3d
00000380: d86b 8c3c 5b37 12bd 50cb cf3d 60a0 d5bd
00000390: a3b8 14be 68b4 bbbd 43e9 f5bb d161 aebd
000003a0: 4ff5 c3bc 6371 36be a82f b33b 4c70 03be
000003b0: 2771 623d dc00 413d 7d80 22be ba38 fe3c
000003c0: af66 653d ad07 69bd 027a d63d 2d92 d8bd
000003d0: a4e7 d43c 931f afbc e7a8 49be 6cd9 073d
000003e0: 5e9a 62bd dc88 3cbe 4455 b6bb d49d 09be
000003f0: bd35 733c 8d61 28be a94e 953c 71f6 be3d
-0.13075846 -0.14125168 0.14682381 0.13345759 -0.15175238 0.04136523 0.17433912 -0.010256478
-0.21370168 -0.03515676 0.1902154 -0.15719397 -0.010792051 0.012681913 -0.1606822 0.14515388
0.07144542 0.1460613 0.21096122 0.10809101 -0.06820214 0.09766817 0.03914976 0.11948691
-0.0047428766 -0.19717686 -0.18619783 -0.076745436 0.10754696 0.01502893 -0.10015104 0.007833563
-0.026398426 0.00593616 0.025714347 0.1927695 0.10338197 -0.120403446 0.20723568 -0.045413837
-0.01272922 0.020163372 -0.15415688 -0.019339627 -0.13569324 -0.14070897 -0.11576848 0.0034976224
-0.18054852 -0.09733768 -0.026254218 -0.17615859 0.056475926 -0.13918035 -0.16428387 0.014630582
0.05452352 0.00024405797 0.14788158 0.09218616 0.18064655 -0.049286135 0.14979099 0.10149345
0.15781303 -0.12398766 -0.16610132 -0.14910558 -0.04674795 -0.05043527 -0.019601298 -0.08437121
-0.10732545 -0.16350238 0.123996444 0.19962269 -0.19091146 -0.058539264 -0.03538749 0.12727761
-0.10644936 0.14450513 0.1696615 0.18136042 -0.048630875 0.06792615 0.044163674 0.06640595
0.1358671 -0.15797122 -0.16551416 0.15805233 0.03728475 0.12386388 -0.07156971 0.020883985
0.037992988 -0.039295476 0.0014894229 0.04323499 -0.15287477 0.037654594 0.038866304 -0.14955717
-0.10955996 0.020857574 -0.05182441 -0.032286327 -0.19690832 -0.21221943 0.03099808 0.15379332
-0.2149613 -0.090828694 0.1572058 -0.09560216 0.20650385 0.21737488 -0.031567838 0.04615269
0.09581336 0.11639478 -0.18494888 -0.038889516 -0.13634345 -0.0677545 -0.045128595 -0.12482597
-0.011137431 0.0007195087 -0.09114781 -0.169378 0.16806711 -0.17955343 -0.1289748 -0.012137806
0.09278746 0.14883953 -0.15757354 -0.07816858 -0.21395336 -0.21822254 0.118972346 0.0015131093
-0.22601084 -0.100279994 -0.05464161 0.086415045 -0.1900828 -0.032610416 0.15357056 0.05760046
-0.17951614 0.08444923 -0.01634783 0.111886814 -0.15732616 -0.18648838 -0.01969145 0.21141459
-0.20053943 0.19865142 -0.12679686 -0.010087544 -0.08498548 0.115545295 -0.046180137 0.20203848
-0.19832799 -0.11560008 0.071690395 -0.166541 0.095471784 -0.024124648 -0.16009027 -0.101962805
0.14117803 -0.039191637 -0.17920913 0.12644406 -0.13472691 -0.09976557 0.03463837 -0.029117852
0.13317436 -0.1723979 -0.18357106 -0.10466443 0.0061932323 -0.13023514 0.04554834 0.1688432
0.047628928 0.050200455 -0.0881304 0.021596024 -0.13919586 0.10042859 0.048654065 -0.10466553
-0.14113195 0.1534331 -0.11803757 0.010095964 -0.06864985 -0.19022863 -0.1331144 -0.20561323
0.166345 -0.03259186 -0.047068343 0.07797704 0.21462117 0.0114108715 0.18677256 0.08230699
-0.13214551 -0.03963588 0.0613215 -0.031070342 -0.1979601 -0.02705396 -0.09598584 0.07564971
0.017141268 -0.035697322 0.10146201 -0.1043098 -0.14523558 -0.09165269 -0.0075046136 -0.08514751
-0.023920683 -0.17816691 0.0054683276 -0.12835807 0.05528369 0.04711996 -0.15869327 0.031032909
0.05600613 -0.056892086 0.1047249 -0.10574756 0.025989361 -0.02137736 -0.19693337 0.033166334
-0.055322997 -0.18411583 -0.0055643637 -0.13439113 0.014844355 -0.16443463 0.018225985 0.09324349

linear1.bias f4 [256]
00000000: 55ae 963c ba21 a33c 0f8f 0b3b 9136 953b
00000010: 287a 2f3c 3294 043b 966a 433c c923 0b3c
00000020: 2194 703c d634 093c 31e6 933c 551c 483c
00000030: 0dd8 903c c25e 233c aa10 c43c 93d3 0d3d
00000040: 9f7a 903b 1264 12bb 558a 1cbc d81e 6f3c
00000050: cc20 97bb 9ddb 0fbc 8192 923b e454 873c
00000060: 0723 e83c 1221 253d 2794 bf3c 044f 0c3d
00000070: 626e 5c39 4bd9 3c3d 6feb 7a3d 74b0 403b
00000080: fe32 5d3c ccc1 28bc 64c9 9e3b 702b a23b
00000090: f267 203c 5b26 c03c 8b49 2db9 e242 ab3c
000000a0: 9eef 3e3b 715b 253c 8a2c 9f3c bafa ab3c
000000b0: 1718 8fbc 2d2f b33b 9d37 c92c 5215 313c
000000c0: 341c 033d 54be 8b3c eb38 623c f129 ce3a
000000d0: 911c 2dbc 4265 b93c 85c6 4c3b dd0e b03c
000000e0: d44f 913b e3d5 093c 7ef9 90ba 68a6 113a
000000f0: 7102 af3a aea6 a23c 24cf 8c3c dedd d93c
00000100: 4ebd d73b 6d61 fa3b f481 943b 8e5c 323d
00000110: ea0b bdbb 3c44 1f3c 66c1 153b 13a0 2e3c
00000120: 1aa8 373c b3a0 383c a309 913c 4bfb 0c3c
00000130: 73a3 b93b 377e 9c2a 8d70 6e3c 92e7 2a3c
00000140: 0b6a 4e3c 3313 2e3c 5a25 1f3c 29cf 573c
00000150: 4c9c c03b 146c c53c 9727 9e3c 48df 743b
00000160: 179e 883c 14cc 6a3c f6aa c33a 2ba8 d93b
00000170: 78b8 323c 35f8 c63c a505 de3c 243d 6d3c
00000180: ceb2 b83c 3c42 273c 4843 e73c 05a1 bc3b
00000190: 34a9 303b 2dbf b6bb 1151 1e3c b47d 8b3c
000001a0: 5106 4c3b ee45 f03b 978d 1f3d 2ef5 ac3b
000001b0: 3142 b03a 663d f23b 4319 f23c b7de ab3c
000001c0: 51f8 163d 3ca8 823b 0652 963c ec09 083c
000001d0: d2fb 023d ccb4 6a3c ea7b 223d 1436 3d3d
000001e0: 1bf2 9f3c 5ca0 7a3c 370c b3bb 7254 d03a
000001f0: d8f9 203c 3476 cd3c 4b79 d03b c8d3 bd2c
00000200: 7ae3 bc3c 811e be3c 9e66 aa3c f3f0 f53b
00000210: 8fcc 8aba 3b00 9c3b 8cb9 9cb8 617e b83c
00000220: e2c9 703c 65d7 e13b 33d0 ba3c 17f4 af3c
00000230: 9189 d92c 5c52 c83c 477b 1b3c 6db9 8e3c
00000240: d04e a83c 34fa e33b ff0b 96ba a507 0f3c
00000250: 9308 933c ce3a 8f3c a687 033c 119e c13c
00000260: cfc4 893b cd2d 2fbb 6e1f c93b 0eca 243c
00000270: 4554 633b bc98 d83c e738 543c 92c9 533b
00000280: 342e 4b3b 642d a53b ac55 883b e846 753c
00000290: 9585 bd3b 3cd7 c63c 1502 bd3c 9f3f bf3c
000002a0: 90a9 19bb 35f2 2f3c f81b fc3c 7d77 6e3c
000002b0: dfbd e83c 0980 d83b f94f 903c 68a3 2f3b
000002c0: 6cbc 6d3c 8509 56bb 515b 203c 4b99 533c
000002d0: 7294 9c3b f615 c8ba 8b73 923b 8b3b a03b
000002e0: 9122 e33b 4e2d 943c 6bb4 333c 95f3 833d
000002f0: 63f5 463d fbdb 233d 26eb 713c 1421 92bb
00000300: 1847 ab3c 5986 203c 75fa 3b3c fc74 1a3d
00000310: 9092 d83b 101e e73b 6cec 033c 0f46 923c
00000320: e66f 5b3b f3b0 cb3c 7dc0 9cbb 8270 043d
00000330: cb7e fb3c ff73 ad3c 6407 5dbb 4bef c93c
00000340: 4984 b43c 9864 0d3c 9fc4 8d3c d609 09bc
00000350: 61de 3c3d aa2c 9a3b 4de0 e8bb aac5 373c
00000360: 8b22 863a 705f 8e3b 5385 933c 146c e83b
00000370: 6e5c a43c 979a 553a 636f 3d3d 65be 923c
00000380: 6abc d33b 8127 033c b92a dc3c 9a31 823c
00000390: a252 0d3c 95c7 b53b d39e 8cba 14da 8f3c
000003a0: c40c 86bb 2ff6 753c 7985 3f3c 84d1 a33c
000003b0: e9db 973c 9048 423c 8e01 243c b526 4b3b
000003c0: 2405 583c 52ab c83c 4a0d 2a3c 95d8 6a3b
000003d0: a842 813c fab8 b03c cdbf e43c aff1 873c
000003e0: 8937 6e3d 7e52 b0ba 1a0a a93a 599d c73b
000003f0: 9553 b93c b53f 803c 0012 b636 2ac3 7a3d
0.018393675 0.019913543 0.0021294986 0.004553624 0.010710277 0.0020229933 0.011927268 0.008492419
0.014683754 0.0083744135 0.0180541 0.012213786 0.017681146 0.0099713225 0.023933727 0.0346256
0.004409149 -0.0022337479 -0.009554465 0.014594756 -0.004612064 -0.008780387 0.004473031 0.016519971
0.028337015 0.04031474 0.023386074 0.034255043 0.00021021956 0.046105664 0.061259683 0.002940205
0.013500927 -0.010300111 0.004845785 0.004949026 0.0097904075 0.02345579 -0.00016525963 0.020905916
0.0029134522 0.010092602 0.019430418 0.02099358 -0.017467542 0.0054682703 5.718938e-12 0.010808306
0.03200932 0.017058529 0.013807516 0.0015729052 -0.010565893 0.022631291 0.0031246257 0.021491462
0.004434565 0.008412811 -0.0011060683 0.00055561075 0.0013352168 0.01985487 0.017188616 0.026595052
0.006583846 0.0076410086 0.004532093 0.0435453 -0.0057692425 0.009720858 0.002285087 0.010658282
0.011209512 0.011268782 0.01770479 0.008604835 0.0056652366 2.7798746e-13 0.014553201 0.010431187
0.012598525 0.010624695 0.009713495 0.013171949 0.005878007 0.024099387 0.019305987 0.0037364531
0.016676946 0.014330883 0.001492827 0.0066423616 0.010908239 0.024288276 0.0271023 0.014479909
0.022546198 0.010208663 0.028230324 0.0057564997 0.0026956322 -0.005576989 0.009662882 0.017027713
0.0031131695 0.007332555 0.03895339 0.005278251 0.0013447461 0.007392573 0.029553061 0.020980222
0.036857907 0.0039873403 0.018349659 0.008303147 0.031978436 0.014325332 0.039668955 0.04619415
0.019524625 0.015297022 -0.0054641026 0.0015894307 0.009825192 0.025080778 0.0063621155 5.3952155e-12
0.023057688 0.023207905 0.020800885 0.00750553 -0.0010589528 0.0047607697 -7.4732205e-05 0.0225212
0.01469657 0.006892132 0.022804355 0.021478696 6.182784e-12 0.024453335 0.009489841 0.017422402
0.020545393 0.006957317 -0.0011447667 0.00872985 0.017948424 0.017484095 0.008027947 0.023634942
0.0042043696 -0.002673018 0.00613778 0.010057939 0.003468768 0.026440017 0.01295302 0.003231619
0.003100288 0.0050408114 0.0041606035 0.014970519 0.0057837465 0.024272554 0.023072282 0.023345767
-0.0023447014 0.010738899 0.030775055 0.014554855 0.02841085 0.00660706 0.017616259 0.0026800279
0.014510255 -0.0032659483 0.0097873965 0.012914966 0.0047784382 -0.0015265334 0.00446934 0.0048899106
0.006931611 0.01808801 0.010968308 0.06442944 0.048573863 0.04000471 0.014765536 -0.0044595096
0.020907924 0.009797656 0.011473288 0.03770922 0.0066092685 0.0070531443 0.008051973 0.017855672
0.0033483445 0.02486465 -0.0047836886 0.03233386 0.030700108 0.021173475 -0.003372633 0.024650237
0.022035735 0.00862994 0.01730567 -0.0083641615 0.046110515 0.0047050314 -0.007106817 0.01121656
0.0010233683 0.004344873 0.01800791 0.007092962 0.020063605 0.0008148341 0.046248805 0.017913053
0.0064616697 0.008005024 0.02687584 0.015892792 0.008625658 0.0055474737 -0.0010728486 0.017560042
-0.0040908772 0.015012308 0.011689537 0.019997366 0.018537479 0.011858121 0.010010136 0.0030998413
0.013184819 0.024495754 0.010379145 0.003583466 0.015778854 0.021572579 0.027923489 0.016594736
0.05815843 -0.0013452319 0.0012896687 0.0060917553 0.022622863 0.015655378 5.426118e-06 0.06122128

linear2.weight f4 [59, 256]
00000000: d115 463d 4ea1 593d 04e7 a63d e14b 033e
00000010: d105 233d 4294 8a3d c0de 06bf c324 393d
00000020: 8b69 bbbc 3860 5b3d 81b4 753d 2318 b13d
00000030: ff83 febe f74b 043d 147d 583d a2e2 8f3d
00000040: d989 533d b9e4 11bd 64a5 0dbf fa9f 683d
00000050: c7b4 a13d 98d5 a5be b383 3c3d 7b52 593d
00000060: afa9 613d 1a6a fcbe f770 d13d 26ed b4bd
00000070: 1e8b e6be cc77 8abd 30bc e8be 1c61 76be
00000080: 49f8 6e3d bd5e 87bd a917 5abe 3059 1e3d
00000090: 81c0 b13d 19d8 a03d b878 a83c 5aa0 a2be
000000a0: adef 2dbe a2d1 f5be 9467 99be 3686 703d
000000b0: 5a1b 6b3d deb2 a03d 0666 9aae 9d77 793d
000000c0: 88cd 043e 9275 ddbe 1575 723d b715 9d3d
000000d0: 6152 9f3d 0412 15bf 1bf4 2dbe 959e 9f3b
000000e0: 51f3 1dbe 4ace c0be 6b0d f8be d5db ebbe
000000f0: a1d2 70be 07d5 063d 368a 913d c127 9b3d
00000100: 2383 be3d 655a a73d bc13 353d f457 5cbd
00000110: 08a0 4f3c f957 343d cf06 13bd 0d37 953d
00000120: 0133 8a3d ff99 08be 9a91 abbc 538a 993d
00000130: 84ed 953d 3401 22ac 7f1f ee3d d41b 983d
00000140: fcb4 36be e1b4 b53c 59a9 8a3d d3ca 00bf
00000150: 259d fb3d 52a0 743d 9fbd 9e3d 0e16 d9be
00000160: 60ca b0bc d6b5 c83d 08ab df3c 9f99 90be
00000170: d067 6cbc c087 b1be fa4c 83be 8bda 88bd
00000180: de69 343d 3383 95be e4a7 013e 76b3 6fbe
00000190: d7a1 87be 81c6 333d aecf b1be 0bd9 0fbd
000001a0: fbb1 813d 0dfb dbbe e0f8 833d 5af1 f2be
000001b0: a2b7 fc3c 987c 4e3d 9495 a83c ac79 13be
000001c0: e815 97bd 7e5d c73d bea4 0e3d b06f 233c
000001d0: 4859 903d c483 233d 9a34 b83d 4aee c93d
000001e0: 947d 9c3d 76a9 6cbe 80f8 7c3c 8780 14bd
000001f0: c5c8 6a3d 11ee ae3d c1c0 bcbe 431d 072e
00000200: 4bb5 813d c1ad 923d 6e3c 86be 703d d7bd
00000210: 6d2b f4ba 4b1c 6a3c 04a8 58be 512f 33bd
00000220: 0a66 a93d 4c0d 3cbe cf64 fdbd bb90 cb3d
00000230: a307 a12e 72eb c8be 0b41 5abd e2d6 3fba
00000240: 56bf a03d 2cdc da3d 8a45 ca3c 3260 d0be
00000250: cbc5 27be c2ec a53d 3d55 ffbe 8221 82be
00000260: 7b4d 323d 2c40 c03d cc5d b13d ddd4 1dbd
00000270: 9b89 07bf 51c4 87be bbb0 00bf ad9e bc3d
00000280: c3a0 d53d 7212 55be 7a7d 9a3d e41e 6bbc
00000290: 5c90 663d b7ee fe3d f1c4 5cbc e7fb 8b3d
000002a0: 13af bebe 8ba3 473d a073 fcbe 0f72 bd3d
000002b0: b90e 363c fc45 a1be 7808 d8bc 990f 5ebe
000002c0: b981 773d a694 17bb 6ab5 fd3d a530 2fbd
000002d0: 3316 813d d25d 143d 1d2d 163d 3c1c b8be
000002e0: dd86 4b3d 0d9e 3fbd 936c a33d 87d7 e6be
000002f0: b97b e9bd 5a36 22bd 1c9e d43d 4256 923d
00000300: 887e 85bd eba2 d4bd a5a3 873d 0bc9 14bd
00000310: 5565 a8bd 35a0 90be 3688 c6bd ff12 b0be
00000320: 050c 1a3d 5380 07be 5579 f9be 4e2c 0abf
00000330: 46ac 44bd 710f 4b3d 7413 1b3d 288a 903d
00000340: 77fd 393d db2c dc3a b945 ab3d 31fd 303e
00000350: db06 ca3d 7d54 d23d 2d8f 2c3e 5771 aa3d
00000360: b52f 12bd c6c0 953d 877e 853d 3b96 90be
00000370: ddb2 2e3d a35c 5bbe e5f7 c93d 6ac0 90bd
00000380: c9cb 803d 53c2 45be b91c ab3d 4283 bb3d
00000390: e9bb c83d 42d3 e03c 1953 473d b188 623d
000003a0: 3065 00bf 8763 8a3d a16c 513d b1be 823d
000003b0: 8ba1 853d d8b2 203d f24a 0c3d 0ee2 5d3d
000003c0: b4f2 453d 2326 163d b24b 31bd d0a4 573b
000003d0: 43dc f7be 62d1 8fbd 8ae2 b63d 2f80 cd3d
000003e0: 4dc3 923d b938 9abe 04c6 613d 1f8c 01bf
000003f0: 7b5d eebd ac7e 5e3d 2f21 03be 6b8c 893d
0.04836065 0.053132348 0.081495315 0.12821914 0.03980047 0.06766559 -0.5268364 0.045201074
-0.022877475 0.05355856 0.059986595 0.08647182 -0.4971008 0.03229901 0.05285366 0.07025649
0.051645134 -0.035618518 -0.5533049 0.05679319 0.07895809 -0.32389522 0.046024036 0.053057175
0.055093464 -0.492997 0.102266245 -0.08834295 -0.45028013 -0.06761131 -0.45456076 -0.24060482
0.058342252 -0.06609867 -0.21298088 0.038659275 0.08679295 0.07853717 0.020565376 -0.31762964
-0.1698596 -0.480115 -0.29961836 0.058721744 0.05739913 0.07846616 -7.021232e-11 0.060905088
0.12969029 -0.43253762 0.05919369 0.076701574 0.077793844 -0.58230615 -0.1698765 0.0048711994
-0.15424849 -0.37657386 -0.48447737 -0.46066156 -0.23517849 0.032918002 0.0710644 0.07575942
0.09302356 0.08171538 0.044208273 -0.053794816 0.012672432 0.04402921 -0.035895165 0.07285891
0.067480095 -0.13339995 -0.020943452 0.074970864 0.07320693 -2.3022253e-12 0.11627101 0.07427183
-0.17842478 0.022180976 0.06770582 -0.50309485 0.12285832 0.059723206 0.07751011 -0.4239964
-0.021580875 0.098003075 0.027303234 -0.28242204 -0.014429048 -0.34673882 -0.25644666 -0.06682309
0.044046275 -0.2920166 0.12661701 -0.23408303 -0.26490662 0.04389048 -0.3472876 -0.035119098
0.06332775 -0.42964974 0.064439535 -0.47449762 0.030849282 0.05041179 0.020579137 -0.14401883
-0.07377225 0.09734629 0.03482508 0.009975359 0.07048279 0.039920583 0.08994408 0.09859903
0.076411396 -0.23111519 0.015440106 -0.036255386 0.057320375 0.08541501 -0.3686581 3.0721436e-11
0.06333407 0.07162047 -0.2621798 -0.10509765 -0.0018628665 0.014288972 -0.21157843 -0.043746296
0.082714155 -0.18364447 -0.12372743 0.099397145 7.322789e-11 -0.3924213 -0.053284686 -0.0007318092
0.078489944 0.10686526 0.024691362 -0.4069839 -0.16384046 0.081017986 -0.4986972 -0.2541619
0.043530922 0.0938724 0.086604685 -0.03853308 -0.52944344 -0.26516965 -0.5026967 0.092099525
0.104310535 -0.20807818 0.07543464 -0.014350627 0.056290016 0.12447875 -0.013474689 0.06835156
-0.37242946 0.04873995 -0.49306965 0.092502706 0.011111909 -0.31498706 -0.026371226 -0.21685638
0.060426448 -0.0023129373 0.123881176 -0.042771 0.06303062 0.036222287 0.036664117 -0.3595904
0.049689163 -0.04678159 0.07979693 -0.4508631 -0.11400551 -0.039602615 0.103817195 0.071453586
-0.065182745 -0.10382637 0.066230096 -0.036324542 -0.082224526 -0.28247228 -0.09693949 -0.34389493
0.03760912 -0.13232546 -0.48725381 -0.53973854 -0.048015855 0.049575273 0.03786035 0.07057601
0.04540774 0.0016798036 0.08362908 0.17284085 0.09864589 0.10270021 0.16851492 0.08322399
-0.03569003 0.07312159 0.06518274 -0.28239617 0.042651046 -0.21422057 0.09861735 -0.0706795
0.06288869 -0.1931241 0.08355088 0.09155895 0.09801466 0.027444486 0.048663232 0.05530614
-0.501544 0.067572646 0.051128987 0.06384028 0.065249525 0.03923306 0.03425116 0.05417066
0.048327163 0.036657464 -0.04328508 0.0032904632 -0.48410234 -0.070223585 0.08929928 0.10034215
0.07166157 -0.301214 0.055120483 -0.5060443 -0.11638924 0.054320022 -0.12805627 0.06716236

linear2.bias f4 [59]
00000000: 2771 83bc 9bd5 99bc 316f 59bc 16a9 4dbc
00000010: 656c 55bc d2d9 b2bc ae62 adbc 569b a4bc
00000020: 6b27 6dbc 4411 4dbc ac31 86bc a8a3 a0bc
00000030: f875 8abc 6c03 a5bc 3c17 5abc 917b 23bc
00000040: c5da a0bc fd1a 5abc 9fb4 abbc 2bd6 87bc
00000050: eb81 39bc 7e00 16bc 7427 aebc 4a72 89bc
00000060: faa7 5abc ab6d 9bbc 5a9e 90bc 9548 32bc
00000070: 9cef 8dbc cdb3 7bbc e214 9bbc bffc 88bc
00000080: 199a 2ebc a440 a0bc 8746 94bc b120 94bc
00000090: 4e83 57bc ecaa 8abc fdce 77bc 226b 29bc
000000a0: 08f1 74bc ec4c 9cbc 0abd 81bc 4e33 99bc
000000b0: 8409 4ebc f9a3 85bc 768e 93bc 254e 89bc
000000c0: e84e b6bc e381 7dbc e104 24bc ec9c a2bc
000000d0: 9e09 49bc 1d8a 96bc cb8b 8fbc 7e98 45bc
000000e0: 5809 2fbc 0e8e 87bc 6df1 8bbc
-0.016045166 -0.018778613 -0.013271139 -0.01255252 -0.013026332 -0.02183238 -0.021165218 -0.020093601
-0.01447473 -0.0125163235 -0.016381107 -0.019609287 -0.016901955 -0.020143233 -0.013311204 -0.009978191
-0.019635567 -0.013312099 -0.02096015 -0.016581615 -0.011322479 -0.009155391 -0.021259047 -0.01677813
-0.013345713 -0.018973192 -0.017653633 -0.010881563 -0.017326169 -0.015362692 -0.018930856 -0.016722081
-0.010656857 -0.019562073 -0.018100036 -0.018081995 -0.013153864 -0.016927205 -0.015125033 -0.010340484
-0.014950044 -0.019079648 -0.015837211 -0.018701222 -0.012575511 -0.01631354 -0.018012267 -0.016760895
-0.022254422 -0.015472862 -0.010010929 -0.019850217 -0.012270359 -0.018376404 -0.017522713 -0.012060283
-0.01068338 -0.01654723 -0.017082894
