intermediary/model_14400.pth (torch, 356400 bytes, 5 tensors)

embed.weight f4 [59, 128]
0	0xbeaecaa4	-0.34138978
1	0x3e698040	0.2280283
2	0xbebd8edb	-0.37023053
3	0xbeaa66d5	-0.3328158
4	0x3ec20308	0.37892938
5	0x3ec94a25	0.3931438
6	0xbdef49e8	-0.116840184
7	0xbee0e6bc	-0.43926036
8	0x3edcd8a8	0.43134046
9	0x3ea7800a	0.32714874
10	0xbe9f4155	-0.31104532
11	0xbec702e8	-0.38869405
12	0x3cb0b8b4	0.021572448
13	0xbe6770d3	-0.22601633
14	0xbeae895c	-0.34089172
15	0x3ebba683	0.36650476
16	0xbe4bdb95	-0.19907983
17	0xbedcf9af	-0.43159243
18	0xbeb1482c	-0.34625375
19	0x3ec9c738	0.39409804
20	0x3ecc61b2	0.39918286
21	0x3e80be94	0.251454
22	0x3e327f4f	0.17431377
23	0x3e0ff367	0.14057694
24	0x3ea3c268	0.31984258
25	0x3ed600ba	0.4179743
26	0xbeb496f4	-0.35271418
27	0x3e7a287a	0.24429503
28	0x3ca1f9eb	0.01977249
29	0x3ece169f	0.40251634
30	0x3ed38327	0.41311
31	0xbe1ada7f	-0.15122412
32	0xbed7871f	-0.42095277
33	0xbec60b52	-0.38680512
34	0xbe9b8f08	-0.30382562
35	0xbe8ad998	-0.27119136
36	0x3e95ca3c	0.29255855
37	0x3ef94f89	0.48693493
38	0x3e4efe8e	0.20214292
39	0xbdb55b7b	-0.08855339
40	0xbdc16e62	-0.09444882
41	0xbea0e1b2	-0.31422192
42	0x3ee1aac2	0.4407559
43	0x3e894962	0.268138
44	0x3ecd8904	0.40143597
45	0x3dcd6d02	0.10030557
46	0x3ed4efdb	0.41589245
47	0x3ef601dd	0.48048297
48	0xbebbf62b	-0.3671125
49	0xbe93fbfb	-0.28903183
50	0x3ef72f5b	0.48278317
51	0x3ec53412	0.3851629
52	0xbeaa8bd8	-0.33309817
53	0xbec71f4c	-0.38891065
54	0x3ea9f3f9	0.3319395
55	0x3e79505c	0.24347061
56	0xbec15b69	-0.37765053
57	0x3e43400e	0.19067404
58	0xbe96bca7	-0.29440805
59	0x3ec1a7e6	0.3782341
60	0xbe9c38f2	-0.30512196
61	0x3ebe4ee1	0.37169555
62	0xbedfe553	-0.43729648
63	0xbec7b230	-0.39003134
64	0xbeadecb6	-0.3396966
65	0x3e68abcd	0.22721787
66	0xbe42e260	-0.19031668
67	0x3e86fe9c	0.26366127
68	0x3ebdb938	0.37055373
69	0xbee489fd	-0.44636527
70	0xbe5045bc	-0.20339102
71	0xbed37904	-0.41303265
72	0xbed47935	-0.41498724
73	0xbed67e47	-0.41893217
74	0x3e7b3a70	0.24534011
75	0xbe955bf1	-0.29171708
76	0x3eef1206	0.46693438
77	0x3ea24cba	0.31699163
78	0x3e677993	0.2260497
79	0x3ed51d91	0.4162412
80	0x3eb14c4b	0.3462852
81	0xbea1608e	-0.31518978
82	0xbe62e634	-0.22158128
83	0xbef75910	-0.48310137
84	0x3eceb494	0.40372145
85	0xbea38e07	-0.31944296
86	0x3cd87bc1	0.026426198
87	0xbeafe744	-0.3435613
88	0xbee26b02	-0.44222265
89	0x3ecb01be	0.39649767
90	0x3ea4f70b	0.3221973
91	0xbebbd967	-0.36689302
92	0x3eca59cc	0.39521635
93	0xbef787f2	-0.48345906
94	0xbeb4cc42	-0.35312086
95	0x3eb1943b	0.34683403
96	0x3e8ba79f	0.27276322
97	0x3ee133e8	0.43984914
98	0xbe93515c	-0.2877301
99	0x3ead29ae	0.33820862
100	0x3e740486	0.2382985
101	0xbee1a8f0	-0.44074202
102	0xbe8ed11a	-0.27893907
103	0x3e57230e	0.21009466
104	0x3edb2dfb	0.42808518
105	0xbecf8100	-0.40528107
106	0x3edf5707	0.43621084
107	0x3ede464f	0.43413016
108	0x3e8d47f2	0.27593952
109	0xbe9f1d62	-0.31077105
110	0xbed5b0b4	-0.41736376
111	0xbe776175	-0.2415827
112	0x3eadf6ad	0.3397726
113	0xbe5810ae	-0.21100113
114	0xbee1001b	-0.43945393
115	0xbed875f8	-0.42277503
116	0x3eb84582	0.3599053
117	0xbed5be25	-0.4174663
118	0x3df24957	0.11830395
119	0xbe91f753	-0.28509006
120	0x3edc4e72	0.430286
121	0xbeacc11a	-0.33741075
122	0x3eb6cf05	0.35704818
123	0x3eaf7dad	0.3427557
124	0xbed5f223	-0.41786298
125	0x3e8a0650	0.2695794
126	0x3ee055c8	0.43815446
127	0x3ef3e9a9	0.47639206
128	0x3e492d23	0.19646125
129	0x3ea90d65	0.33018032
130	0xbde79d43	-0.11309292
131	0xbeea30a2	-0.4574023
132	0xbeb76903	-0.35822305
133	0xbe442ac3	-0.19156937
134	0xbe06a141	-0.13147451
135	0xbed460b2	-0.41480023
136	0xbe2855e2	-0.16439012
137	0x3ee21e1e	0.44163603
138	0xbec63137	-0.38709423
139	0x3e6106e8	0.21975291
140	0x3ee18635	0.44047704
141	0x3f0011df	0.5002727
142	0xbe91887d	-0.28424445
143	0x3ddbea92	0.107381
144	0x3e73a9f8	0.23795307
145	0x3d02dfca	0.031951703
146	0x3ec0dade	0.37666982
147	0xbec96214	-0.3933264
148	0x3ec77f82	0.38964468
149	0xbebdc552	-0.37064606
150	0xbed6917d	-0.41907874
151	0xbeac6376	-0.33669633
152	0xbe5b139f	-0.21394204
153	0xbd4c149c	-0.049824342
154	0x3e9c86a5	0.30571476
155	0xbef1e383	-0.4724389
156	0xbee9ea00	-0.4568634
157	0xbe4319bf	-0.1905279
158	0xbe62f588	-0.22163975
159	0x3ec11f31	0.3771911
160	0x3eba2529	0.36356476
161	0xbef10aa9	-0.47078446
162	0x3efbf6a4	0.4921161
163	0x3ecffcdf	0.40622613
164	0xbec87846	-0.3915426
165	0xbeb09729	-0.34490326
166	0xbedf1f89	-0.43578747
167	0x3ec2efa8	0.38073468
168	0x3eee7cdd	0.46579638
169	0x3ef83fab	0.48486075
170	0xbec93557	-0.39298508
171	0x3ed1fa64	0.41011345
172	0xbe741b42	-0.23838523
173	0xbed6f2b4	-0.41982043
174	0x3f01bee6	0.5068191
175	0x3ec20ebd	0.3790187
176	0xbdbefe56	-0.093258545
177	0xbedfe0d0	-0.43726206
178	0x3ed58ac4	0.41707432
179	0x3ec795e3	0.38981542
180	0xbed2ce6d	-0.41173115
181	0x3e691cb8	0.22764862
182	0xbe8eb190	-0.27869844
183	0x3e9f294d	0.31086197
184	0xbebcae6e	-0.3685183
185	0x3d119a38	0.035547465
186	0x3edb2aae	0.42806
187	0x3db31f77	0.08746236
188	0x3ec08e6e	0.37608665
189	0xbe9ab18f	-0.3021359
190	0xbed59343	-0.41713914
191	0xbeab24de	-0.33426565
192	0xbe0e2861	-0.13882591
193	0x3e9d4a82	0.30720907
194	0x3edf7cff	0.43650052
195	0x3ee5eefe	0.449089
196	0xbec45c12	-0.38351494
197	0xbed7e69a	-0.42168123
198	0x3ee39e99	0.44456938
199	0x3ec72301	0.38893893
200	0x3ec2763b	0.37980828
201	0x3dbd2155	0.09234873
202	0xbed8e457	-0.4236171
203	0xbec51a96	-0.38496846
204	0xbe4cdc41	-0.20005895
205	0x3e913a21	0.2836466
206	0xbe9c7180	-0.30555344
207	0x3e3f8dcf	0.1870644
208	0xbeff5045	-0.49865928
209	0xbea19238	-0.3155687
210	0x3cdd8c83	0.02704454
211	0xbed9c34d	-0.42531815
212	0xbec06c71	-0.37582734
213	0xbe81d0fc	-0.25354755
214	0xbeafa5ad	-0.34306088
215	0xbed23b63	-0.41060933
216	0x3eb728b8	0.35773253
217	0xbed0e3dc	-0.40798843
218	0xbeddffff	-0.43359372
219	0xbd024433	-0.03180332
220	0x3e73d877	0.23813044
221	0xbee40272	-0.44533116
222	0x3ec1f7d1	0.3788438
223	0x3e80fe62	0.2519408
224	0xbdce321c	-0.10068151
225	0xbe6f7a7c	-0.23386568
226	0x3e60534c	0.21906775
227	0xbe85b8f7	-0.2611768
228	0xbebd75d7	-0.37003967
229	0x3e8303cc	0.25588834
230	0xbe1e9c44	-0.15489298
231	0xbebe0712	-0.3711477
232	0xbe78464d	-0.24245568
233	0x3ebdedc4	0.37095463
234	0x3eecf070	0.4627719
235	0x3e8bc890	0.27301455
236	0xbed6cde4	-0.41953957
237	0x3ea0f92b	0.314401
238	0x3eb39ab5	0.3507897
239	0xbef72437	-0.48269817
240	0xbed263d6	-0.41091794
241	0x3ee0165d	0.43767062
242	0x3e4f0df5	0.20220168
243	0x3ed42d8b	0.41440997
244	0xbed274bc	-0.41104686
245	0xbe304201	-0.17212678
246	0x3eb77b3d	0.3583621
247	0xbeb78757	-0.35845444
248	0xbe8ccb33	-0.2749878
249	0x3ece7cb7	0.40329525
250	0x3ee92282	0.4553414
251	0xbe6863d5	-0.22694333
252	0xbe8b8c25	-0.2725536
253	0xbeb24cb4	-0.34824145
254	0x3edde0a8	0.43335462
255	0xbec3bd80	-0.38230515

linear1.weight f4 [256, 256]
0	0xbe042ecf	-0.12908481
1	0xbe0d8f6d	-0.13824244
2	0x3e1adc03	0.1512299
3	0x3e08bbc2	0.13352874
4	0xbe16b268	-0.14716494
5	0x3d3a054c	0.045415208
6	0x3e341669	0.17586674
7	0xbbaf1fad	-0.005344352
8	0xbe566e9e	-0.20940635
9	0xbd104062	-0.03521765
10	0x3e40b6a4	0.18819672
11	0xbe21e8ba	-0.15811434
12	0x399d7117	0.00030029632
13	0x3c87fb4a	0.016599316
14	0xbe2149cf	-0.15750812
15	0x3e1c168a	0.15242973
16	0x3d8ff976	0.07030003
17	0x3e159dcc	0.14610976
18	0x3e571ef9	0.21007909
19	0x3ddd5bfe	0.10808562
20	0xbd9bdc20	-0.07610345
21	0x3dc7de23	0.09759166
22	0x3d117afb	0.035517674
23	0x3df6059e	0.1201279
24	0xbbfed452	-0.0077767754
25	0xbe46c87f	-0.1941242
26	0xbe38b3ea	-0.18037382
27	0xbda25438	-0.0792622
28	0x3ddee385	0.1088324
29	0x3c37dcf5	0.011222114
30	0xbdca2b9d	-0.098716
31	0x3ab1a971	0.0013554526
32	0xbcd286d6	-0.02569906
33	0xbc19c459	-0.009385192
34	0x3c8c5735	0.017131427
35	0x3e4313b3	0.19050483
36	0x3dcbc0a5	0.099488534
37	0xbdf76115	-0.12079064
38	0x3e54a528	0.20766127
39	0xbd59a69c	-0.053137407
40	0xbb41c5c2	-0.0029567336
41	0x3cab488d	0.020908618
42	0xbe197312	-0.14985302
43	0xbc6f6f5d	-0.014613953
44	0xbe0e331c	-0.13886684
45	0xbe0d6132	-0.13806608
46	0xbddfbefd	-0.109251
47	0x3c5ba2c8	0.013405509
48	0xbe37ee2c	-0.17961949
49	0xbdc11486	-0.09427743
50	0xbd042e64	-0.032270804
51	0xbe33efca	-0.17571941
52	0x3d5ec4ca	0.05438689
53	0xbe122e7b	-0.14275543
54	0xbe2a42b2	-0.16627005
55	0x3be8bc89	0.0071025533
56	0x3d4c5a9c	0.0498911
57	0x3b2a59e4	0.002599352
58	0x3e1189bc	0.14212698
59	0x3daef1f1	0.085422404
60	0x3e321a9d	0.17392965
61	0xbd3e27cc	-0.046424672
62	0x3e152a7a	0.14566985
63	0x3db98a40	0.09059572
64	0x3e2572fd	0.16157146
65	0xbdf841f6	-0.12121956
66	0xbe263cdd	-0.16234155
67	0xbe30707e	-0.17230412
68	0xbd4842d4	-0.048891857
69	0xbd5ccf62	-0.053908713
70	0xbc6453f5	-0.013936033
71	0xbdae004b	-0.0849615
72	0xbdde6744	-0.1085954
73	0xbe2d2363	-0.1690803
74	0x3e077797	0.13229214
75	0x3e488634	0.19582444
76	0xbe42d9ae	-0.1902835
77	0xbd51daf0	-0.051234186
78	0xbcef104f	-0.029182581
79	0x3e07fb09	0.13279356
80	0xbdf26090	-0.11834824
81	0x3e149d5c	0.14513153
82	0x3e32b4af	0.17451738
83	0x3e37ef12	0.17962292
84	0xbd5a6c3d	-0.05332588
85	0x3d83fc6a	0.064446285
86	0x3d296981	0.041360382
87	0x3d9216f0	0.07133281
88	0x3e072966	0.13199386
89	0xbe1ff0ac	-0.15619153
90	0xbe298cc8	-0.1655761
91	0x3e2c4a28	0.16825163
92	0x3d452d7d	0.048139084
93	0x3ddf6366	0.109076306
94	0xbd828684	-0.06373313
95	0x3cacb21d	0.021081025
96	0x3d12d645	0.035848875
97	0xbd1ad9e6	-0.03780546
98	0xbb9e3233	-0.0048277616
99	0x3d3f98d1	0.046776596
100	0xbe18d0ac	-0.14923352
101	0x3d253dd2	0.04034216
102	0x3d342599	0.04398117
103	0xbe1b25c5	-0.15151127
104	0xbdd94006	-0.106079146
105	0x3cbf71e3	0.023369735
106	0xbd4edd55	-0.050504047
107	0xbcfdf421	-0.031000199
108	0xbe4abc95	-0.19798501
109	0xbe5d886d	-0.21634074
110	0x3d05f6ae	0.032705955
111	0x3e13c769	0.14431538
112	0xbe5bb5f3	-0.21456127
113	0xbdaf174c	-0.085493654
114	0x3e1c7269	0.15278019
115	0xbdbe2f6f	-0.09286391
116	0x3e5238f7	0.20529543
117	0x3e5c0717	0.2148708
118	0xbcbd9c28	-0.02314575
119	0x3d269b3a	0.04067538
120	0x3dbe5c17	0.092949085
121	0x3df90eb7	0.1216101
122	0xbe39ded0	-0.18151402
123	0xbd201278	-0.039080113
124	0xbe0af774	-0.13570958
125	0xbd84d3a1	-0.064856775
126	0xbd29b279	-0.04142997
127	0xbdf9252a	-0.121652916
128	0xbc1b74b6	-0.009488275
129	0x3b97842c	0.0046239104
130	0xbdbcff9a	-0.0922844
131	0xbe2afaf4	-0.16697294
132	0x3e2eb974	0.17062932
133	0xbe32c43a	-0.17457667
134	0xbe02bd18	-0.12767446
135	0xbc71067b	-0.014711018
136	0x3db9ef60	0.0907886
137	0x3e16f31d	0.14741178
138	0xbe21b3a0	-0.15791178
139	0xbda43954	-0.08018747
140	0xbe5c3862	-0.21505883
141	0xbe5df35c	-0.21674865
142	0x3e0526a9	0.13003029
143	0x3aba3324	0.0014205915
144	0xbe60d795	-0.21957238
145	0xbdc6c766	-0.09706001
146	0xbd5850da	-0.05281148
147	0x3db8a5cf	0.090160005
148	0xbe3e8f6f	-0.18609403
149	0xbd022b54	-0.031779602
150	0x3e1fb5b4	0.15596658
151	0x3d4e66dd	0.050391067
152	0xbe37a360	-0.17933416
153	0x3db66bfa	0.08907314
154	0xbc992236	-0.01869307
155	0x3de5fcc6	0.11229853
156	0xbe1df07f	-0.15423773
157	0xbe3b0f08	-0.18267453
158	0xbc9e53b2	-0.019327018
159	0x3e5985f8	0.21242511
160	0xbe4c837d	-0.19972034
161	0x3e519189	0.20465674
162	0xbdfe7d60	-0.12426257
163	0xbc02aa24	-0.007975135
164	0xbda22d23	-0.079187654
165	0x3df1536c	0.117834896
166	0xbd3c453a	-0.045964457
167	0x3e5414b4	0.20711023
168	0xbe50bed4	-0.20385295
169	0xbdd2de62	-0.102963224
170	0x3d9332e1	0.07187439
171	0xbe2534ae	-0.16133377
172	0x3ddf9181	0.109164245
173	0xbcb0dec4	-0.021590598
174	0xbe27991a	-0.16366997
175	0xbdd85268	-0.10562593
176	0x3e17d2a6	0.1482645
177	0xbd108b71	-0.03528923
178	0xbe3a9a22	-0.1822286
179	0x3e01f653	0.12691621
180	0xbe0aa8bb	-0.13540928
181	0xbdc5c7ce	-0.0965725
182	0x3cef24c0	0.029192328
183	0xbd0d24d4	-0.03445895
184	0x3dfe208c	0.124085516
185	0xbe2728ba	-0.1632413
186	0xbe3e7cc6	-0.18602285
187	0xbdc137ec	-0.094344944
188	0x3c19df79	0.009391659
189	0xbe0892ed	-0.13337298
190	0x3d57ceca	0.052687444
191	0x3e33e043	0.17566018
192	0x3d3ca962	0.046059974
193	0x3d498860	0.049202323
194	0xbdc2aa59	-0.095051475
195	0x3c7f1884	0.01556981
196	0xbe08a6d0	-0.13344884
197	0x3dcaf057	0.099091224
198	0x3d325f69	0.04354802
199	0xbdd94c2a	-0.1061023
200	0xbe0cbc37	-0.13743673
201	0x3e1b3e5e	0.1516051
202	0xbe01a8da	-0.12662068
203	0x3c81a88f	0.015827445
204	0xbd851a6b	-0.064991795
205	0xbe46e779	-0.19424237
206	0xbe0aa730	-0.1354034
207	0xbe4f3170	-0.20233703
208	0x3e28d8d3	0.16488962
209	0xbd0339b1	-0.03203744
210	0xbd35ee57	-0.04441675
211	0x3d9e001e	0.07714866
212	0x3e5bb47b	0.21455567
213	0x3ba37aa5	0.0049889856
214	0x3e3c03a7	0.18360768
215	0x3db3140b	0.08744057
216	0xbe04d572	-0.12972048
217	0xbd29a9cb	-0.041421693
218	0x3d72daaf	0.059290584
219	0xbc94e000	-0.018173218
220	0xbe4e7ca6	-0.20164737
221	0xbcc49cd4	-0.024000563
222	0xbdcaa53e	-0.09894799
223	0x3d9bf3a4	0.0761483
224	0x3cadaf1b	0.02120166
225	0xbd1abb35	-0.03777619
226	0x3dcf2a97	0.10115545
227	0xbdd07423	-0.10178401
228	0xbe129d72	-0.14317873
229	0xbdbdf7d8	-0.09275788
230	0xbbaec9a6	-0.005334097
231	0xbda32922	-0.0796683
232	0xbcf88472	-0.030336592
233	0xbe37b384	-0.17939574
234	0x3bfb1b5a	0.0076631727
235	0xbe052781	-0.13003351
236	0x3d4c98a1	0.049950246
237	0x3d420201	0.047365192
238	0xbe233bb4	-0.15940744
239	0x3d0a8c55	0.033825237
240	0x3d47905c	0.048721656
241	0xbd8740e5	-0.066041745
242	0x3dd976c5	0.106183566
243	0xbdd397d2	-0.10331692
244	0x3d01985f	0.031639453
245	0xbbf76e93	-0.0075510233
246	0xbe529977	-0.20566355
247	0x3d0cfc92	0.034420557
248	0xbd38553a	-0.045003153
249	0xbe3a4681	-0.18190958
250	0x3b9573d4	0.004560927
251	0xbe05d8ad	-0.13070937
252	0x3c062dc6	0.008189624
253	0xbe26b90f	-0.16281532
254	0x3cb3295f	0.021870313
255	0x3db6d1d6	0.08926742

linear1.bias f4 [256]
0	0x3c797f78	0.015228145
1	0x3ca53c38	0.020170316
2	0x3ad9c47d	0.0016614344
3	0x3be01c73	0.006839329
4	0x3c322a32	0.010874318
5	0x3af0faf5	0.0018385338
6	0x3c4e6f11	0.0125997225
7	0xbbee527c	-0.0072730165
8	0x3c56bbdb	0.013106312
9	0x3bb0c28f	0.005394287
10	0x3c85635d	0.016282732
11	0x3c63de20	0.013907939
12	0x3c8afe82	0.016967062
13	0x3c19ba86	0.00938285
14	0x3cb7d713	0.022441423
15	0x3ccbe40b	0.024889013
16	0x3bb9d1f3	0.00567078
17	0xba40570d	-0.00073371903
18	0xb994ba72	-0.00028367672
19	0x3b815c80	0.0039477944
20	0x3b7366c2	0.0037140106
21	0xbbf67084	-0.007520737
22	0xba9356ed	-0.0011241116
23	0x3cad4813	0.021152532
24	0x3ceab987	0.02865292
25	0x3d1f040d	0.038822223
26	0x3cb0925f	0.02155417
27	0x3d193864	0.037407294
28	0x3a026beb	0.00049751875
29	0x3d0a9799	0.03383598
30	0x3d806ecc	0.06271133
31	0x3bae44e5	0.0053182715
32	0x3c67a76f	0.01413904
33	0x3b901323	0.0043968125
34	0x3babbf15	0.0052412846
35	0x3ba79781	0.005114496
36	0x3bf7b64e	0.007559574
37	0x3cb11060	0.021614254
38	0xba7c05b5	-0.00096138875
39	0x3c80ecbb	0.015737882
40	0x3b536913	0.0032258674
41	0x3ba43bdb	0.005012018
42	0x3c7d067c	0.0154434405
43	0x3cbbbe22	0.02291781
44	0xbc94e453	-0.01817528
45	0x3bb214dd	0.005434616
46	0x2aa73e95	2.9708584e-13
47	0x3c2b69e5	0.010462259
48	0x3cf41ae4	0.029797979
49	0x3cb2e494	0.02183751
50	0x3c3e754b	0.0116246445
51	0xb970496e	-0.00022915538
52	0xbc62fdc6	-0.01385445
53	0x3cbf4604	0.023348816
54	0x3b583d1d	0.003299541
55	0x3cafdd2b	0.021467766
56	0x3bae3037	0.0053158063
57	0x3c1319de	0.008978335
58	0xb7cfcac1	-2.4770738e-05
59	0x3a55c224	0.00081542344
60	0x3aac0ed3	0.0013126977
61	0x3c8d6c7a	0.01726364
62	0x3ca01f7c	0.019546263
63	0x3ce229ce	0.027607825
64	0x3bfeba21	0.007773653
65	0x3be3b2be	0.006948798
66	0x3b882b91	0.004155584
67	0x3d44c648	0.04804066
68	0x3c0b1557	0.0084889745
69	0x3bfd598e	0.007731623
70	0x3a8b9598	0.0010649441
71	0x3c40942c	0.011754077
72	0x3c36943b	0.011143739
73	0x3c4f03ca	0.012635181
74	0x3c5e2004	0.013557438
75	0x3c0efb8c	0.008726966
76	0x3ba87e27	0.0051419917
77	0x284afb5e	1.1267759e-14
78	0x3c61d5ac	0.0137838535
79	0x3c2e31bc	0.010631975
80	0x3c64b00a	0.013957987
81	0x3c83dfb7	0.016097886
82	0x3c7bd284	0.015370015
83	0x3c596f4a	0.013271162
84	0x3c8d27db	0.017230919
85	0x3cc20194	0.023682393
86	0x3c641e4e	0.013923241
87	0x3ba04710	0.004891284
88	0x3c9241ef	0.017853705
89	0x3c5ab870	0.013349637
90	0x39d6d352	0.00040974707
91	0x3bcb7284	0.0062087197
92	0x3c5426cb	0.012948702
93	0x3ccd3eb5	0.025054315
94	0x3cb874e0	0.022516668
95	0x3c92930d	0.017892385
96	0x3cb928ad	0.022602404
97	0x3c143947	0.009046859
98	0x3cba265f	0.022723375
99	0x3aedbd75	0.0018138128
100	0x3b822845	0.0039720857
101	0xbac3d45e	-0.001494061
102	0x3c10724b	0.008816312
103	0x3c6f0b45	0.014590089
104	0x3b2279c4	0.0024791816
105	0x3c0fb0f4	0.008770216
106	0x3d37038f	0.044681128
107	0x3c3498ac	0.011022728
108	0x3a21b25b	0.00061682396
109	0x3b389562	0.002816521
110	0x3cd656fc	0.026164524
111	0x3cb6a435	0.022295097
112	0x3cf7147b	0.030161133
113	0x3b901529	0.0043970537
114	0x3cf1279c	0.029437833
115	0x3c49eceb	0.012324552
116	0x3d00fc46	0.031490587
117	0x3c74bd36	0.0149376895
118	0x3d1ec177	0.03875872
119	0x3d35a3fc	0.04434584
120	0x3cd7b0a3	0.026329344
121	0x3c84ff37	0.016234977
122	0xbb3667a4	-0.002783277
123	0x3acc019a	0.0015564442
124	0x3c3fe3c7	0.011712021
125	0x3cd565d8	0.02604954
126	0x3bc1d80a	0.0059156464
127	0x2aca5a7d	3.5945197e-13
128	0x3cb7ef41	0.022452952
129	0x3cb89dc6	0.02253617
130	0x3ca0419c	0.019562535
131	0x3bd0bfcb	0.0063705198
132	0xba33e7ab	-0.00068628293
133	0x3c9ecb56	0.019384068
134	0x39512a2e	0.00019947506
135	0x3c85a901	0.016315939
136	0x3c4f3810	0.012647644
137	0x3b58452b	0.0033000212
138	0x3cb825a8	0.022478893
139	0x3cb13981	0.021633865
140	0x2af6c69c	4.383619e-13
141	0x3cca1f95	0.024673263
142	0x3c2a746f	0.0104037365
143	0x3c82671b	0.015918305
144	0x3ca5c315	0.020234624
145	0x3bdc7041	0.006727249
146	0x3ac5ca6c	0.0015090234
147	0x3c0da765	0.008645867
148	0x3cab05e6	0.020876836
149	0x3c861522	0.016367499
150	0x3c04bb2f	0.008101269
151	0x3cc47592	0.023981843
152	0x3b8231ac	0.0039732065
153	0xba49d837	-0.000769976
154	0x3b981052	0.0046406174
155	0x3c457952	0.012052851
156	0x3adc466f	0.0016805659
157	0x3ccf69ba	0.025318969
158	0x3d449bc0	0.048000097
159	0x3c0591e5	0.00815246
160	0x3b34bb47	0.0027577446
161	0x3bc85467	0.006113577
162	0xba9370c9	-0.0011248823
163	0x3c63211e	0.013862876
164	0x3bbe0f47	0.005800161
165	0x3cb8efdd	0.022575313
166	0x3ca45be6	0.020063352
167	0x3cc3cbb3	0.023900842
168	0xbb71d09a	-0.0036898018
169	0x3c82279d	0.01588803
170	0x3cff5322	0.03116757
171	0x3c83f911	0.016109975
172	0x3cf7fb72	0.030271266
173	0x3be3a228	0.0069468208
174	0x3c8c5317	0.017129464
175	0x3b3afbdc	0.0028531468
176	0x3c3a2c37	0.011363081
177	0xba424046	-0.000741009
178	0x3be47630	0.006972097
179	0x3c5b2ead	0.013377828
180	0x3bc9a6a4	0.0061538983
181	0xbb00d5a5	-0.0019658592
182	0x3bb22ca5	0.005437451
183	0x3c256806	0.010095602
184	0x3ba8cfd3	0.0051517277
185	0x3c99a54a	0.018755574
186	0x3c117355	0.008877595
187	0x3d7e94d9	0.06215367
188	0x3d4e011b	0.050294023
189	0x3d29606f	0.041351732
190	0x3c74a32b	0.01493148
191	0xbb1b4547	-0.0023692416
192	0x3c1cafde	0.009563414
193	0x3c42b409	0.011883744
194	0x3c52b53b	0.0128605915
195	0x3d26c6c1	0.04071689
196	0x3be2a17a	0.006916222
197	0x3bc14d26	0.0058990894
198	0x3bdf2055	0.006809274
199	0x3c9ca8d3	0.01912347
200	0x3ae27653	0.0017277695
201	0x3cb41630	0.021983236
202	0xbb7fc69a	-0.0039028288
203	0x3d37a7a9	0.044837628
204	0x3cc80359	0.024415659
205	0x3ca90e47	0.02063669
206	0xbb91e4b0	-0.0044523105
207	0x3ce056b1	0.027385088
208	0x3c8bf34e	0.01708379
209	0x3be4b7c7	0.006979916
210	0x3c794f12	0.015216606
211	0xbbda24b3	-0.006657207
212	0x3d35a570	0.044347227
213	0x3bf5c86e	0.0075006997
214	0xbbff8955	-0.0077983537
215	0x3be0cf17	0.0068606245
216	0x3c1c4b4f	0.009539439
217	0x3ba0bef0	0.004905574
218	0x3c9ebd22	0.019377295
219	0x3bbe82e1	0.005813942
220	0x3cedd5d9	0.029032635
221	0x3aa0ff55	0.0012283126
222	0x3d35824d	0.044313718
223	0x3c17c9a3	0.0092643825
224	0x3c2110d1	0.0098306695
225	0x3bf8d880	0.007594168
226	0x3d0a301c	0.033737287
227	0x3c853b81	0.016263725
228	0x3c00e402	0.007866861
229	0x3c68f472	0.014218437
230	0xbb18a0c0	-0.0023289174
231	0x3b98ba2c	0.0046608653
232	0x3bfa3a91	0.007636376
233	0x3c6da54a	0.01450474
234	0x3c7aa030	0.015296981
235	0x3c94c201	0.018158915
236	0x3cb0f08f	0.021599082
237	0x3c5131a8	0.012768187
238	0x3c0d5ac0	0.0086275935
239	0x3b95c71c	0.004570855
240	0x3c5c552e	0.013448043
241	0x3cad067f	0.021121262
242	0x3bdee5b8	0.006802287
243	0x3b810145	0.003936919
244	0x3c51fb1f	0.01281622
245	0x3c989d04	0.018629558
246	0x3ce89ee2	0.028396074
247	0x3c9e9e04	0.019362457
248	0x3d62c93e	0.0553677
249	0xb9cdb4a2	-0.0003923523
250	0x3bc4f85c	0.006011052
251	0x3bbd1f9b	0.00577159
252	0x3c659a9a	0.014013911
253	0x3c865ace	0.01640072
254	0x3a50ccdb	0.0007965096
255	0x3d84228b	0.06451901

linear2.weight f4 [59, 256]
0	0x3d5be722	0.053687222
1	0x3d57f38a	0.05272249
2	0x3dace319	0.08441753
3	0x3e0478ff	0.12936781
4	0x3d2b210f	0.041779574
5	0x3d9059a3	0.07048347
6	0xbf07d01b	-0.5305192
7	0x3d4c93ed	0.04994576
8	0xbcbb277b	-0.022845974
9	0x3d59b362	0.05314959
10	0x3d728c1e	0.059215657
11	0x3db3395b	0.08751174
12	0xbefd159a	-0.49430543
13	0x3d0f56c9	0.034994874
14	0x3d56791b	0.05236159
15	0x3d928340	0.0715394
16	0x3d5386f9	0.05164239
17	0xbd13d53d	-0.03609203
18	0xbf0f7ad9	-0.56046826
19	0x3d777223	0.060411584
20	0x3da6a0a2	0.08136107
21	0xbea5fd2e	-0.32419723
22	0x3d456a5b	0.04819713
23	0x3d59f048	0.053207666
24	0x3d622c0a	0.05521778
25	0xbefc94bb	-0.49332222
26	0x3dd7ebd7	0.1054303
27	0xbdb7b1a6	-0.089694306
28	0xbee9851d	-0.4560937
29	0xbd9aa968	-0.07551843
30	0xbeeda740	-0.46416664
31	0xbe726eae	-0.23675033
32	0x3d7851a5	0.060624737
33	0xbdb55270	-0.08853614
34	0xbe66fbfe	-0.22557065
35	0x3d25ab18	0.04044637
36	0x3db18c3d	0.086693265
37	0x3daab359	0.08334989
38	0x3cad155e	0.021128353
39	0xbea2ef63	-0.31823263
40	0xbe2f5115	-0.17120774
41	0xbef48614	-0.47758543
42	0xbe9a8d29	-0.30185822
43	0x3d71fcd2	0.059079
44	0x3d7075dd	0.058706153
45	0x3da3a69b	0.07990762
46	0xac916f07	-4.1334744e-12
47	0x3d76296d	0.0600981
48	0x3e08a0f4	0.13342649
49	0xbedefc5d	-0.43551913
50	0x3d6a7366	0.05723896
51	0x3d9e4743	0.07728436
52	0x3da22382	0.07916929
53	0xbf139fcd	-0.5766571
54	0xbe2f4c9d	-0.1711907
55	0x396535d0	0.00021859189
56	0xbe1b98b6	-0.15194973
57	0xbec1c23f	-0.3784351
58	0xbef76fd4	-0.48327506
59	0xbeeb587e	-0.45965952
60	0xbe6da599	-0.23207702
61	0x3cef04b2	0.029177044
62	0x3d90e392	0.070746556
63	0x3d9e3732	0.077253714
64	0x3dc2c4f0	0.09510219
65	0x3dad4720	0.08460832
66	0x3d2b890a	0.041878738
67	0xbd713358	-0.058886856
68	0x3c247f6f	0.010040148
69	0x3d3690a7	0.044571545
70	0xbd0f93dc	-0.03505312
71	0x3d9709ae	0.07374893
72	0x3d8d30fb	0.06894108
73	0xbe03f80b	-0.1288759
74	0xbce66610	-0.028124839
75	0x3d95e5fc	0.07319257
76	0x3d9b0481	0.075692184
77	0xa9d0c105	-9.270539e-14
78	0x3df0ea89	0.11763484
79	0x3da023f8	0.078193605
80	0xbe37a094	-0.1793235
81	0x3cc22d06	0.02370311
82	0x3d92c69e	0.071667895
83	0xbefdba8a	-0.4955638
84	0x3e001392	0.12507465
85	0x3d76b639	0.060232375
86	0x3d9e477b	0.077284776
87	0xbed9f7da	-0.42571908
88	0xbcccab76	-0.024984103
89	0x3dc8e1f5	0.09808723
90	0x3cc5be77	0.024138672
91	0xbe8f34fd	-0.27970114
92	0xbc524e72	-0.012836086
93	0xbeb18a8c	-0.34676015
94	0xbe86a1fc	-0.2629546
95	0xbd88fa24	-0.066883355
96	0x3d35e45b	0.04440723
97	0xbe972f2a	-0.2952817
98	0x3e001e8a	0.1251165
99	0xbe6f1706	-0.23348626
100	0xbe86c411	-0.26321462
101	0x3d3bba0a	0.045831718
102	0xbeb0f6ab	-0.34563193
103	0xbc8e39ab	-0.017361483
104	0x3d82e063	0.063904546
105	0xbedc68ce	-0.4304871
106	0x3d723597	0.05913314
107	0xbeef5d08	-0.46750665
108	0x3d0469d3	0.032327484
109	0x3d48cc5d	0.04902302
110	0x3cb7de1e	0.02244478
111	0xbe1ed413	-0.15510587
112	0xbd8de419	-0.06928272
113	0x3dcc3f61	0.09973026
114	0x3d25a227	0.040437844
115	0x3c465403	0.012104991
116	0x3d92e482	0.07172491
117	0x3d2a9741	0.041648153
118	0x3dbbbafc	0.09166524
119	0x3dc7f6c4	0.09763864
120	0x3d9df68f	0.07713043
121	0xbe6e287a	-0.23257628
122	0x3c8779ad	0.016537512
123	0xbd152e5a	-0.036421157
124	0x3d6a44f0	0.05719465
125	0x3db2ef3b	0.08737036
126	0xbebd444a	-0.36966163
127	0x2becc68f	1.682392e-12
128	0x3d814bfc	0.06313321
129	0x3d8f78ce	0.070054635
130	0xbe85e62e	-0.26152176
131	0xbdd936bb	-0.10606142
132	0x3b81893b	0.0039531267
133	0x3d035584	0.032063976
134	0xbe5718f4	-0.21005613
135	0xbd1f2ba4	-0.03885998
136	0x3daa8ea7	0.0832799
137	0xbe4933e5	-0.19648702
138	0xbe079288	-0.13239491
139	0x3dcc0b95	0.099631466
140	0x2cb254fa	5.0684986e-12
141	0xbed0b510	-0.4076314
142	0xbcb0aea9	-0.02156766
143	0xbad6f306	-0.0016399331
144	0x3d9f8ebc	0.07790896
145	0x3ddd4340	0.108038425
146	0x3cc74265	0.024323652
147	0xbece4439	-0.40286425
148	0xbe25f8df	-0.16208218
149	0x3da33e64	0.079708844
150	0xbf000cec	-0.5001972
151	0xbe80b45e	-0.2513761
152	0x3d38a979	0.045083497
153	0x3dc51702	0.09623529
154	0x3db33d4b	0.08751925
155	0xbd20278d	-0.03910022
156	0xbf0772d5	-0.52909595
157	0xbe87cfe8	-0.26525807
158	0xbef62b05	-0.48079696
159	0x3dbf899b	0.09352418
160	0x3dd6bdd4	0.104854256
161	0xbe69e7df	-0.22842358
162	0x3da14b1a	0.078756526
163	0xbc5e7afc	-0.013579126
164	0x3d6680e4	0.056275263
165	0x3dfceb58	0.12349576
166	0xbc4f5149	-0.012653657
167	0x3d911d00	0.070856094
168	0xbebdd206	-0.37074298
169	0x3d4ac390	0.04950291
170	0xbefd85a6	-0.49516028
171	0x3dbefabe	0.09325169
172	0x3c52071e	0.01281908
173	0xbe9ddd39	-0.30832842
174	0xbce3a870	-0.027790278
175	0xbe5d33d3	-0.216018
176	0x3d6b60cc	0.05746536
177	0xbbb04004	-0.005378725
178	0x3df8d0c7	0.12149196
179	0xbd2f4b02	-0.042796142
180	0x3d836c7e	0.064171776
181	0x3d13c74f	0.036078747
182	0x3d106131	0.03524894
183	0xbeb25700	-0.34832
184	0x3d4f9d21	0.05068696
185	0xbd3d9880	-0.046288013
186	0x3da2ae28	0.07943374
187	0xbee67ecf	-0.45018622
188	0xbdeb4725	-0.11488179
189	0xbd213f03	-0.039366733
190	0x3dd2208a	0.102601126
191	0x3d905412	0.07047285
192	0xbce32d6b	-0.027731618
193	0xbdd684a0	-0.10474515
194	0x3d87c422	0.06629206
195	0xbd152140	-0.036408663
196	0xbdb416fc	-0.087934464
197	0xbe8f3323	-0.27968702
198	0xbdc2dbe3	-0.09514596
199	0xbeb0e020	-0.34545994
200	0x3d22808f	0.039673384
201	0xbe0a8edf	-0.13531063
202	0xbef9aa2b	-0.4876264
203	0xbf12dabe	-0.57365024
204	0xbd629eaf	-0.055327114
205	0x3d5c8297	0.053835478
206	0x3c960725	0.018313954
207	0x3d9176b3	0.07102718
208	0x3d4516d9	0.048117492
209	0x3b82831f	0.003982916
210	0x3dae5e3f	0.0851407
211	0x3e329d3a	0.1744279
212	0x3dc80411	0.097664006
213	0x3dd856cd	0.10563431
214	0x3e2e5e33	0.17028122
215	0x3dab2f60	0.083586454
216	0xbd5fb5a2	-0.054616578
217	0x3d964637	0.07337611
218	0x3d830d73	0.063990496
219	0xbe8f327c	-0.27968204
220	0x3d236fcb	0.039901536
221	0xbe5d927c	-0.2163791
222	0x3dc7ebc8	0.097617686
223	0xbd7dd387	-0.061969306
224	0x3d7d55b0	0.061849296
225	0xbe4d66e0	-0.20058775
226	0x3dab6ffc	0.08370969
227	0x3dbf85fa	0.09351726
228	0x3dcafe16	0.09911744
229	0x3cd86a7e	0.026417967
230	0x3d51d49b	0.051228147
231	0x3d570874	0.052498296
232	0xbee5a7e5	-0.44854656
233	0x3d8c12de	0.06839536
234	0x3d5a0843	0.053230535
235	0x3d8557c6	0.06510882
236	0x3d854bb9	0.065085836
237	0x3d2a3cb7	0.04156181
238	0x3d10b80d	0.035331775
239	0x3d64f830	0.055900753
240	0x3d457a01	0.048212055
241	0x3d1128dc	0.035439357
242	0xbd47d6db	-0.048788887
243	0x3b4142f6	0.0029489375
244	0xbef12013	-0.47094783
245	0xbd9048e9	-0.070451565
246	0x3db9f123	0.09079196
247	0x3dd0441a	0.10169239
248	0x3d92fdd9	0.07177324
249	0xbe9a6f7c	-0.3016318
250	0x3d59eaa1	0.053202275
251	0xbf01789e	-0.5057467
252	0xbe00a429	-0.12562622
253	0x3d5dea6b	0.054178637
254	0xbe037335	-0.12836917
255	0x3d8aa0a7	0.06768923

linear2.bias f4 [59]
0	0xbc866d32	-0.01640949
1	0xbc9661ef	-0.018357245
2	0xbc59fc5c	-0.013304796
3	0xbc53ac0f	-0.01291944
4	0xbc58cf8a	-0.013233075
5	0xbca3569d	-0.019938761
6	0xbca50a92	-0.020146642
7	0xbc967ed0	-0.018371016
8	0xbc64754d	-0.013943982
9	0xbc3b3e9c	-0.011428501
10	0xbc89f782	-0.016841654
11	0xbc9290bc	-0.01789128
12	0xbc8d6f81	-0.017265083
13	0xbca098f6	-0.019604187
14	0xbc517e65	-0.012786482
15	0xbc2ad8c7	-0.01042766
16	0xbca54e80	-0.020179033
17	0xbc430442	-0.011902871
18	0xbc9f7b3d	-0.019467944
19	0xbc899feb	-0.016799888
20	0xbc4d2cfa	-0.01252293
21	0xbbf7939d	-0.0075554387
22	0xbcb36da7	-0.021902872
23	0xbc7e4c75	-0.015521158
24	0xbc4ebd36	-0.012618354
25	0xbca34af9	-0.01993321
26	0xbc8e2432	-0.017351244
27	0xbc1fdd42	-0.009757342
28	0xbc92350b	-0.017847558
29	0xbc7c156e	-0.015385969
30	0xbc99a86d	-0.01875707
31	0xbc8b824b	-0.017029902
32	0xbc2d6567	-0.010583258
33	0xbc9a805d	-0.018860037
34	0xbc99f70a	-0.018794555
35	0xbc997797	-0.018733783
36	0xbc5a6fa7	-0.013332284
37	0xbc84a6f7	-0.016192896
38	0xbc8255cc	-0.015910052
39	0xbc3db384	-0.011578444
40	0xbc83d988	-0.016094938
41	0xbc9fd704	-0.019511707
42	0xbc8ad47b	-0.016947022
43	0xbc9a8b16	-0.01886515
44	0xbc5a6dcb	-0.013331841
45	0xbc8cddff	-0.0171957
46	0xbc950564	-0.018191047
47	0xbc8e88f4	-0.017399289
48	0xbcb91dbe	-0.02259719
49	0xbc7ff6d2	-0.015622811
50	0xbc2f50f9	-0.010700458
51	0xbca6080f	-0.020267515
52	0xbc3651bd	-0.011127886
53	0xbc953aa0	-0.018216431
54	0xbc890494	-0.016725816
55	0xbc434a57	-0.0119195795
56	0xbc42abad	-0.011881751
57	0xbc952091	-0.018204005
58	0xbc9378c0	-0.018001914
