intermediary/model_14800.pth (torch, 356400 bytes, 5 tensors)

embed.weight f4 [59, 128]
-0.34133264 0.22828774 -0.36707562 -0.33386415 0.37611726 0.39430723 -0.11664426 -0.4409497
0.42963064 0.32768792 -0.30475438 -0.3883509 0.016241169 -0.22286932 -0.34095687 0.36846164
-0.1962402 -0.43180758 -0.34772453 0.39377683 0.40057874 0.25145894 0.18105732 0.13628611
0.32168788 0.4173401 -0.35416964 0.23919164 0.018611865 0.40466306 0.4125118 -0.1505005
-0.42234644 -0.3858111 -0.302116 -0.27045438 0.29638347 0.48666495 0.20079513 -0.08610844
-0.0900286 -0.314608 0.4397546 0.27075514 0.4002953 0.09663563 0.41608712 0.48291284
-0.36702543 -0.2884076 0.48682606 0.38631785 -0.33383223 -0.38860574 0.3317457 0.2527947
-0.37886995 0.194355 -0.29013658 0.37795478 -0.30707645 0.3714558 -0.43842968 -0.39064178
-0.3411657 0.23198925 -0.18754344 0.28476873 0.370473 -0.4483774 -0.2058765 -0.41295522
-0.41798377 -0.4216095 0.24175394 -0.2929555 0.4696797 0.31992772 0.2274523 0.41908842
0.3441052 -0.3183867 -0.22859256 -0.4862711 0.40417105 -0.32039085 0.023013668 -0.3486632
-0.44198754 0.39616764 0.32339257 -0.37035826 0.39436352 -0.48349833 -0.35449204 0.34844685
0.2726962 0.4433144 -0.28785005 0.33626243 0.23448154 -0.44025487 -0.27909836 0.21164986
0.4284557 -0.40367278 0.43606555 0.4382491 0.27846593 -0.30799952 -0.4190673 -0.24178186
0.33973634 -0.21419516 -0.44092348 -0.42368302 0.3619215 -0.41512388 0.1193438 -0.2869296
0.43199402 -0.3374497 0.35657755 0.34427208 -0.4189965 0.26975963 0.43876058 0.47769123
0.19623426 0.32871032 -0.110246845 -0.4583927 -0.35792744 -0.19370814 -0.12733367 -0.41346675
-0.16639303 0.4432558 -0.3876219 0.21836966 0.44070596 0.5017586 -0.28547907 0.09701892
0.237601 0.032328397 0.3781459 -0.3926015 0.38722804 -0.37194934 -0.41894722 -0.33649978
-0.213089 -0.05500081 0.3058532 -0.47311243 -0.45673886 -0.19285819 -0.22238007 0.3786054
0.36298436 -0.46803173 0.49455404 0.40815923 -0.3916 -0.34573427 -0.4360755 0.382592
0.4644124 0.48500624 -0.3934211 0.40916497 -0.24245745 -0.42021334 0.50653684 0.37739524
-0.09649718 -0.43980047 0.41643023 0.39227968 -0.41194418 0.2253933 -0.27892756 0.31019306
-0.36059535 0.020393413 0.42887077 0.08789538 0.3766989 -0.30538958 -0.41764724 -0.33199972
-0.13111588 0.3069818 0.43796408 0.45150968 -0.3837863 -0.42261332 0.44584188 0.38938946
0.38057277 0.091214895 -0.42109457 -0.38463885 -0.20190199 0.28280884 -0.3057053 0.17834017
-0.5000421 -0.31429353 0.031216845 -0.42637876 -0.37659863 -0.25549683 -0.34388557 -0.40983543
0.359631 -0.40855002 -0.4339194 -0.04848097 0.23429015 -0.44841343 0.37657344 0.24745205
-0.09860681 -0.23296547 0.21992666 -0.26145798 -0.37055546 0.25879234 -0.16264066 -0.37381196
-0.24284798 0.36941347 0.4638901 0.27303523 -0.41865706 0.31130946 0.35017693 -0.4812323
-0.41107094 0.43741432 0.20261407 0.41446853 -0.41371474 -0.1770157 0.3535698 -0.3566918
-0.2748314 0.40493715 0.45507887 -0.2290506 -0.2692232 -0.34726354 0.43295577 -0.38129976
00000000: 27c3 aebe 43c4 693e 56f1 bbbe 3ef0 aabe
00000010: 7192 c03e a3e2 c93e 30e3 eebd 29c4 e1be
00000020: 8cf8 db3e b6c6 a73e c408 9cbe eed5 c6be
00000030: 330c 853c db37 64be e691 aebe 01a7 bc3e
00000040: 31f3 48be e215 ddbe f308 b2be 1e9d c93e
00000050: a818 cd3e 3abf 803e 1767 393e 968e 0b3e
00000060: 46b4 a43e 9aad d53e b955 b5be a7ee 743e
00000070: e977 983c ff2f cf3e bf34 d33e ce1c 1abe
00000080: cb3d d8be 0889 c5be f3ae 9abe ff78 8abe
00000090: 93bf 973e 262c f93e 3d9d 4d3e 9f59 b0bd
000000a0: ea60 b8bd 4d14 a1be 8427 e13e 6ba0 8a3e
000000b0: 81f3 cc3e e7e8 c53d 5f09 d53e 5a40 f73e
000000c0: c2ea bbbe 29aa 93be 4441 f93e 74cb c53e
000000d0: 0fec aabe 55f7 c6be 93da a93e 4f6e 813e
000000e0: 3efb c1be ff04 473e c88c 94be 4a83 c13e
000000f0: 2039 9dbe 742f be3e db79 e0be 3302 c8be
00000100: 45ad aebe 978e 6d3e 630b 40be 35cd 913e
00000110: a3ae bd3e b991 e5be 4ad1 52be de6e d3be
00000120: f801 d6be 33dd d7be 588e 773e 43fe 95be
00000130: dc79 f03e 91cd a33e 41e9 683e c292 d63e
00000140: 8f2e b03e 9503 a3be 2b14 6abe 87f8 f8be
00000150: 82ef ce3e 450a a4be 2987 bc3c fc83 b2be
00000160: 314c e2be 7cd6 ca3e b693 a53e 999f bdbe
00000170: 04ea c93e 188d f7be fb7f b5be a067 b23e
00000180: d69e 8b3e 1bfa e23e 1561 93be 972a ac3e
00000190: ee1b 703e 1669 e1be fbe5 8ebe beba 583e
000001a0: 8c5e db3e 33ae cebe fc43 df3e 3062 e03e
000001b0: 1693 8e3e 1db2 9dbe fd8f d6be aa95 77be
000001c0: ecf1 ad3e fa55 5bbe b9c0 e1be fbec d8be
000001d0: c64d b93e 1e8b d4be 866a f43d 70e8 92be
000001e0: 522e dd3e 35c6 acbe 5591 b63e 6e44 b03e
000001f0: b686 d6be ef1d 8a3e 3aa5 e03e f293 f43e
00000200: a2f1 483e b84c a83e 19c9 e1bd 73b2 eabe
00000210: 4442 b7be 6d5b 46be c263 02be eab1 d3be
00000220: ef62 2abe 6df2 e23e 6176 c6be 4c9c 5f3e
00000230: 36a4 e13e 4073 003f 502a 92be dbb1 c63d
00000240: ad4d 733e c86a 043d 579c c13e 1003 c9be
00000250: c142 c63e 2570 bebe 4080 d6be b349 acbe
00000260: 0134 5abe 8848 61bd ca98 9c3e cb3b f2be
00000270: add9 e9be 9e7c 45be 9ab7 63be 91d8 c13e
00000280: 16d9 b93e dba1 efbe 3036 fd3e 3ffa d03e
00000290: cc7f c8be 1504 b1be 4a45 dfbe 19e3 c33e
000002a0: 76c7 ed3e bd52 f83e 7e6e c9be 127e d13e
000002b0: c446 78be 3426 d7be 66ac 013f f339 c13e
000002c0: 50a0 c5bd 872d e1be 5836 d53e e2d8 c83e
000002d0: 59ea d2be 80cd 663e 98cf 8ebe a0d1 9e3e
000002e0: f49f b8be 1610 a73c f394 db3e 7e02 b43d
000002f0: aede c03e 065c 9cbe dcd5 d5be defb a9be
00000300: 3e43 06be b82c 9d3e d43c e03e 472c e73e
00000310: a37f c4be c660 d8be 6345 e43e 0e5e c73e
00000320: 6fda c23e e0ce ba3d b599 d7be 62ef c4be
00000330: 65bf 4ebe 52cc 903e 6885 9cbe ce9e 363e
00000340: c202 00bf 15eb a0be 78ba ff3c 514e dabe
00000350: 89d1 c0be 7bd0 82be c511 b0be f3d5 d1be
00000360: 8e21 b83e 782d d1be af2a debe fb93 46bd
00000370: c2e9 6f3e 7296 e5be 3cce c03e 1264 7d3e
00000380: 5ef2 c9bd 808e 6ebe 7434 613e d2dd 85be
00000390: 72b9 bdbe 6e80 843e 468b 26be 4864 bfbe
000003a0: 24ad 78be c323 bd3e 0183 ed3e 46cb 8b3e
000003b0: 385a d6be f463 9f3e 644a b33e 1464 f6be
000003c0: e477 d2be c5f4 df3e 107a 4f3e 3835 d43e
000003d0: 6bd2 d3be 9b43 35be 1a07 b53e 4fa0 b6be
000003e0: b4b6 8cbe ec53 cf3e 1900 e93e 3e8c 6abe
000003f0: a0d7 89be 87cc b1be 61ac dd3e b939 c3be

linear1.weight f4 [256, 256]
-0.12965958 -0.13866422 0.15137793 0.13231197 -0.14621833 0.046164982 0.17498444 -0.0036067704
-0.20880711 -0.03578363 0.18838234 -0.15723607 0.0018016746 0.014688617 -0.15781295 0.15476869
0.070625745 0.14580877 0.21022981 0.108531445 -0.07612804 0.09663742 0.035578728 0.12181159
-0.010273886 -0.19354728 -0.1795714 -0.07986904 0.110614695 0.010244243 -0.09801273 -4.4661123e-05
-0.024941595 -0.013010521 0.014889142 0.19060011 0.09923729 -0.12036063 0.2078784 -0.05415133
-0.0031427355 0.018820725 -0.15008815 -0.015212488 -0.13968284 -0.13929386 -0.10894052 0.016716903
-0.17826386 -0.093554616 -0.033608966 -0.17798054 0.053229444 -0.14270566 -0.16526873 0.004084062
0.049897924 0.0026816262 0.13955742 0.083210945 0.17163064 -0.046335865 0.14707316 0.08799708
0.16067056 -0.12147338 -0.1616152 -0.18126175 -0.048412204 -0.05413759 -0.0137099875 -0.08538028
-0.11052559 -0.16943282 0.13553353 0.19558924 -0.1899871 -0.049446516 -0.028359072 0.13337626
-0.118628435 0.14403257 0.17410308 0.1825567 -0.05385428 0.0634022 0.041982077 0.07343795
0.13172917 -0.15594193 -0.16546558 0.17085905 0.05064027 0.106869474 -0.061857425 0.020928724
0.03403685 -0.03783243 -0.0063419333 0.04749837 -0.14931682 0.03924462 0.044440933 -0.15335993
-0.10425164 0.02223717 -0.05025022 -0.031703155 -0.19934152 -0.21610919 0.034287117 0.14471483
-0.21506684 -0.085071266 0.15157409 -0.09331973 0.20613755 0.21304548 -0.022712821 0.038861338
0.09110581 0.12077378 -0.18287136 -0.03989693 -0.13594261 -0.06429351 -0.040602118 -0.12180976
-0.009266173 0.004636827 -0.09465459 -0.16533245 0.17181025 -0.17450714 -0.12940249 -0.015354248
0.09022526 0.14776942 -0.15782803 -0.08005297 -0.21619453 -0.21587634 0.13230443 0.0007162673
-0.21934707 -0.09819675 -0.053204086 0.0907272 -0.1845097 -0.031008344 0.15606046 0.04997058
-0.1790446 0.09178366 -0.018160671 0.11195283 -0.15359637 -0.1829031 -0.018231727 0.21222827
-0.20162807 0.20457739 -0.12343737 -0.007813027 -0.07742421 0.1192684 -0.04631456 0.207352
-0.20597635 -0.10111584 0.07268206 -0.16099837 0.113292925 -0.022346575 -0.16293041 -0.104927264
0.14831327 -0.03332327 -0.1802071 0.12637006 -0.13561234 -0.0955322 0.029076576 -0.035424873
0.121237464 -0.16028409 -0.18839782 -0.09247533 0.0101789795 -0.13384762 0.05185634 0.1765153
0.04501571 0.05141716 -0.09429879 0.012357155 -0.1309835 0.09733195 0.041649476 -0.10634732
-0.13624789 0.14995998 -0.12934266 0.01683856 -0.06310329 -0.19455688 -0.13728103 -0.19932689
0.16488321 -0.032288786 -0.043233503 0.07607432 0.21524096 0.002918436 0.1827605 0.08799306
-0.1304367 -0.040488847 0.058246847 -0.016563667 -0.20149836 -0.023139728 -0.1010688 0.07570082
0.022658376 -0.03747956 0.10041498 -0.101236895 -0.14080288 -0.09382954 -0.0051349686 -0.07801045
-0.03141144 -0.17978387 0.008968454 -0.1307839 0.046787556 0.050094042 -0.16205189 0.034742687
0.0485515 -0.06732234 0.10632256 -0.103030495 0.031830747 -0.0044691423 -0.20499542 0.035122942
-0.043432727 -0.1821174 0.007915774 -0.12936111 0.006625032 -0.16316114 0.022423005 0.090417914
00000000: 7bc5 04be fefd 0dbe d102 1b3e ca7c 073e
00000010: 42ba 15be 7e17 3d3d 1f2f 333e 915f 6cbb
00000020: 88d1 55be db91 12bd 4de7 403e 7e02 21be
00000030: 2b26 ec3a 86a8 703c b899 21be af7b 1e3e
00000040: 3ba4 903d e54e 153e 7c46 573e bc45 de3d
00000050: 05e9 9bbd d7e9 c53d 00bb 113d 5b78 f93d
00000060: cd53 28bc 4231 46be 91e1 37be 6192 a3bd
00000070: f589 e23d 78d7 273c e6ba c8bd 8452 3bb8
00000080: 5152 ccbc 152a 55bc 96f1 733c ad2c 433e
00000090: ec3c cb3d a27f f6bd 13de 543e c9cd 5dbd
000000a0: 5af6 4dbb ec2d 9a3c b5b0 19be cd3d 79bc
000000b0: 0509 0fbe 0da3 0ebe 351c dfbd e3f1 883c
000000c0: cd8a 36be 9099 bfbd 8ea9 09bd 8840 36be
000000d0: 1e07 5a3d 6f21 12be 353c 29be 98d3 853b
000000e0: c461 4c3d 39be 2f3b 24e8 0e3e 806a aa3d
000000f0: f1bf 2f3e adca 3dbd 599a 163e d037 b43d
00000100: d386 243e 09c7 f8bd 747e 25be ae9c 39be
00000110: e04b 46bd 61bf 5dbd db9f 60bc dbdb aebd
00000120: 3e5b e2bd cc7f 2dbe 4dc9 0a3e 8c48 483e
00000130: fa8b 42be 6e88 4abd 4951 e8bc c993 083e
00000140: 77f3 f2bd 467d 133e 1448 323e 25f0 3a3e
00000150: 4e96 5cbd 03d9 813d 66f5 2b3d a366 963d
00000160: 03e4 063e 3eaf 1fbe cf6f 29be adf5 2e3e
00000170: 2c6c 4f3d 62de da3d 365e 7dbd b772 ab3c
00000180: 396a 0b3d 2ef6 1abd fecf cfbb a78d 423d
00000190: 82e6 18be f7be 203d b207 363d 630a 1dbe
000001a0: e281 d5bd ba2a b63c 2dd3 4dbd 2bdb 01bd
000001b0: 2f20 4cbe ba4b 5dbe a670 0c3d 2030 143e
000001c0: 7b3a 5cbe d839 aebd 3d36 1b3e 6a1e bfbd
000001d0: b915 533e 9828 5a3e 3d10 babc 112d 1f3d
000001e0: af95 ba3d 3e58 f73d a142 3bbe f76a 23bd
000001f0: 8a34 0bbe 51ac 83bd 684e 26bd 6577 f9bd
00000200: 25d1 17bc 86f0 973b 44da c1bd e94c 29be
00000210: 07ef 2f3e 00b2 32be 1682 04be 6290 7bbc
00000220: 05c8 b83d de50 173e ac9d 21be d0f2 a3bd
00000230: 1962 5dbe b00e 5dbe d07a 073e e3c3 3b3a
00000240: 859c 60be 611b c9bd 87ec 59bd 2fcf b93d
00000250: 1cf0 3cbe 3605 febc 50ce 1f3e f3ad 4c3d
00000260: 7857 37be 12f9 bb3d b0c5 94bc 8647 e53d
00000270: 5e48 1dbe f34a 3bbe b45a 95bc 5e52 593e
00000280: 9777 4ebe bc7c 513e bbcc fcbd 3602 00bc
00000290: 9690 9ebd fe42 f43d 56b4 3dbd 1554 543e
000002a0: 77eb 52be d215 cfbd 55da 943d c2dc 24be
000002b0: 1f06 e83d 2a10 b7bc 3bd7 26be 1be4 d6bd
000002c0: 6fdf 173e fb7d 08bd 3688 38be 2767 013e
000002d0: f6dd 0abe 63a6 c3bd 0032 ee3c ac19 11bd
000002e0: 594b f83d 8321 24be 5ceb 40be b563 bdbd
000002f0: bcc5 263c 5a0f 09be 5067 543d 6dc0 343e
00000300: 6562 383d cd9a 523d b91f c1bd aa75 4a3c
00000310: 8a20 06be f955 c73d a498 2a3d a0cc d9bd
00000320: 9184 0bbe 1c8f 193e 6772 04be 05f1 893c
00000330: 4c3c 81bd eb39 47be 6693 0cbe 591c 4cbe
00000340: 25d7 283e 3f41 04bd 9d15 31bd dacc 9b3d
00000350: 2068 5c3e 3b43 3f3b 9225 3b3e b535 b43d
00000360: 3391 05be a2d7 25bd 3f94 6e3d 87b0 87bc
00000370: 9655 4ebe 878f bdbc 29fd cebd 0809 9b3d
00000380: 0f9e b93c 2b84 19bd 5ea6 cd3d 4a55 cfbd
00000390: a12e 10be b429 c0bd 3d43 a8bb f1c3 9fbd
000003a0: 48a9 00bd 4319 38be 6cf0 123c 37ec 05be
000003b0: 4fa4 3f3d 692f 4d3d eef0 25be 594e 0e3d
000003c0: f0dd 463d 4ce0 89bd a4bf d93d a701 d3bd
000003d0: f560 023d e271 92bb 52ea 51be 13dd 0f3d
000003e0: 84e6 31bd fc7c 3abe 2ab1 013c 3d77 04be
000003f0: cc16 d93b b713 27be 73b0 b73c 072d b93d

linear1.bias f4 [256]
0.017188733 0.023136852 0.00052678195 0.008995839 0.009226288 0.00019220027 0.0087267235 -0.0023667996
0.011705637 0.003978383 0.016806193 0.013054749 0.017059479 0.009192235 0.0215981 0.024387656
0.007536708 0.0011737141 0.0025887038 0.0016037058 0.0015194139 -0.0064555095 0.0008469444 0.020341381
0.027776478 0.038733013 0.022916043 0.040181562 0.0017963413 0.031303793 0.060916472 0.007633111
0.01160856 0.001707689 0.004491845 0.0048779747 0.007095724 0.021954287 -0.0025876581 0.01330162
0.0027914015 0.0070744553 0.015239083 0.022200247 -0.016781686 0.006068762 1.5620026e-13 0.010661146
0.028442843 0.019626284 0.010229305 0.001547618 -0.014038189 0.023508392 0.0026799527 0.019020682
0.006252507 0.009899816 0.0009598168 0.0018823864 0.0007795721 0.015592212 0.019254763 0.02847758
0.006099658 0.007044925 0.0021434464 0.047415175 0.0052515827 0.009198822 0.0009120761 0.013193415
0.009284196 0.012745285 0.012126934 0.008944253 0.00439077 6.186923e-15 0.012484054 0.009615927
0.0156911 0.015703091 0.013762731 0.01289161 0.016082145 0.022591049 0.013630915 0.0036598705
0.022373147 0.012893633 -0.0008128449 0.006698988 0.01239695 0.026168922 0.022157757 0.017158877
0.022388453 0.01034139 0.024099723 0.0034638678 0.007008271 -0.0017127387 0.008151342 0.013877955
0.0033065022 0.009219473 0.039763216 0.01102862 0.0018897747 0.0017445466 0.026720453 0.02259021
0.031449202 0.0043324516 0.027820405 0.015693171 0.029592164 0.018541595 0.03829131 0.045585595
0.025552098 0.015746351 0.00047933945 0.001744822 0.01339732 0.025183257 0.0054447786 2.1829825e-13
0.024803873 0.024144886 0.018780608 0.0054853763 -0.0002790812 0.017502747 -0.00011558304 0.019659622
0.013116578 0.0048780963 0.025692197 0.021735214 2.2966243e-13 0.024957191 0.011577669 0.016661266
0.020063503 0.0065343305 0.0006224788 0.008443593 0.020973973 0.015795957 0.0060983836 0.02268271
0.0029014854 -0.0016736803 0.00404274 0.013649771 0.002494092 0.027242014 0.045416534 0.008438138
0.005042701 0.0045612063 -0.0022360971 0.014277689 0.007506361 0.023050072 0.019787809 0.021064686
-0.0040425095 0.013744495 0.02874242 0.015305403 0.027398868 0.005769534 0.018139595 0.00325632
0.009231428 -0.00026176803 0.0067927674 0.014972878 0.006964287 -0.0019289905 0.0060787722 0.010750968
0.0071774763 0.017870374 0.0094867805 0.06097487 0.052663263 0.04153981 0.016292525 -0.0027470032
-0.019419255 0.010121153 0.013514335 0.040202405 0.008138465 0.006653473 0.0057564075 0.018344842
-0.0039954553 0.020405084 -0.0047097993 0.045551963 0.026019989 0.02181678 -0.0047251894 0.023727458
0.017125597 0.008042341 0.01441614 -0.0063889124 0.045812357 0.008110156 -0.0074836332 0.0077395574
0.00914798 0.004138918 0.017991016 0.006718899 0.024533048 0.0017244422 0.045622252 0.0047994545
0.009166335 0.0037567047 0.034016337 0.014889902 0.008685274 0.011797893 -0.00044482993 0.00243402
0.007863082 0.013198242 0.015143425 0.01782453 0.020821393 0.013179275 0.00891681 0.0049818964
0.015942411 0.021081166 0.007241528 0.003547278 0.014494732 0.018762374 0.026425513 0.020361839
0.05007899 -0.0011930594 0.004601213 0.004609047 0.0095155295 0.0172369 0.0013698728 0.06425479
00000000: 63cf 8c3c 7f89 bd3c bd17 0a3a 4963 133c
00000010: db29 173c 5e89 4939 88fa 0e3c 4f1c 1bbb
00000020: 00c9 3f3c 185d 823b 24ad 893c 96e3 553c
00000030: 52c0 8b3c 079b 163c 80ee b03c 9fc8 c73c
00000040: 7df6 f63b 4fd7 993a 3ea7 293b 7033 d23a
00000050: 1227 c73a bd88 d3bb 7a05 5e3a f8a2 a63c
00000060: 7f8b e33c 82a6 1e3d 6dba bb3c 6c95 243d
00000070: 3673 eb3a 6838 003d 8d83 793d 2d1f fa3b
00000080: d431 3e3c 89d4 df3a 5430 933b 6bd7 9f3b
00000090: 3f83 e83b 7ad9 b33c b395 29bb 0aef 593c
000000a0: f2ef 363b d5d0 e73b 59ad 793c 4bdd b53c
000000b0: bf79 89bc 77dc c63b a9dd 2f2a 16ac 2e3c
000000c0: f700 e93c 4dc7 a03c d198 273c 71d9 ca3a
000000d0: 6f00 66bc ac94 c03c 25a2 2f3b 43d1 9b3c
000000e0: d5e1 cc3b d632 223c 379c 7b3a 68ba f63a
000000f0: 335c 4c3a 7a76 7f3c 2abc 9d3c d049 e93c
00000100: a4df c73b 1dd9 e63b 1079 0c3b 6a36 423d
00000110: 7815 ac3b a8b6 163c 6418 6f3a 3129 583c
00000120: be1c 183c 9ad1 503c 0cb0 463c eb8a 123c
00000130: 73e0 8f3b 4be8 de27 eb89 4c3c 1f8c 1d3c
00000140: 9f8a 803c c5a3 803c 147d 613c 5537 533c
00000150: b4be 833c dd10 b93c 3454 5f3c 70da 6f3b
00000160: e447 b73c d13f 533c 1915 55ba 2f83 db3b
00000170: 941c 4b3c 3560 d63c 2f84 b53c c690 8c3c
00000180: fd67 b73c ef6e 293c c86c c53c 0f02 633b
00000190: a3a5 e53b f97d e0ba 358d 053c 5d60 633c
000001a0: e7b1 583b 460d 173c c1de 223d 63b1 343c
000001b0: 51b2 f73a 45a9 e43a dae4 da3c 1b0f b93c
000001c0: e1d0 003d 3df7 8d3b 9ee7 e33c f78e 803c
000001d0: 446b f23c 8be4 973c 59d7 1c3d f6b7 3a3d
000001e0: a252 d13c 7efe 803c da4f fb39 83b2 e43a
000001f0: 6f80 5b3c 1e4d ce3c 1d6a b23b 30c8 752a
00000200: 7e31 cb3c 7fcb c53c cad9 993c acbe b33b
00000210: a551 92b9 ec61 8f3c 2c65 f2b8 370d a13c
00000220: eae6 563c 70d8 9f3b 7178 d23c 0c0e b23c
00000230: d849 812a 0673 cc3c 43b0 3d3c 357d 883c
00000240: 375c a43c f01d d63b d82d 233a ff56 0a3c
00000250: 9cd1 ab3c 8666 813c f3d4 c73b 17d1 b93c
00000260: d926 3e3b 645f dbba f678 843b 4aa3 5f3c
00000270: ec73 233b a52a df3c b006 3a3d 1e40 0a3c
00000280: 3e3d a53b 2c76 953b 7c8b 12bb f8ec 693c
00000290: ecf7 f53b 81d3 bc3c 0b1a a23c d98f ac3c
000002a0: 0777 84bb 9730 613c 3975 eb3c 83c3 7a3c
000002b0: 9773 e03c 5c0e bd3b 7d99 943c fc67 553b
000002c0: 6a3f 173c e93d 89b9 dd95 de3b cd50 753c
000002d0: ac34 e43b 2ed6 fcba 7030 c73b d424 303c
000002e0: 0931 eb3b e464 923c 716e 1b3c c9c0 793d
000002f0: 6fb5 573d a625 2a3d e777 853c 1107 34bb
00000300: 2115 9fbc 31d3 253c 3b6b 5d3c 47ab 243d
00000310: 3257 053c 6005 da3b 3fa0 bc3b ec47 963c
00000320: 4fec 82bb 9028 a73c a954 9abb b294 3a3d
00000330: df27 d53c 1bb9 b23c c3d5 9abb 1660 c23c
00000340: fb4a 8c3c 06c4 033c ac31 6c3c 155a d1bb
00000350: bda5 3b3d 76e0 043c 4439 f5bb 1d9c fd3b
00000360: 69e1 153c c39f 873b e561 933c 362a dc3b
00000370: 88f9 c83c ae06 e23a 66de 3a3d be44 9d3b
00000380: 652e 163c 0c33 763b b754 0b3d c7f4 733c
00000390: ae4c 0e3c f34b 413c 1038 e9b9 1484 1f3b
000003a0: 28d4 003c 703d 583c 211c 783c c004 923c
000003b0: a091 aa3c e3ed 573c d017 123c 2d3f a33b
000003c0: a999 823c 69b2 ac3c 574a ed3b 7379 683b
000003d0: 507b 6d3c 8db3 993c 517a d83c dfcd a63c
000003e0: a11f 4d3d 6e60 9cba c6c5 963b 7d07 973b
000003f0: 06e7 1b3c 6634 8d3c 4e8d b33a 0498 833d

linear2.weight f4 [59, 256]
0.05238609 0.051588744 0.081971325 0.13083062 0.041933514 0.06886029 -0.5300739 0.050445944
-0.022479478 0.053014684 0.05711225 0.08630603 -0.49339893 0.03680572 0.051246647 0.06997991
0.051233795 -0.03568263 -0.56490123 0.05858086 0.07862187 -0.31893227 0.04710813 0.052670017
0.057066385 -0.49533987 0.10385305 -0.085043326 -0.45335126 -0.07573745 -0.46655655 -0.23509885
0.0594115 -0.09102845 -0.22735777 0.039922748 0.08620389 0.08478958 0.019231932 -0.3094307
-0.17082417 -0.47629794 -0.29810032 0.059036843 0.05750903 0.07962285 -1.917904e-12 0.059467424
0.13278444 -0.43698755 0.059275076 0.07548147 0.08018341 -0.5794274 -0.17078853 -0.0019380294
-0.15065654 -0.37527013 -0.48230448 -0.45871258 -0.23286411 0.029104544 0.07009222 0.07807768
0.09415722 0.08306921 0.042319518 -0.058425568 0.01060851 0.04223908 -0.035236586 0.07185387
0.06936682 -0.12777896 -0.029088834 0.07133164 0.07347897 -3.6481702e-14 0.11732054 0.076954424
-0.1836917 0.025258228 0.07194403 -0.49728128 0.119798034 0.059482187 0.07647535 -0.42302537
-0.026990855 0.09697801 0.02352962 -0.28116032 -0.011765709 -0.34699085 -0.26157558 -0.069350496
0.04401853 -0.29780176 0.124027304 -0.22943497 -0.25836363 0.045536358 -0.35020393 -0.017907167
0.06413652 -0.4334624 0.05773904 -0.46587643 0.030520318 0.04860818 0.024841163 -0.15662241
-0.068837985 0.09861873 0.039641187 0.013023932 0.07321613 0.040787105 0.09012168 0.09822322
0.07585285 -0.22898227 0.016070846 -0.036880124 0.055499706 0.086532764 -0.36440068 6.852554e-13
0.06227618 0.06862089 -0.26779306 -0.10467459 0.001248342 0.03419024 -0.210011 -0.041400786
0.08233497 -0.19677487 -0.13102613 0.09894285 2.4349652e-12 -0.4123693 -0.007897532 -0.0019720036
0.078165345 0.10663896 0.024689069 -0.4063352 -0.15839094 0.08045309 -0.4978692 -0.2526837
0.046628673 0.09705272 0.085212044 -0.038568363 -0.5298545 -0.26625866 -0.47663596 0.093438186
0.10387179 -0.23015916 0.08010902 -0.012766954 0.055335425 0.12275268 -0.013793019 0.06963889
-0.36914378 0.048535626 -0.4927754 0.092920735 0.013511198 -0.30721545 -0.026486808 -0.21809044
0.056616943 -0.007635366 0.123396896 -0.04609659 0.0636228 0.03675149 0.03550254 -0.34853736
0.04978982 -0.045914084 0.078431964 -0.45554245 -0.11763642 -0.039003167 0.10218696 0.06954437
-0.011426308 -0.10587604 0.06578736 -0.036176145 -0.09042108 -0.28114685 -0.094800524 -0.34710887
0.039227374 -0.14062774 -0.48834154 -0.57763207 -0.054020092 0.052974794 0.01772267 0.07031499
0.047932144 0.0049891663 0.084589854 0.17459139 0.09820705 0.101832025 0.17210619 0.082506984
-0.06393168 0.07070759 0.062101115 -0.2811226 0.03917146 -0.21407615 0.098213665 -0.050693072
0.061191365 -0.20063081 0.08349099 0.09223974 0.099549934 0.025951765 0.049164798 0.05249501
-0.4404638 0.06824223 0.05325683 0.06364236 0.06386605 0.04057587 0.035543665 0.054771412
0.045938417 0.037443474 -0.04773314 0.0035428042 -0.4695432 -0.071508 0.089920685 0.10125189
0.07046101 -0.301094 0.05301112 -0.50737333 -0.12738368 0.053455595 -0.13022713 0.06710092
00000000: cc92 563d b84e 533d 95e0 a73d 76f8 053e
00000010: 7ac2 2b3d a006 8d3d ecb2 07bf 68a0 4e3d
00000020: e226 b8bc ed25 593d 89ee 693d 37c1 b03d
00000030: c99e fcbe 98c1 163d 01e8 513d a151 8f3d
00000040: 87da 513d f327 12bd 5e9d 10bf 7cf2 6f3d
00000050: 8104 a13d 174b a3be 74f4 403d 84bc 573d
00000060: 71be 693d 309d fdbe e8b0 d43d 322b aebd
00000070: a81d e8be 3c1c 9bbd 80e0 eebe c1bd 70be
00000080: 7959 733d 206d babd 7ad0 68be 0986 233d
00000090: aa8b b03d 29a6 ad3d 498c 9d3c b36d 9ebe
000000a0: 88ec 2ebe 53dd f3be 9ba0 98be 9ed0 713d
000000b0: 978e 6b3d 4e11 a33d e3f5 06ac 1d94 733d
000000c0: a5f8 073e d5bc dfbe 6cca 723d 0796 9a3d
000000d0: 3337 a43d 5b55 14bf 30e3 2ebe 7a05 feba
000000e0: b545 1abe 6823 c0be 9df0 f6be 60dc eabe
000000f0: ee73 6ebe a76c ee3c 838c 8f3d 31e7 9f3d
00000100: 80d5 c03d 3120 aa3d 3b57 2d3d a64f 6fbd
00000110: 51cf 2d3c e302 2d3d 3d54 10bd 1f28 933d
00000120: 3110 8e3d 7dd8 02be b54b eebc 5316 923d
00000130: 247c 963d 8a4c 24a9 c045 f03d 489a 9d3d
00000140: ad19 3cbe 58ea ce3c 6457 933d a79b febe
00000150: ac58 f53d 98a3 733d 1c9f 9c3d c896 d8be
00000160: ed1b ddbc 689c c63d 31c1 c03c 3ff4 8fbe
00000170: f6c4 40bc c9a8 b1be 3ced 85be a207 8ebd
00000180: c64c 343d 7979 98be 0702 fe3d 00f1 6abe
00000190: 3d48 84be 5584 3a3d ee4d b3be 0db2 92bc
000001a0: 025a 833d c9ee ddbe c67f 6c3d 5b87 eebe
000001b0: bf05 fa3c 5f19 473d b27f cb3c a061 20be
000001c0: eefa 8cbd 9ef8 c93d cc5e 223d 5562 553c
000001d0: 57f2 953d 6110 273d b791 b83d 4129 c93d
000001e0: bd58 9b3d 547a 6abe 02a7 833c 9d0f 17bd
000001f0: a953 633d 1738 b13d ba92 babe dbe1 402b
00000200: 4f15 7f3d 1c89 8c3d 2c1c 89be a25f d6bd
00000210: 689f a33a 110b 0c3d 200d 57be df93 29bd
00000220: 3d9f a83d 5a7f 49be b72b 06be 8da2 ca3d
00000230: 6f58 2b2c 1222 d3be a664 01bc bb3c 01bb
00000240: 2715 a03d 8765 da3d bb40 ca3c 2b0b d0be
00000250: 3c31 22be 97c4 a43d b6e8 febe c25f 81be
00000260: b5fd 3e3d 94c3 c63d a783 ae3d dcf9 1dbd
00000270: 8ba4 07bf 0e53 88be a109 f4be 855c bf3d
00000280: bcba d43d d8ae 6bbe 3310 a43d 7c2c 51bc
00000290: 66a7 623d c265 fb3d 1dfc 61bc d69e 8e3d
000002a0: 6a00 bdbe 4bcd 463d 0f4d fcbe 3a4d be3d
000002b0: 125e 5d3c 584b 9dbe ddfa d8bc 1a53 5fbe
000002c0: 2be7 673d 1832 fabb 83b7 fc3d c7cf 3cbd
000002d0: ac4c 823d bb88 163d 1d6b 113d 7d73 b2be
000002e0: 69f0 4b3d 6810 3cbd f0a0 a03d dc3c e9be
000002f0: 5deb f0bd c9c1 1fbd 6647 d13d 476d 8e3d
00000300: 6935 3bbc 8ad5 d8bd 86bb 863d 702d 14bd
00000310: b02e b9bd 7bf2 8fbe c726 c2bd 41b8 b1be
00000320: e2ac 203d b800 10be e707 fabe b2df 13bf
00000330: 2c44 5dbd 19fc 583d 222f 913c 4e01 903d
00000340: 7f54 443d 297c a33b 723d ad3d 16c8 323e
00000350: c720 c93d 4f8d d03d 9b3c 303e 6cf9 a83d
00000360: 9dee 82bd 24cf 903d bd5d 7e3d 4def 8fbe
00000370: 4172 203d c736 5bbe 3f24 c93d 8aa3 4fbd
00000380: cca3 7a3d 2a72 4dbe 53fd aa3d 30e8 bc3d
00000390: d6e0 cb3d cc98 d43c 0761 493d 0205 573d
000003a0: 7984 e1be 95c2 8b3d d523 5a3d ed56 823d
000003b0: 34cc 823d e232 263d 3c96 113d fd57 603d
000003c0: ec29 3c3d 545e 193d d383 43bd 642e 683b
000003d0: f767 f0be c972 92bd 5628 b83d 275d cf3d
000003e0: dd4d 903d fe28 9abe 3022 593d 38e3 01bf
000003f0: de70 02be 41f4 5a3d 435a 05be 356c 893d

linear2.bias f4 [59]
-0.016421817 -0.01862913 -0.014330653 -0.012905485 -0.011884402 -0.01953125 -0.019673638 -0.018897312
-0.014065457 -0.012137157 -0.017144648 -0.01768102 -0.017451959 -0.016763443 -0.0134648625 -0.009596293
-0.020655774 -0.011834131 -0.020010676 -0.015929714 -0.012170273 -0.008108946 -0.02275842 -0.017361673
-0.013947117 -0.018938387 -0.017698966 -0.010620295 -0.017555276 -0.015006082 -0.01767931 -0.01584529
-0.01047999 -0.018943993 -0.017979387 -0.018936802 -0.013166383 -0.016360657 -0.015607066 -0.010403237
-0.01606089 -0.018628355 -0.017335596 -0.018880615 -0.01335578 -0.017196665 -0.018139388 -0.01694941
-0.023161842 -0.01446102 -0.009451469 -0.020637635 -0.012180513 -0.018439714 -0.017506314 -0.01258342
-0.012196406 -0.017225957 -0.01834801
00000000: 0c87 86bc 1e9c 98bc 1dcb 6abc 8771 53bc
00000010: cbb6 42bc 0000 a0bc 9c2a a1bc 89ce 9abc
00000020: cd72 66bc edda 46bc ef72 8cbc c9d7 90bc
00000030: 69f7 8ebc 7d53 89bc ba9b 5cbc c539 1dbc
00000040: 4c36 a9bc f1e3 41bc 6eed a3bc 087f 82bc
00000050: d365 47bc 62db 04bc de6f babc 113a 8ebc
00000060: 7382 64bc ad24 9bbc 6cfd 90bc bf00 2ebc
00000070: 15d0 8fbc 12dc 75bc 33d4 90bc fbcd 81bc
00000080: 44b4 2bbc 6f30 9bbc 8249 93bc 5a21 9bbc
00000090: d0b7 57bc c906 86bc c8b4 7fbc 5772 2abc
000000a0: 2192 83bc 7e9a 98bc 6103 8ebc 85ab 9abc
000000b0: 34d2 5abc 05e0 8cbc 0e99 94bc 7dd9 8abc
000000c0: e7bd bdbc eaed 6cbc 56da 1abc 4210 a9bc
000000d0: c690 47bc e20e 97bc 6769 8fbc b02a 4ebc
000000e0: 6fd3 47bc 731d 8dbc 914e 96bc
